simple_tag_maddpg/MADDPG/model/simple_speaker_listener/agent_0/24_critic_params.pkl (torch, 37583 bytes, 7 tensors)

fc1.weight f4 [64, 6]
0	0xbd9f5b29	-0.07781059
1	0x3e3556ae	0.17708847
2	0xbdcc22dd	-0.09967587
3	0x3d53d087	0.05171254
4	0xbeed1c5c	-0.463107
5	0x3da52703	0.080640815
6	0xbec54613	-0.38530025
7	0xbd6c971e	-0.057761304
8	0x3ede9c89	0.43478802
9	0x3e9531d3	0.29139575
10	0xbf41c728	-0.75694513
11	0x3f182f99	0.5944763
12	0x3edad29c	0.42738807
13	0x3dea3b91	0.11437143
14	0x3e664539	0.22487344
15	0x3d1f4d0c	0.038891837
16	0xbcb62ea2	-0.022239033
17	0xbeaf84ad	-0.3428091
18	0xbe38ee2c	-0.18059605
19	0xbe8c32b9	-0.27382448
20	0xbe4a0db0	-0.19731784
21	0xbd0d396b	-0.034478586
22	0xbe4e171e	-0.20126006
23	0x3e341c24	0.1758886
24	0xbeb0ac3e	-0.3450641
25	0x3e12d987	0.14340793
26	0x3ea4d2e2	0.3219214
27	0xbce683b1	-0.028138967
28	0x3f3b6404	0.73199487
29	0x3d2e1c18	0.04250726
30	0xbf0a972b	-0.54136914
31	0xbf1d5c4d	-0.61468965
32	0x3e05fec9	0.13085474
33	0x3f24d281	0.64383703
34	0x3e0c0484	0.13673598
35	0xbedf9c8a	-0.43674117
36	0x3edcb481	0.43106464
37	0x3e213c68	0.157457
38	0x3da5c297	0.08093756
39	0x3e077b32	0.13230589
40	0x3e7c3a8f	0.24631713
41	0x3dcfed5f	0.10152697
42	0x3eccca03	0.39997873
43	0xbaa5464e	-0.0012609453
44	0xbeb8b505	-0.36075607
45	0x3e5be250	0.2147305
46	0xbd049cb6	-0.032376014
47	0x3e967aac	0.29390466
48	0x3f0b08fe	0.54310596
49	0xbf399f69	-0.72508866
50	0xbefe8288	-0.49708962
51	0xbddbd684	-0.10734275
52	0x3ead6d61	0.33872512
53	0xbe2c6833	-0.16836624
54	0x3eabec7f	0.3357887
55	0x3f127d03	0.57222
56	0x3e3a15f1	0.18172432
57	0xbe71d547	-0.23616515
58	0x3d0995b5	0.033590037
59	0x3f5f18c9	0.87147194
60	0x3eb31153	0.34974155
61	0xbd9b11e5	-0.075717725
62	0x3e417e3d	0.18895812
63	0x3d8b39b6	0.06798117
64	0xbe161ccd	-0.14659424
65	0xbe17fb4f	-0.1484196
66	0x3e820a03	0.25398263
67	0x3c481338	0.012211613
68	0xbe0418f6	-0.12900147
69	0xbe5da5f2	-0.21645334
70	0xbeada9b9	-0.3391855
71	0x3e9a646f	0.3015475
72	0x3df819ce	0.12114297
73	0x3da2d9c9	0.079516955
74	0x3ec08000	0.37597656
75	0xbd57d987	-0.052697685
76	0xbebe84f2	-0.37210804
77	0x3f94ea47	1.1633996
78	0xbece7e42	-0.40330702
79	0xbf0a469f	-0.5401401
80	0x3e9906e6	0.29888076
81	0x3f1d6280	0.61478424
82	0x3e16502c	0.1467902
83	0xbef51c16	-0.4787299
84	0x3f1fb31b	0.6238267
85	0x3f08f5cc	0.53500056
86	0xbe725897	-0.23666607
87	0x3ec458ce	0.38349003
88	0xbc098af3	-0.0083949445
89	0xbebb0464	-0.36526787
90	0x3e30cd36	0.17265782
91	0xbd2363c8	-0.03989008
92	0x3d1451c7	0.0362108
93	0x3eb38699	0.35063627
94	0xbd181b3c	-0.037135348
95	0xbda441a2	-0.08020331
96	0x3d137ae4	0.03600587
97	0xbe1016ec	-0.14071244
98	0x3f09fcf3	0.53901595
99	0xbea7c8c0	-0.32770348
100	0x3f041600	0.5159607
101	0x3f0d2560	0.55135155
102	0x3e4b3430	0.19844127
103	0xbdec19bf	-0.11528348
104	0xbe6385b6	-0.22218975
105	0xbded9081	-0.115998276
106	0x3f138a38	0.5763278
107	0xbf43f445	-0.765446
108	0x3ea39f41	0.3195744
109	0x3e7f8bc7	0.24955665
110	0xbdb60a5c	-0.08888695
111	0xbe1f5448	-0.15559494
112	0x3e880816	0.2656867
113	0x3d05137f	0.032489296
114	0xbf045e46	-0.5170635
115	0xbd9f8964	-0.07789877
116	0x3e4c34a7	0.1994196
117	0x3e5555c4	0.20833498
118	0xbed3b9c9	-0.4135268
119	0x3de80ac1	0.11330176
120	0xbcfbd2c4	-0.03074015
121	0xbec2cf30	-0.38048697
122	0x3e875765	0.26433864
123	0xbef31438	-0.47476363
124	0x3e825cca	0.25461417
125	0xbe621876	-0.22079644
126	0xbd4b442b	-0.049625557
127	0xbe77caf8	-0.2419852
128	0x3f05faf2	0.5233604
129	0xbeb1592c	-0.34638345
130	0x3ef068ae	0.46954864
131	0xbe8eaa91	-0.27864507
132	0x3edf297d	0.4358634
133	0xbd4bbf11	-0.049742762
134	0x3ec58517	0.38578102
135	0x3e342b80	0.17594719
136	0x3dd6d199	0.10489196
137	0xbdfeaa31	-0.12434805
138	0x3ea05c35	0.31320348
139	0xbe4717d3	-0.19442682
140	0xbe45adae	-0.19304535
141	0x3e0acb0c	0.13554019
142	0xbe721456	-0.2364057
143	0xbead980c	-0.33905065
144	0x3e3e43d9	0.1858057
145	0xbf2b7c2a	-0.66986334
146	0xbee11164	-0.4395858
147	0xbf024351	-0.50883967
148	0x3f762cb3	0.96161956
149	0x3ebac454	0.3647791
150	0xbf06f236	-0.52713335
151	0x3ebfc1c9	0.37452534
152	0xbe9c96a5	-0.30583683
153	0x3ebd4b9d	0.3697175
154	0x3f4b323e	0.7937354
155	0xbf0f08ba	-0.5587269
156	0x3f048c73	0.5177681
157	0x3d5bed4d	0.053693105
158	0x3e9edfc2	0.3103009
159	0xbb1aab07	-0.0023600475
160	0x3e0e464f	0.13894008
161	0xbd9c330a	-0.076269224
162	0x3e2ad986	0.16684541
163	0x3ec4985f	0.383975
164	0xbd8829ac	-0.06648573
165	0xbdd09a38	-0.10185665
166	0x3e7bed05	0.24602135
167	0x3e3fd81b	0.18734781
168	0xbefff405	-0.4999086
169	0xbde23bc7	-0.11046558
170	0xbe8a031d	-0.269555
171	0xbe34133c	-0.17585462
172	0xbe8498aa	-0.25897723
173	0xbeef9ecc	-0.4680084
174	0x3e33b2e7	0.17548715
175	0x3e1bd2ed	0.1521718
176	0xbf242382	-0.6411668
177	0x3e13eced	0.14445849
178	0x3f065b8d	0.52483445
179	0xbdb4ea15	-0.0883371
180	0xbe1e9cdf	-0.15489529
181	0x3eb7990d	0.35858956
182	0x3dae0b5b	0.0849826
183	0xbb085140	-0.0020800382
184	0xbec41ab1	-0.38301614
185	0x3eb2b42c	0.34903085
186	0xbd8faf38	-0.07015842
187	0x3d1756f8	0.036948174
188	0xbdac832b	-0.08423456
189	0x3e8caa9a	0.2747391
190	0xbf4987bd	-0.78722745
191	0xbeae7ca4	-0.34079468
192	0x3e3ef662	0.18648675
193	0xbe856eaa	-0.26060992
194	0x3eb9329a	0.36171418
195	0x3ed78ecc	0.42101133
196	0x3eb102d4	0.3457247
197	0xbc99bc4d	-0.018766547
198	0x3ef4e7d9	0.47833136
199	0xbebbb602	-0.36662298
200	0x3db41b06	0.08794217
201	0xbee719df	-0.45136926
202	0x3ecca8f3	0.39972648
203	0xbf307ad7	-0.6893744
204	0xbe4be476	-0.1991137
205	0xbf453b96	-0.77044046
206	0x3f2d875a	0.67784655
207	0xbe4905a8	-0.19631064
208	0x3ed11234	0.408342
209	0x3f285fe0	0.65771294
210	0x3f1253db	0.57159203
211	0xbe01c439	-0.12672509
212	0xbd871d44	-0.06597379
213	0xbd6c7cb8	-0.05773613
214	0xbeff49fb	-0.4986113
215	0xbe84b3c6	-0.25918406
216	0x3eb6a84a	0.3567527
217	0x3db861c7	0.090030245
218	0x3ea3a47b	0.31961426
219	0x3ea5c579	0.32377222
220	0xbd6e79cc	-0.058221623
221	0xbdb0f489	-0.086403914
222	0xbec10cdd	-0.37705126
223	0x3d95cc9a	0.07314415
224	0x3ee9f5a5	0.45695224
225	0x3ecb6945	0.39728752
226	0xbd91023e	-0.07080506
227	0x3f4133c4	0.75469613
228	0x3e9eeaa2	0.31038386
229	0xbe9e0606	-0.3086397
230	0xbe64321f	-0.22284745
231	0xbeed5008	-0.46350121
232	0x3f86b941	1.0525285
233	0x3f09285a	0.53577197
234	0x3f2c7861	0.67371184
235	0xbf049b9f	-0.5179996
236	0x3ea51e3a	0.32249624
237	0x3ecc1508	0.39859796
238	0xbe84a6e5	-0.2590858
239	0xbdecc9f3	-0.11561956
240	0x3e5a0921	0.21292545
241	0x3e91af28	0.28453946
242	0x3d8c2552	0.06843056
243	0xbe8a9f63	-0.27074727
244	0x3bebdc95	0.0071979263
245	0xbeb23128	-0.34803128
246	0xbddccd58	-0.10781354
247	0x3e397ccd	0.18114014
248	0x3d8d8f98	0.06912154
249	0xbe01be30	-0.12670207
250	0x3e9a5d99	0.30149534
251	0xbe908650	-0.28227472
252	0xbc5d9087	-0.013523228
253	0x3e9e64fb	0.30936417
254	0xbdacccf3	-0.084375285
255	0xbed93587	-0.4242365

fc1.bias f4 [64]
0	0x3efe098e	0.49616665
1	0xbbe4263b	-0.0069625652
2	0x3e82d209	0.2555087
3	0xbe81a039	-0.25317553
4	0x3eccba45	0.39985862
5	0xbe623da4	-0.22093827
6	0x3ec3d68b	0.3824962
7	0x3ec96c42	0.39340407
8	0xbb7a127e	-0.0038157995
9	0x3e9710df	0.2950506
10	0x3e875c68	0.26437688
11	0x3ea228d1	0.31671765
12	0x3dfd731d	0.12375472
13	0xbe1d0ce2	-0.15336946
14	0xbe5778c2	-0.21042159
15	0x3ef16d26	0.47153586
16	0x3e72707d	0.23675723
17	0xbe46e185	-0.19421966
18	0x3ede41a5	0.43409458
19	0xbe9a346e	-0.30118126
20	0xbe8f11c6	-0.27943248
21	0xbccaa249	-0.024735587
22	0x3ecbd3da	0.39810067
23	0x3eb82328	0.35964322
24	0x3d431527	0.047627594
25	0xbe9aed6f	-0.30259272
26	0x3eeb7fdd	0.4599599
27	0x3e766dd9	0.24065341
28	0xbef936d5	-0.48674646
29	0x3e716890	0.23575044
30	0x3e1e0633	0.15432052
31	0xbeb4e841	-0.35333446
32	0x3e5293dd	0.20564218
33	0xbf013c60	-0.5048275
34	0xbec3b0f9	-0.38220957
35	0x3f0121e6	0.5044235
36	0x3ea13ebe	0.3149318
37	0xbe10f0f6	-0.1415442
38	0xbe7a03d0	-0.24415517
39	0x3ea91b5a	0.3302868
40	0x3eb7b90d	0.3588337
41	0x3e9ff38a	0.31240493
42	0x3ea7e4bf	0.32791707
43	0x3e02f38a	0.12788215
44	0xbe71c5a1	-0.23610546
45	0x3db84917	0.08998316
46	0xbed051df	-0.40687463
47	0x3eb37ed1	0.3505769
48	0x3ef5013f	0.47852513
49	0x3f1281c4	0.57229257
50	0x3e6fd4e0	0.23421049
51	0x3d05c312	0.032656737
52	0x3e1593f2	0.14607218
53	0x3eea7881	0.45795062
54	0x3e5aa071	0.21350266
55	0x3df4cf1f	0.11953568
56	0xbd45b830	-0.048271358
57	0xbedaa908	-0.42707086
58	0xbeb01335	-0.34389654
59	0x3da76859	0.081741996
60	0x3c415a20	0.011801273
61	0xbf0bd91d	-0.54628164
62	0xbe8b4ae2	-0.2720557
63	0xbe83c4ac	-0.25735986

fc2.weight f4 [64, 64]
0	0x3e459cf9	0.19298162
1	0xbe7924c1	-0.24330427
2	0x3e390b34	0.1807068
3	0xbdd0dee3	-0.10198762
4	0x3e671d20	0.22569704
5	0xbf0b8cf6	-0.54511964
6	0x3e009728	0.12557662
7	0x3dee07f9	0.116226144
8	0x3ea93d54	0.33054602
9	0x3ec09f38	0.37621474
10	0x3dbd3fcd	0.09240685
11	0x3e619563	0.22029643
12	0xbd860043	-0.06543019
13	0x3eb3abd7	0.3509204
14	0x3e82e339	0.25563982
15	0x3e3b5690	0.1829474
16	0x3e432d1c	0.19060177
17	0x3eef6268	0.46754766
18	0x3e178ae0	0.1479907
19	0x3ddd2a1f	0.107990496
20	0x3db6bca1	0.08922697
21	0x3dd16fe1	0.10226417
22	0x3dd6d48c	0.10489759
23	0x3dfd3c1a	0.12364979
24	0x3ed396ee	0.41326088
25	0xbd75b1e7	-0.059984114
26	0x3e2a984d	0.1665966
27	0x3c83de8a	0.016097326
28	0x3f084334	0.53227544
29	0x3dcc6fad	0.09982238
30	0x3e0ac19b	0.13550417
31	0xbe851736	-0.2599427
32	0x3c217e8a	0.009856829
33	0xbe720007	-0.23632823
34	0xbd6e0e67	-0.058119204
35	0x3e805333	0.25063476
36	0x3e17ed9e	0.14836738
37	0xbe704da5	-0.23467119
38	0xbf60fa99	-0.8788238
39	0x3e7400df	0.23828457
40	0x3e57e71f	0.2108426
41	0x3e1de1b8	0.15418136
42	0x3e4bd048	0.19903672
43	0x3e69300b	0.22772233
44	0x3e8d25bc	0.27567852
45	0x3e65e995	0.22452386
46	0x3dcaee12	0.099086896
47	0x3e6bc61d	0.23024793
48	0x3e1bb17c	0.15204424
49	0x3e5f3517	0.21797596
50	0x3e98b9ce	0.29829258
51	0x3d5152c8	0.051104337
52	0x3e8f35a9	0.27970627
53	0x3e103f6e	0.14086697
54	0xbc2b2832	-0.010446595
55	0x3deacaef	0.11464488
56	0xbe0efe39	-0.13964166
57	0x3e49cde6	0.1970745
58	0xbef246bc	-0.4731959
59	0x3e93d60d	0.28874245
60	0xbe1fdd62	-0.15611795
61	0x3fca9676	1.5827167
62	0x3db9f612	0.09080137
63	0x3f1e0cd0	0.617383
64	0x3e1b9bbf	0.15196131
65	0xbe8bc35e	-0.2729749
66	0x3de49a7e	0.111622795
67	0x3bcabdd5	0.0061871805
68	0x3e284297	0.16431652
69	0xbf079f04	-0.52977014
70	0x3e14f396	0.14546046
71	0x3e867b68	0.26266026
72	0x3ee4d66d	0.44694844
73	0x3edabb6f	0.42721125
74	0x3e2b438d	0.16724987
75	0x3e18f544	0.14937311
76	0xbe30fa27	-0.17282926
77	0x3de8c4f8	0.11365694
78	0x3e43eb70	0.19132781
79	0x3e1bcc69	0.15214695
80	0x3e9dd944	0.30829823
81	0x3ea0d63d	0.3141345
82	0x3e1c92b2	0.15290335
83	0x3e89556b	0.2682298
84	0xbd16c274	-0.03680654
85	0x3c613847	0.013746328
86	0x3cf1a77e	0.029498812
87	0x3d2db3da	0.042407848
88	0x3ef114f6	0.47086304
89	0xbe4ff1fc	-0.20307153
90	0x3e736b4e	0.23771402
91	0x3d82b173	0.06381502
92	0x3f0e2135	0.5551942
93	0x3e8da8ce	0.2766785
94	0xbd0949f2	-0.033517785
95	0xbe2e95a7	-0.17049275
96	0x3cc57b98	0.024106786
97	0xbe737e43	-0.23778634
98	0x3bd9e6e4	0.0066498388
99	0x3e0401c8	0.12891304
100	0x3ddde96e	0.10835539
101	0xbe8cf6b0	-0.27531958
102	0xbf75c6e1	-0.9600659
103	0x3e1d7f11	0.15380503
104	0x3dddc9f0	0.10829532
105	0x3ce20c71	0.027593823
106	0x3e8e3c7b	0.27780518
107	0x3dc85082	0.09780981
108	0x3e924592	0.28568703
109	0x3e649c56	0.22325262
110	0x3df29be6	0.118461415
111	0x3e8857e7	0.26629564
112	0x3dfb11ee	0.12259279
113	0x3e262e6f	0.1622865
114	0x3e324b1f	0.17411469
115	0x3d918068	0.0710457
116	0x3df488e6	0.11940174
117	0x3e1cbf56	0.15307364
118	0x3e11980e	0.1421816
119	0x3e3c622a	0.18396822
120	0xbd0dd3e3	-0.0346259
121	0x3e62e2fd	0.22156902
122	0xbece52b3	-0.4029747
123	0x3d4a6866	0.04941597
124	0xbbf43508	-0.007452611
125	0x3fd371fb	1.6519159
126	0x3e77f2a3	0.24213652
127	0x3f0626e4	0.5240309
128	0x3db97ead	0.090573646
129	0xbc8ccd4a	-0.017187733
130	0xbe21878e	-0.15774366
131	0xbd97212e	-0.073793754
132	0xbe212d58	-0.15739954
133	0x3d3d8727	0.04627147
134	0x3d790286	0.060793422
135	0xbd762e4f	-0.060102757
136	0x3cc8c2af	0.024506895
137	0x3de1f8ae	0.1103376
138	0xbde45a16	-0.11149995
139	0x3cc9b731	0.024623485
140	0xbc3c3597	-0.011487386
141	0xbe15d3dc	-0.14631599
142	0x3c514caa	0.012774626
143	0xbdb262c6	-0.08710246
144	0x3c118f4e	0.008884264
145	0xbd207cb9	-0.039181445
146	0x3d2a39be	0.041558973
147	0x3dcb4c03	0.099266075
148	0xbdbf7997	-0.09349363
149	0xbe44b4f8	-0.19209659
150	0x3d3b629c	0.045748338
151	0x3d115c66	0.03548851
152	0x3bec746d	0.0072160275
153	0x3d8e0221	0.06934
154	0x3c902386	0.017595064
155	0xbbbe9c4e	-0.005816973
156	0xba5a7a00	-0.00083342195
157	0x3d60a676	0.05484625
158	0x3da4d4a3	0.0804837
159	0xbe0853ca	-0.13313213
160	0xbdc768a8	-0.097367585
161	0x3d938367	0.072027974
162	0x3e26f759	0.16305293
163	0xbdb1ae3a	-0.08675809
164	0x3d1ae216	0.03781327
165	0xbd01ea7d	-0.031717766
166	0x3bda8388	0.006668512
167	0x3da41242	0.08011295
168	0xbe17a07a	-0.1480731
169	0xbe27b17e	-0.16376302
170	0xbddb3b06	-0.10704617
171	0x3d94c108	0.0726338
172	0x3be98d86	0.0071274666
173	0xbdff9c05	-0.1248093
174	0xbd45f974	-0.0483336
175	0xbd5dc319	-0.054141138
176	0xbcc7cd43	-0.024389869
177	0xbdfeee8e	-0.124478444
178	0x3dd4e58b	0.10395344
179	0xbda462eb	-0.080266796
180	0xbd97d79f	-0.07414173
181	0x3dbe51b3	0.09292927
182	0xbdcd89a0	-0.100360155
183	0xbdb589a7	-0.08864146
184	0x3d8e5f20	0.069517374
185	0xbda894df	-0.0823152
186	0xbd44acc5	-0.04801633
187	0xbe19a525	-0.15004404
188	0xbe115535	-0.1419266
189	0xbdeaffee	-0.11474596
190	0xbc159bfa	-0.009131426
191	0xbc912abd	-0.017720575
192	0x3e07dc1b	0.13267557
193	0xbeb39128	-0.35071683
194	0x3c905a05	0.01762105
195	0xbcba0325	-0.022706578
196	0x3e0c3f34	0.13695985
197	0xbf128063	-0.5722715
198	0x3e2b5ad0	0.16733861
199	0x3e98f2d1	0.29872754
200	0x3e819a10	0.25312853
201	0x3ede1f3c	0.43383205
202	0x3e1e3fc6	0.15454015
203	0x3e1cb86f	0.15304731
204	0xbdd6c24b	-0.10486277
205	0x3ea56d24	0.3230983
206	0x3e1932df	0.14960812
207	0x3e0ee298	0.13953626
208	0x3e812816	0.25225896
209	0x3eadd336	0.33950204
210	0x3d7c70a6	0.061630867
211	0x3e9a427c	0.3012885
212	0x3d481288	0.048845798
213	0x3d100a72	0.03516621
214	0x3d581735	0.052756507
215	0x3d9b5e87	0.07586389
216	0x3f0cd45a	0.5501152
217	0xbdbe590c	-0.09294328
218	0x3d171240	0.03688264
219	0x3db79f5d	0.08965943
220	0x3f03632d	0.51323205
221	0x3e6ea34b	0.23304479
222	0x3dfc725c	0.123265
223	0xbdf37223	-0.11887004
224	0x3c5dab80	0.013529658
225	0xbeec9281	-0.46205524
226	0xbc938c30	-0.018011183
227	0x3e399448	0.18122971
228	0x3e0fd9f0	0.1404798
229	0xbe8aef3b	-0.27135643
230	0xbf8696fa	-1.0514824
231	0x3e89ab36	0.26888436
232	0x3dc368a2	0.095414415
233	0x3e8168d5	0.25275293
234	0x3e828826	0.25494498
235	0xbc42b677	-0.011884323
236	0x3e6265d9	0.22109164
237	0x3e5e197c	0.21689409
238	0xbde99adc	-0.1140649
239	0x3e0dfd7f	0.13866232
240	0x3e672920	0.22574282
241	0x3e24f6f7	0.16109835
242	0x3e3c3056	0.18377814
243	0x3dea4117	0.11438196
244	0x3e1265b5	0.1429661
245	0x3d621f6f	0.05520576
246	0x3d3e868d	0.046515036
247	0xbbac4717	-0.005257498
248	0xbdcc39d6	-0.09971969
249	0x3e5ebc28	0.21751463
250	0xbf09e9ce	-0.5387238
251	0x3e673249	0.22577776
252	0xbe31d2d6	-0.17365584
253	0x3fca73c9	1.5816585
254	0x3e5caa1f	0.21549271
255	0x3f13c087	0.5771565

fc2.bias f4 [64]
0	0x3dd99507	0.10624128
1	0x3e60e375	0.21961768
2	0xbd9f14cd	-0.07767639
3	0x3dcd0a1b	0.10011693
4	0xbc605c1c	-0.013693836
5	0x3e11fd89	0.14256872
6	0x3e464cd4	0.19365245
7	0x3db8da0f	0.090259664
8	0x3e4a9169	0.19782032
9	0x3e5a5b4f	0.21323894
10	0x3e56cfb4	0.2097767
11	0x3e2d0365	0.16895826
12	0x3e8daac5	0.2766935
13	0x3e52b6f1	0.20577599
14	0x3e15e858	0.14639413
15	0x3dcc28f0	0.09968746
16	0xbe02dac0	-0.12778759
17	0x3e67ed79	0.22649182
18	0x3e845009	0.25842312
19	0xbd020bb4	-0.031749442
20	0x3e866da4	0.26255524
21	0x3dc0835c	0.09400055
22	0x3dbe3cb2	0.092889205
23	0x3e84fe9a	0.25975496
24	0x3e56201e	0.20910689
25	0xbc4b1c08	-0.01239682
26	0x3e24d3d1	0.16096427
27	0xbdfdeb7c	-0.12398431
28	0x3e223252	0.15839508
29	0x3e40653b	0.18788616
30	0xbcf5709e	-0.029960927
31	0x3e8da1aa	0.27662402
32	0x3e82393d	0.25434294
33	0x3dd1dd08	0.102472365
34	0xbdb0e2be	-0.08636998
35	0xbda7fcb6	-0.08202498
36	0x3d1eecec	0.038800165
37	0x3e12f378	0.14350688
38	0x3dcac35f	0.09900545
39	0x3cd73c42	0.02627385
40	0x3d3a9d56	0.045560203
41	0x3dfe93a6	0.124305055
42	0x3e925bfc	0.28585804
43	0x3d886671	0.06660164
44	0xbe0d79e9	-0.13816036
45	0xbe145b30	-0.1448791
46	0x3ea0cb3c	0.31405056
47	0x3e86536e	0.26235527
48	0x3e8873a4	0.26650727
49	0x3e31a686	0.1734868
50	0x3e0ccef1	0.13750817
51	0x3e93c426	0.28860587
52	0xbd03d5e9	-0.032186422
53	0x3e5f033d	0.21778579
54	0x3e700af3	0.23441677
55	0x3e81c8e8	0.25348592
56	0x3e3b77d0	0.18307424
57	0x3df895a0	0.12137914
58	0xbdd1b204	-0.10239032
59	0x3e504a32	0.20340803
60	0x3e426bbc	0.1898641
61	0x3d0911bc	0.03346418
62	0x3dcf24e0	0.10114455
63	0x3dbd6762	0.09248234

fc3.weight f4 [64, 64]
0	0xbdf33d84	-0.118769675
1	0xbdbda90b	-0.09260758
2	0xbc0f0181	-0.008728386
3	0x3c1da937	0.0096228635
4	0xbd33d320	-0.043902516
5	0x3d0b105a	0.03395114
6	0x3d1701c9	0.036866937
7	0xbd2a9fd2	-0.041656323
8	0xbd1ae086	-0.03781178
9	0x3d9e2b89	0.077231474
10	0x3dbdb7a4	0.09263542
11	0xbcc291db	-0.02375119
12	0xbcceb222	-0.025231425
13	0x3da5bbcb	0.08092459
14	0xbdb2f046	-0.08737235
15	0xbcd5a927	-0.026081635
16	0x3c6f3c30	0.014601752
17	0xbe058f15	-0.13042863
18	0x3cb0f9f6	0.021603566
19	0xbe01062b	-0.12600009
20	0xbd070683	-0.032965194
21	0xbd95c9fd	-0.07313917
22	0xbd9b2d68	-0.0757702
23	0x3d02db9a	0.03194771
24	0x3db73a0f	0.08946621
25	0xbda50b91	-0.08058847
26	0xbdd77232	-0.10519828
27	0x3dce4237	0.10071223
28	0xbde62808	-0.11238104
29	0xbdd20d5f	-0.102564566
30	0xbd90a9fb	-0.07063671
31	0x3cd91d06	0.026503097
32	0xbd958f06	-0.0730267
33	0x3d4d5478	0.050129384
34	0x3dc8adcc	0.09798774
35	0xbdcd00e4	-0.100099355
36	0xbcc91dd8	-0.024550363
37	0xbcd65fa7	-0.026168657
38	0xbdf2dfcd	-0.11859093
39	0x3d55d7da	0.052207805
40	0x3d552c95	0.05204447
41	0x3d592fd4	0.053024128
42	0xbdbd1a78	-0.09233564
43	0x3cf09928	0.029369906
44	0x3d50d447	0.050983693
45	0xbd06cbda	-0.03290925
46	0x3d1df9a1	0.038568143
47	0xbd87b54d	-0.06626377
48	0xbdb1ca0c	-0.086811155
49	0x3c9b0062	0.018921081
50	0xbccd4e6a	-0.025061805
51	0xbe09a35a	-0.1344122
52	0xbd65ceb6	-0.056105338
53	0xbd921924	-0.071337014
54	0x3ce1499e	0.027500924
55	0x3d47fd7b	0.048825722
56	0x3d7d6a7d	0.061869133
57	0xbc6995bb	-0.01425689
58	0x3bd00800	0.00634861
59	0x3dd24465	0.102669515
60	0x3cbc5e98	0.022994325
61	0x3cae4f38	0.021278009
62	0x3d12ae83	0.03581096
63	0xbce3e363	-0.027818387
64	0x3e88e892	0.26739937
65	0x3e59b4c0	0.21260357
66	0xbd80aba3	-0.06282737
67	0x3e354527	0.17702161
68	0x3fde4abc	1.7366557
69	0x3e7a525c	0.2444548
70	0x3d27f0e1	0.041001204
71	0x3e5b44ba	0.21412936
72	0x3c780720	0.0151384175
73	0x3e01a968	0.1266228
74	0x3e511aaf	0.20420335
75	0x3e804b5b	0.25057492
76	0x3e5f5756	0.2181066
77	0x3e71d50e	0.2361643
78	0x3e33781d	0.17526288
79	0x3e68faed	0.2275197
80	0x3dfebd54	0.12438455
81	0x3df3edbb	0.11910578
82	0x3e41e776	0.18935952
83	0x402a216c	2.65829
84	0x3dd29385	0.10282043
85	0x3e4a8636	0.1977776
86	0x3e347e9e	0.17626426
87	0x3e6acde7	0.22930108
88	0x3d5f8239	0.05456755
89	0x3b15aa19	0.0022836982
90	0x3e5f55b4	0.21810037
91	0x3babbffd	0.0052413926
92	0x3d6c60d6	0.057709537
93	0x3e376ce2	0.17912629
94	0x3df52365	0.119696416
95	0x3e5ed2cf	0.21760105
96	0x3dbbddb6	0.091731474
97	0x3e794678	0.24343288
98	0xbcca6a9b	-0.024709037
99	0xbdd5dc3a	-0.104423955
100	0xbb8b2ac0	-0.0042470396
101	0x3d0c3b18	0.034236044
102	0x3d2604da	0.04053197
103	0xbd939823	-0.07206752
104	0x3ffdbe08	1.9823618
105	0x3d67cab0	0.056589782
106	0x3d955a2b	0.07292589
107	0x3d8534e6	0.0650423
108	0xbccdf800	-0.02514267
109	0xbca49762	-0.020091716
110	0x3e5d184f	0.21591304
111	0x3dc0030a	0.0937558
112	0x3e2a8dc3	0.1665564
113	0x3e6b83f2	0.22999552
114	0x3e274ca3	0.16337828
115	0x3d8d2a8f	0.06892883
116	0xbf4be477	-0.79645485
117	0x3e5d35c7	0.21602546
118	0x3dd429d7	0.10359543
119	0x3e39c437	0.18141256
120	0x3dfea5b1	0.12433947
121	0x3e300b04	0.17191702
122	0xbd82b67a	-0.06382461
123	0x3d42a2b7	0.04751846
124	0x3e02a734	0.12759095
125	0x3d947154	0.07248178
126	0x3e28766e	0.16451427
127	0x3e9b11d2	0.30287033
128	0x3e10e2c6	0.14149007
129	0x3e178d47	0.14799987
130	0x3d143933	0.036187362
131	0x3e113cfa	0.14183417
132	0x3ff98ec2	1.9496691
133	0x3dbcfac0	0.09227514
134	0x3e87bcf7	0.26511356
135	0x3e66cba7	0.22538625
136	0x3e77f762	0.24215463
137	0x3e89d586	0.26920718
138	0x3e841c05	0.25802627
139	0x3e0b696a	0.13614431
140	0x3e178ba2	0.1479936
141	0x3d9ca69c	0.07648966
142	0x3e0d5764	0.13802868
143	0x3d99df67	0.07513314
144	0xbde66fc4	-0.11251786
145	0x3e6cfe12	0.23143795
146	0x3e191cdd	0.14952417
147	0x4030afc7	2.7607286
148	0x3e370731	0.17873837
149	0x3e467314	0.19379836
150	0x3e9cfdb4	0.3066231
151	0x3e618773	0.22024326
152	0x3de5b1c3	0.11215546
153	0xbd6bed0f	-0.057599124
154	0x3cf4406a	0.029815871
155	0xbdb83567	-0.08994561
156	0x3d8d0d84	0.068873435
157	0x3dec56a6	0.115399644
158	0x3cf8f417	0.030389829
159	0x3e6e7bb4	0.23289376
160	0x3e4b86c5	0.19875629
161	0x3e1e7ff1	0.15478493
162	0x3dbe698e	0.09297477
163	0x3b940920	0.0045176893
164	0x3d45dd10	0.048306525
165	0x3e38d66e	0.18050548
166	0x3dce328e	0.10068236
167	0xbc984fc8	-0.01859273
168	0x3ffe4e2d	1.9867607
169	0xbd1eb954	-0.03875096
170	0x3e540ca6	0.2070795
171	0xbce4ef13	-0.02794603
172	0xbdcf2095	-0.101136364
173	0xbd924e11	-0.07143796
174	0x3e6db17a	0.23212233
175	0x3c85b062	0.016319457
176	0x3e0cbc09	0.13743605
177	0x3e717430	0.23579478
178	0x3e8eb20f	0.27870223
179	0x3d9a67f5	0.075393595
180	0xbf3f7984	-0.74794793
181	0x3e8905b9	0.2676218
182	0x3e483673	0.1955202
183	0x3e68b22c	0.22724217
184	0x3e8aba4b	0.27095255
185	0x3e33ec6c	0.17570657
186	0xbc69e320	-0.014275342
187	0x3e7f01df	0.24903058
188	0x3e0a0d6e	0.13481686
189	0xbd681ad4	-0.05666621
190	0x3da7c23d	0.08191345
191	0x3daf4162	0.08557393
192	0xbde0b484	-0.109719306
193	0x3d2127b4	0.039344504
194	0x3cb1a802	0.021686558
195	0x3de9b423	0.114113115
196	0x3a9e0c85	0.0012058174
197	0xbdde3857	-0.1085059
198	0xbdd33cf2	-0.10314359
199	0xbdd6a89c	-0.104813784
200	0x3d1504e0	0.036381602
201	0x3b99a525	0.004688876
202	0xbdde56fe	-0.10856436
203	0x3db761c8	0.08954197
204	0xbdaf642c	-0.08564028
205	0xbd8ccb7f	-0.06874751
206	0xbe0e8a11	-0.13919856
207	0x3d5c9f19	0.053862665
208	0xbcabb3c0	-0.020959735
209	0x3cc882ac	0.024476372
210	0x3dd0928b	0.10184201
211	0x3d0e0712	0.03467471
212	0x3d73b88a	0.059502162
213	0x3db67198	0.08908385
214	0x3cbdc8ef	0.023167102
215	0x3be3cbdf	0.0069517936
216	0x3d517ed3	0.05114634
217	0xbdb94f7b	-0.09048363
218	0xbdc4fd00	-0.096185684
219	0x3b8c274e	0.0042771464
220	0xbd0b4d98	-0.034009546
221	0xbc0d8c3d	-0.008639392
222	0x3da3e9f4	0.080036074
223	0xbc99245d	-0.018694097
224	0x3d6a220f	0.057161387
225	0xbddea3b6	-0.10871069
226	0x3cdbfae8	0.02685304
227	0x3d5d0210	0.053957045
228	0x3b257280	0.002524525
229	0xbcd62701	-0.026141645
230	0xbdbc7dcf	-0.092036836
231	0x3db007f3	0.08595266
232	0x3d7e4d23	0.062085282
233	0xbd3b7e00	-0.04577446
234	0x3d91dad9	0.0712182
235	0xbd197405	-0.03746416
236	0xbd309ef8	-0.043120354
237	0x3d85daa2	0.065358415
238	0xbd4588c7	-0.048226144
239	0x3cb852d0	0.022500426
240	0xbd931fe0	-0.07183814
241	0xbdfe24aa	-0.12409337
242	0x3956f419	0.00020499564
243	0xbda0440c	-0.07825479
244	0xbdbbc832	-0.091690436
245	0xbe0ec4cd	-0.13942261
246	0xbdf81a1d	-0.12114356
247	0xbdb97789	-0.09056003
248	0x3dc2ac16	0.09505479
249	0xbe00a382	-0.12562373
250	0x3df8485a	0.12123175
251	0xbd1d0581	-0.038335327
252	0x3cacd202	0.021096233
253	0x3d2602f8	0.040530175
254	0xbd2a3e82	-0.04156352
255	0x3caffcc6	0.021482836

fc3.bias f4 [64]
0	0x3dc6f206	0.09714131
1	0x3e72fd6d	0.23729487
2	0x3e80a672	0.25126988
3	0xbc9f8739	-0.019473659
4	0x3d555d13	0.052090716
5	0x3e2825f9	0.16420735
6	0x3eb3c9ba	0.35114843
7	0xbd9e2d8e	-0.077235326
8	0x3eb07cf2	0.34470326
9	0xbdd28fd4	-0.10281339
10	0x3ebae113	0.36499843
11	0xbdb255f5	-0.08707801
12	0x3df77e5c	0.12084648
13	0xbdeba3e0	-0.11505866
14	0xbc8776e0	-0.016536176
15	0x3d985ed0	0.07439959
16	0x3e07414c	0.13208503
17	0xbcd1e1e5	-0.02562041
18	0x3d9e9372	0.07742967
19	0x3d8dab00	0.06917381
20	0x3d3470d6	0.04405292
21	0x3ddbec23	0.10738399
22	0xbd4d7358	-0.05015883
23	0xbdcc1fbe	-0.09966992
24	0xbe11bcd6	-0.14232191
25	0x3e91759c	0.2841004
26	0x3e41590c	0.18881625
27	0xbd666330	-0.056246936
28	0x3eb2b59c	0.34904182
29	0x3da3c70f	0.07996952
30	0x3e9fcfbe	0.31213182
31	0xbcf75440	-0.03019154
32	0xbdd3ab34	-0.10335389
33	0x3dc5c826	0.09657316
34	0x3e75f664	0.24019772
35	0xbc064e8b	-0.008197437
36	0x3cabdd68	0.020979598
37	0x3e7f49a8	0.24930441
38	0xbc715df9	-0.0147318775
39	0xbe03cec2	-0.1287184
40	0x3dd843bb	0.105597936
41	0x3e4e1271	0.20124222
42	0x3e8c0f1f	0.27355286
43	0xbc2a2601	-0.010385037
44	0x3d4d6799	0.050147627
45	0x3e1d914a	0.15387455
46	0x3d1905fe	0.03735923
47	0x3d4604b8	0.048344344
48	0x3d6f940d	0.0584908
49	0x3ea4df92	0.3220182
50	0xbd99acb6	-0.07503645
51	0x3e5b9fcc	0.21447676
52	0x3d1fef0b	0.03904633
53	0xbc8f65b7	-0.017504556
54	0x3e035403	0.12825017
55	0xbdc363af	-0.095404975
56	0xbc8a7e80	-0.016906023
57	0x3d91ce27	0.071193986
58	0x3e9e525f	0.3092222
59	0xbdb60a90	-0.088887334
60	0x3eb7a58b	0.35868487
61	0xbe00a870	-0.12564254
62	0xbdf3abcb	-0.11898001
63	0xbe04e9e8	-0.12979853

q_out.weight f4 [1, 64]
0	0x3c61754c	0.013760876
1	0xbe82cbf2	-0.25546223
2	0xbe841b09	-0.25801876
3	0x3d8bc4d8	0.06824654
4	0x3d9e3d31	0.07726515
5	0xbe85945c	-0.26089752
6	0xbe723995	-0.23654778
7	0xbda04ec2	-0.07827522
8	0xbe379462	-0.17927697
9	0x3c8af3e8	0.016962007
10	0xbe344c86	-0.17607316
11	0xbb715262	-0.0036822786
12	0xbe82b977	-0.25532123
13	0x3d2cc428	0.042179257
14	0xbd74f404	-0.059803024
15	0x3c0e8123	0.008697781
16	0xbe84c276	-0.25929612
17	0xbb851f79	-0.0040625897
18	0x3d7aecc2	0.061260946
19	0xbb5b879f	-0.0033497585
20	0x3ce46ea9	0.027884798
21	0xbbddf110	-0.0067731217
22	0xbd04fa08	-0.03246501
23	0x3d1dbdf0	0.038511217
24	0x3d028d43	0.031873
25	0xbe860671	-0.2617679
26	0xbe96e6b5	-0.2947289
27	0x3c90d528	0.017679766
28	0xbe54275c	-0.2071814
29	0x3da2e592	0.07953943
30	0xbe472037	-0.19445883
31	0xbd377714	-0.044791296
32	0x3c9be128	0.019028261
33	0x3d8a2bf1	0.067466624
34	0xbe40fdf4	-0.18846875
35	0x3c3805de	0.011231868
36	0x3ad2d635	0.0016085567
37	0xbe3fa9af	-0.18717073
38	0x3d1105ed	0.035406042
39	0x3d80fdad	0.06298385
40	0xbe433d05	-0.19066246
41	0xbe8f9685	-0.28044525
42	0xbe8cbe17	-0.27488777
43	0x3dce4480	0.10071659
44	0x3ccf519e	0.025307473
45	0xbe888e5b	-0.2667111
46	0x3cfdb2d6	0.030969065
47	0x3cf30696	0.029666226
48	0x3ce3595a	0.027752567
49	0xbe6e2a87	-0.2325841
50	0xbdc8591f	-0.097826235
51	0xbe8d8462	-0.27640063
52	0x3dac9e15	0.08428589
53	0x3d31516f	0.04329055
54	0xbe8d4ef3	-0.27599296
55	0x3d454813	0.04816444
56	0x3c933e75	0.017974118
57	0xbb6f0fef	-0.0036478003
58	0xbe77186d	-0.24130411
59	0xbdbc5322	-0.09195544
60	0xbe4cc349	-0.1999637
61	0x3cc00345	0.023439059
62	0x3dc5cbc2	0.09658004
63	0xbbb6dcf2	-0.005580538
