simple_tag_maddpg/MADDPG/model/simple_speaker_listener/agent_0/3_critic_params.pkl (torch, 37583 bytes, 7 tensors)

fc1.weight f4 [64, 6]
00000000: 75b0 4cbd a78f e73d 8331 61be 00af b13d
00000010: f6cc c5be d480 be3d c7b1 bbbe af2c 19bd
00000020: 34a2 c03e 2434 573e a30f 3fbf c515 a63e
00000030: bcbd d93e 5ffa 3f3d f45a 503d 651c e53d
00000040: e2c2 4b3e 2855 b7be 2cee 38be b932 8cbe
00000050: b00d 4abe 6b39 0dbd 1e17 4ebe 241c 343e
00000060: 0e7d 21be d9b6 e7bd 1eb2 a33e d8d0 863e
00000070: f977 d63e f803 73bc 73f3 6cbe 09e3 26bf
00000080: e2a2 c3bc aa13 233f 7ee6 2b3e d28e c9be
00000090: 1c4a de3e da7a 083e dc3a a43c 8699 233e
000000a0: aaf2 a13e 0051 fe3d ad96 933e d1f7 77bd
000000b0: 87fc 70be 093a 863e bad7 83be d025 353e
000000c0: 098e fe3e 533f 33bf 2f0c babe 7aca d53c
000000d0: 65b5 b33e 3813 0fbe 44eb ba3e 6ecd ea3e
000000e0: 3cb5 40bc d7d6 8cbe 9a7a 77be 42e9 493f
000000f0: d266 af3e f38c bdbd fc2a 8b3d 8a9f c53d
00000100: 4f17 38be 05c0 16be ffd5 3b3e 460c bebb
00000110: 5e1a 29be ea0b e2bd 945a cbbe 9665 bf3e
00000120: a1b2 603d d526 6e3e 370a bc3e 5023 9ebc
00000130: 2eec 15bf 0b1a 733f 9b05 15be df82 afbe
00000140: 7703 573d 44ca fc3e aecf c03d a3dd c9be
00000150: 081f 263f 77fb 153f 8340 3dbe 21d5 813e
00000160: 10f0 68be ecff b3be e8d3 2e3e 1e58 bebd
00000170: 1358 dcbc ab34 c03e 4b26 a43c bcd5 abbd
00000180: e28f 08be b8bd 0d3e 715b b93e bcaa 4bbe
00000190: 812b 9f3e 7586 1f3f 9ddf 833e fc53 dfbd
000001a0: e042 50be b276 32be 203a 303f 667c 32bf
000001b0: cc12 b83e 09c3 713e d409 29be 4694 39be
000001c0: 8539 a53e e428 033c cc4c 94be 3492 213e
000001d0: 8ab3 01be d033 bf3d 74ba c5bd 60aa 743d
000001e0: 1683 32be 8fe5 11be 6a49 1b3e 9bd2 01bf
000001f0: 5fa5 18be 24d5 31be 9462 1e3d a799 99be
00000200: 346e cf3e f86d cfbe eb57 c83e e960 bebe
00000210: bbc9 e73e 3435 97bd fddf 983e d8aa 553e
00000220: 4833 463e 9c94 f3bd 1e01 953e 5eff 40be
00000230: 8bf8 1dbe 578e f33d 6e4f 32be d72d a3be
00000240: 65e8 363e ca26 2fbf fb9f 863e 0a1d 3abd
00000250: 5507 b53c e54c ef3e 6647 0dbf 81b8 683e
00000260: bc26 46be e7b8 dd3e c80d 3a3f 66dd 07bf
00000270: 26fc 033f 7d2a d83c 4217 763e 9a84 55bc
00000280: f4d4 513e acc4 66bd 943a 6d3e 91e6 c33e
00000290: 97b7 50bd c536 18be 42f6 843e ec0a 1e3e
000002a0: b9ff 3bbe d4d1 8bbe d714 3bbe 7aa5 c2bd
000002b0: 308e 78be c29c dfbe 07b9 8c3e 9d2c e4bd
000002c0: 6a54 edbe 66d1 0f3e 1d0c 0b3f 2068 14be
000002d0: a2b6 7dbc 2392 283e c0e5 bf3d 07f5 b6bd
000002e0: abff e6be 8a8e 153f 077c 47be 8de2 233e
000002f0: f8a2 47be 2cd9 b8bc fe7e 3bbf 707e 3abe
00000300: 1d66 873e f9f7 5fbe bdd9 ce3e 832e 933e
00000310: 37b4 d23e f677 1cbe 6bdd d43e e22c 89be
00000320: d908 183d 3ef1 cbbe b03a c53e 1f97 4cbf
00000330: e26e 533e 7ecd 12bf a0a7 003f 7455 f4bd
00000340: d339 383c 0d1e e43e 47bf 0b3f 40e3 f8bd
00000350: b395 38be 9696 57bb c840 f0be 7074 7fbe
00000360: 1cc7 b53e a2a8 1b3d fccb 6a3e f5b1 bc3e
00000370: 13d0 ae3c 196b 98bd abe9 71bd d31c 12bd
00000380: 8203 5c3e 4d5e d23e 9588 fc3d 9123 493f
00000390: 6501 2c3e 6e27 e6be 3640 9c3e 8aa0 78be
000003a0: 91fc 213f 1ad6 d93e 6d97 1b3f deb8 6ebe
000003b0: 1fae 213e 59cc ad3e dc5e d2be d572 e43c
000003c0: fedc 853e ce49 443e f262 29bd c10e a3be
000003d0: 2752 ed3c da71 b3be 7664 0dbd b48c e13d
000003e0: 8156 fcbd 27b9 efbd 6c6b 333e 16c8 7dbe
000003f0: b389 b03d 23d8 693e ef1d 10be a0c0 b1be
-0.04997297 0.113066964 -0.21991543 0.08675957 -0.38632935 0.09301916 -0.3665907 -0.03739613
0.3762375 0.21015984 -0.74633235 0.32438484 0.42527568 0.04686963 0.05086799 0.111870565
0.1989856 -0.35807157 -0.18059605 -0.27382448 -0.19731784 -0.034478586 -0.20126006 0.1758886
-0.15770361 -0.11314172 0.3197183 0.2633121 0.41888407 -0.014832489 -0.23139744 -0.6519018
-0.02388138 0.6370188 0.16787145 -0.39366776 0.43415916 0.13328114 0.020047598 0.15976533
0.3163045 0.12417793 0.28825894 -0.06053907 -0.23533832 0.26216152 -0.25750524 0.17690206
0.4971774 -0.700185 -0.3633742 0.026097525 0.3509933 -0.13972175 0.36507618 0.45859855
-0.01176196 -0.2750766 -0.24167863 0.7887155 0.34258133 -0.092553996 0.06795308 0.0964957
-0.17977642 -0.14721687 0.18343352 -0.005799803 -0.16513965 -0.11037429 -0.39717543 0.3738219
0.054857854 0.23257 0.36726543 -0.019303948 -0.58563507 0.94961613 -0.1455292 -0.34279534
0.05249354 0.49373066 0.09414612 -0.39426908 0.648911 0.5858683 -0.1848164 0.25357917
-0.22747827 -0.3515619 0.17073023 -0.09294151 -0.026897466 0.37540182 0.02003779 -0.08390376
-0.13336137 0.13841903 0.36202577 -0.19889349 0.31087878 0.6231454 0.2575654 -0.109046906
-0.20338011 -0.17428091 0.6883869 -0.69721067 0.3595184 0.23609556 -0.16507655 -0.18122968
0.32270446 0.008005355 -0.2896484 0.15778428 -0.12666145 0.09336054 -0.09654704 0.059732795
-0.17432818 -0.14247726 0.15164724 -0.50711983 -0.14906834 -0.17366463 0.03866823 -0.3000004
0.40513766 -0.40513587 0.39129576 -0.37183312 0.45271096 -0.073831946 0.2985839 0.20865953
0.193555 -0.11893579 0.29102415 -0.18847415 -0.15426843 0.118923835 -0.17413113 -0.3187091
0.17862089 -0.6841856 0.2629393 -0.04543785 0.022098223 0.46738353 -0.5518707 0.22726633
-0.19350713 0.43305132 0.7267728 -0.530722 0.51556623 0.026387447 0.2403231 -0.013032103
0.20491391 -0.056339905 0.23166877 0.38261846 -0.050956335 -0.14864643 0.2596913 0.15433854
-0.18359269 -0.27308524 -0.18269669 -0.095042184 -0.2427299 -0.43674284 0.27484915 -0.11141322
-0.46353465 0.14044723 0.5431536 -0.14492846 -0.015485438 0.16461997 0.09369993 -0.08933454
-0.45116934 0.5842062 -0.19480906 0.16004391 -0.19495761 -0.022564493 -0.7324065 -0.18212295
0.26445094 -0.21871938 0.40400496 0.28746423 0.41153118 -0.15280136 0.41575179 -0.26792055
0.037117813 -0.3983249 0.38521338 -0.7991809 0.20647767 -0.57344806 0.50255775 -0.119303614
0.011244255 0.44554177 0.5458874 -0.121527195 -0.18025856 -0.0032896153 -0.46924424 -0.24946761
0.3550347 0.038002618 0.22929376 0.3685452 0.021339452 -0.07442302 -0.059060734 -0.03567202
0.21485713 0.4108757 0.123307385 0.78569895 0.16797407 -0.44951957 0.3051774 -0.24279991
0.6327601 0.4254616 0.6077793 -0.23312709 0.15789078 0.33944967 -0.41087997 0.027886787
0.26145166 0.19168779 -0.041354127 -0.31847194 0.028969837 -0.350478 -0.034519635 0.11013165
-0.12321187 -0.11705237 0.17521447 -0.24783358 0.08620014 0.22836356 -0.14073919 -0.34717274

fc1.bias f4 [64]
00000000: 6265 e73e 6602 19bd 6b6e 393e 39a0 81be
00000010: 298f b13e bd6e 2abe fb87 b73e 2889 bc3e
00000020: e058 08bc 8a22 463e 354b 633e 195b 8b3e
00000030: a15f 183e 4307 16be 1f63 20be 7972 de3e
00000040: 5aa3 653e 8763 1fbe 91d6 d93e bedf 86be
00000050: a6b4 91be d075 1cbd 6d4c be3e a55d bd3e
00000060: 7980 6d3e 7623 aebe c377 dc3e b5eb 8c3e
00000070: 18be bfbe 5b0b 443e 5201 223e 01af e4be
00000080: 1028 9a3e 4043 00bf f7d1 68be 26d1 ee3e
00000090: 594e 8a3e 794c 11be 9680 41be 108b 9e3e
000000a0: 2ffe a03e 0504 873e c8d9 a63e 151a 363e
000000b0: c89b 81be 1a39 6b3d df51 d0be e754 903e
000000c0: 2e82 e63e 28eb f93e ad01 813e 8cd3 79bd
000000d0: ddf1 1c3e 58f0 e33e 53a7 493e 3df2 713e
000000e0: 1808 b7bd b078 c1be 3060 b3be 50a8 a23d
000000f0: 972b cb3d c356 d7be cb58 29be b1d0 84be
0.45194536 -0.037355803 0.18108527 -0.25317553 0.34679535 -0.16643806 0.35845932 0.36823392
-0.008321971 0.19349113 0.22196658 0.2721794 0.1488023 -0.14651208 -0.15662812 0.4344671
0.22425595 -0.1556531 0.42546514 -0.26342577 -0.28458136 -0.038198292 0.37167683 0.36985508
0.2319354 -0.3401143 0.4306012 0.2752358 -0.37449718 0.19144957 0.15820816 -0.44664767
0.3010869 -0.50102615 -0.22736345 0.46643943 0.270129 -0.14189328 -0.18896708 0.3096547
0.31443927 0.26370254 0.3258803 0.17783387 -0.25314164 0.057427503 -0.40687463 0.28189775
0.45021194 0.48812222 0.2519659 -0.060992762 0.15326639 0.44519305 0.19692735 0.23627563
-0.08937091 -0.3778739 -0.35034323 0.07942259 0.099204235 -0.4205838 -0.16537778 -0.2594047

fc2.weight f4 [64, 64]
00000000: 3a90 093e 08b1 29be 0a33 183e e3de d0bd
00000010: 438f f03d 43a6 1abf b4cd d53d e46e 9a3d
00000020: 7b29 9f3e 5441 503e f108 873d 5d08 873e
00000030: fdae c0bd 9daf 6d3e c0b6 8e3e 2323 183e
00000040: ac06 193e b0a4 fb3e 6997 e53d 3432 ccbd
00000050: 909a 2e3e 01fd 273e 3706 5d3d b466 b73d
00000060: 370a 5a3b 7f3e abbe 7c03 e53d 67ff 6d3c
00000070: b7ea 2f3e 833f 543e 5431 523e 5fee e8be
00000080: a8c9 173e f7be bfbe 3138 263e 564c 4a3e
00000090: 213b db3d 6522 99be 9ae9 f4be 5a92 183e
000000a0: 3718 223e fa4d bf3d 4548 213e e53f 4a3e
000000b0: 5b66 2d3e 0e5e 943e 12ee ca3d eec2 783d
000000c0: d88d be3d 3d3f 303e 849a 233e 106d c43e
000000d0: 1098 643e 408e c33d 99ca c8bc a4d8 e83d
000000e0: 2322 a3be 8c6f ad3e 63fa d8be 88ca 993e
000000f0: ea05 f8bd cd7f 503f 7720 593e 8cf3 113f
00000100: 3284 c73d 1368 45be e5c9 ab3d d5bd ca3b
00000110: ab1e 7d3d 2352 16bf 81b2 043e e9fe 673e
00000120: f07f dc3e 4025 853e d2a5 143e 92f1 493e
00000130: 5173 4abe 1c19 4abb e5a2 5e3e 6b3a fb3d
00000140: 47d4 8b3e 91cc ae3e 81f9 f83d a46b 763d
00000150: 1605 443d 800e a43d 6296 86bc 078c 493c
00000160: a19a 873d 7ef8 f2be 7f47 403e a3f3 883d
00000170: 7aa6 463e 9e12 c73e 8c73 263d 804a babe
00000180: 0168 2c3e 42d5 bebe 7d78 6b3e 17ab a33d
00000190: 7683 933d f921 acbe 4044 0ebf 79ab 8d3d
000001a0: 2cee 743d b55a edbc ddb7 763e eae2 903d
000001b0: ae6b 3b3e c95f 953e e69b f23d 44c0 cd3d
000001c0: 4a46 8a3d 0d80 f73d 506b 223d f287 cf3e
000001d0: dcf6 863d 2ad3 e63d d10e 073e 95b1 3e3e
000001e0: 9e2f 57be 0d64 ba3e 7f89 b3be 98b9 843d
000001f0: 66c4 fb3c 1b8e 623f 22a8 ba3e 9b94 f53e
00000200: 0be8 c63d 3a67 7ebd 396d 0bbe 2e21 97bd
00000210: a404 f1bd 1267 e13d 4778 a13d 6177 4bbd
00000220: 07e9 a9b9 ca26 d03d ec2a c5bd 10d6 d33c
00000230: 264f 37bd 1baa b3bd 6f5b da3c 37f9 96bd
00000240: 7392 cb3b b7cf 13bd c20f 723d 0014 19ba
00000250: 151f a3bd 069a edbd 3992 813d 97cf 7d3d
00000260: c95a bc3c e68f cf3d fcb6 0e3d e594 033c
00000270: 007a 5aba e702 433d 927d 863d 78f5 ffbd
00000280: e9fd 87bd f9c2 973d 6c78 b13d 48d6 8ebd
00000290: 84ca 513d 64e5 adbd 83f1 483d 3fb1 c03d
000002a0: db83 febd 06ee 02be 3567 e8bd 3604 c93d
000002b0: dd95 513d 8f99 e0bd 74f9 45bd 97b4 83bd
000002c0: e13c 0ebc b873 dcbd 8ac2 b93d 518e abbd
000002d0: d90d 69bd 98d4 d83d 462b b7bd b156 0fbe
000002e0: 0c4e 963d 4c90 f6bc 0019 20bc 0e1f 0abe
000002f0: 75bc c0bd ec70 75bd aca3 713d 0883 b7bd
00000300: 72d6 983d 46d5 8abe ab1d 71bc 2503 babc
00000310: 7755 fb3c 9b94 21bf 5914 163e 253c 843e
00000320: 0d7e 6d3e 5530 873e f0f8 023e 8667 493e
00000330: 8299 05be bc33 523e 1692 2f3e 7c5f d83d
00000340: 85f6 5b3e 1768 b93e e320 d33c 2e2d c23d
00000350: fb58 033e cea3 c53d a91b 103b 3a32 293d
00000360: 13b8 123e 3143 bbbe d66b 90bc 0e19 b53d
00000370: 978c 213e b127 ae3e 36de 473e e470 a0be
00000380: 0185 1c3e d5e5 19bf 7c36 503e faea 023e
00000390: 0b48 cc3d 9cd7 aabe ddbd 26bf 4921 383e
000003a0: 310a 2f3d 25b8 443e 68ac 5b3e 7163 2cbd
000003b0: 3594 eb3d 82a7 8f3e dc9a e9bd 3747 dcbc
000003c0: d0cd 2a3e fb09 ec3d 8da8 3f3d 132a e43e
000003d0: f942 b43d 7264 273c c16b 053d 96a8 54bb
000003e0: c7e0 8ebe 381d b83e 0a15 fbbe 9391 723e
000003f0: 1ee0 0ebe 46bc 503f 8aa0 ac3e 3740 083f
0.13433924 -0.16571438 0.1486322 -0.10198762 0.11746075 -0.60409945 0.104396254 0.07540682
0.31086335 0.2033742 0.06593502 0.26373568 -0.09408376 0.23211522 0.27873802 0.14857154
0.14943951 0.49149084 0.1121052 -0.09970513 0.17051148 0.16405107 0.053961005 0.08955136
0.0033270249 -0.33446118 0.11182305 0.014526225 0.1717938 0.20727353 0.2052663 -0.45494363
0.1482302 -0.37450382 0.16232373 0.19755682 0.10704637 -0.29909053 -0.47834474 0.14899579
0.1582955 0.09341045 0.15750225 0.19750936 0.16933577 0.28978008 0.099086896 0.060732774
0.09304398 0.17211623 0.15976912 0.38364458 0.22323632 0.095486164 -0.024510669 0.11369446
-0.31861982 0.33874166 -0.4237853 0.30037332 -0.12110503 0.8144501 0.2120379 0.5701225
0.09742011 -0.19277982 0.08388118 0.0061871805 0.061796825 -0.5871908 0.12958719 0.22655834
0.4306636 0.26004982 0.1451638 0.19721058 -0.19770552 -0.003083772 0.21741827 0.12267002
0.27310392 0.34140447 0.12156964 0.060161248 0.047856413 0.08010578 -0.01642913 0.0123014515
0.0662129 -0.4745521 0.18777274 0.06687095 0.19399443 0.3888139 0.040637538 -0.36384964
0.1683655 -0.37272078 0.22995181 0.07991617 0.072028086 -0.3361967 -0.5557289 0.069174714
0.05979745 -0.028973917 0.24093576 0.070745304 0.18302795 0.2917464 0.118461415 0.100464374
0.06751688 0.120849706 0.039653122 0.40533406 0.065900534 0.11270745 0.13189246 0.1862243
-0.21014258 0.36404458 -0.3506584 0.06480712 0.030733299 0.88498086 0.364564 0.4796494
0.097122274 -0.062110163 -0.13615884 -0.073793754 -0.11768463 0.11005987 0.07884269 -0.049674395
-0.0003240781 0.101636484 -0.09627327 0.025858909 -0.044753216 -0.087726794 0.026654927 -0.07371753
0.0062125265 -0.036086764 0.05909706 -0.0005839467 -0.07964913 -0.11601643 0.06326718 0.06196555
0.022992508 0.10134868 0.034842476 0.008031105 -0.00083342195 0.04761019 0.065669194 -0.12497991
-0.066402264 0.07410235 0.08665547 -0.06974465 0.051218525 -0.084910184 0.04905845 0.09408807
-0.12427493 -0.12786111 -0.1134781 0.09815256 0.05116831 -0.10966789 -0.0483336 -0.06430929
-0.008681507 -0.10764259 0.090703085 -0.08376754 -0.05689797 0.10587424 -0.08943801 -0.13997914
0.07339105 -0.030098103 -0.009771585 -0.13488409 -0.09410945 -0.059922144 0.05899398 -0.08960539
0.07462777 -0.2711584 -0.014716546 -0.022706578 0.030680401 -0.6311738 0.146562 0.25827137
0.23192616 0.26404062 0.12790275 0.19668397 -0.1304684 0.20527548 0.17145571 0.10565087
0.21480758 0.36212227 0.025772518 0.094812736 0.12826912 0.09650384 0.0021989143 0.041307665
0.14328031 -0.365747 -0.017629545 0.088426694 0.15776287 0.34014657 0.1951836 -0.3133613
0.15285112 -0.6011632 0.20333284 0.12784949 0.099746786 -0.33367622 -0.6513346 0.17981447
0.04273433 0.1921087 0.21452487 -0.042087022 0.115028776 0.28057486 -0.1140649 -0.026889427
0.16680074 0.11525341 0.046791602 0.4456335 0.088018365 0.010216819 0.032573465 -0.0032449118
-0.27905867 0.35959792 -0.4903949 0.23688345 -0.13952681 0.8153728 0.33716232 0.53222984

fc2.bias f4 [64]
00000000: 38cd 4ebb 296c eb3d 8671 83bd f3a4 0bbc
00000010: 7113 96bd 04ea 263d 6b25 b23d 2219 c3bc
00000020: c9cd d33d e35b 183e 41f0 cf3d e5e5 f33d
00000030: 1c88 2e3e d934 da3d e752 d03c fdf5 dabb
00000040: c0da 02be d457 ec3d 5a3c 1a3e 4d27 f6bb
00000050: c571 283e 5be2 4cbc 2fac f3bc ec7d 1f3e
00000060: 2f0a 163e 081c 4bbc ab6b 833d 7ceb fdbd
00000070: b55d 6e3d b1cf 893d 19ff 49bc 269e 413e
00000080: e2e8 183e 7d1c b1bb bee2 b0bd b6fc a7bd
00000090: ecec 1e3d dfd4 2e3d 5e80 d9bb 1db7 6d3d
000000a0: c86d 273d a693 fe3d 629e 323e 7166 883d
000000b0: e979 0dbe 67aa e7bd b606 4e3e e2f3 1e3e
000000c0: 5249 1f3e ae6e 8f3d b9a9 153d c0c3 3a3e
000000d0: 572f e53c a7d6 e83d 91bc ff3d ec1c 183e
000000e0: 1629 8e3d 3a59 b63c 04b2 d1bd 1185 b83d
000000f0: fa59 b63d bc11 093d 8166 44bc 7ef9 b8bc
-0.0031555425 0.11495239 -0.06418137 -0.008523214 -0.07327927 0.04075052 0.08698543 -0.023815695
0.10341985 0.14878802 0.10153247 0.11909083 0.17044109 0.10654611 0.025430156 -0.006682156
-0.12778759 0.115401894 0.15062085 -0.0075120092 0.1644965 -0.012505139 -0.02974519 0.15575379
0.14652322 -0.01239682 0.064170204 -0.12398431 0.058194835 0.06729067 -0.012328886 0.18907985
0.14932588 -0.0054050074 -0.08636998 -0.08202498 0.038800165 0.04268348 -0.006637617 0.05803596
0.04087618 0.124305055 0.17443231 0.06660164 -0.13816036 -0.113117985 0.20119748 0.15522721
0.15555313 0.07003532 0.036538813 0.18238735 0.027976675 0.11369067 0.12487138 0.14854783
0.0694143 0.022259343 -0.10239032 0.090097554 0.089038804 0.03346418 -0.011987329 -0.022579905

fc3.weight f4 [64, 64]
00000000: 843d f3bd 0ba9 bdbd 8101 0fbc 37a9 1d3c
00000010: 20d3 33bd 5a10 0b3d c901 173d d29f 2abd
00000020: 86e0 1abd 892b 9e3d a4b7 bd3d db91 c2bc
00000030: 22b2 cebc cbbb a53d 46f0 b2bd 27a9 d5bc
00000040: 303c 6f3c 158f 05be f6f9 b03c 2b06 01be
00000050: 8306 07bd fdc9 95bd 682d 9bbd 9adb 023d
00000060: 0f3a b73d 910b a5bd 3272 d7bd 3742 ce3d
00000070: 0828 e6bd 5f0d d2bd fba9 90bd 061d d93c
00000080: 068f 95bd 7854 4d3d ccad c83d e400 cdbd
00000090: d81d c9bc a75f d6bc cddf f2bd dad7 553d
000000a0: 952c 553d d42f 593d 781a bdbd 2899 f03c
000000b0: 47d4 503d dacb 06bd a1f9 1d3d 4db5 87bd
000000c0: 0cca b1bd 6200 9b3c 6a4e cdbc 5aa3 09be
000000d0: b6ce 65bd 2419 92bd 9e49 e13c 7bfd 473d
000000e0: 7d6a 7d3d bb95 69bc 0008 d03b 6544 d23d
000000f0: 985e bc3c 384f ae3c 83ae 123d 63e3 e3bc
00000100: 4467 853e 774d 5a3e a90b 5cbd 2fc4 4a3e
00000110: 2328 863f d5cc 713e 352c 333d 2bc5 653e
00000120: e85f 8e3c 8f48 593e 9446 5e3e 0e3b 983e
00000130: 9177 653e 0fd9 7c3e 35d3 4a3e 5e91 643e
00000140: 54bd fe3d 959e ee3d 7385 2e3e ff5e 903f
00000150: 2001 fd3d d81b 4e3e c270 403e 136f 6c3e
00000160: ee11 023e 19aa 153b fc8d 5b3e fdbf ab3b
00000170: 4cb0 7a3d e6a6 2e3e 8a4e d03d e48b 6c3e
00000180: 3ce4 d23d 1213 863e 9b6a cabc 3adc d5bd
00000190: c02a 8bbb 3b1d f73c ee18 2d3d 19cf 26bd
000001a0: 01e8 5b3f b0ca 673d 0a09 653d e634 853d
000001b0: 00f8 cdbc 0e54 52bd 9365 613e 2e09 b83d
000001c0: d91e 1c3e c0ac 753e 79cf 213e 3f7c 8d3d
000001d0: c5b9 3abf b234 653e 4346 d33d fdd9 333e
000001e0: 6aca fb3d abac 2f3e 7ab6 82bd ebf6 673d
000001f0: ab97 f93d 5471 943d 188e 3b3e d65e 9b3e
00000200: 9ab2 093e def7 173e e2b1 393d 3c8e 263e
00000210: ad67 a13f 9a94 ab3d f00d 893e 7a1f 713e
00000220: f914 7a3e 3a93 b53e 299b 8a3e ca1c 3b3e
00000230: 3f7e 1d3e a754 b23d 4385 243e 90b1 903d
00000240: c46f e6bd d228 6a3e aa8b 053e da6f 9d3f
00000250: 7611 4c3e 14db 493e f9df a23e 59fa 623e
00000260: ebdf 3c3e 0fed 6bbd 2396 d43c 6735 b8bd
00000270: d6d8 933d e86f da3d a143 4b3c bc07 7c3e
00000280: c4dd 563e f232 313e 8e69 be3d 2009 943b
00000290: 10dd 453d 347e 343e 8f60 d13d aff2 503c
000002a0: 79f1 5c3f 54b9 1ebd c374 423e 13ef e4bc
000002b0: 9520 cfbd 4953 d2bd 8ad0 713e eaaf 483c
000002c0: 553e fc3d cb6f 7b3e aadc 8b3e a55f 9a3d
000002d0: 9457 2ebf 4aee 8c3e c797 473e 3599 623e
000002e0: 72ec 893e a860 333e 20e3 69bc 0615 843e
000002f0: 8104 043e d41a 68bd e297 cd3d 3f1a b03d
00000300: 84b4 e0bd b427 213d 02a8 b13c 23b4 e93d
00000310: 850c 9e3a 5738 debd f23c d3bd 9ca8 d6bd
00000320: e004 153d 25a5 993b fe56 debd c861 b73d
00000330: 2c64 afbd 7fcb 8cbd 118a 0ebe 199f 5c3d
00000340: c0b3 abbc ac82 c83c 8b92 d03d 1207 0e3d
00000350: 8ab8 733d 9871 b63d efc8 bd3c dfcb e33b
00000360: d37e 513d 7b4f b9bd 00fd c4bd 4e27 8c3b
00000370: 984d 0bbd 3d8c 0dbc f4e9 a33d 5d24 99bc
00000380: 0f22 6a3d b6a3 debd e8fa db3c 1002 5d3d
00000390: 8072 253b 0127 d6bc cf7d bcbd f307 b03d
000003a0: 234d 7e3d 007e 3bbd d9da 913d 0574 19bd
000003b0: f89e 30bd a2da 853d c788 45bd d052 b83c
000003c0: e01f 93bd aa24 febd 19f4 5639 0c44 a0bd
000003d0: 32c8 bbbd cdc4 0ebe 1d1a f8bd 8977 b9bd
000003e0: 16ac c23d 82a3 00be 5a48 f83d 8105 1dbd
000003f0: 02d2 ac3c f802 263d 823e 2abd c6fc af3c
-0.118769675 -0.09260758 -0.008728386 0.0096228635 -0.043902516 0.03395114 0.036866937 -0.041656323
-0.03781178 0.077231474 0.09263542 -0.02375119 -0.025231425 0.08092459 -0.08737235 -0.026081635
0.014601752 -0.13042863 0.021603566 -0.12600009 -0.032965194 -0.07313917 -0.0757702 0.03194771
0.08946621 -0.08058847 -0.10519828 0.10071223 -0.11238104 -0.102564566 -0.07063671 0.026503097
-0.0730267 0.050129384 0.09798774 -0.100099355 -0.024550363 -0.026168657 -0.11859093 0.052207805
0.05204447 0.053024128 -0.09233564 0.029369906 0.050983693 -0.03290925 0.038568143 -0.06626377
-0.086811155 0.018921081 -0.025061805 -0.1344122 -0.056105338 -0.071337014 0.027500924 0.048825722
0.061869133 -0.01425689 0.00634861 0.102669515 0.022994325 0.021278009 0.03581096 -0.027818387
0.26055348 0.21318613 -0.053722057 0.198014 1.0480999 0.23613293 0.04374333 0.22438495
0.017379716 0.21219085 0.21706611 0.29732555 0.22408892 0.24692176 0.19807132 0.22321078
0.12438455 0.11651341 0.17043094 1.127899 0.1235373 0.20127809 0.18793014 0.23089246
0.12702152 0.0022836982 0.21440881 0.0052413926 0.061203286 0.17055854 0.1017123 0.23100239
0.102974385 0.26186424 -0.024709037 -0.104423955 -0.0042470396 0.030165305 0.042260103 -0.040724847
0.85900885 0.056589782 0.055916823 0.0650423 -0.02514267 -0.051349692 0.22011404 0.08986126
0.15246142 0.2399168 0.15801801 0.06908464 -0.7293971 0.22383383 0.10316136 0.17563625
0.12294467 0.17155711 -0.06382461 0.056631964 0.121871315 0.07248178 0.18315923 0.30345792
0.13447037 0.14840648 0.045335658 0.16265196 1.2609764 0.08377953 0.26768446 0.23547164
0.24422063 0.35463887 0.27071503 0.18272701 0.1538019 0.087075524 0.1606646 0.07065117
-0.11251786 0.22867134 0.13041559 1.2299759 0.19928536 0.19712478 0.31811503 0.22165813
0.18444793 -0.057599124 0.025950497 -0.08994561 0.072190925 0.10665876 0.012406261 0.24612325
0.20983034 0.1730459 0.09297477 0.0045176893 0.048306525 0.17626268 0.10223495 0.012753173
0.8630596 -0.03875096 0.18989854 -0.02794603 -0.101136364 -0.10269792 0.23614708 0.012248972
0.123165764 0.24554364 0.2731679 0.07537774 -0.68102384 0.2752555 0.19491492 0.22128756
0.26938206 0.1751734 -0.014275342 0.2579729 0.12892343 -0.05666621 0.10038735 0.08598756
-0.109719306 0.039344504 0.021686558 0.114113115 0.0012058174 -0.1085059 -0.10314359 -0.104813784
0.036381602 0.004688876 -0.10856436 0.08954197 -0.08564028 -0.06874751 -0.13919856 0.053862665
-0.020959735 0.024476372 0.10184201 0.03467471 0.059502162 0.08908385 0.023167102 0.0069517936
0.05114634 -0.09048363 -0.096185684 0.0042771464 -0.034009546 -0.008639392 0.080036074 -0.018694097
0.057161387 -0.10871069 0.02685304 0.053957045 0.002524525 -0.026141645 -0.092036836 0.08595266
0.062085282 -0.04577446 0.0712182 -0.03746416 -0.043120354 0.065358415 -0.048226144 0.022500426
-0.07183814 -0.12409337 0.00020499564 -0.07825479 -0.091690436 -0.13942261 -0.12114356 -0.09056003
0.09505479 -0.12562373 0.12123175 -0.038335327 0.021096233 0.040530175 -0.04156352 0.021482836

fc3.bias f4 [64]
00000000: 06f2 c63d baee 9d3d 9e1f ba3d 3987 9fbc
00000010: 135d 553d c01c 5d3b a31f 463e 8e2d 9ebd
00000020: 0473 493e d48f d2bd cf04 5f3e f555 b2bd
00000030: 0df8 21bd e0a3 ebbd e076 87bc d05e 983d
00000040: 0fd5 ecbc e5e1 d1bc 7293 9e3d 00ab 8d3d
00000050: d670 343d 23ec db3d 5873 4dbd be1f ccbd
00000060: d6bc 11be 0d6a fc3d 06ed c93c 3063 66bd
00000070: 134f 483e 0fc7 a33d 819e 243e 4054 f7bc
00000080: 34ab d3bd 26c8 c53d 0177 b83d 8b4e 06bc
00000090: 68dd ab3c 925f cc3d f95d 71bc c2ce 03be
000000a0: 97bb 39bd a5ed 1d3d 54f1 e33d 0126 2abc
000000b0: 9967 4d3d bc72 fdbb fe05 193d b804 463d
000000c0: 0d94 6f3d 1db3 283e b6ac 99bd a21e 553d
000000d0: 0bef 1f3d b765 8fbc 7682 0cbd af63 c3bd
000000e0: 807e 8abc 27ce 913d 1e72 1a3e 900a b6bd
000000f0: 33af 533e 70a8 00be cbab f3bd 61de c8bd
0.09714131 0.07711549 0.09088062 -0.019473659 0.052090716 0.003373906 0.19348006 -0.077235326
0.19672781 -0.10281339 0.21779178 -0.08707801 -0.0395432 -0.11505866 -0.016536176 0.07439959
-0.028910188 -0.02562041 0.07742967 0.06917381 0.04405292 0.10738399 -0.05015883 -0.09966992
-0.14232191 0.12324915 0.024649154 -0.056246936 0.19561414 0.07996952 0.1607609 -0.03019154
-0.10335389 0.09657316 0.09007073 -0.008197437 0.020979598 0.09979166 -0.0147318775 -0.1287184
-0.045344915 0.038556714 0.11130014 -0.010385037 0.050147627 -0.0077346247 0.03735923 0.048344344
0.0584908 0.16474576 -0.07503645 0.052031167 0.03904633 -0.017504556 -0.034304105 -0.095404975
-0.016906023 0.071193986 0.15082595 -0.088887334 0.20672302 -0.12564254 -0.11898001 -0.098080404

q_out.weight f4 [1, 64]
00000000: 4c75 613c f750 8bbe ef7c 8bbe d8c4 8b3d
00000010: 313d 9e3d 2455 8ebe 3c5c 7ebe c24e a0bd
00000020: 6dd5 45be e8f3 8a3c d999 41be 6252 71bb
00000030: 507d 8dbe 28c4 2c3d 04f4 74bd 2381 0e3c
00000040: 2e82 91be 791f 85bb c2ec 7a3d 9f87 5bbb
00000050: a96e e43c 10f1 ddbb 08fa 04bd f0bd 1d3d
00000060: 438d 023d 513d 8ebe 23b7 a0be 28d5 903c
00000070: 6a08 63be 92e5 a23d 6127 59be 1477 37bd
00000080: 28e1 9b3c f12b 8a3d 54ed 51be de05 383c
00000090: 35d6 d23a e47f 4cbe ed05 113d adfd 803d
000000a0: 33c9 58be fbb3 96be 239e 95be 8044 ce3d
000000b0: 9e51 cf3c bd28 93be d6b2 fd3c 9606 f33c
000000c0: 5a59 e33c 6eb5 7dbe 1f59 c8bd 3320 97be
000000d0: 159e ac3d 6f51 313d ccca 98be 1348 453d
000000e0: 753e 933c ef0f 6fbb 380d 83be 2253 bcbd
000000f0: 0f11 59be 4503 c03c c2cb c53d 26ec 15bd
0.013760876 -0.2721021 -0.27243754 0.06824654 0.07726515 -0.27799332 -0.24839872 -0.07827522
-0.19319697 0.016962007 -0.18906344 -0.0036822786 -0.27634668 0.042179257 -0.059803024 0.008697781
-0.28419632 -0.0040625897 0.061260946 -0.0033497585 0.027884798 -0.0067731217 -0.03246501 0.038511217
0.031873 -0.27781156 -0.31389722 0.017679766 -0.22171178 0.07953943 -0.21206428 -0.044791296
0.019028261 0.067466624 -0.2050069 0.011231868 0.0016085567 -0.19970661 0.035406042 0.06298385
-0.21170501 -0.2943419 -0.2922221 0.10071659 0.025307473 -0.28742018 0.030969065 0.029666226
0.027752567 -0.24776241 -0.097826235 -0.29516754 0.08428589 0.04329055 -0.29842222 0.04816444
0.017974118 -0.0036478003 -0.25596023 -0.09195544 -0.21197914 0.023439059 0.09658004 -0.03660216
