code/tmp/maddpg/k_3/Waterworldpursuer_1+1/pursuer_1_actorBest.pt (torch, 37815 bytes, 6 tensors)

fc1.weight f4 [32, 242]
0.017034981 0.045193534 -0.015909921 -0.04547739 0.00013018011 0.026122754 0.0028961934 -0.039699815
-0.059471063 -0.012850727 -0.005650812 -0.054084115 0.026493385 -0.046734087 -0.026789624 -0.058863457
0.039904933 0.01584647 -0.007907661 0.03403393 0.04020524 -0.025104217 0.036238387 0.0017766198
-0.0332074 0.018783018 0.025840791 -0.05171359 0.007354916 0.017307818 -0.055397548 0.043001916
0.006334771 -0.033072103 0.022902643 0.0017408563 0.025960796 -0.0637923 -0.040714964 0.053927604
-0.019701153 -0.026811425 0.029765468 -0.0034684173 -0.044198602 -0.061160706 0.0219 -0.04059599
-0.04322687 0.05335584 -0.02189462 -0.02919243 0.023783948 -0.026354048 -0.06335738 -0.053009707
0.035368193 -0.05765984 -0.024847673 -0.016127354 -0.013643824 0.007883092 0.052921474 -0.00047694903
-0.0052040396 -0.04708192 -0.022323444 0.033090837 0.033554867 -0.0022209778 0.031263214 -0.0077702464
0.006820333 -0.059183322 0.06277293 0.019173414 -0.01174651 -0.020126414 0.036212094 -0.049347613
-0.017044675 0.029118022 -0.05763649 0.02466186 -0.03233697 -0.05389422 0.0027728947 -0.017592998
-0.014099392 -0.025875436 -0.051488012 0.02005416 -0.03154884 -0.053448148 0.032207377 -0.05397235
0.02665169 -0.010075909 -0.005316388 -0.051630992 -0.013550656 0.034251004 -0.055999406 -0.025081566
0.054929473 0.0101147 -0.06380691 -0.04609537 0.021960853 0.0014017505 -0.016595205 -0.015884772
-0.009237447 -0.024655323 0.038281184 -0.02252352 -0.016121468 0.05848754 -0.036681604 -0.02283766
-0.029614935 0.0632561 0.041775808 -0.013940039 -0.026496796 -0.009082416 0.04912213 0.025103014
0.0043734787 -0.044903204 -0.029074006 0.0030004724 -0.005364213 0.047490552 -0.012751368 0.02969456
0.06324713 -0.055323645 -0.014652804 -0.014234768 0.008488045 0.014086533 -0.053441912 -0.049762007
-0.011893457 -0.032635506 0.04417237 -0.05886375 0.0017498068 -0.0022710024 -0.05909247 -0.06391312
-0.033450443 -0.026261976 -0.0077766525 -0.028931541 -0.046134375 0.036660653 0.061267637 0.050680343
-0.048903186 -0.025029058 -0.05521145 -0.037283406 -0.04868746 -0.058236208 -0.004758417 0.014932191
-0.03464755 -0.04830061 0.03118655 -0.0059876647 0.05347424 -0.047485027 -0.0021103693 0.050561205
0.033368073 -0.022715924 -0.025825098 0.0062288824 0.06234946 0.057389323 0.03946252 0.014895853
0.041483272 0.0501538 -0.059188187 0.0597292 0.028003514 -0.03314277 -0.06230043 0.008377843
-0.03891127 0.062682 0.037876338 0.057902426 -0.028874867 0.047083646 -0.043383572 -0.039113324
-0.006263749 -0.0059851743 -0.029548634 0.0054382305 -0.061377387 0.024103176 0.029763712 0.046581928
0.02379919 -0.008934833 -0.033323757 -0.0024556133 0.050425507 -0.06372817 -0.015937362 -0.02283963
0.032186557 0.025654662 0.016017105 -0.0364737 -0.05492826 -0.022721449 0.02202782 0.048831612
0.036404654 0.058430564 0.055881493 0.012708585 0.014412245 0.011050574 0.03805041 -0.020468386
0.06302326 0.028072184 -0.062476132 -0.031703915 -0.020131296 0.020489713 0.04602339 0.01973054
-0.037882015 -0.0050989487 -0.10111518 -0.025199922 0.0011632253 -0.048291437 -0.10553976 -0.04851161
0.0023974811 -0.039731875 -0.059377916 -0.09459286 -0.06386007 -0.119676664 -0.11644248 -0.03167106
00000000: f28c 8b3c db1c 393d 8655 82bc 8046 3abd
00000010: f580 0839 63ff d53c 10ce 3d3b 469c 22bd
00000020: ee97 73bd db8b 52bc 722a b9bb 4e87 5dbd
00000030: a808 d93c 3e6c 3fbd ea75 dbbc cf1a 71bd
00000040: 5b73 233d 75d0 813c 228f 01bc 2a67 0b3d
00000050: 40ae 243d 5ca7 cdbc b46e 143d 78dd e83a
00000060: 7c04 08bd d8de 993c 11b0 d33c a1d1 53bd
00000070: 8201 f13b 20c9 8d3c 8ae8 62bd c722 303d
00000080: e993 cf3b 9d76 07bd 539e bb3c 722d e43a
00000090: bcab d43c 8aa5 82bd bcc4 26bd 31e3 5c3d
000000a0: 5064 a1bc a2a3 dbbc b6d6 f33c 634e 63bb
000000b0: 9809 35bd a683 7abd a167 b33c fb47 26bd
000000c0: a90e 31bd a78b 5a3d 595c b3bc f724 efbc
000000d0: 8ed6 c23c 72e4 d7bc 84c1 81bd b520 59bd
000000e0: 3dde 103d b92c 6cbd 598d cbbc 831d 84bc
000000f0: 588a 5fbc 1628 013c 30c4 583d 040f fab9
00000100: a686 aabb f9d8 40bd a8df b6bc 428a 073d
00000110: d470 093d d38d 11bb db0d 003d 8d9d febb
00000120: 1a7d df3b 366a 72bd 188f 803d 9011 9d3c
00000130: 6f74 40bc 26e0 a4bc 2253 143d b920 4abd
00000140: 46a1 8bbc eb88 ee3c 3d14 6cbd ab07 ca3c
00000150: c573 04bd 30c0 5cbd 74b9 353b 311f 90bc
00000160: 2301 67bc b9f8 d3bc 18e5 52bd 9f48 a43c
00000170: 5b39 01bd 72ec 5abd e2eb 033d 1c12 5dbd
00000180: a554 da3c 6d15 25bc 1835 aebb 057b 53bd
00000190: 9203 5ebc c84a 0c3d a25f 65bd db77 cdbc
000001a0: bafd 603d 20b8 253c 32ad 82bd 80ce 3cbd
000001b0: 3fe7 b33c f1ba b73a abf2 87bc c820 82bc
000001c0: a958 17bc f6f9 c9bc bbcc 1c3d 3f83 b8bc
000001d0: 2b11 84bc a190 6f3d 733f 16bd 0b16 bbbc
000001e0: 059b f2bc 6a8c 813d 1c1d 2b3d c364 64bc
000001f0: cf0f d9bc 6ace 14bc 4934 493d d6a4 cd3c
00000200: 664f 8f3b 6cec 37bd 9c2c eebc 93a3 443b
00000210: 48c6 afbb 7485 423d 1deb 50bc 0242 f33c
00000220: b687 813d 0c9b 62bd 5012 70bc f238 69bc
00000230: 7111 0b3c 34cb 663c e8e5 5abd 3fd3 4bbd
00000240: c6dc 42bc cfac 05bd 16ee 343d 1e1b 71bd
00000250: c659 e53a 19d5 14bb f20a 72bd e2e4 82bd
00000260: 5503 09bd 5b23 d7bc 4ad3 febb d701 edbc
00000270: 66f7 3cbd 7b29 163d c6f3 7a3d 3196 4f3d
00000280: b54e 48bd bd09 cdbc 6725 62bd 7cb6 18bd
00000290: 816c 47bd 1789 6ebd 7fec 9bbb 26a6 743c
000002a0: 97ea 0dbd dcd6 45bd f07a ff3c 2c34 c4bb
000002b0: ce07 5b3d a97f 42bd 1f4e 0abb 4419 4f3d
000002c0: f6ac 083d bf16 babc 288f d3bc a71b cc3b
000002d0: 2662 7f3d 1111 6b3d 74a3 213d bc0d 743c
000002e0: 5dea 293d 126e 4d3d 506f 72bd 9ba6 743d
000002f0: a067 e53c b7c0 07bd bc2e 7fbd 3843 093c
00000300: 6d61 1fbd 6c5f 803d 3824 1b3d 182b 6d3d
00000310: fc8a ecbc c8da 403d f9b2 31bd 4b35 20bd
00000320: 2340 cdbb 481f c4bb fa0f f2bc 2f33 b23b
00000330: db66 7bbd 0674 c53c 07d3 f33c b1cc 3e3d
00000340: 85f6 c23c 6863 12bc 7e7e 08bd 5bee 20bb
00000350: fa8a 4e3d ea83 82bd 128f 82bc 2d1a bbbc
00000360: 0dd6 033d ba29 d23c 4e36 833c 7265 15bd
00000370: 75fc 60bd 5522 babc b073 b43c a803 483d
00000380: 0c1d 153d e354 6f3d fee3 643d ab37 503c
00000390: 5621 6c3c 770d 353c bfda 1b3d 51ad a7bc
000003a0: 5712 813d a3f7 e53c f9e6 7fbd f7db 01bd
000003b0: 63ea a4bc 0bda a73c 0683 3c3d f1a1 a13c
000003c0: 2c2a 1bbd 1515 a7bb 7a15 cfbd 1170 cebc
000003d0: 5d77 983a 3ecd 45bd 3b25 d8bd 1cb4 46bd
000003e0: 0f1f 1d3b e4bd 22bd 4236 73bd e7b9 c1bd
000003f0: 12c9 82bd 0a19 f5bd 6579 eebd 83b9 01bd

fc1.bias f4 [32]
-0.046506472 -0.01959896 -0.011836873 0.09392371 0.023558095 0.03304729 -0.039886847 -0.057264987
0.10830758 -0.036043808 -0.0153877465 -0.028630808 -0.095737234 0.03863275 0.047273338 -0.0522817
-0.04903908 -0.07763527 0.0045062564 0.04527759 -0.016661271 0.070259124 0.04456885 -0.0032026009
-0.0051517165 -0.06379245 -0.06755739 -0.0327083 0.14939094 -0.022225183 -0.083829366 -0.1228518
00000000: 927d 3ebd 008e a0bc 72ef 41bc 135b c03d
00000010: e8fc c03c 985c 073d 6460 23bd b18e 6abd
00000020: 5dd0 dd3d aca2 13bd e31c 7cbc 288b eabc
00000030: e211 c4bd 603d 1e3d b0a1 413d 5625 56bd
00000040: 34dd 48bd 3eff 9ebd 38a9 933b ff74 393d
00000050: 387d 88bc 04e4 8f3d d48d 363d bae2 51bb
00000060: bbcf a8bb 9ea5 82bd 875b 8abd 23f9 05bd
00000070: f0f9 183e 9611 b6bc bbae abbd b999 fbbd

fc2.weight f4 [32, 32]
0.10383409 -0.11103587 0.068439804 0.011606245 -0.087131634 0.1390069 0.08712207 -0.07289999
0.11618282 -0.1612634 0.010444263 -0.15432222 0.04658198 0.045498576 0.031701975 -0.058158245
-0.09304553 -0.04417986 -0.16841981 -0.018367218 0.09064482 0.11214258 0.05726448 0.07850527
0.107771896 -0.103214346 0.08429132 -0.02638633 0.22000863 0.16955625 -0.16213372 0.03945769
0.011050524 -0.14170314 0.15123148 0.041687522 -0.1430476 0.052004322 -0.017569672 -0.13458914
-0.09016471 0.11915306 -0.116920605 0.018852033 -0.114915065 -0.037643563 -0.16476494 0.17630883
-0.13267067 -0.13881211 -0.002045555 0.1136322 -0.051157802 -0.015208396 0.17022085 -0.026068332
0.043154158 0.17374884 0.10241155 -0.16015692 0.083218925 -0.17088875 0.05662589 0.15465938
0.018276917 -0.12013845 -0.10554827 0.093014605 0.0576779 0.15466206 -0.12542555 -0.11540327
0.055935342 -0.095020995 0.044653006 -0.0910707 -0.10896857 0.03011247 -0.04625956 0.095141195
0.1509141 -0.042617008 0.14503251 0.07465658 -0.14297 0.04483227 0.117497444 -0.14447634
-0.047161225 0.054443065 -0.13586003 0.109857574 0.21603516 -0.067133546 0.023804246 -0.062067743
0.09803614 0.17792833 -0.1432217 0.028365742 -0.13533561 0.12019526 0.009048002 0.15741472
0.18397698 -0.11222663 0.21487932 -0.0515596 0.008874161 0.11327653 0.023578232 0.15738897
0.14390266 0.041567907 0.079121456 -0.16779311 0.18132876 0.21296532 -0.10463412 0.051563382
-0.04909916 -0.057425104 0.10183161 0.15116288 0.17589496 -0.15064186 0.08994223 -0.11665088
-0.15024224 0.1367035 0.16448689 0.15585908 0.08629489 -0.088260874 -0.115946345 0.03687649
0.27297917 -0.10438944 0.23191364 0.12145389 -0.008565383 -0.13726345 0.00033171676 -0.067714624
-0.15058622 0.061818678 0.027087506 -0.16090387 -0.04834624 0.22895357 -0.094746195 -0.11258211
0.14683312 -0.07468286 -0.04856393 0.04051728 -0.029337527 0.015898066 0.19026648 0.13425954
-0.028698906 -0.15495038 0.02763219 0.084344596 0.17623554 -0.17052113 -0.041654173 0.08079066
-0.05977171 -0.057088476 -0.0015354308 0.035089336 0.1325916 -0.09583258 -0.17574519 0.007950476
-0.014386469 -0.0754508 0.095779136 0.00876627 -0.12202111 -0.24255718 0.07149511 0.04804515
-0.15457992 -0.14572178 0.037621267 -0.15965456 0.04828042 0.00085501204 -0.09490861 0.08406233
0.07550163 0.059591673 -0.07695108 -0.043826804 -0.046410233 0.0715125 -0.15624544 0.10519858
0.09288676 -0.14620522 -0.0015588816 0.107974604 -0.068001665 0.08366708 -0.077363424 0.10638729
-0.05099794 0.03706676 -0.058810383 -0.039659996 -0.04645199 -0.16066149 -0.12183556 0.05063419
0.12133317 -0.16072604 -0.068945326 0.11322344 -0.13956171 0.1496669 -0.22481951 0.014563548
-0.16736698 -0.072626546 -0.023263922 -0.025488017 0.11671735 0.1652388 0.071430504 -0.03315451
0.055952966 -0.017589755 -0.13350005 -0.0031654874 0.015351342 -0.07170776 0.1183211 0.08559203
0.13689357 0.02383126 -0.15578392 -0.16109324 -0.074733734 -0.09324977 0.07612768 -0.12936695
-0.027231459 -0.009496119 -0.09132019 0.08303312 -0.09117568 -0.15446855 0.03745503 0.09614036
00000000: f8a6 d43d c666 e3bd 2b2a 8c3d 1f28 3e3c
00000010: 1272 b2bd d357 0e3e 0e6d b23d 974c 95bd
00000020: 42f1 ed3d 3c22 25be 6a1e 2b3c a506 1ebe
00000030: bfcc 3e3d b75c 3a3d eed9 013d 5737 6ebd
00000040: a88e bebd f1f5 34bd 3e76 2cbe d976 96bc
00000050: fea3 b93d 02ab e53d 298e 6a3d 5fc7 a03d
00000060: 83b7 dc3d 0b62 d3bd eda0 ac3d 2528 d8bc
00000070: f149 613e 27a0 2d3e 6206 26be 639e 213d
00000080: 420d 353c a11a 11be 6ddc 1a3e 89c0 2a3d
00000090: 127b 12be 7c02 553d 46ee 8fbc bcd1 09be
000000a0: 47a8 b8bd 8506 f43d 1274 efbd 946f 9a3c
000000b0: 9758 ebbd 2330 1abd 24b8 28be 4d8a 343e
000000c0: d2da 07be c324 0ebe b80e 06bb 00b8 e83d
000000d0: d88a 51bd a32c 79bc 604e 2e3e 418d d5bc
000000e0: 6ac2 303d 37eb 313e 26bd d13d 2d00 24be
000000f0: af6e aa3d 76fd 2ebe 8df0 673d 075f 1e3e
00000100: 79b9 953c 260b f6bd b129 d8bd 717e be3d
00000110: a93f 6c3d bb5f 1e3e 8e6f 00be 8d58 ecbd
00000120: 751c 653d 5e9a c2bd 12e6 363d 4683 babd
00000130: ea2a dfbd 6dae f63c aa7a 3dbd 63d9 c23d
00000140: 3a89 1a3e 2c8f 2ebd 6783 143e 8de5 983d
00000150: ba66 12be 0ba2 373d 80a2 f03d 9bf1 13be
00000160: 212c 41bd b1ff 5e3d e41e 0bbe 02fd e03d
00000170: 5238 5d3e 507d 89bd 1f01 c33c bf3a 7ebd
00000180: 2cc7 c83d d832 363e b6a8 12be 465f e83c
00000190: 6b95 0abe ef28 f63d 123e 143c 5331 213e
000001a0: 7664 3c3e 13d7 e5bd 5309 5c3e 2930 53bd
000001b0: ee64 113c 86fd e73d 2327 c13c 932a 213e
000001c0: 385b 133e 1c43 2a3d 6e0a a23d f5d1 2bbe
000001d0: 3fae 393e 9513 5a3e 6a4a d6bd 2034 533d
000001e0: 331c 49bd 9636 6bbd 178d d03d 71ca 1a3e
000001f0: cf1d 343e dc41 1abe a233 b83d a8e6 eebd
00000200: 1ad9 19be 01fc 0b3e 406f 283e 8699 1f3e
00000210: 60bb b03d 1ec2 b4bd 4775 edbd cd0b 173d
00000220: edc3 8b3e 21ca d5bd c57a 6d3e d1bc f83d
00000230: d255 0cbc ca8e 0cbe 45ea ad39 f7ad 8abd
00000240: 4633 1abe 9535 7d3d 9ee6 dd3c fcc3 24be
00000250: b506 46bd ce72 6a3e 4b0a c2bd 7391 e6bd
00000260: 6c5b 163e 54f3 98bd f9ea 46bd 73f5 253d
00000270: 4155 f0bc a93c 823c 37d5 423e 557b 093e
00000280: f819 ebbc 50ab 1ebe e75c e23c dcbc ac3d
00000290: 1777 343e 179d 2ebe 919d 2abd 9375 a53d
000002a0: 2ed3 74bd 9bd5 69bd 8240 c9ba d6b9 0f3d
000002b0: 18c6 073e df43 c4bd 8cf6 33be b742 023c
000002c0: 39b5 6bbc f385 9abd da27 c43d 67a0 0f3c
000002d0: 34e6 f9bd e960 78be 076c 923d feca 443d
000002e0: 334a 1ebe 1738 15be c218 1a3d 7c7c 23be
000002f0: b1c1 453d e322 603a 725f c2bd df28 ac3d
00000300: 99a0 9a3d 6616 743d 8798 9dbd bc83 33bd
00000310: a818 3ebd 2575 923d cefe 1fbe 5a72 d73d
00000320: 6a3b be3d d2b6 15be 6353 ccba ca21 dd3d
00000330: 7544 8bbd a559 ab3d b770 9ebd 94e1 d93d
00000340: 37e3 50bd 51d3 173d 28e3 70bd 8572 22bd
00000350: 7144 3ebd 7284 24be ec84 f9bd cc65 4f3d
00000360: 867d f83d 5e95 24be 3533 8dbd b1e1 e73d
00000370: 44e9 0ebe 4842 193e 1637 66be f39b 6e3c
00000380: 4062 2bbe 3abd 94bd fb93 bebc 3fcc d0bc
00000390: 8209 ef3d 5c34 293e 284a 923d 06cd 07bd
000003a0: f02e 653d 6418 90bc 3db4 08be 1174 4fbb
000003b0: 3284 7b3c 85db 92bd 5552 f23d e04a af3d
000003c0: d42d 0c3e c639 c33c d285 1fbe a0f5 24be
000003d0: 000e 99bd bcf9 bebd d4e8 9b3d c578 04be
000003e0: 8214 dfbc 9c95 1bbc 1406 bbbd 450d aa3d
000003f0: 51ba babd 012d 1ebe 726a 193d 3de5 c43d

fc2.bias f4 [32]
-0.014938531 -0.23456462 0.20584227 0.04030347 0.10428859 -0.23404974 -0.025385095 0.008990419
0.076389566 -0.1744935 0.0760684 -0.0730051 0.1713275 -0.1567571 -0.12236302 0.04093149
-0.17410801 0.16764268 0.124351636 0.040544882 0.04881756 -0.14537589 -0.10420893 -0.007009902
-0.053622346 0.025069037 0.01682089 0.11558262 -0.10694639 0.23536064 -0.03589073 -0.17713149
00000000: bec0 74bc b531 70be 51c8 523e 4015 253d
00000010: 4295 d53d bcaa 6fbe 67f4 cfbc 8d4c 133c
00000020: 2272 9c3d 6dae 32be c0c9 9b3d b383 95bd
00000030: 7a70 2f3e ef84 20be 7799 fabd c7a7 273d
00000040: 5f49 32be 86aa 2b3e 12ac fe3d 6412 263d
00000050: ecf4 473d 6bdd 14be 7e6b d5bd 52b3 e5bb
00000060: 1ba3 5bbd 955d cd3c f7cb 893c 95b6 ec3d
00000070: b506 dbbd 6102 713e 2802 13bd f561 35be

pi.weight f4 [2, 32]
-0.22412284 -0.049625725 -0.22933458 -0.19815853 -0.24540897 -0.1611962 0.048209835 0.017653968
0.082942456 -0.13180815 -0.09024605 0.13481337 -0.06642735 -0.088037536 0.13893582 0.056039598
-0.1597379 -0.037414186 -0.16546044 -0.18327844 -0.031300023 -0.063902795 -0.037677225 -0.055342477
-0.15923092 0.017136144 -0.054492544 0.086506754 -0.15155713 -0.21134226 -0.2172363 0.06359954
0.182873 0.061372433 0.1952921 0.07550162 0.18861483 -0.07566862 -0.104054496 0.078429915
-0.004641892 0.029166335 -0.1407912 0.09544931 0.26579112 0.038851913 -0.1611648 -0.10893387
0.15210481 0.2546354 0.16345702 0.16302054 -0.1042846 0.038016815 0.0674948 0.2499608
0.16938698 0.062276926 0.024357444 0.20418423 0.047539916 0.10415487 0.21057846 0.07914204
00000000: 7580 65be 5844 4bbd afd6 6abe 12ea 4abe
00000010: 7d4c 7bbe 9e10 25be ad77 453d 0e9f 903c
00000020: bcdd a93d b7f8 06be ecd2 b8bd 840c 0a3e
00000030: 100b 88bd 064d b4bd 3145 0e3e c789 653d
00000040: 5592 23be 9e3f 19bd 766e 29be 58ad 3bbe
00000050: 7434 00bd 78df 82bd 6f53 1abd cbae 62bd
00000060: 6e0d 23be 1961 8c3c 9333 5fbd 742a b13d
00000070: cb31 1bbe 1b6a 58be 3173 5ebe 7a40 823d
00000080: 0f43 3b3e a961 7b3d a7fa 473e 98a0 9a3d
00000090: 3f24 413e 26f8 9abd 861a d5bd dd9f a03d
000000a0: 031b 98bb 3dee ee3c 912b 10be ee7a c33d
000000b0: c615 883e 2f23 1f3d 6308 25be b918 dfbd
000000c0: 5dc1 1b3e 925f 823e 4761 273e dbee 263e
000000d0: 2a93 d5bd 85b7 1b3d b73a 8a3d b9f5 7f3e
000000e0: c873 2d3e 1716 7f3d 4389 c73c ac15 513e
000000f0: 37b9 423d 264f d53d e1a1 573e 3915 a23d

pi.bias f4 [2]
-0.023981469 -0.031119391
00000000: c974 c4bc 18ee febc
