code/tmp/maddpg/predator_preyagent_0+2/agent_0_actorRegular.pt (torch, 9023 bytes, 6 tensors)

fc1.weight f4 [32, 14]
0.9449782 3.5591497 4.0555487 2.7574449 -2.7329779 -4.2787337 -1.5365354 -1.5309923
2.318303 1.0057148 0.6610217 0.16011496 -3.838893 -2.957845 -0.89124626 0.88417774
2.394624 3.1293807 -1.4691372 -4.4973636 -0.89324355 -1.7780346 3.5806937 1.0929288
1.7212355 0.29054546 -3.3964114 -3.071428 2.360487 -0.79024243 7.473356 1.5551187
0.5679626 -0.62747806 -2.9754815 -0.25856045 0.9212486 -1.0790313 -0.50568324 0.5850899
1.478988 -1.1132611 1.0264232 -3.2766857 -2.5504625 -0.35201737 -3.0246654 0.62176484
-0.6782104 -0.08972673 -2.3727107 -0.40874398 -3.333122 -2.9265394 -2.7095237 -0.6866742
-0.34177262 0.24300443 3.794711 0.85995257 -0.7697261 1.7261987 -2.2325387 1.2754225
-1.3880779 2.089234 -0.8088368 0.805601 -2.0353312 -2.0794935 -1.1122302 -4.5565886
-6.5332856 -1.6021017 -3.4564307 1.2388004 -1.0639436 1.7647419 -0.9241588 0.3308406
-1.8457499 -2.4577014 0.22096209 -0.96746016 -3.889892 -4.1572614 -4.037458 -1.8568041
-1.5150757 1.990143 -0.87561643 -2.1079707 0.0035037282 -1.2778264 -2.439225 -0.105202906
-0.0018871729 -0.7839278 0.95472884 1.9261941 7.825724 -0.3360936 -3.1166165 1.9057953
-1.6219648 0.7878474 -1.971161 1.5115227 -0.60215396 0.782287 -1.6207057 0.4281335
2.2433054 -0.35957053 5.981609 1.4667063 -2.3008144 0.7115916 -2.2811377 -0.41222757
-4.033352 -0.80999357 -3.0194812 -0.55830485 0.48876733 -1.4601772 2.6423366 -0.6222751
4.937115 1.3468562 3.0926378 0.15630226 -2.9254103 -0.8074876 0.14215611 -1.1602136
2.9943216 -0.0320269 -0.52905047 -2.038285 -0.6545439 1.8790712 2.9098837 1.3591021
-3.8737516 -1.1703551 -1.7505773 0.41091704 1.0621977 -1.2359555 0.7586177 -3.2395606
-2.5004854 -0.26622725 -1.0577393 2.3470502 2.3753502 -0.82188797 -0.46218023 -2.3886054
4.0351973 0.6221149 1.7471215 4.728153 1.799832 0.022017304 -1.9815341 -0.53293306
1.5356503 0.847617 -0.5089279 -1.8307565 -0.08981477 -0.008068452 0.61375743 1.655243
-0.2732448 -2.0500329 -1.6537056 -5.232459 0.2414016 -1.7451528 -4.2260704 -2.6796844
-4.0318213 -0.9630186 -1.3899335 1.5431668 -1.9003328 -1.7866293 -2.2471044 -0.1334013
-0.7432398 -0.47021613 0.2797591 0.6971386 2.8153102 -2.175347 1.876173 0.26663607
-2.143415 0.23081602 -1.681368 0.9425987 -0.74284345 2.0856655 -1.8418448 -0.49531144
-1.1725686 0.37066534 0.68953174 2.7978854 -0.46840608 -0.7337962 -2.456913 -0.74935037
-0.8321647 0.6085584 1.4861575 2.0877285 -1.7470022 -0.42775795 -0.49417973 -1.8147316
1.9473822 0.42114863 2.856754 -1.9844496 0.07266601 4.595814 -0.66275805 1.4946638
0.74106526 3.0706103 0.14145844 0.88879025 3.7198863 2.1659353 0.89165246 1.6185429
1.6127529 -1.0789714 -0.76079607 -0.9873632 1.7439867 1.7153813 -0.1135726 0.87934965
-1.9692098 -0.8588551 -0.4803135 -1.6867883 2.7651641 0.13936095 7.741498 0.47893047
00000000: 17ea 713f 1cc9 6340 0ec7 8140 fa79 3040
00000010: 1ce9 2ec0 63eb 88c0 31ad c4bf 8ef7 c3bf
00000020: 145f 1440 43bb 803f b838 293f 2df5 233e
00000030: 6cb0 75c0 554d 3dc0 b728 64bf 7959 623f
00000040: 8541 1940 c647 4840 b00c bcbf 67ea 8fc0
00000050: 9cab 64bf a396 e3bf 162a 6540 17e5 8b3f
00000060: 7251 dc3f 60c2 943e ce5e 59c0 4792 44c0
00000070: 3812 1740 544d 4abf bb25 ef40 210e c73f
00000080: ff65 113f 67a2 20bf 4a6e 3ec0 0962 84be
00000090: f3d6 6b3f b31d 8abf 7574 01bf 74c8 153f
000000a0: 7b4f bd3f 577f 8ebf d661 833f 38b5 51c0
000000b0: c73a 23c0 9f3b b4be 1e94 41c0 fb2b 1f3f
000000c0: 329f 2dbf a6c2 b7bd 7eda 17c0 e446 d1be
000000d0: df51 55c0 6c4c 3bc0 d668 2dc0 e1c9 2fbf
000000e0: d2fc aebe 27d6 783e 8cdc 7240 da25 5c3f
000000f0: c50c 45bf 14f4 dc3f eae1 0ec0 0b41 a33f
00000100: 89ac b1bf 03b6 0540 ee0f 4fbf de3b 4e3f
00000110: de42 02c0 6c16 05c0 8f5d 8ebf 93cf 91c0
00000120: ad10 d1c0 ab11 cdbf 2936 5dc0 0391 9e3f
00000130: 4e2f 88bf 10e3 e13f ac95 6cbf f063 a93e
00000140: 8841 ecbf fb4a 1dc0 e343 623e 78ab 77bf
00000150: fef3 78c0 4908 85c0 db32 81c0 c2ab edbf
00000160: 00ee c1bf 01bd fe3f 6628 60bf fee8 06c0
00000170: ce9e 653b d18f a3bf 431c 1cc0 9f74 d7bd
00000180: 045b f7ba 7eaf 48bf 1c69 743f 878d f63f
00000190: 556c fa40 7614 acbe a576 47c0 1af1 f33f
000001a0: 8b9c cfbf 5eb0 493f 014f fcbf 9379 c13f
000001b0: c326 1abf f643 483f 4973 cfbf 5034 db3e
000001c0: 5192 0f40 a119 b8be 5769 bf40 08bd bb3f
000001d0: 8b40 13c0 de2a 363f 29fe 11c0 7e0f d3be
000001e0: 3811 81c0 bd5b 4fbf 2e3f 41c0 11ed 0ebf
000001f0: b63f fa3e 16e7 babf 0b1c 2940 6c4d 1fbf
00000200: d9fc 9d40 c965 ac3f c7ed 4540 b30d 203e
00000210: ec39 3bc0 82b7 4ebf 5f91 113e e181 94bf
00000220: f7a2 3f40 a42e 03bd da6f 07bf 4373 02c0
00000230: 3090 27bf 6885 f03f 893b 3a40 0ff7 ad3f
00000240: 8ceb 77c0 32ce 95bf eb12 e0bf b863 d23e
00000250: 18f6 873f ca33 9ebf c534 423f f654 4fc0
00000260: f407 20c0 f04e 88be 0064 87bf 1236 1640
00000270: bd05 1840 4067 52bf e3a2 ecbe e9de 18c0
00000280: 5620 8140 ec42 1f3f ada1 df3f 084d 9740
00000290: e560 e63f a25d b43c e9a2 fdbf 4d6e 08bf
000002a0: 3090 c43f 6dfd 583f 1949 02bf 3b56 eabf
000002b0: cef0 b7bd 8a31 04bc 351f 1d3f 01df d33f
000002c0: bee6 8bbe bd33 03c0 a0ac d3bf 4e70 a7c0
000002d0: fb31 773e 2b61 dfbf f83b 87c0 f37f 2bc0
000002e0: ae04 81c0 6388 76bf 57e9 b1bf 7d86 c53f
000002f0: 1b3e f3bf 45b0 e4bf 8fd0 0fc0 5a9a 08be
00000300: f744 3ebf 2bc0 f0be 963c 8f3e ad77 323f
00000310: 0b2e 3440 e338 0bc0 7026 f03f 8684 883e
00000320: b62d 09c0 095b 6c3e 1137 d7bf 264e 713f
00000330: fd2a 3ebf 8b7b 0540 92c1 ebbf 7699 fdbe
00000340: ba16 96bf d9c7 bd3e 2785 303f 8e10 3340
00000350: ecd2 efbe 11da 3bbf 103e 1dc0 6dd5 3fbf
00000360: bf08 55bf 7cca 1b3f 693a be3f 589d 0540
00000370: c59d dfbf 1703 dbbe 2005 fdbe 2049 e8bf
00000380: d243 f93f cba0 d73e 0fd5 3640 7202 febf
00000390: ebd1 943d e910 9340 83aa 29bf 2551 bf3f
000003a0: 74b6 3d3f e184 4440 7bda 103e c287 633f
000003b0: 9e12 6e40 af9e 0a40 5643 643f 6a2c cf3f
000003c0: b06e ce3f bc1b 8abf 88c3 42bf d6c3 7cbf
000003d0: f53a df3f 9d91 db3f c098 e8bd 0f1d 613f
000003e0: 110f fcbf eedd 5bbf a7eb f5be aee8 d7bf
000003f0: 73f8 3040 a3b4 0e3e 5aba f740 6036 f53e

fc1.bias f4 [32]
1.6708117 2.5268319 1.6609663 0.35391298 -1.3052723 -0.25151542 0.5498864 2.146961
0.4852542 5.9139495 -1.4476322 3.2227397 -3.0573442 -1.8333472 -1.9308954 -2.337775
0.3127504 -4.437834 0.49957356 0.36469826 -0.10290566 -1.2900097 1.3748246 3.8954942
-1.1788477 -1.1276072 2.245461 0.96187913 2.6402903 0.0054513146 1.7592592 1.5805489
00000000: 28dd d53f 9db7 2140 8b9a d43f 1534 b53e
00000010: 2a13 a7bf a1c6 80be 5bc5 0c3f cf67 0940
00000020: 3d73 f83e 133f bd40 034c b9bf 5e41 4e40
00000030: 87ab 43c0 1fab eabf 9527 f7bf 1b9e 15c0
00000040: d220 a03e bc02 8ec0 1bc8 ff3e bbb9 ba3e
00000050: 34c0 d2bd 0a1f a5bf 41fa af3f c74f 7940
00000060: 7be4 96bf 6f55 90bf a2b5 0f40 b63d 763f
00000070: 84fa 2840 f1a0 b23b 682f e13f 6d4f ca3f

fc2.weight f4 [32, 32]
0.03095596 0.29014993 0.1752607 1.4526085 1.264997 -0.10358062 -0.5179639 0.3420539
0.20318067 -0.9191576 0.8827716 -1.0455699 -0.46277848 -0.9240086 -0.5972284 -0.21732514
-1.882625 0.30614343 -0.6789796 -1.460155 1.1328152 -0.5689199 0.6413546 -1.3019596
0.45910916 -0.5796117 -0.015094772 -2.1453416 -0.41733035 -1.3770192 -0.5580482 -0.18972225
0.009262658 0.048093334 -0.13948071 -0.25501764 0.051742636 -0.56658405 -0.18463531 0.06335621
-0.4331789 -0.3334649 -0.15912282 -0.18263549 -0.14413103 -0.02498347 -0.21281375 0.00047629364
-0.23756528 -0.18465824 0.029196406 -0.32103035 -0.15742609 -0.23600443 -0.23453134 -0.28954467
-0.115429886 0.027490366 -0.3405154 -0.24077377 -0.2172612 0.008784251 -0.28834677 -0.36901703
2.677692 2.2838788 3.270727 -1.2926545 0.8891135 -1.0497056 0.48573834 3.8660016
1.7737322 4.643692 0.4893327 3.078272 -1.5755706 -0.47099236 1.1482693 0.022876987
3.4967558 -0.38287076 3.3215141 1.9058573 0.65105814 0.44143173 3.645459 4.6951222
-1.5655131 -1.0342505 0.9560609 3.2843812 -0.5406507 1.8412822 4.4214287 1.9162948
-0.1976164 0.1542769 -0.13450305 -0.007014816 -0.63764805 -0.13078652 0.026688093 -0.10614246
-0.32393628 -0.21382037 -0.18837513 0.018797943 0.08597452 -0.17593248 -0.16960834 0.25323185
-0.14921743 0.0064029284 -0.26997885 -0.18660426 -0.12390773 -0.40371072 0.13441558 -0.3017689
-0.08735335 -0.20876488 -0.16449253 -0.040035874 -0.10816137 -0.08358915 -0.041206863 -0.21496467
-0.19514096 -0.14257134 0.017204113 -0.03387236 0.06556589 0.021556916 -0.15230687 -0.11097071
0.0142927 -0.19620346 0.0050590136 -0.075377114 -0.0121578835 -0.03601766 -0.11129218 0.020027895
-0.0023982665 -0.03901212 -0.14706172 -0.045594383 0.0028541246 -0.24963807 -0.028802838 -0.21590035
-0.06350554 -0.005566488 -0.018596087 -0.15934457 -0.0075433645 -0.25098777 0.0067922245 -0.007020138
-2.955533 -2.989488 -1.4591393 1.555955 -0.2517324 1.0062088 0.2783494 -2.9907527
-1.6893013 -4.199201 0.27503616 -2.5625346 1.5354972 0.4148985 0.2746223 1.5050421
-3.2323952 0.6486789 -1.8282197 -0.6898602 0.75815904 0.07697729 -2.3748608 -5.346892
0.6320584 0.461419 -0.76506287 -3.3262846 -0.2500456 -1.0019467 -3.6407216 -1.9003917
0.34304065 -0.40280655 -0.8183392 0.40792617 -0.36051226 -0.7441282 -0.76631457 -0.46321654
-0.41049215 0.37774718 0.44346952 -0.41919288 -1.3464166 -0.97906154 -0.09511715 0.5213424
-0.103279725 -1.9470015 -0.91920346 -0.0752336 1.1602507 -1.4895487 0.017475965 0.73007995
-0.5027509 -1.8030632 0.53190714 1.3481225 -0.13535908 -0.18828677 -2.093174 -1.1239069
-0.09704143 0.37734094 -0.08683304 -0.29022896 -0.35992503 -0.3804463 -0.22571379 -0.10788438
-0.28789225 -0.2428558 -0.28068486 -0.11101753 -0.16790502 -0.35452107 -0.2525838 0.34173056
0.25880963 -0.33050364 -0.28147227 -0.6001913 -0.47926882 -0.28514856 -0.12460996 -0.1048947
0.11755624 -0.37841365 -0.31187043 0.13240588 -0.0736926 -0.2378434 -0.25005272 -0.31974393
00000000: 5a97 fd3c 888e 943e 8a77 333e 13ef b93f
00000010: 6ceb a13f 1322 d4bd 4899 04bf b021 af3e
00000020: 980e 503e ea4d 6bbf 52fd 613f 3cd5 85bf
00000030: 4df1 ecbe d48b 6cbf f6e3 18bf 7b8a 5ebe
00000040: dbf9 f0bf d5be 9c3e 9bd1 2dbf 5ce6 babf
00000050: 1700 913f bca4 11bf d12f 243f 9da6 a6bf
00000060: 5b10 eb3e 6f61 14bf 1050 77bc 474d 09c0
00000070: 53ac d5be 2a42 b0bf 3fdc 0ebf 8d46 42be
00000080: 67c2 173c 84fd 443d 08d4 0ebe ac91 82be
00000090: 16f0 533d a70b 11bf 0a11 3dbe e7c0 813d
000000a0: a0c9 ddbe e9bb aabe 18f1 22be cc04 3bbe
000000b0: 1697 13be 22aa ccbc d9eb 59be 0db7 f939
000000c0: 5044 73be 0d17 3dbe 4d2d ef3c 175e a4be
000000d0: 4e34 21be 25ab 71be fc28 70be 333f 94be
000000e0: 8166 ecbd 7a33 e13c 0958 aebe 668d 76be
000000f0: b879 5ebe d2eb 0f3c 30a2 93be cdef bcbe
00000100: 4e5f 2b40 122b 1240 9753 5140 b475 a5bf
00000110: f19c 633f c15c 86bf b2b2 f83e 926c 7740
00000120: a809 e33f 2099 9440 d189 fa3e 6902 4540
00000130: 4cac c9bf e925 f1be 7dfa 923f 8568 bb3c
00000140: d9ca 5f40 a307 c4be b093 5440 22f3 f33f
00000150: bfab 263f 5703 e23e 334f 6940 713e 9640
00000160: bc62 c8bf 5262 84bf 68c0 743f 4d33 5240
00000170: 1668 0abf 23af eb3f 587c 8d40 2649 f53f
00000180: f45b 4abe c4fa 1d3e 2bbb 09be 8bdc e5bb
00000190: e73c 23bf e7ec 05be fda0 da3c 3861 d9bd
000001a0: fada a5be baf3 5abe 69e5 40be 25fe 993c
000001b0: 6913 b03d a527 34be cfad 2dbe 9ba7 813e
000001c0: 74cc 18be a8cf d13b ab3a 8abe 3015 3fbe
000001d0: 56c3 fdbd 2cb3 cebe 3da4 093e 7481 9abe
000001e0: 50e6 b2bd 76c6 55be bb70 28be a8fc 23bd
000001f0: b583 ddbd ca30 abbd 87c8 28bd b31f 5cbe
00000200: 08d3 47be 39fe 11be a4ef 8c3c bebd 0abd
00000210: 6947 863d 2198 b03c 55f6 1bbe 9d44 e3bd
00000220: ee2b 6a3c 8fe9 48be 15c6 a53b 515f 9abd
00000230: dc31 47bc 4187 13bd 28ed e3bd 8a11 a43c
00000240: 3c2c 1dbb 2ccb 1fbd 5997 16be 2dc1 3abd
00000250: 440c 3b3b 1fa1 7fbe eef3 ebbc fb14 5dbe
00000260: 310f 82bd 1667 b6bb d256 98bc 392b 23be
00000270: 542e f7bb 7881 80be 4f91 de3b 3009 e6bb
00000280: 7427 3dc0 c553 3fc0 14c5 babf 8929 c73f
00000290: 12e3 80be 73cb 803f d083 8e3e 7e68 3fc0
000002a0: 063b d8bf db5f 86c0 8ad1 8c3e 9100 24c0
000002b0: 2c8b c43f 946d d43e 4b9b 8c3e 38a5 c03f
000002c0: 90df 4ec0 d20f 263f 1a03 eabf ae9a 30bf
000002d0: b616 423f 45a6 9d3d b8fd 17c0 bd19 abc0
000002e0: 94ce 213f 1c3f ec3e 29db 43bf d9e1 54c0
000002f0: fa05 80be ca3f 80bf 9501 69c0 0940 f3bf
00000300: 06a3 af3e a93c cebe ae7e 51bf b3db d03e
00000310: 1095 b8be 307f 3ebf 312d 44bf b82a edbe
00000320: 072c d2be 1468 c13e 700e e33e 73a0 d6be
00000330: 6157 acbf c7a3 7abf c8cc c2bd b276 053f
00000340: 5284 d3bd 5837 f9bf eb50 6bbf 1314 9abd
00000350: 1883 943f 88a9 bebf c129 8f3c 85e6 3a3f
00000360: 48b4 00bf c6ca e6bf 112b 083f 478f ac3f
00000370: 929b 0abe 3fce 40be 90f6 05c0 2edc 8fbf
00000380: a8bd c6bd d532 c13e 85d5 b1bd e498 94be
00000390: 1848 b8be dcc9 c2be 8421 67be 7cf2 dcbd
000003a0: 9d66 93be 31af 78be edb5 8fbe 295d e3bd
000003b0: 4bef 2bbe c983 b5be aa52 81be 4ff7 ae3e
000003c0: b282 843e c637 a9be 221d 90be 23a6 19bf
000003d0: b962 f5be fefe 91be 8233 ffbd 08d3 d6bd
000003e0: 53c1 f03d 6fbf c1be 7bad 9fbe 6895 073e
000003f0: 25ec 96bd 388d 73be e906 80be 7ab5 a3be

fc2.bias f4 [32]
-1.1899177 -0.38752028 2.0908947 -0.20307721 -0.086851776 -0.8145092 -1.0464818 -0.5540224
-1.0453205 -0.66712505 -1.1715386 -0.082752846 -0.9210964 -0.2517038 -0.6549227 2.8674638
-1.5697131 1.9315794 -0.4430424 -1.3349997 -0.5227594 1.6522441 -0.9487887 -1.076697
0.360975 -0.39302388 2.4367967 2.2773418 -0.553437 0.8421332 -0.4340876 -0.3620736
00000000: 394f 98bf 0f69 c6be 38d1 0540 79f3 4fbe
00000010: 58df b1bd ad83 50bf 1ef3 85bf 69d4 0dbf
00000020: 10cd 85bf b5c8 2abf faf4 95bf 537a a9bd
00000030: f9cc 6bbf 52df 80be 04a9 27bf 8784 3740
00000040: 5cec c8bf fe3d f73f 74d6 e2be 45e1 aabf
00000050: 8fd3 05bf bc7c d33f d1e3 72bf 35d1 89bf
00000060: b7d1 b83e 6d3a c9be 7af4 1b40 f8bf 1140
00000070: 0cae 0dbf 0b96 573f bb40 debe b661 b9be

pi.weight f4 [5, 32]
0.18643847 0.26264763 2.6664293 0.083578855 0.05085316 0.4059643 0.51002896 -0.10858773
-0.88306594 0.045220852 0.4033607 0.42884108 -0.09789346 -0.18092458 -0.122612976 2.352366
0.39437148 4.1756053 0.23735219 0.0199379 -0.27817982 2.792831 0.29225716 0.23832837
0.97674114 -0.02210044 3.405186 3.3035743 0.09907113 1.9156339 0.23655955 -0.0008885945
0.018338516 -0.13190715 -1.5280526 0.13780642 0.07756886 0.30634335 0.21664448 0.32912168
1.1278502 0.37307858 -0.10824597 0.35636762 0.2878865 0.24589168 0.22090174 -1.7004124
-0.083495036 -4.0441804 0.026581999 0.36789978 0.6476144 -2.6515417 0.54416484 -0.3123171
-0.1285299 0.048464227 -2.4966953 -2.6798093 -0.10739007 -1.7383938 0.2117107 0.23482761
-0.026843248 -0.010533859 -0.9566887 0.06976962 0.26149723 -0.44882905 -0.2300142 0.05108707
-0.106124654 0.09188025 0.018167857 -0.10423543 -0.21401016 -0.07375336 0.07833889 -0.9069398
0.12272304 0.039699424 0.13731258 0.16133367 -0.17156065 -0.043484416 0.08684879 -0.6810985
-0.5774728 0.025297277 -0.7534445 0.010346003 0.055982437 0.07169655 0.051443454 0.0711009
-0.045699 0.09404084 -0.842608 0.001574246 -0.12686281 -1.104237 -0.78332037 -0.054749437
-0.5836763 -0.28396595 -0.3531637 -0.43459082 -0.29637626 -0.1161904 -0.07288078 -0.44158146
-0.23946854 -0.2261935 -0.15585381 -0.08884866 -0.1862416 -0.2082799 -0.19719042 -0.44475397
-0.27918583 -0.33871767 -1.0018524 -0.18374994 -0.17485107 -0.07196785 -0.12660861 -0.0341867
0.0049111284 0.03431529 -1.3259978 -0.07993404 0.018465843 -1.1214895 -0.65811884 -0.34240657
-0.30681264 -0.123762645 -0.4156099 -0.6568619 -0.4518239 -0.019920766 -0.41915312 -0.6056629
-0.22116059 -0.23023333 -0.28236064 -0.18573914 -0.3160368 -0.42569703 -0.2918207 -0.59108907
-0.4486291 -0.2241818 -1.4058827 -0.4282633 -0.21997465 -0.28403914 -0.4262397 0.08412335
00000000: bae9 3e3e c079 863e c7a6 2a40 642b ab3d
00000010: 674b 503d 8dda cf3e 4291 023f 3e63 debd
00000020: 9c10 62bf 8039 393d 4b85 ce3e 0f91 db3e
00000030: 5e7c c8bd 4b44 39be 831c fbbd 2a8d 1640
00000040: 0feb c93e 8f9e 8540 740c 733e cf54 a33c
00000050: 966d 8ebe bebd 3240 bba2 953e 5a0c 743e
00000060: b50b 7a3f fb0b b5bc 91ee 5940 c36d 5340
00000070: cee5 ca3d 7e33 f53f ab3c 723e 91f0 68ba
00000080: a83a 963c ab12 07be 3a97 c3bf 201d 0d3e
00000090: 6cdc 9e3d 09d9 9c3e 0dd8 5d3e a382 a83e
000000a0: 655d 903f 2804 bf3e 10b0 ddbd d175 b63e
000000b0: dc65 933e 07cb 7b3e 1134 623e 1da7 d9bf
000000c0: 72ff aabd ed69 81c0 7ec2 d93c 5c5d bc3e
000000d0: 0fca 253f dcb2 29c0 634e 0b3f 07e8 9fbe
000000e0: 589d 03be 6d82 463d dbc9 1fc0 ff81 2bc0
000000f0: 53ef dbbd b083 debf b1ca 583e a676 703e
00000100: 5fe6 dbbc 3596 2cbc 8de9 74bf 60e3 8e3d
00000110: f7e2 853e eccc e5be d888 6bbe ad40 513d
00000120: e257 d9bd b62b bc3d c2d4 943c 6379 d5bd
00000130: 7b25 5bbe 000c 97bd 2470 a03d 352d 68bf
00000140: 3856 fb3d dd9b 223d ab9b 0c3e a734 253e
00000150: 98ad 2fbe b71c 32bd c7dd b13d 795c 2ebf
00000160: 42d5 13bf 3c3c cf3c bde1 40bf 4882 293c
00000170: d74d 653d a4d5 923d 5fb6 523d 599d 913d
00000180: e02e 3bbd 7c98 c03d 28b5 57bf ee56 ce3a
00000190: 53e8 01be a357 8dbf af87 48bf f240 60bd
000001a0: cf6b 15bf fc63 91be dfd1 b4be b082 debe
000001b0: a1be 97be 3cf5 edbd 8542 95bd f716 e2be
000001c0: 3e37 75be 459f 67be 2498 1fbe 49f6 b5bd
000001d0: 1eb6 3ebe 5347 55be 49ec 49be cbb6 e3be
000001e0: 72f1 8ebe 676c adbe b33c 80bf f228 3cbe
000001f0: 290c 33be e163 93bd b0a5 01be 5a07 0cbd
00000200: 88ed a03b 318e 0c3d 4cba a9bf 75b4 a3bd
00000210: ae45 973c f88c 8fbf 7a7a 28bf ea4f afbe
00000220: 8c16 9dbe 4577 fdbd d2ca d4be 1a28 28bf
00000230: 7655 e7be e030 a3bc 3d9b d6be b90c 1bbf
00000240: ec77 62be 49c2 6bbe 9391 90be 6732 3ebe
00000250: 93cf a1be f6f4 d9be 8669 95be 9d51 17bf
00000260: b7b2 e5be ea8f 65be f7f3 b3bf 5445 dbbe
00000270: 0941 61be 946d 91be 173c dabe dd48 ac3d

pi.bias f4 [5]
1.7367692 -1.0279305 -0.9979206 -1.0806613 -0.83803445
00000000: 744e de3f 3a93 83bf b977 7fbf 1c53 8abf
00000010: 6d89 56bf
