code/MADDPG/plots/tmp/maddpg/k_4/Keep_Awayadversary_0+3/adversary_0_actorRegular.pt (torch, 8351 bytes, 6 tensors)

fc1.weight f4 [32, 8]
000000 01 e9 68 40 df 16 47 40 4a 18 2b 40 7a 45 12 40
       3.6392214 3.110771 2.6733575 2.2854905
000010 a7 01 1a 3f 88 de 36 bf 91 12 3d 3f 4c bf e0 be
       0.6015877 -0.71433306 0.73856455 -0.43895948
000020 1d 44 a4 c0 ba a0 b5 3f e1 78 d2 bd ec eb eb c0
       -5.1333146 1.4189675 -0.10276962 -7.372549
000030 92 b8 f1 bf 78 fa ce 3d 8f e8 0f bf c3 84 14 bd
       -1.8884451 0.10106367 -0.5621423 -0.036259424
000040 12 bf a4 be e4 3a cf bd b4 f5 51 c0 3a c9 ca c0
       -0.32177025 -0.10118654 -3.2806215 -6.337064
000050 da cd 12 bf 33 20 84 3f 58 b2 d6 bf 5f 87 56 c0
       -0.57345355 1.0322326 -1.6773176 -3.3520124
000060 ba 9d 65 bf 86 3a a5 40 24 fb 61 bf a6 84 5b 40
       -0.89693797 5.163394 -0.88273835 3.4299712
000070 cb 77 8b 3f 9f de c5 3f e7 75 7a bf 26 0b bb 3f
       1.0895933 1.5458564 -0.97836155 1.4612777
000080 ed 67 61 3d 74 5f 2b be b8 5e 64 be fe fb 5d bd
       0.055030752 -0.16735631 -0.22301757 -0.054195397
000090 ba a9 68 3e ec fb d8 3c 9b 99 e2 3d b2 45 06 be
       0.22720996 0.026487313 0.11064454 -0.13112524
0000a0 b5 06 98 40 86 ad 45 bf e6 95 95 40 45 7d 8a 3f
       4.7508187 -0.772179 4.674548 1.0819479
0000b0 79 67 d0 3f 3c aa 79 3f 53 d6 b6 3e 25 75 ae bf
       1.6281577 0.9752538 0.3571039 -1.36295
0000c0 24 da c5 c0 2a 07 1a c1 3b 6b ce 3d 9d 76 5f c0
       -6.1828785 -9.626749 0.10079046 -3.4916146
0000d0 ea 1a 3c 3f 7c bf db bf 26 9c d5 3e c3 c3 0d c0
       0.7347857 -1.7167811 0.41720694 -2.2150733
0000e0 71 de 66 c0 21 4d 85 40 ba c5 11 bf 38 f1 6e 40
       -3.6073267 4.165665 -0.5694233 3.7334728
0000f0 8a ea 9a 3e 14 d3 2c 40 e9 59 86 bf 1e cf 58 3e
       0.30257064 2.7003832 -1.0496188 0.21172759
000100 90 ee 14 3f 82 dc af be cc e6 28 3c 41 79 db 3d
       0.5817652 -0.34347922 0.0103089325 0.10716487
000110 78 9e b2 bd 8f cf 12 3e 76 95 c3 bd 3f 59 d1 3e
       -0.08721632 0.1433699 -0.09549992 0.40888402
000120 b6 73 7f bf 86 39 b0 3f 3d 1a d5 bf 19 28 9d 3e
       -0.99785936 1.3767555 -1.6648632 0.30694655
000130 28 dd ba be af 79 4b bf 4f 08 9f 3f 61 c5 25 3f
       -0.36496854 -0.7948255 1.242441 0.647543
000140 e0 1f 94 40 aa 4c aa c0 22 7d 9d 40 4b 33 d8 be
       4.628891 -5.3218584 4.921525 -0.42226633
000150 46 6d ed 3f be ce 82 3f d1 2b c7 3f 79 15 ef bf
       1.8548973 1.0219343 1.5560247 -1.8678428
000160 65 43 0a c0 f5 8c 46 40 7f 2a a6 bf c9 a1 69 40
       -2.1603634 3.1023533 -1.2981719 3.6504996
000170 68 7f 32 40 06 96 27 3f 2b 05 49 c0 f9 dd cb 3e
       2.7890263 0.6546329 -3.1409404 0.3981779
000180 a2 16 a9 3f 22 ed 76 3f b4 b2 00 bf 3f 1c 1e 40
       1.3210032 0.96455586 -0.5027268 2.470474
000190 19 ad d3 3e a7 32 cb 3f 52 3b 1b bf d5 35 f9 3e
       0.41343 1.5874833 -0.6063739 0.48673883
0001a0 94 d8 83 40 d2 a3 54 40 6c 90 6d 40 ab 3a f6 3f
       4.1201878 3.3224988 3.7119398 1.9236654
0001b0 f3 08 5c 3d 63 bd 46 3f f0 a9 05 3f 16 e6 3a be
       0.053719472 0.7763273 0.5221243 -0.18251833
0001c0 31 af 48 c0 84 41 8c bf a2 d4 12 bf 18 90 89 40
       -3.1356928 -1.0957494 -0.573557 4.2988396
0001d0 a8 0d 14 bf 2c ca d7 bf 7c 84 0e 40 ab 62 82 40
       -0.5783334 -1.6858573 2.2268362 4.0745444
0001e0 42 01 ff 3f 66 72 56 c0 fb 64 1b c1 43 43 b3 bf
       1.9922259 -3.3507323 -9.712153 -1.4004902
0001f0 55 3e 1b bf 18 9b 04 c0 61 f8 4c be 24 54 f6 3f
       -0.60641986 -2.0719662 -0.20016624 1.9244428
000200 80 9d 7f c0 77 ae e3 40 c4 5a 22 c0 41 49 90 40
       -3.993988 7.115047 -2.53679 4.508942
000210 94 91 57 bd ff 7b 26 3e d5 26 67 be 1a f9 03 3f
       -0.05262907 0.16258238 -0.22573407 0.51551974
000220 71 ed ce c0 7d fa e9 40 ae d1 ee be cc b6 ca 3f
       -6.4664845 7.311827 -0.46644348 1.5837035
000230 44 67 6e 3d 72 27 40 bf 28 32 7d 3f a2 cd 9e 3e
       0.05820395 -0.7506019 0.9890466 0.3101626
000240 f8 a8 00 c0 e5 3e ae c0 74 25 66 c0 5d a9 d3 c0
       -2.010313 -5.4451776 -3.596036 -6.614424
000250 69 10 a5 3f 52 cc ba bf 64 8b 77 bf 6c 04 43 c0
       1.2895633 -1.4593604 -0.9669707 -3.047145
000260 c5 cd 45 bf 22 14 c3 40 2e 5f 1a c0 17 2c 07 3f
       -0.77267104 6.0962076 -2.4120593 0.5280165
000270 85 a4 a9 3e 60 b0 22 40 ea 53 0f 3f 60 69 89 40
       0.3313333 2.542015 0.5598742 4.294113
000280 f8 46 d9 3f a5 50 a8 3f bb 29 4c 40 f1 f7 fe 3e
       1.6974783 1.3149611 3.190047 0.4979854
000290 86 f8 26 40 72 7b 25 bd 59 a8 24 c0 3b 53 eb 3f
       2.6089187 -0.04040093 -2.5727751 1.8384775
0002a0 f1 6d 6f c0 18 f5 a0 3f 15 43 90 3f de 95 8b c0
       -3.7410853 1.2574797 1.1270472 -4.3620443
0002b0 3a 08 bd 3e 08 87 c1 3f 9a fc 4a 40 b8 77 03 c0
       0.3692034 1.5119333 3.1716676 -2.054182
0002c0 f5 a3 92 c0 1e de 8f 3f 77 74 9f be 7b 8b 47 bf
       -4.5825143 1.123966 -0.31143543 -0.77947205
0002d0 b9 73 ad bf 81 4b 73 bf 62 4e f9 3e 3e ab bd 3e
       -1.3550941 -0.95037085 0.48692614 0.3704471
0002e0 45 38 08 c1 c3 40 96 bf 61 41 55 40 5d a9 01 c0
       -8.513738 -1.1738514 3.3321154 -2.025962
0002f0 76 f7 06 bd 47 3a a9 bd e1 f1 dd 3f 3a 0a 37 3d
       -0.03295084 -0.08263069 1.733944 0.044687487
000300 6b 3e c6 c0 d7 2c c1 40 9e 71 bc 3f 31 65 1a 3f
       -6.1951194 6.0367236 1.4722173 0.60310656
000310 a9 7d 9f bf e8 95 42 be c2 4e a5 bd 0e 92 a5 3f
       -1.2460223 -0.19002497 -0.080716625 1.2935197
000320 44 22 e7 bf de 98 5e 40 8f 5e ca c0 62 1c 85 40
       -1.8057332 3.4780803 -6.324043 4.1597147
000330 73 29 92 bf fd b8 e3 bf b3 a0 52 be 4e d6 35 3f
       -1.1418899 -1.7790829 -0.20569114 0.7103013
000340 ad e1 d3 bf 94 70 b9 3e b6 24 e3 3f f5 13 bd bf
       -1.6553246 0.36218703 1.7745578 -1.4771715
000350 3f 79 1f bf 71 4e 1f 40 56 93 3a bf b7 1b c9 bf
       -0.6229438 2.4891627 -0.72881067 -1.5711583
000360 22 06 a3 3e 92 a6 9d c0 eb 9c 04 c0 e0 ad 08 40
       0.31840616 -4.9265833 -2.0720775 2.1356125
000370 e9 26 43 c0 09 63 f7 3d 93 22 a7 3f ba 4c dc bf
       -3.04925 0.12079436 1.3057426 -1.7210915
000380 2d 57 01 bf 88 80 58 c0 1c ed c0 3f db 2a 52 c0
       -0.50523645 -3.382845 1.507236 -3.2838657
000390 f1 17 2a be 4d 4a 80 be 99 0a de 3f 5f 2c 6c bf
       -0.16610695 -0.25056687 1.7346984 -0.92255205
0003a0 a5 ca ad c0 02 63 b4 be 30 d5 86 40 77 12 72 3e
       -5.430987 -0.35231787 4.213524 0.23639856
0003b0 4e fa d0 be 54 97 b8 3e 94 c3 1a 3f a2 d9 aa be
       -0.40815967 0.36052954 0.6045468 -0.33369166
0003c0 f7 20 ed 3e 1e d5 a0 3e 3a 76 8a 3f 3b f9 df bc
       0.46314213 0.31412596 1.081733 -0.027340522
0003d0 30 b1 d2 be 2f 86 83 3d 8c 35 8d be 40 e3 8a bd
       -0.41150808 0.06422078 -0.27579916 -0.06781626
0003e0 5a 8c 0c 3f 18 dd a4 40 b1 9c 96 c0 cd c3 9d 3f
       0.5490166 5.151989 -4.7066274 1.2325379
0003f0 0d 66 69 3f 9e 29 e5 bf 45 cd a7 3f 54 d5 7a 3f
       0.9117134 -1.7903326 1.3109518 0.9798176

fc1.bias f4 [32]
000000 12 8b e5 bf d9 e4 00 40 1a c1 c0 bf 44 7a f1 bf
       -1.7933066 2.0139678 -1.505893 -1.8865438
000010 03 f5 14 c0 72 31 04 c0 f3 3a d8 3f 5d ca b6 bf
       -2.3274543 -2.065518 1.689299 -1.4280506
000020 48 be 11 c0 ab 29 89 c0 93 7c b1 3d 33 d0 63 c0
       -2.2772388 -4.2863364 0.08666339 -3.5595825
000030 0d c5 67 c0 de 16 9c 3e 59 39 2f 3f 65 79 34 40
       -3.621402 0.30486196 0.6844688 2.8199093
000040 47 fb 7c 3f 60 9d 0b 40 f3 9e ab bf ef 2a 89 3f
       0.9882092 2.1814804 -1.3407882 1.0716227
000050 1f 59 71 c0 3e 99 2d c0 20 05 0a c0 36 90 34 40
       -3.7710645 -2.7124782 -2.1565628 2.821302
000060 35 cd 14 40 bc fa 4c 40 5b 4e 51 c0 8e 78 42 c0
       2.3250248 3.2028036 -3.2704074 -3.038608
000070 50 0d 4b c0 95 9c 75 bf 00 0d 60 c0 ea 4a bd bf
       -3.1726875 -0.9594205 -3.5007935 -1.4788487

fc2.weight f4 [32, 32]
000000 8a c8 86 3f b2 e1 22 c0 1c bc 3b c0 54 d1 a3 bf
       1.052995 -2.5450253 -2.9333563 -1.2798257
000010 cf e1 00 3e 52 0d da 3f 61 9f da c0 e5 60 00 c0
       0.12586139 1.7035315 -6.8319554 -2.005914
000020 ee f4 e9 3e e2 63 24 bf 2f cf 30 40 4c 8c 72 3e
       0.4569468 -0.6421491 2.7626455 0.23686332
000030 48 a3 85 bf 59 45 c1 3f ed 8e 67 3f 9a 03 fb bf
       -1.0440454 1.5099288 0.9045246 -1.9610474
000040 8b 4b 18 c0 76 59 15 c0 ec ed 26 c0 15 88 b6 bf
       -2.3796108 -2.3335853 -2.6082716 -1.4260279
000050 c9 81 ec 3f c6 a4 da be da 76 35 bf dd 08 1d c0
       1.8477107 -0.42703837 -0.7088448 -2.453666
000060 7e e7 26 c0 f8 3c 81 c0 59 81 4a bf 4d 86 4e bc
       -2.6078792 -4.0386925 -0.7910362 -0.012605262
000070 66 9c 63 3f a5 64 9b be 94 a7 9c 3e b7 a2 44 3f
       0.8891052 -0.30350223 0.30596602 0.76810783
000080 d8 d8 d6 be 35 0c 0a be 87 c3 22 be 6c 79 65 be
       -0.41962314 -0.13481219 -0.158949 -0.224096
000090 c0 9e 4a bd c9 b7 85 be 5e 53 49 be 9d 63 b9 be
       -0.049467802 -0.2611678 -0.19660708 -0.3620881
0000a0 d8 e6 f2 bd 3f c9 1a be ff 84 36 bf 76 2f 34 be
       -0.11860436 -0.15115832 -0.71296686 -0.1759623
0000b0 21 c0 4d be 26 79 e1 be d1 b6 1d 3d f2 ca 5c be
       -0.20092823 -0.4403774 0.038504425 -0.21561792
0000c0 b3 65 f2 bd 43 c5 74 be 7c 3a 07 be 82 e0 eb bd
       -0.11835804 -0.23903374 -0.13205904 -0.11517431
0000d0 18 ad d9 be 4f bd ee be c9 3e 48 be 94 bb 8c be
       -0.42514873 -0.46628806 -0.195552 -0.2748686
0000e0 9f ad 07 3d 92 e7 ae 3d 2d 99 7f be 26 26 0a be
       0.033124562 0.08540262 -0.24960776 -0.13491115
0000f0 aa 72 73 bd 2b 19 90 be 96 7c f5 be db 24 1d 3e
       -0.059435524 -0.28144202 -0.47946614 0.1534609
000100 0e 64 04 bf e0 b0 a9 bf 73 2b a7 3e 90 ad 30 3d
       -0.5171517 -1.3257103 0.32650337 0.043134272
000110 b9 a0 37 be 62 80 b3 bf ad 13 56 bf f6 92 d1 bf
       -0.17932405 -1.4023554 -0.8362377 -1.6372974
000120 1c a6 6d bd 4b 33 04 c0 f9 3c b1 3d ab 92 1e bf
       -0.058019742 -2.0656307 0.08654208 -0.6194255
000130 49 16 4f bf e3 63 85 3e 1e 55 6b 3f 8e 43 5b c0
       -0.8089338 0.2605277 0.91926754 -3.4259982
000140 bb 05 35 c0 84 b2 07 c0 d3 e5 9e 3f 75 c6 28 c0
       -2.8284748 -2.1202707 1.2413887 -2.6371129
000150 c4 55 16 bf 23 07 0e c0 82 32 d6 bd 3e e4 2a c0
       -0.5872462 -2.2191856 -0.10458852 -2.6701808
000160 11 23 2d c0 31 99 5e c0 3a 29 0d 40 b5 a2 0e bf
       -2.7052653 -3.4781 2.2056413 -0.5571702
000170 63 dd 4c 3f bb c5 08 3f cf 61 6a 3f 5f e4 36 c0
       0.8002531 0.5342671 0.91555494 -2.8576887
000180 1a fb ec bf 62 ef 94 3e 6d 02 93 3e 83 25 57 bf
       -1.851413 0.29088885 0.28712788 -0.84041613
000190 b0 27 7a bd 36 42 8e bd 3d cb b9 bd cf 6e c7 bf
       -0.061073005 -0.069462225 -0.09071968 -1.5580691
0001a0 1e d1 58 bc 57 cc 63 3e 61 ca 3a bf b8 96 e5 be
       -0.013233451 0.22245918 -0.72965056 -0.44841552
0001b0 34 d9 12 c0 1e 10 26 c0 df 53 c2 bf a9 99 97 bf
       -2.294507 -2.5947337 -1.5181845 -1.1843768
0001c0 c7 31 af bf 9e 78 93 bf 00 de 3b 3e f0 32 7b bf
       -1.3687066 -1.1521184 0.18346405 -0.981246
0001d0 5c 3b 68 bf d5 fa ee 3d 18 bb d5 bd ed 41 66 be
       -0.90715575 0.11668936 -0.10436076 -0.22486086
0001e0 50 18 a6 bd 4f 24 01 c0 ed 06 60 3e ec 66 9b bd
       -0.08110106 -2.017841 0.21877642 -0.0758799
0001f0 84 0a 97 bf 19 e2 3a bf c1 a6 59 be 4c ad 8e bf
       -1.1800084 -0.7300125 -0.21255018 -1.1146636
000200 e2 70 7c 3f 95 69 99 c0 de 7d 6d c0 dc a4 18 3f
       0.98609746 -4.7941384 -3.7108073 0.59626555
000210 d1 8d 49 3e 9a 1f 96 3f 32 14 9b c0 b4 2d 23 c0
       0.19683005 1.1728394 -4.8462152 -2.5496645
000220 d5 8a 13 bf f1 83 9e bd 3f 79 1c 40 b4 1f f0 bf
       -0.57633716 -0.077400096 2.4449003 -1.8759675
000230 d3 e9 a4 bf 87 d8 94 3f 0c 91 b7 c0 f3 3e 35 c0
       -1.2883857 1.1628579 -5.736456 -2.831967
000240 5c 01 ee bf 2b 79 97 bf 21 ae e6 bf c3 c8 50 3f
       -1.8594165 -1.1833853 -1.802189 0.8155634
000250 c7 e2 c2 bf 55 c7 d4 bf ad e3 08 40 75 c9 ea bf
       -1.5225457 -1.6623331 2.1388962 -1.834273
000260 e1 38 28 c0 e8 a0 75 3f 50 3d 81 3f 5e 3d 54 bf
       -2.6284716 0.9594865 1.0096836 -0.8290614
000270 91 30 be bf 3d 0d a4 3f ce 90 dd 3e 46 bb 62 be
       -1.4858571 1.281654 0.4327454 -0.22141752
000280 6a 82 19 c0 c1 55 bf 3f 04 9c c6 3f 1e 44 74 3f
       -2.3985848 1.4948045 1.5516362 0.9541644
000290 02 1a 01 3f 54 8c eb be f9 48 e6 bf 27 c8 09 c0
       0.5043031 -0.460055 -1.799102 -2.1528413
0002a0 0a 1e 4f 3e 64 ca 4e 40 8f f4 52 c0 2b 59 ac bb
       0.20226303 3.231103 -3.2961767 -0.005259653
0002b0 24 3c c8 be 9c c6 03 bf 37 41 a5 3e ee 25 6d be
       -0.39108384 -0.5147493 0.32276317 -0.23159
0002c0 d5 a7 f8 be 5f ab c2 bf 8f 5c 30 bf 83 41 30 40
       -0.48565546 -1.5208548 -0.68891233 2.7539985
0002d0 f0 01 2e 40 7b 4b 24 40 46 72 39 c0 80 48 e0 bf
       2.7188683 2.567107 -2.8975997 -1.7522125
0002e0 52 69 f3 be 84 da 0f 3e 78 c6 08 bf a1 a2 a5 bf
       -0.4754129 0.14048201 -0.5342784 -1.2940255
0002f0 b2 8e 88 3f 4a 77 ae bf 07 e7 4f 3f 0c da 61 40
       1.0668547 -1.3630154 0.81211895 3.5289335
000300 06 f9 06 bf 46 69 30 be bc d8 b1 be 39 df 4c be
       -0.5272373 -0.17227659 -0.34735668 -0.20007028
000310 89 9b 41 bd 8f 85 66 bf 60 f5 a4 be d2 40 88 be
       -0.04726747 -0.90047544 -0.32218456 -0.26611954
000320 b5 44 6b 3c 75 c1 23 bf 32 59 45 bf e2 2d 00 be
       0.014359643 -0.63967067 -0.77089226 -0.12517503
000330 c1 29 43 3e c6 a3 02 bf 6e fe 47 bc 08 26 58 be
       0.19058897 -0.5103115 -0.012206657 -0.21108258
000340 8b b4 2d be 57 e3 a7 be df f3 08 bd e0 30 85 be
       -0.16963403 -0.32790634 -0.0334357 -0.2601385
000350 09 d8 a1 be 4c 1c cb be d5 96 62 3d 0c 4b 6b 3e
       -0.31610134 -0.39670026 0.055319626 0.22977847
000360 98 18 d6 be 0d f3 de be 99 a7 7b 3e 2d d6 ff 3c
       -0.4181564 -0.43544808 0.24575652 0.031230057
000370 e2 3b 75 bc 89 8d 82 3d 58 c5 89 bd 30 c1 11 be
       -0.01496789 0.06374652 -0.067270935 -0.14233851
000380 9f 3d 48 bf 7f a6 b6 bd f9 4d d7 3c 8e 6d 80 be
       -0.78219026 -0.08918475 0.026282297 -0.25083584
000390 37 97 61 be c1 ff 81 bf eb 1c 0e bf 82 f9 94 be
       -0.2203034 -1.0156175 -0.55512875 -0.2909661
0003a0 65 0a fc bd d6 16 e6 3e 7b 80 b0 bf 6a ae 5c be
       -0.1230667 0.44939297 -1.3789209 -0.21550909
0003b0 46 0c 88 bf 0f 55 c8 bf ec 12 4f be 33 6a ae be
       -1.0628746 -1.5650958 -0.20222062 -0.340654
0003c0 e1 21 90 3d df b7 c3 3d e3 8c 12 be ef 68 5c bf
       0.07037712 0.09556555 -0.14311557 -0.86097616
0003d0 b4 5d 1f bf 9e 11 49 be ad 99 10 bf 03 7f f3 be
       -0.62252355 -0.19635627 -0.5648449 -0.4755784
0003e0 60 1d 99 3e 2d 86 18 bf c7 85 10 be c9 8a 2c bd
       0.29905224 -0.59579736 -0.14113532 -0.042124543
0003f0 6a 74 92 be d2 9c a6 be a7 b2 9e bb 39 7b 58 bd
       -0.28604442 -0.3254152 -0.0048430744 -0.05285189

fc2.bias f4 [32]
000000 0b 1b c9 3e 5e 9e 9a be 21 6c d9 bf 48 c0 b1 bf
       0.39278445 -0.3019895 -1.6986123 -1.3886805
000010 0f 84 86 3f ea d4 2d c0 b5 71 08 bf 0a 68 30 bf
       1.0509051 -2.7161202 -0.53298503 -0.6890875
000020 b4 c6 8c bf 06 47 41 c0 f9 e9 09 40 ea 22 1f bf
       -1.0998139 -3.01996 2.1549056 -0.6216265
000030 64 54 49 c0 2e ec 06 be c1 48 15 40 5f e1 89 bf
       -3.1457758 -0.13176033 2.3325655 -1.0771903
000040 ed bf b4 bf 5f 3c cd bf b0 9d 71 bf 03 d7 a3 40
       -1.4121071 -1.6034049 -0.9438124 5.1199965
000050 bd 41 e6 3e 0f 51 c1 bf a1 1c a3 bf e7 c0 fa be
       0.4497203 -1.5102862 -1.2743112 -0.48975298
000060 9d 14 d8 bf 50 66 a1 be 2c e2 fb bf d4 d1 97 bd
       -1.6881291 -0.3152337 -1.9678397 -0.074130684
000070 de bb 18 bd e5 69 41 be 79 63 ab 3f 82 18 4c be
       -0.03728854 -0.18888052 1.3389732 -0.19931224

pi.weight f4 [5, 32]
000000 8a 29 60 c0 c0 7c 27 be e5 2f ca be 8b 08 eb bc
       -3.5025353 -0.16356182 -0.39489666 -0.028690597
000010 2e a9 95 c0 b8 28 51 40 fc ab 8a 3d b7 f0 f7 3d
       -4.676902 3.2681103 0.06771085 0.121064596
000020 f8 f1 da be f4 ef 23 c0 f4 2c ba 3f 04 da b3 bf
       -0.42762733 -2.5615206 1.4544969 -1.4050908
000030 6d 39 87 3e 1d 82 af 3d e3 cb 19 40 8f 06 a6 3d
       0.26411 0.08569739 2.4030693 0.0810672
000040 44 10 94 3f 16 48 80 3f 07 08 67 3e be 5f 8b 40
       1.1567464 1.0021999 0.22561656 4.3554373
000050 7b 18 d1 bf be 5a e9 be f7 eb ec 3e 6a ce 90 3d
       -1.6335596 -0.45577043 0.46273777 0.0707062
000060 5e f0 0d bf 5f 3e 9a bd 53 50 82 c0 5e 8c 77 bc
       -0.55444896 -0.075314276 -4.072305 -0.01510915
000070 46 96 8d c0 36 4b 8a be 42 fc b0 bf 64 3c 33 be
       -4.424594 -0.27010506 -1.3826983 -0.17503506
000080 9f 62 44 40 02 66 b8 bd f5 8c de 3f 59 e2 53 bf
       3.0685194 -0.090038314 1.7386767 -0.82767254
000090 ae 9b 15 40 82 80 8f 3f 81 7a a2 3e 1e 09 a4 be
       2.337627 1.1211092 0.31734088 -0.32038206
0000a0 98 b3 04 bf 86 23 6a bf 48 11 0c bf da bc 05 40
       -0.5183654 -0.91460454 -0.5471387 2.0896516
0000b0 33 3c fc bf 55 dd c9 bd 08 36 2d c0 a2 94 81 3e
       -1.9705871 -0.09856669 -2.7064228 0.2530871
0000c0 14 07 6e 3f 51 e2 22 bf 62 89 d3 3e b5 d5 ac bf
       0.9297955 -0.6362658 0.41315752 -1.3502718
0000d0 95 0a 56 40 46 76 c4 be 58 8b b3 3f c7 38 0b bd
       3.3443959 -0.38371485 1.4026899 -0.033989694
0000e0 1d 1d 9d bf ea 87 14 3e bd 60 3e 3f f8 f1 11 3e
       -1.227451 0.14504972 0.7436636 0.1425246
0000f0 0a 7c 9b 3f 47 bd 0d 3e a1 f7 83 40 1c 98 22 3e
       1.2147229 0.13841735 4.123978 0.15878338
000100 1c 33 3d bf 8a c4 ab bd b0 23 dd be 53 59 1b 3f
       -0.7390611 -0.08387096 -0.4319129 0.6068317
000110 da 64 0e 3e 75 3d 62 bf f4 40 c3 3c 65 5b c6 3e
       0.1390566 -0.88375026 0.023834683 0.38741603
000120 b8 6d 19 3e a4 52 4e bd 0b 6e 9a 3d b0 4f 17 bf
       0.1498326 -0.05037178 0.0754052 -0.5910597
000130 61 e9 d5 be 3e 88 87 be 4d 41 73 bf 9b be ed bd
       -0.41779616 -0.26471132 -0.95021516 -0.11608621
000140 af 98 40 bf 8a 10 06 3f 34 cb e6 3e ac d8 8e be
       -0.75232977 0.52368987 0.45076907 -0.27899683
000150 11 dd c1 be 91 1c e0 3b f3 3c a0 bf e2 78 de bc
       -0.37863973 0.006839343 -1.25186 -0.02715725
000160 4f 61 b9 bf 80 fe 9a 3d 85 38 04 3e b8 e9 28 3e
       -1.4482821 0.07568073 0.12912185 0.16495407
000170 ee 8c ab bf 37 ef 4d 3e b3 e1 94 bf 88 41 36 be
       -1.3402383 0.20110784 -1.1631378 -0.17798436
000180 91 b6 05 c0 58 fa 92 3b e6 c7 02 c0 d9 7d 0a c0
       -2.089268 0.0044854097 -2.0434508 -2.1639311
000190 03 10 38 bf e3 6a 59 3f 6a 58 8d be b4 25 91 3e
       -0.7189943 0.8492872 -0.27606517 0.28349078
0001a0 94 56 cc 3e 85 7a 03 c0 f9 5b 87 bd 14 24 3f c0
       0.39909804 -2.054353 -0.06609339 -2.986577
0001b0 55 bb 7f c0 8b 06 10 bd c8 e9 03 c1 c2 dc c9 3d
       -3.9958088 -0.03516249 -8.2445755 0.09856559
0001c0 67 e8 40 40 a3 4c 39 3f 45 80 95 3e 3e c6 e7 3f
       3.0141847 0.72382563 0.29199424 1.8107374
0001d0 49 dc fe be 92 cf d6 bd ed 34 2d be 38 45 1e be
       -0.4977744 -0.1048881 -0.16914721 -0.15456092
0001e0 9e 5f 83 40 d8 9c 15 be bb ac 92 40 da 55 eb 3c
       4.105422 -0.14610612 4.5835853 0.02872746
0001f0 6e ab 68 c0 1e 39 f5 be 7f 95 97 bf a1 df 82 3d
       -3.6354632 -0.4789514 -1.1842498 0.0639031
000200 8d ee 55 bf b2 32 c4 3d d1 fe 70 3f a9 df ee bd
       -0.83567125 0.09579982 0.9413882 -0.116637535
000210 60 09 b9 be fb d8 41 c0 47 bb ad 3d 2f 95 3a 3e
       -0.36139965 -3.0288684 0.08482986 0.18220972
000220 05 87 e9 3e fd eb 02 40 fb 71 0a bf c8 71 15 40
       0.45610824 2.0456536 -0.5408017 2.3350697
000230 0e 88 11 40 c0 30 2a 3e 6b 06 2c 40 68 ef 72 be
       2.273929 0.16620159 2.6878917 -0.23724139
000240 03 ef ec bf 50 0a 68 3e 8c dc 5c bf 2e e4 9c c0
       -1.851044 0.22660184 -0.8627403 -4.902854
000250 5b 66 01 c0 f8 f2 c8 3e d0 b9 57 3e 91 0d c8 3d
       -2.0218723 0.3924787 0.21066976 0.097682126
000260 b3 c4 30 3f 62 2f e2 3e 2d af 3b bf cd 4f 3a 3e
       0.6905014 0.44176775 -0.7331417 0.18194504
000270 fd c8 3e 3f 0a cf c6 3d b8 8c 09 c0 81 76 1f bd
       0.74525434 0.09707458 -2.1492138 -0.038931374

pi.bias f4 [5]
000000 39 2c fd 40 b5 82 05 bf c4 08 61 be 58 37 ea bf
       7.9116483 -0.5215257 -0.21976 -1.829814
000010 ff 39 6c c0
       -3.6910398
