code/MADDPG/plots/tmp/maddpg/k_3/Waterworldpursuer_0+1/pursuer_0_target_actorRegular.pt (torch, 38023 bytes, 6 tensors)

fc1.weight f4 [32, 242]
0	0x3d223a68	0.03960648
1	0xbd120b77	-0.035655465
2	0x3d27d0c9	0.040970597
3	0xbcb3b007	-0.021934522
4	0x3c3a3c5a	0.011366928
5	0x3c6b48dd	0.014360634
6	0x3cce28bb	0.025165906
7	0x3b3fe2d6	0.0029279492
8	0xbd377a2a	-0.04479424
9	0xbc345917	-0.011007569
10	0xbd133482	-0.035938747
11	0xbcb94af4	-0.022618748
12	0xbc843a89	-0.016141193
13	0x3d3483e7	0.044071104
14	0x3c57efdf	0.013179748
15	0x3d26e6ed	0.04074757
16	0xbb0aace0	-0.002116017
17	0x3ac6ef1d	0.0015177462
18	0xbd41b8e2	-0.04729546
19	0xbd37be13	-0.044859003
20	0xbc45e129	-0.012077608
21	0xbd31d2c5	-0.043413896
22	0x3d1ec6e2	0.03876389
23	0xbd550653	-0.052007984
24	0x3c7300ae	0.014831705
25	0xbd195769	-0.037436876
26	0x3d2a5662	0.041586287
27	0x3c58fdc3	0.013244095
28	0x3d26ad81	0.04069281
29	0xbd021934	-0.031762317
30	0xbbdf9230	-0.006822847
31	0xbd2cb350	-0.042163193
32	0xbccb1fdb	-0.024795463
33	0x3d0bc9b3	0.034127902
34	0xbc488780	-0.012239337
35	0xbcba298d	-0.022724891
36	0x3be20b2d	0.006898305
37	0xbd205cf9	-0.039151166
38	0xbd1b5af4	-0.037928537
39	0xbd4bbc6f	-0.04974025
40	0x3cada23d	0.021195525
41	0xbd666178	-0.056245297
42	0x3d59cd50	0.053174317
43	0xbcc46962	-0.023976032
44	0x3cb09796	0.021556657
45	0xbd2bb2d5	-0.041918594
46	0xbcab6b71	-0.020925255
47	0xbd50f6c8	-0.0510166
48	0xbd116f4d	-0.035506535
49	0x3ce6c734	0.02817116
50	0x3d30cc88	0.043163806
51	0x3c536aa0	0.012903839
52	0x3cb6eeb7	0.022330625
53	0x3d45182a	0.048118748
54	0x3c766181	0.015037895
55	0xbd07a5a1	-0.03311694
56	0xbd23dd4b	-0.040005963
57	0xbd837a35	-0.064197935
58	0xbd0a9232	-0.03383083
59	0x3c7da047	0.015480108
60	0xbcc563bf	-0.024095414
61	0xba89f0a7	-0.001052399
62	0xbb1c907b	-0.0023889828
63	0x3c291332	0.010319518
64	0x3d695d5e	0.056973808
65	0x3c9b1d61	0.018934907
66	0x3cdfc84b	0.027317187
67	0x3cb046b8	0.021518096
68	0x3d063428	0.032764584
69	0xbd65e015	-0.056121904
70	0x3c33179d	0.010930923
71	0x3bb6edb0	0.005582534
72	0x3b027af7	0.0019909719
73	0x3d477603	0.04869653
74	0x3bcc2dd8	0.006231051
75	0xbd606ff6	-0.054794274
76	0xbc9f2ca2	-0.019430462
77	0xbd7886ef	-0.060675558
78	0x3d5b6c20	0.053569913
79	0x3d6ee28d	0.058321524
80	0x3d4b4a7f	0.049631592
81	0xbba49e6d	-0.0050237686
82	0xbcfd67df	-0.030933319
83	0x3d756111	0.059907023
84	0x3ce3c974	0.027806021
85	0xbd1d1dc8	-0.03835848
86	0xbc630862	-0.013856979
87	0xbd74d612	-0.059774466
88	0x3d80d914	0.06291404
89	0xbd595e92	-0.053068705
90	0xbd692df2	-0.056928582
91	0x3d37fa3a	0.04491637
92	0x3d607558	0.054799408
93	0x3d3a1978	0.045434445
94	0xbbf7676a	-0.0075501697
95	0x3d803fe4	0.06262186
96	0x3d6ffb80	0.05858946
97	0x3c858aaf	0.016301481
98	0x3d076857	0.03305849
99	0x3d484ab9	0.048899386
100	0xbc866e4b	-0.016410014
101	0x3c3fd644	0.0117088
102	0xbd80e7e2	-0.06294228
103	0x3ca1d812	0.01975635
104	0xbd40d3f3	-0.04707713
105	0xbd1b5cac	-0.037930176
106	0xbd71ec25	-0.059063096
107	0xbd76588c	-0.06014304
108	0x3d179598	0.037007898
109	0x3d44f5a9	0.048085842
110	0x3d66f311	0.05638415
111	0xbc8a20de	-0.016861375
112	0xbd795c54	-0.060879067
113	0xbca89e44	-0.02058328
114	0xbcb3d516	-0.021952193
115	0x3d2b995c	0.0418943
116	0xbcd7adb9	-0.026327955
117	0x3d359c24	0.04433836
118	0xbd379356	-0.044818245
119	0xbd7e28fc	-0.062050804
120	0xbd1c5c68	-0.038174063
121	0xbc2cb684	-0.010541562
122	0xbcbff43d	-0.023431892
123	0x3d4df25f	0.05027997
124	0xbd6ebe42	-0.058286913
125	0xbd6556a2	-0.055990823
126	0x3d152ba1	0.03641856
127	0x3d5226ea	0.051306643
128	0xbbc15bb9	-0.005900827
129	0xbceea066	-0.029129218
130	0x3d79b8eb	0.060967367
131	0xba9c4aac	-0.001192411
132	0xbcdce320	-0.02696377
133	0xbd3efbc8	-0.046626836
134	0x3d51e380	0.05124235
135	0x3d2b5d23	0.04183687
136	0x3cca1bfb	0.024671545
137	0xbca8bcc4	-0.020597823
138	0xbd375162	-0.044755347
139	0xbc4183b5	-0.011811187
140	0xbd8311bf	-0.06399869
141	0xbd44132e	-0.047869854
142	0x3c65586c	0.013998132
143	0x3d5b16d9	0.053488586
144	0xbd7e8291	-0.062136237
145	0xbd635eec	-0.055510446
146	0x3cc008e4	0.02344174
147	0x3d2939b9	0.041314814
148	0x3ba83080	0.005132735
149	0xbcf7932a	-0.03022154
150	0xbcc60a03	-0.024174696
151	0x3ccec95b	0.025242498
152	0xbce16600	-0.027514458
153	0x3c8065c3	0.015673524
154	0xbcb73a02	-0.022366527
155	0x3c43846c	0.011933427
156	0xbbd3fe72	-0.006469541
157	0x3d6b8ee4	0.057509318
158	0xbd2dfb4d	-0.042475987
159	0x3d1fa5a7	0.038976338
160	0x3d762088	0.060089618
161	0x3d2a6eea	0.041609682
162	0x3d1b6bd8	0.037944645
163	0xbc984d77	-0.018591626
164	0xbcb60ead	-0.022223795
165	0x3d6fcf52	0.058547325
166	0x3d3f459a	0.046697237
167	0x3d73395b	0.05938087
168	0xbd38600b	-0.04501347
169	0xbcbbd14c	-0.022926949
170	0x3c9cc36d	0.019136155
171	0x3cd418ac	0.02589067
172	0x3d823fd3	0.0635983
173	0xbc0bde17	-0.008536837
174	0xbd504acf	-0.050852593
175	0x3ad9df4c	0.0016622334
176	0xbd1361da	-0.03598199
177	0xbc8f088f	-0.017460136
178	0x3d499b2f	0.04922026
179	0xbd7e70fa	-0.06211946
180	0xbd1a55eb	-0.037679594
181	0xbba1c165	-0.0049363845
182	0xbd65dcc9	-0.05611876
183	0xbcbc8238	-0.023011312
184	0x3c8a25fe	0.01686382
185	0x3c9f8ea2	0.019477192
186	0xbd5408b8	-0.051766127
187	0xbcb41638	-0.021983251
188	0xbd811d84	-0.06304458
189	0x3c4b5cfe	0.012412308
190	0xbd5c6300	-0.05380535
191	0xbce05eb7	-0.027388914
192	0x3d213499	0.0393568
193	0xbcfd62f8	-0.030930981
194	0x3d6079e1	0.054803733
195	0xbc9b993c	-0.018993966
196	0x3ac294bf	0.0014845355
197	0xbb240c3a	-0.0025031702
198	0x3d3786aa	0.04480616
199	0xbd060bf7	-0.032726254
200	0xbd1fdb58	-0.039027542
201	0xb92e599b	-0.00016627314
202	0xb98fc694	-0.00027423038
203	0x3ce8ad00	0.028402805
204	0xbd3ec355	-0.046573002
205	0x3d6e2c8e	0.05814796
206	0xbd8322ab	-0.06403097
207	0xbd57669d	-0.052588094
208	0xbcd988d2	-0.026554499
209	0xbcaf7993	-0.021420276
210	0xbd569e0c	-0.05239682
211	0x3d0edaef	0.03487676
212	0xbd3a016e	-0.04541152
213	0x3d1eeb7e	0.0387988
214	0x3d3acb0b	0.045603793
215	0x3d620e1d	0.05518924
216	0x3d81af88	0.06332308
217	0x3d05c608	0.03265956
218	0x3bb8554e	0.0056254035
219	0x3d22432c	0.03961484
220	0xbd50ae05	-0.050947208
221	0x3d5b842b	0.053592842
222	0x3d2ce18e	0.042207293
223	0x3d0fe1e6	0.035127543
224	0x3bf89016	0.0075855358
225	0x3d804253	0.0626265
226	0xbd1f3ff7	-0.03887936
227	0x3d4d9946	0.050195
228	0xbc0f7246	-0.008755272
229	0xbd33aadc	-0.043864116
230	0xbd491fcd	-0.049102593
231	0xbd21ba31	-0.039484207
232	0x3b9d1a4e	0.0047943955
233	0x3d75ac47	0.05997875
234	0xbc849966	-0.016186427
235	0xbcceb5f5	-0.025233248
236	0xbd6dbd95	-0.058042128
237	0x3c63fbc1	0.013915003
238	0x3d74ac9a	0.05973492
239	0xbd0f4a1a	-0.034982778
240	0x3ccb09af	0.024784891
241	0xbd0d3f81	-0.03448439
242	0x3e380dd2	0.17974022
243	0x3de920b9	0.113831945
244	0x3defa001	0.1170044
245	0x3e405d8f	0.1878569
246	0x3e281971	0.16415955
247	0x3e339de2	0.17540696
248	0x3da68269	0.081303425
249	0x3e1ce640	0.15322208
250	0x3dac1f21	0.08404375
251	0x3daf0169	0.08545191
252	0x3dbaf722	0.09129168
253	0x3d9f4c50	0.07778227
254	0x3e203521	0.15645267
255	0x3e139964	0.14413983

fc1.bias f4 [32]
0	0x3d4648b2	0.04840917
1	0x3da5c74d	0.08094654
2	0x3dabff19	0.083982654
3	0x3cc2d692	0.023783956
4	0xbceb908c	-0.028755449
5	0xbd2dc49d	-0.042423833
6	0x3d7285ce	0.059209637
7	0xbd7c807e	-0.061645977
8	0xbde12d91	-0.10995019
9	0xbd080acb	-0.033213418
10	0xbcdef27e	-0.027215239
11	0xbd0042e3	-0.03131379
12	0x3cc5118b	0.024056217
13	0xbcad6de5	-0.021170566
14	0xbbe882e9	-0.007095684
15	0xbd624b1d	-0.055247415
16	0x3e3c10c6	0.18365774
17	0x3d0f8c50	0.03504592
18	0xbda4de19	-0.08050174
19	0x3bca1e0a	0.0061681317
20	0xbd1ce0c8	-0.038300306
21	0xbd25a03d	-0.04043602
22	0xbd835427	-0.06412535
23	0x3e141bdc	0.14463753
24	0x3b356ae6	0.0027682125
25	0xbcd63f20	-0.026153147
26	0xbddad558	-0.10685223
27	0xbceb7c3d	-0.028745765
28	0xbb53642a	-0.0032255747
29	0xbd7a56a7	-0.061117794
30	0xbdc4e747	-0.09614425
31	0x3c740d0f	0.014895692

fc2.weight f4 [32, 32]
0	0x3c91dd56	0.017805737
1	0x3caf1428	0.021371916
2	0xba9d0cec	-0.0011982
3	0x3e1d9a8d	0.15390988
4	0x3db0de1a	0.086361125
5	0xbdfe51ce	-0.12417947
6	0x3df206df	0.11817717
7	0xbddd8c87	-0.10817819
8	0xbcd16acd	-0.025563622
9	0xbd38bb86	-0.04510071
10	0x3db06513	0.086130284
11	0xbd47014c	-0.04858522
12	0x3e064bf6	0.13114914
13	0x3db7a6b2	0.089673415
14	0x3cb53c97	0.022123618
15	0xbd988711	-0.07447637
16	0xbe38e7ca	-0.1805717
17	0xbd22d567	-0.039754298
18	0xbe039437	-0.12849508
19	0x3d44dcac	0.04806201
20	0xbe0b8d9f	-0.13628243
21	0x3e0f2110	0.13977456
22	0xbe0ecd22	-0.1394544
23	0x3d0d2a82	0.034464367
24	0xbe05d8af	-0.1307094
25	0xbe28a110	-0.1646769
26	0x3cdb829d	0.02679568
27	0x3db8539c	0.09000322
28	0x3d91a3f3	0.07111349
29	0xbdef14ff	-0.116739266
30	0xbc12a326	-0.00895003
31	0x3d19b48c	0.0375257
32	0xbe257c68	-0.16160738
33	0xbda7b1ed	-0.081882335
34	0xbe39acaa	-0.18132272
35	0x3e2f6680	0.17128944
36	0xbe1c8c20	-0.15287828
37	0xbce29c5d	-0.02766245
38	0xbd810925	-0.06300572
39	0xbd0960fb	-0.033539753
40	0xbd3ae3fe	-0.045627587
41	0x3dd560db	0.10418864
42	0x3e2466d7	0.16054855
43	0x3c407405	0.011746411
44	0xbdb8e190	-0.09027398
45	0x3ac84ada	0.0015281097
46	0xbd989aa4	-0.0745137
47	0xbdad14d5	-0.08451239
48	0x3dab264c	0.08356914
49	0x3db475d4	0.088115364
50	0x3d06c17e	0.032899372
51	0x3e0baa35	0.13639148
52	0xbccf5b0f	-0.025311975
53	0xbd3ceabe	-0.046122305
54	0x3db017ed	0.085983135
55	0xbe1ce2bc	-0.15320867
56	0x3de72c6b	0.11287769
57	0xbe6ab7c1	-0.22921659
58	0xbe2c7511	-0.16841532
59	0xbd3c61e6	-0.0459918
60	0x3e0f6811	0.14004542
61	0xbe2f3cf1	-0.17113091
62	0x3de594e8	0.11210042
63	0x3b92fbce	0.004485584
64	0x3e0ed64b	0.13948934
65	0xbe4c07e3	-0.19924884
66	0xbdbdad46	-0.09261565
67	0xbc27af95	-0.010234733
68	0xbda2e96c	-0.07954678
69	0xbe582ce0	-0.21110868
70	0xbe0f61e0	-0.1400218
71	0xbc83cecf	-0.016089825
72	0x3db34599	0.08753509
73	0x3de1c64c	0.1102415
74	0xbd7b1bb2	-0.06130571
75	0xbce3066e	-0.027713027
76	0x3e23fea9	0.16015114
77	0x3b3e6f05	0.0029057872
78	0x3cc78276	0.0243542
79	0x3ddf7c5b	0.10912391
80	0xbdb86f16	-0.09005563
81	0x3e2248db	0.15848105
82	0x3d4de922	0.05027116
83	0x3dc70ebb	0.097196065
84	0xbde237f9	-0.11045832
85	0xbe670351	-0.22559859
86	0x3db61908	0.08891493
87	0xbd2593bd	-0.040424097
88	0xbc2403e9	-0.010010698
89	0x3c9d4e27	0.019202305
90	0xbd85d1a7	-0.06534129
91	0x3dd398aa	0.10331853
92	0xbdaa728b	-0.083226286
93	0x3dc844be	0.097787365
94	0x3dd2238f	0.102606885
95	0x3d97d12f	0.074129455
96	0xbdde7461	-0.10862041
97	0xbd445a43	-0.047937643
98	0xbe10fe34	-0.14159471
99	0xbd9a7d8b	-0.07543477
100	0x3e08efda	0.13372746
101	0x3d8b8baa	0.06813748
102	0xbd822bd2	-0.06356014
103	0xbdd76d78	-0.105189264
104	0xbe46d24b	-0.19416158
105	0xbccbc4b3	-0.024874067
106	0x3e20d35c	0.15705627
107	0xbd9d7899	-0.07689018
108	0x3e2d2b05	0.16910942
109	0xbde28d85	-0.11062149
110	0xbdbbe3da	-0.091743186
111	0xbd2271c9	-0.039659295
112	0xbda128e1	-0.07869125
113	0x3de53ea8	0.11193591
114	0xbca4bc1d	-0.02010923
115	0x3e1968e6	0.14981422
116	0x3c8069f8	0.01567553
117	0x3dbf3381	0.093359955
118	0xbd18ec48	-0.03733471
119	0xbe37a266	-0.17933044
120	0x3d34e9cb	0.044168275
121	0xbbe73231	-0.007055544
122	0x3cd66ec7	0.02617587
123	0xbda874e5	-0.08225421
124	0xbe244780	-0.160429
125	0x3d9b2edc	0.07577297
126	0x3d44a02e	0.04800432
127	0xbd293fd6	-0.041320644
128	0xbdcf1fb4	-0.10113469
129	0xbe2e6e89	-0.17034353
130	0xbe5a7284	-0.21332747
131	0xbe106d8c	-0.14104289
132	0x3e2dc61a	0.16970101
133	0xbd89d49b	-0.067300044
134	0x3df37773	0.118880175
135	0xbc9713a0	-0.018441975
136	0x3ac335ae	0.0014893317
137	0xbb95176c	-0.0045499112
138	0x3dd00d42	0.10158779
139	0x3dd4f700	0.10398674
140	0x3d80d96d	0.06291471
141	0x3d562fe3	0.052291762
142	0x3cee6fb4	0.029105999
143	0xbcb655fa	-0.022257794
144	0xbdf1a406	-0.11798863
145	0x3dea1596	0.114298984
146	0xbe32504a	-0.1741344
147	0x3ddbbf2f	0.10729825
148	0xbde40a61	-0.11134792
149	0x3d5568ab	0.052101772
150	0x3cd219cb	0.025647065
151	0xbe34a71e	-0.17641875
152	0xbe267b61	-0.16258003
153	0xbd5b21e8	-0.053499132
154	0x3da06720	0.078321695
155	0x3e280298	0.1640724
156	0x3dd72340	0.1050477
157	0x3c68d7dd	0.014211622
158	0xbd8f7a4f	-0.070057504
159	0xbd8a54a6	-0.06754427
160	0xbdd3b9d0	-0.10338175
161	0xbd8a28df	-0.06746077
162	0xbca9e1b8	-0.020737514
163	0xbd353442	-0.04423929
164	0xbd5ce475	-0.05392881
165	0x3c98771a	0.01861148
166	0xbdb12fcb	-0.08651694
167	0xbe1fa5b4	-0.15590554
168	0x3dfe563f	0.12418794
169	0xbdbc5be9	-0.09197218
170	0x3dd8647b	0.1056604
171	0x3d367b16	0.044550978
172	0xbcc21c75	-0.02369521
173	0x3dec316e	0.115328655
174	0xbdd985f9	-0.106212564
175	0xbdbfbd2d	-0.09362254
176	0xbe307f9c	-0.17236179
177	0xbcfaefe6	-0.03063197
178	0x3e1712f8	0.1475333
179	0x3e2b7e45	0.16747387
180	0xbd61ea7c	-0.055155262
181	0xbe22400f	-0.15844749
182	0x3c443e42	0.011977734
183	0x3e1b5ee5	0.15172918
184	0xbe2b721b	-0.16742747
185	0xbe334968	-0.17508471
186	0x3d99e466	0.07514267
187	0x3e0f0b9e	0.13969275
188	0x3df6a09a	0.12042351
189	0xbe20e847	-0.15713607
190	0xbd8244ae	-0.06360756
191	0x3d6f3986	0.058404468
192	0xbd8ab909	-0.06773574
193	0x3ade9327	0.0016981111
194	0x3d5cc05b	0.053894382
195	0xbe0aee7e	-0.1356754
196	0x3d1f099e	0.03882753
197	0xbdbc195e	-0.09184526
198	0x3e0c150d	0.13679905
199	0x3d73e7b5	0.059547145
200	0x3dcbfc8e	0.0996028
201	0x3cb4832d	0.022035206
202	0x3ddb9bc8	0.10723072
203	0xbdea4e99	-0.114407726
204	0x3d3efcbe	0.046627752
205	0x3b29b780	0.0025896728
206	0xbd9b9588	-0.0759688
207	0xbda7c129	-0.08191139
208	0xbe38b822	-0.18038991
209	0x3c745968	0.014913894
210	0x3d3f5f41	0.0467217
211	0x3e04264e	0.12905237
212	0xbd74bdc6	-0.059751295
213	0xbdb68282	-0.08911611
214	0x3c6f88f4	0.0146200545
215	0x3d4a425e	0.0493797
216	0xbe0f190b	-0.13974397
217	0xbda70e41	-0.081570156
218	0x3ceb1e18	0.028700873
219	0x3e025b52	0.12730148
220	0x3d8cd2bc	0.06876132
221	0xbddb998a	-0.107226446
222	0x3dce41ce	0.10071145
223	0x3dcf38af	0.101182334
224	0x3d3b94a9	0.04579607
225	0xbca7b890	-0.020473748
226	0x3d3fef02	0.046858795
227	0xbda2070a	-0.07911499
228	0x3be1d719	0.0068920967
229	0xbd8497cc	-0.064742655
230	0x3d8c5b17	0.068533115
231	0xbd95b722	-0.073103204
232	0x3e183f3c	0.14867872
233	0x3d6bc8d8	0.057564586
234	0xbe2e04c0	-0.16994
235	0xbdd02db3	-0.101649664
236	0x3e2548e6	0.1614109
237	0x3ddbb381	0.10727597
238	0xbe1c69b9	-0.15274705
239	0x3dfc883b	0.123306714
240	0x3d9a9de0	0.075496435
241	0x3e10ef20	0.14153719
242	0xbbc642ef	-0.0060504596
243	0xbd245fec	-0.04013054
244	0xbdec306c	-0.11532673
245	0x3d079983	0.033105385
246	0xbe1f1c16	-0.15538058
247	0x3e83994b	0.2570289
248	0xbe25d1f9	-0.1619338
249	0xbd40d8cd	-0.047081757
250	0xbc530ebc	-0.012881931
251	0xbdb75f54	-0.08953729
252	0xbc0798ef	-0.008276208
253	0xbd69d275	-0.057085473
254	0xbc05f0ab	-0.0081750555
255	0xbde82130	-0.11334455

fc2.bias f4 [32]
0	0xbdf4e40e	-0.119575605
1	0xbe619321	-0.22028781
2	0xbe3a0f7e	-0.18169972
3	0xbe2395f9	-0.15975179
4	0x3dcf8412	0.10132612
5	0x3e0a693c	0.13516706
6	0xbe08af3f	-0.13348101
7	0xbc6cd26c	-0.014454465
8	0xbd0d1a7f	-0.034449097
9	0xbda3334b	-0.07968768
10	0xbcaf8e6c	-0.021430217
11	0x3e6bcde1	0.23027755
12	0x3dee71a9	0.11642773
13	0xbdf1eb21	-0.118124254
14	0x3d3a3074	0.045456365
15	0x3dbcd861	0.092209585
16	0xbe229477	-0.15876947
17	0xbd4d6e17	-0.050153818
18	0x3e994e54	0.29942572
19	0xbd2461e1	-0.040132407
20	0x3e695511	0.22786357
21	0x3e238979	0.1597041
22	0xbdeb1f31	-0.11480559
23	0x3ccd625e	0.02507132
24	0x3da1b0d1	0.07895053
25	0xbd9ecb04	-0.07753566
26	0x3e217c15	0.1576999
27	0xbda369c3	-0.07979157
28	0xbe31c7f6	-0.17361435
29	0x3e84d03b	0.25940117
30	0xb76bad74	-1.4047477e-05
31	0xbdb0a93e	-0.086260304

pi.weight f4 [2, 32]
0	0x3d6b7e94	0.05749376
1	0x3e55ffd8	0.20898378
2	0x3d154fac	0.036452934
3	0x3d5ce064	0.053924933
4	0xbd3483f5	-0.044071157
5	0x3e280232	0.16407087
6	0xbd37c8ad	-0.044869114
7	0x3d5fb564	0.054616347
8	0xbd96e393	-0.07367625
9	0xbc517048	-0.012783118
10	0x3d6642bd	0.05621599
11	0x3d888573	0.066660784
12	0x3e5eb718	0.21749532
13	0xbe194d1c	-0.14970821
14	0xbe26f4b1	-0.1630428
15	0xbc3625ed	-0.011117441
16	0x3d210b0b	0.039317172
17	0xbaf1ed75	-0.0018457609
18	0x3d52471c	0.051337346
19	0x3d236e21	0.03989995
20	0x3d682b05	0.05668165
21	0x3dc4219f	0.09576725
22	0x3e0e62f3	0.13904934
23	0xbcecd4c4	-0.028910048
24	0x3e4037ab	0.18771236
25	0xbcb36d0d	-0.021902585
26	0x3e2cd141	0.16876699
27	0xbde8d709	-0.1136914
28	0x3e24d455	0.16096623
29	0x3df6ffe6	0.120605275
30	0x3e79c41a	0.24391213
31	0xbd68a354	-0.056796387
32	0xbd2ba02c	-0.0419008
33	0x3dc28cee	0.094995365
34	0x3db290bd	0.08719013
35	0x3d7378c5	0.059441347
36	0x3bf50f05	0.007478597
37	0xbe2b8e43	-0.16753487
38	0xbdecdeed	-0.11565957
39	0xbe78bf8e	-0.24291822
40	0xbe4d3127	-0.20038281
41	0xbced5bc3	-0.02897442
42	0xbe3e5ab6	-0.18589291
43	0xbe85f4cf	-0.26163337
44	0xbe1ae368	-0.15125811
45	0x3d88f959	0.06688184
46	0xbd3fc2e3	-0.046816718
47	0xbd8d91a3	-0.069125436
48	0xbd1b4b50	-0.03791362
49	0xbd89c307	-0.06726652
50	0xbe8527bb	-0.26006874
51	0x3bdf03a7	0.0068058553
52	0xbe4d043b	-0.20021145
53	0xbe426c1f	-0.18986557
54	0x3e2eefa1	0.17083599
55	0xbe320cb6	-0.17387661
56	0xbe7aaaf6	-0.24479279
57	0xbd361c8e	-0.044460826
58	0xbe393dba	-0.18089953
59	0xbb06f3d3	-0.0020592108
60	0x3d0fcb8e	0.035106234
61	0xbe609efd	-0.21935649
62	0xbe086633	-0.13320236
63	0xbd95801c	-0.072998255

pi.bias f4 [2]
0	0x3e8d282b	0.27569708
1	0x3bb41889	0.005496089
