code/MADDPG/plots/tmp/maddpg/k_3/Cooperative_Navigationagent_2+0/agent_2_target_actorBest.pt (torch, 9631 bytes, 6 tensors)

fc1.weight f4 [32, 18]
0	0xbf599861	-0.84998137
1	0xbe0c49a6	-0.1369997
2	0xbfa4aefd	-1.2865902
3	0x3f5226fd	0.8209074
4	0xbef22cd2	-0.4729982
5	0xc025c457	-2.5901086
6	0xbf5eb628	-0.869967
7	0xc01dce11	-2.4657023
8	0xbff22ed7	-1.8920544
9	0xc042370c	-3.0346098
10	0x3fc52fe7	1.5405244
11	0x3ef3098c	0.4746822
12	0xbff8071d	-1.9377171
13	0x3f78fb5f	0.9725856
14	0xbd7ba570	-0.06143707
15	0xbe703673	-0.2345827
16	0xbbe02d00	-0.006841302
17	0x3d9b9bfa	0.075981095
18	0x40143910	2.3159828
19	0x3ffab6ce	1.9587038
20	0x3f9ded02	1.2337954
21	0x4010e2be	2.2638392
22	0xbfc89544	-1.5670552
23	0xc079b83b	-3.9018695
24	0xbe63d693	-0.22249822
25	0x3da2f5ff	0.07957076
26	0x3f5b5276	0.856727
27	0xc042e705	-3.0453503
28	0xc085f318	-4.1859245
29	0xc00d6aab	-2.2096355
30	0xbecd5543	-0.40104112
31	0x3fb1e57a	1.3898156
32	0xbc65f2a9	-0.0140349055
33	0x3cf2d718	0.02964358
34	0x3ca37388	0.01995255
35	0x3e0e3b51	0.13889815
36	0x4040fee2	3.0155568
37	0x3f131fcf	0.5747041
38	0x4003cba0	2.0593033
39	0x3f543147	0.8288769
40	0xbf83ec11	-1.0306417
41	0xbfa28b54	-1.269877
42	0xbef92522	-0.48661143
43	0xbfa5c106	-1.2949531
44	0xbe9ad233	-0.30238494
45	0xbfc3b0c7	-1.5288323
46	0x3eb8a6ec	0.3606485
47	0x40279c0c	2.6188993
48	0x3f2f24b7	0.684154
49	0xbf310bd4	-0.69158673
50	0x3bd92de8	0.006627787
51	0x3d7c1f3c	0.061553225
52	0xbe11012a	-0.141606
53	0x3d621cc4	0.055203214
54	0x40466617	3.099981
55	0x3f7a8275	0.9785531
56	0x3fdb0753	1.711161
57	0x3fade7fb	1.358642
58	0x3f46c52f	0.7764463
59	0xc0232660	-2.5492172
60	0xbee1fb12	-0.44136864
61	0xbfeb893e	-1.8401258
62	0x3efa1e1d	0.488511
63	0xbfe67af3	-1.8006271
64	0xbfc947de	-1.5725057
65	0xbf289058	-0.6584525
66	0x3f6c599f	0.9232425
67	0x3f98f469	1.1949588
68	0xbe37628b	-0.17908685
69	0x3e5168d8	0.20450151
70	0xbe472f43	-0.19451623
71	0x3e2e0d55	0.16997273
72	0x3f6d541c	0.92706466
73	0x3e94ee68	0.2908814
74	0x3fba4cd1	1.4554693
75	0x3f5dc997	0.86635727
76	0xbf183f9f	-0.5947208
77	0xbf84885a	-1.0354111
78	0x3f196628	0.59921503
79	0xbf0f91be	-0.5608176
80	0x3e8e7c67	0.27829286
81	0xbf686984	-0.90786004
82	0xbf28b4e8	-0.6590104
83	0x3f85c847	1.0451745
84	0x3f4274b6	0.75959337
85	0x3f2ca968	0.67445993
86	0x3d46a54c	0.048497483
87	0xbdb24220	-0.087040186
88	0x3b417000	0.002951622
89	0xbe6f836d	-0.23389979
90	0x3ecee82d	0.4041151
91	0xbfd38237	-1.6524113
92	0x3ed6d88a	0.4196208
93	0xbfd22d72	-1.6420119
94	0x3edaa01b	0.42700276
95	0xbe011911	-0.12607218
96	0x3e9c18f4	0.30487788
97	0x404032cc	3.0031004
98	0xbec24aa3	-0.37947568
99	0x3e12a1ea	0.14319578
100	0x3f6b8498	0.91999197
101	0xc01dc424	-2.4650965
102	0xbfab7f93	-1.3398308
103	0x4023c540	2.5589142
104	0xbd29fd80	-0.041501522
105	0xbc9198a8	-0.017772987
106	0xbe2e7324	-0.1703611
107	0xbe5d8584	-0.21632963
108	0x402bf555	2.6868489
109	0x40084c07	2.1296403
110	0x3f3b3282	0.73123944
111	0xbe97db3b	-0.29659447
112	0x3d23e6d5	0.04001506
113	0xbfb03602	-1.3766482
114	0xbf2a9fed	-0.6665028
115	0xbe2389dd	-0.1597056
116	0xbe2ec415	-0.17066987
117	0xbf4fcb8f	-0.8116998
118	0xbf0425eb	-0.5162036
119	0x3eabcb89	0.33553723
120	0x3f20ba54	0.62784314
121	0x3ec735e6	0.3890831
122	0x3e4d9691	0.20076968
123	0x3d22a20c	0.03970532
124	0x3e3112eb	0.17292373
125	0xbd800522	-0.06250979
126	0x3fcf0e58	1.6176252
127	0x3e8b73da	0.27236825
128	0xbdaea9f5	-0.085285105
129	0x3ee7e80d	0.45294228
130	0x3e73ebb2	0.2382038
131	0xbe2380a5	-0.15967043
132	0xbe3e8be0	-0.18608046
133	0xbfd3bcac	-1.6541953
134	0x3f1498c5	0.5804561
135	0xc003afba	-2.0576005
136	0xbf979322	-1.1841776
137	0xbee98fe2	-0.45617586
138	0x4002adf6	2.0418677
139	0x3fc9fe45	1.5780722
140	0xbd9b8bec	-0.07595047
141	0xbc473540	-0.012158692
142	0x3d3b005c	0.04565464
143	0x3e200579	0.15627088
144	0x3fc29ddf	1.5204428
145	0xbda45379	-0.08023734
146	0x40171968	2.3609257
147	0xbf4d8495	-0.8028043
148	0xbf0bbc0b	-0.54583806
149	0xc012734c	-2.2882872
150	0xbe56022d	-0.20899267
151	0xbffc0c4a	-1.969125
152	0xbf8917f1	-1.0710431
153	0xbfeb5c9c	-1.8387637
154	0x3fd25968	1.6433535
155	0x40980bd9	4.7514462
156	0x40247f78	2.57028
157	0xbfca3592	-1.5797598
158	0xbcc1c8c8	-0.02365531
159	0xbda8a4a4	-0.08234528
160	0xbd9d43e8	-0.07678968
161	0x3c120800	0.00891304
162	0x400ad838	2.169447
163	0x3eff4fce	0.49865574
164	0x3ff3b990	1.9041004
165	0x3f4a9edd	0.79148656
166	0xbf0e0362	-0.5547391
167	0xc01e30fa	-2.4717393
168	0xbfa5d8d8	-1.29568
169	0xc008d31b	-2.1378849
170	0xbf785cf4	-0.97016835
171	0xc01f993c	-2.4937277
172	0xbfff905e	-1.9965932
173	0xbe0a0c3b	-0.13481228
174	0x3fd388ef	1.6526164
175	0x3f85d45f	1.0455436
176	0xbd781b38	-0.060572833
177	0xbd065fa8	-0.03280607
178	0x3deb75da	0.11497088
179	0x3e0443b3	0.1291645
180	0x40008b8e	2.0085177
181	0xc02689a9	-2.602152
182	0xbf163eb4	-0.5868943
183	0xbdc435db	-0.095805846
184	0x3fe03492	1.7516043
185	0x3ef609c7	0.48054335
186	0x3f91c926	1.1389511
187	0xbfd298a4	-1.6452832
188	0x4002c52f	2.0432851
189	0xbe8cca2d	-0.27497998
190	0x3ff3bb60	1.9041557
191	0xbff84ab9	-1.9397804
192	0xbfac194c	-1.344522
193	0x3d7321d7	0.059358444
194	0xbdb5432c	-0.08850703
195	0xbde54635	-0.111950316
196	0x3e1027df	0.1407771
197	0xbe01ad1c	-0.12663692
198	0xc0717a96	-3.773107
199	0x408b1aa8	4.347004
200	0xc065c873	-3.5903594
201	0x3fac6782	1.3469088
202	0x403265dd	2.7874672
203	0xc0a46a49	-5.1379743
204	0x40028117	2.039129
205	0xc09b05ef	-4.8444743
206	0x40147c97	2.3201044
207	0xc07f3776	-3.98776
208	0x3f14c4ed	0.58112985
209	0x3f82e615	1.0226465
210	0xbf57aa64	-0.8424437
211	0x40309d37	2.7595956
212	0xbda1c5b6	-0.078990385
213	0x3e1c8591	0.15285327
214	0xbcd4f748	-0.02599682
215	0x3ddd04b8	0.10791916
216	0x40417be0	3.0231857
217	0x3fdbe710	1.717989
218	0x3f82e811	1.0227071
219	0x3fef9c90	1.8719654
220	0x3f1be725	0.60899574
221	0xc0565c18	-3.349371
222	0xbde3e129	-0.1112693
223	0xbf5f44aa	-0.8721415
224	0x3fec15f1	1.8444196
225	0xbf99db77	-1.20201
226	0xc048cf77	-3.1376626
227	0xc01b3b66	-2.4255004
228	0x3ff3775c	1.90208
229	0xbedb3ac6	-0.42818278
230	0xbe46a95a	-0.1940054
231	0xbe591b5a	-0.2120184
232	0x3d944f86	0.072417304
233	0xbc9a1b80	-0.018811941
234	0x3f3f344a	0.7468916
235	0xbc9413a8	-0.01807578
236	0xbe9d183f	-0.3068256
237	0x3e82ae22	0.25523478
238	0xbdb46e79	-0.088101335
239	0x3eaaf899	0.3339279
240	0x3e3f3e72	0.18676165
241	0xbf320805	-0.69543487
242	0x3e2e4909	0.17020048
243	0xbf681a38	-0.90665007
244	0xbedca3d8	-0.43093753
245	0x3e43da23	0.19126181
246	0xbe7d3fe6	-0.24731407
247	0x3ed5f420	0.41787815
248	0xbaf04880	-0.0018332154
249	0xbdca0fa2	-0.09866263
250	0xbcabb7e0	-0.020961702
251	0x3e5c3484	0.21504408
252	0x409ba325	4.863665
253	0xbf8d7bcf	-1.1053408
254	0xbda4e340	-0.08051157
255	0xbf43fb32	-0.7655517

fc1.bias f4 [32]
0	0xc0960872	-4.688531
1	0xc090ef87	-4.529239
2	0xc0ae4b24	-5.4466724
3	0xc0c54a5c	-6.165327
4	0xc0a93509	-5.287724
5	0xc094d6cf	-4.6512218
6	0xc0b2d5e1	-5.5886083
7	0xc0cf1e0e	-6.472419
8	0xc0c3287d	-6.0986924
9	0xc0ba56ce	-5.8230963
10	0xc0873eb8	-4.226406
11	0x408be8dd	4.3721757
12	0xc0aac4a4	-5.336504
13	0xc08771ab	-4.2326255
14	0xc0a1ef76	-5.060481
15	0xc0734770	-3.8012352
16	0xc0491d49	-3.1424124
17	0xc0b76bb6	-5.7318983
18	0xc0659b13	-3.58759
19	0xc0af665e	-5.481246
20	0xc09e63e3	-4.949693
21	0xbfbaa961	-1.458294
22	0xbfa95bb1	-1.3231107
23	0xbf9b1e98	-1.2118711
24	0xc092528a	-4.5725756
25	0x402eae71	2.729397
26	0xc017fb37	-2.374708
27	0xc0b4719a	-5.6388674
28	0xc0982640	-4.754669
29	0xc0bcc2c7	-5.8987765
30	0xc01cdff5	-2.4511693
31	0xc02e5956	-2.7242026

fc2.weight f4 [32, 32]
0	0x3d01a036	0.03164693
1	0xbd5d9928	-0.05410114
2	0xbf40b0c3	-0.75269717
3	0xbf90e8b8	-1.132102
4	0xbfb38a5a	-1.4026597
5	0xbe129154	-0.14313251
6	0xbef2041e	-0.47268766
7	0xbe90ce8c	-0.28282583
8	0xbf8fbac3	-1.122887
9	0x3e0e7752	0.13912705
10	0xbef19dc6	-0.47190684
11	0xbecaf033	-0.39636382
12	0xbf59b9c0	-0.85049057
13	0x3dce4296	0.10071294
14	0xbed7d2a4	-0.42152894
15	0xbf417cab	-0.75580853
16	0x3caaece0	0.020864904
17	0xbd8724b7	-0.065988
18	0x3e0be712	0.13662365
19	0xbf86379b	-1.048572
20	0xbec3ee73	-0.3826786
21	0xbe643815	-0.22287019
22	0xbe734856	-0.23758063
23	0xbf6e7785	-0.9315112
24	0xbf6e1385	-0.92998534
25	0xbe90e214	-0.28297484
26	0xbf914de4	-1.1351895
27	0xbda3c925	-0.0799735
28	0xbb57fc70	-0.003295686
29	0xbf8beee3	-1.0932277
30	0xbd850d2b	-0.06496652
31	0x3cc8a066	0.024490546
32	0xc06a95f0	-3.6654015
33	0xbf73ec02	-0.95281994
34	0xbf1539cb	-0.5829131
35	0xc08b236b	-4.3480735
36	0xbf392c25	-0.72332984
37	0x3f17e8d6	0.59339654
38	0xbfcead9f	-1.6146735
39	0xc0173186	-2.3623977
40	0xc0838a1f	-4.1106105
41	0xc09dafbd	-4.9277024
42	0x3f63a6c9	0.8892637
43	0x4098dd60	4.7770233
44	0xc0532255	-3.2989705
45	0xbf6462a8	-0.8921304
46	0x3e74ac31	0.23893811
47	0x401067d2	2.2563367
48	0x3f4c8983	0.79897326
49	0xc04e228f	-3.2208593
50	0x408459dc	4.135969
51	0xc03f80c9	-2.9922354
52	0x3f2ba799	0.6705261
53	0xc0052c56	-2.080831
54	0xc0e43145	-7.1310143
55	0x3f42db4c	0.7611587
56	0x3e3156a7	0.17318211
57	0xbf9964e3	-1.1983913
58	0x3fdc627a	1.7217553
59	0xbfc43653	-1.5329078
60	0x3deb1f3a	0.11480565
61	0xc02b4ea9	-2.676676
62	0xc07a41ed	-3.9102738
63	0xc02fc2e0	-2.7462692
64	0xbe4c841b	-0.19972269
65	0xbcfe2b72	-0.031026576
66	0xbdd8ca4c	-0.1058546
67	0xbe98cf60	-0.29845715
68	0x3d077cfe	0.033078186
69	0x3e9f73c4	0.3114301
70	0xbf027903	-0.509659
71	0x3d22ea7d	0.039774407
72	0xbd7c0766	-0.061530493
73	0xbe294d41	-0.16533376
74	0xbf2b79e5	-0.6698287
75	0xbf288d11	-0.6584025
76	0xbe9fc504	-0.31204998
77	0x3e7f2639	0.24916925
78	0xbf72361e	-0.94613826
79	0xbea32321	-0.3186274
80	0xbd4ec0c2	-0.050476797
81	0xbe9218a0	-0.28534412
82	0xbee05dc1	-0.4382153
83	0xbe92d678	-0.28679252
84	0x3cdd407b	0.027008286
85	0xbe19affc	-0.15008539
86	0xbee6a39e	-0.45046705
87	0xbe782222	-0.2423177
88	0x3d4b7ba6	0.049678467
89	0xbf267fad	-0.6503857
90	0x3d9ba527	0.0759986
91	0xbe41f9aa	-0.18942896
92	0xbe438feb	-0.19097869
93	0xbce2c0b1	-0.027679773
94	0xbf134d38	-0.575397
95	0xbe72775a	-0.23678342
96	0xbe8cfb3f	-0.27535436
97	0xbd4f7153	-0.050645184
98	0xbeaf788d	-0.3427166
99	0xbf57a810	-0.8424082
100	0xbf5c5acc	-0.86076045
101	0x3da65c84	0.08123115
102	0xbbc3bf2f	-0.0059737186
103	0xbd89c177	-0.067263536
104	0xbf3a010a	-0.72657835
105	0xbdd6fc30	-0.1049732
106	0xbe3e472e	-0.1858184
107	0xbf18ab70	-0.5963659
108	0xbf27817d	-0.6543196
109	0xbe365852	-0.17807129
110	0xbd3ef11a	-0.04661665
111	0xbf86ee6b	-1.0541509
112	0x3e460c3e	0.19340608
113	0x3e666008	0.2249757
114	0xbf65c10d	-0.897477
115	0xbf8ae8c7	-1.0852288
116	0xbe936c78	-0.28793693
117	0xbebe88ce	-0.3721375
118	0xbd98ee3c	-0.074673146
119	0xbeaea791	-0.34112218
120	0xbf59d518	-0.8509078
121	0xbe886e67	-0.2664673
122	0xbf10fefc	-0.56639075
123	0x3c8e7ad6	0.017392557
124	0xbe81328c	-0.25233877
125	0xbf664321	-0.8994618
126	0xbe67bf99	-0.22631682
127	0xbdeeb669	-0.11655886
128	0xbeb820f8	-0.35962653
129	0xbee89a8a	-0.45430404
130	0xbfa336b8	-1.2751074
131	0xbf0e019f	-0.55471224
132	0x3dc45273	0.095860384
133	0x3edbf9e5	0.42964092
134	0x3ec44f53	0.3834177
135	0x3f4e41bd	0.8056906
136	0xbf045a23	-0.5170004
137	0x3efcabcd	0.49349824
138	0x3f5ada66	0.854895
139	0xc0d57110	-6.6700516
140	0x3f6ebf05	0.9326022
141	0x3e913f0b	0.2836841
142	0x405826e4	3.3773737
143	0x4016e4ba	2.3577104
144	0xbf931d22	-1.1493266
145	0x3c5d99f0	0.013525471
146	0xbfd40f6a	-1.6567204
147	0x3f8faaf3	1.1224045
148	0x3f0bcd9c	0.5461061
149	0x3ffa8e1e	1.9574621
150	0xc0af9cb7	-5.48788
151	0x3df9799d	0.12181399
152	0xbe424f93	-0.18975668
153	0x402924b1	2.6428645
154	0xbfbc5926	-1.4714706
155	0xbe8673c2	-0.2626019
156	0xbea19042	-0.31555372
157	0x3f079792	0.5296565
158	0xbf7c1929	-0.9847589
159	0x3eb9c350	0.36281824
160	0x3d2d5994	0.042321756
161	0xbdc2288b	-0.09480389
162	0xbe1557e0	-0.14584303
163	0xbef79262	-0.4835387
164	0xbee90f24	-0.45519364
165	0xbc5e77d0	-0.01357837
166	0xbe9f202c	-0.31079233
167	0xbe572b74	-0.2101267
168	0xbf5f06c8	-0.8711972
169	0x3d33a101	0.043854717
170	0x3d9d5fbc	0.076842755
171	0xbdf0935e	-0.11746858
172	0xbe3ad076	-0.18243584
173	0x3c8da07a	0.017288435
174	0xbdde744c	-0.108620256
175	0xbefd99be	-0.49531358
176	0x3dc51ad6	0.09624259
177	0xbe70a876	-0.23501763
178	0xbc6ca06d	-0.014442545
179	0xbea5ba05	-0.32368484
180	0x3e48099e	0.19534919
181	0xbe097cb7	-0.13426481
182	0xbcf5ed4a	-0.030020375
183	0xbf0272c3	-0.5095636
184	0xbf11e8f8	-0.5699611
185	0xbe08837f	-0.13331412
186	0xbf3748f2	-0.7159568
187	0xbd073ee3	-0.033018958
188	0x3da6aaa4	0.08138016
189	0xbf2fe719	-0.68712
190	0xbe062f67	-0.1310402
191	0x3e7b22e2	0.24525025
192	0xbe6c2ccd	-0.23063965
193	0x3d9fd5cf	0.07804453
194	0x3dbd4b9d	0.09242938
195	0xbf373cd6	-0.71577203
196	0xbf40a7c7	-0.7525601
197	0x3d0c747a	0.03429077
198	0xbe1d2393	-0.15345602
199	0xbc35d12a	-0.011097232
200	0xbed1409c	-0.40869606
201	0x3d12a797	0.035804357
202	0xbea4d9cd	-0.3219742
203	0xbec34a63	-0.3814269
204	0xbf003cd8	-0.5009284
205	0xbdd5464b	-0.10413798
206	0x3db74c75	0.0895013
207	0xbf4a1ed3	-0.78953284
208	0x3e5314f7	0.20613466
209	0x3e07cf6a	0.13262716
210	0xbf744c7e	-0.9542922
211	0xbf8fba5f	-1.1228751
212	0xbe4ba9bf	-0.19888972
213	0xbd987844	-0.07444814
214	0xbead7d21	-0.33884528
215	0xbe0176cf	-0.12642978
216	0xbee3bfc5	-0.44482246
217	0xbe3ba366	-0.1832405
218	0xbef81c46	-0.4845907
219	0x3df7e276	0.12103741
220	0xbde5aa65	-0.11214141
221	0xbf26cfc1	-0.6516076
222	0x3e2152ac	0.15754193
223	0xbc3aa25e	-0.01139125
224	0xbe8071f8	-0.2508695
225	0xbe18d988	-0.14926732
226	0xbc891727	-0.016734673
227	0xbe82f40f	-0.25576827
228	0xbe4bb6a3	-0.19893889
229	0x3cf19019	0.029487656
230	0xbea0b799	-0.31390074
231	0x3cac2178	0.021012053
232	0xbe6cd2d1	-0.23127295
233	0xbd9dafd0	-0.07699549
234	0xbeb1790e	-0.3466267
235	0x3c4d719a	0.012539292
236	0xbd8c8353	-0.068609856
237	0xbe74d086	-0.2390767
238	0xbd9ee52f	-0.07758557
239	0xbe4cbc5b	-0.19993727
240	0xbe21bf45	-0.1579562
241	0xbec648cb	-0.38727412
242	0xbef9dfd6	-0.48803586
243	0xbe716e1e	-0.23577163
244	0xbea679d1	-0.32514814
245	0xbe2628f5	-0.16226561
246	0xbe6a0029	-0.22851624
247	0xbe0d00b7	-0.13769804
248	0x3deb0518	0.11475581
249	0xbe91503c	-0.28381526
250	0xbe55c284	-0.20874983
251	0xbe4bdc23	-0.19908194
252	0xbe7b0dca	-0.24516979
253	0xbdc7fb8f	-0.09764778
254	0xbe17af18	-0.14812887
255	0xbe839adb	-0.25704083

fc2.bias f4 [32]
0	0xbf69d8b5	-0.91346294
1	0x40a33381	5.100037
2	0xbe855a1f	-0.2604532
3	0xbfdc7b38	-1.7225103
4	0xc0615c36	-3.521253
5	0xbf665d4d	-0.89986116
6	0xbf48d523	-0.7845022
7	0xbeb27ade	-0.34859365
8	0xc0155cb9	-2.3337843
9	0x3f75b881	0.95984656
10	0xbf52ec58	-0.8239188
11	0x40d78fc8	6.7363014
12	0xbff005a3	-1.875172
13	0x40a63519	5.1939816
14	0x3f0c400f	0.54785246
15	0xbf231255	-0.6369985
16	0xbfa74acd	-1.3069702
17	0xbf901e78	-1.1259298
18	0xbf1fe188	-0.6245351
19	0xc05d420e	-3.4571567
20	0xbf132ccc	-0.5749023
21	0xbf2860ed	-0.65772897
22	0xbf2a9b55	-0.6664327
23	0xc0687bb8	-3.6325512
24	0x3fe7d3ed	1.811155
25	0xc0cb40e7	-6.3516726
26	0xbf9a2e28	-1.2045336
27	0xbf8849af	-1.0647486
28	0xbf8ab4d3	-1.0836433
29	0xbfd27e30	-1.6444759
30	0x40dc741e	6.8891745
31	0xbf9a5858	-1.205821

pi.weight f4 [5, 32]
0	0x3e46f892	0.1943076
1	0x40291ed6	2.642507
2	0x3e5371ef	0.20648931
3	0x3e85411f	0.26026246
4	0xc0146d28	-2.3191624
5	0x3e6a8b39	0.22904672
6	0xbeb49eea	-0.35277492
7	0x3c8c03fa	0.01709174
8	0x400980c6	2.1484847
9	0x40540b9e	3.313209
10	0x3eaafc80	0.33395767
11	0x3fa0d429	1.2564746
12	0x3e865888	0.2623942
13	0x3f308e90	0.68967533
14	0xbfb54112	-1.4160483
15	0x3e2bede9	0.16789974
16	0xbc8531e2	-0.016259138
17	0x3ce49bbb	0.02790629
18	0x3dfa09a2	0.122088686
19	0xc02cd804	-2.7006845
20	0x3e6ab825	0.22921808
21	0x3ef303f9	0.47463968
22	0x4012b717	2.292425
23	0xbfd68144	-1.6758199
24	0x3f45e150	0.77296925
25	0x3eddbbcd	0.43307343
26	0xbd166adf	-0.036723014
27	0xbef76705	-0.48320785
28	0x3ded73c1	0.11594344
29	0x3f0c0397	0.5469298
30	0x3fae27c1	1.3605882
31	0x3e7b50f9	0.24542607
32	0xbec57383	-0.3856469
33	0xbf90906f	-1.1294078
34	0x3c64ee1c	0.013972785
35	0xbec939eb	-0.39302
36	0xbf85da3e	-1.0457227
37	0xbf1012a7	-0.5627846
38	0xbdd54200	-0.10412979
39	0xbc100627	-0.008790529
40	0x3e69cfb9	0.22833146
41	0xc02ff848	-2.749529
42	0xbd988780	-0.074477196
43	0xbe8a6b62	-0.27035052
44	0x3e04b47f	0.12959479
45	0x3cf777d2	0.030208502
46	0xbf0609e6	-0.52358854
47	0xbdb7e01e	-0.08978294
48	0x3d6cb778	0.057792157
49	0x3e59ee18	0.21282232
50	0xbe015aae	-0.12632248
51	0xbfb6083d	-1.4221264
52	0xbe61efb5	-0.22064097
53	0x3dd6080c	0.104507536
54	0xbf83bff6	-1.0292957
55	0xbe4f87fa	-0.20266715
56	0xbf4c1b6a	-0.7972933
57	0xbf008e17	-0.5021681
58	0x3d2714e5	0.04079141
59	0xbddc7494	-0.10764423
60	0xbad61e4f	-0.0016335937
61	0xbe6434f6	-0.22285828
62	0xbfa59998	-1.2937498
63	0xbcfeee5e	-0.031119522
64	0x3f1f5038	0.6223178
65	0x40111f40	2.2675323
66	0xbed73bdc	-0.42037857
67	0x3dd6d19b	0.10489198
68	0xbf41a6bb	-0.75645036
69	0x3d0799e6	0.033105753
70	0xbc4ac08a	-0.012375006
71	0xbed5e28c	-0.41774404
72	0xc0ce920d	-6.4553285
73	0x4026da09	2.6070578
74	0x3de4d2c5	0.111730136
75	0xc0d4081f	-6.6259913
76	0x3df8e05e	0.1215217
77	0xc058ee1b	-3.3895328
78	0xbf333f36	-0.7001833
79	0xbf7a4052	-0.97754395
80	0x3ddd50e4	0.10806444
81	0xbee495d5	-0.44645563
82	0xbe47a0ee	-0.19494984
83	0x3fcd54f5	1.6041552
84	0xbec09bab	-0.37618765
85	0x3f476c97	0.7790007
86	0xc04156d2	-3.020924
87	0x405adeda	3.4198518
88	0x4065f6fe	3.5932002
89	0x3fc23aab	1.5174154
90	0x3ec2f0ee	0.3807444
91	0x3e7ea35d	0.24867006
92	0x3d1ee080	0.03878832
93	0x3ec9dc06	0.39425677
94	0xc11d3b3e	-9.826963
95	0x3f192f14	0.5983746
96	0x3e7ffa55	0.24997838
97	0xc092ebd0	-4.5912857
98	0xbdbac19e	-0.09118961
99	0x3e99bf37	0.30028698
100	0x408ea08a	4.457097
101	0x3d03e382	0.03219939
102	0x3e0d7afb	0.13816445
103	0xbcdf7c5c	-0.027280979
104	0x4014ad87	2.3230913
105	0xc0e22414	-7.066904
106	0xbde80a98	-0.113301456
107	0x3f8f8503	1.1212467
108	0xc01b0325	-2.422067
109	0x408080ae	4.015708
110	0x3fa9f6d7	1.3278455
111	0x3dd9762b	0.10618242
112	0xbc36ff82	-0.011169316
113	0xbe3b9527	-0.18318616
114	0xbe612ad5	-0.21988995
115	0x403fe00c	2.9980497
116	0xbd98137b	-0.074255906
117	0x3eba8256	0.36427563
118	0x400de0a8	2.216837
119	0xc0034bf3	-2.0515106
120	0xc0802843	-4.0049148
121	0x3f83841c	1.0274692
122	0xbe170018	-0.1474613
123	0x3d5df044	0.054184213
124	0xbde43a09	-0.11143882
125	0x3ee759a5	0.4518558
126	0x3fc16949	1.5110255
127	0xbf1f5b8c	-0.62249064
128	0x3f2d9a08	0.6781316
129	0xbf14dd9c	-0.5815065
130	0x3e914484	0.28372586
131	0x3e51de6b	0.20495002
132	0xc00a71a3	-2.1631858
133	0x3eb46901	0.35236362
134	0x3e938ce3	0.28818426
135	0xbcd86713	-0.026416337
136	0x3ef256ed	0.47331944
137	0xbef7324a	-0.48280555
138	0x3e460d6a	0.19341055
139	0x3d540bd7	0.051769104
140	0x3c780089	0.015136846
141	0xc012e938	-2.2954845
142	0x3ee10554	0.43949378
143	0x3f0e23ba	0.55523264
144	0x3ebca599	0.3684509
145	0xbccb86fb	-0.024844637
146	0x3e88ae13	0.26695308
147	0xbf4cef87	-0.8005299
148	0x3b232b54	0.0024897652
149	0x3e04025e	0.12891528
150	0xbfb8a436	-1.4425113
151	0x3e62867c	0.22121614
152	0xbf8a3387	-1.0796975
153	0xc0438497	-3.0549676
154	0xbdf67921	-0.12034822
155	0x3dade185	0.0849028
156	0x3e650c31	0.22367932
157	0x3f27bda4	0.65523744
158	0xbf214cd1	-0.6300784
159	0x3edd2c8f	0.43198058

pi.bias f4 [5]
0	0x40ba931f	5.830459
1	0xbf026eda	-0.50950396
2	0xc024dfe4	-2.5761652
3	0xbf0a9169	-0.5412813
4	0xc019f458	-2.4055386
