code/tmp/maddpg/predator_preyadversary_1+2/adversary_1_target_actor.pt (torch, 9375 bytes, 6 tensors)

fc1.weight f4 [32, 16]
00000000: ea5c bf3e e759 813e bf82 c53d b554 e63e
00000010: 28ba 3d3f fb1a 44be 4e1b 813e 72fa c13e
00000020: 2361 933c 119f 3e3d 7505 6ebe 9bd8 c0be
00000030: bc70 96be d445 90be 31a9 a8be f378 c8bd
00000040: 00b2 ecbd 8015 ebbe cf48 91be eb71 083d
00000050: 20b8 1f3c 41f7 2ebe 62ae 833f 6054 203e
00000060: c9f7 edbe 48db 9fbe 1f31 903d 040d 6dbe
00000070: d192 7f3e cf29 52bf ba94 b7be 1413 e6be
00000080: ac59 24bf b683 f33c 00cb 133c 3f0b 5bbe
00000090: d2c5 433e ff22 d63e 55a1 203f afa3 d23e
000000a0: e818 00bf 92a1 083f dec5 8b3e 2a0e 00bf
000000b0: f554 a7be d86a 99be 8ad2 47be 4cd2 dfbe
000000c0: abf0 0fbe 8c2a a3bd 0106 b8bd 4cb7 173e
000000d0: 2b19 1cbe 4695 813e 38b8 af3e 7be7 963e
000000e0: a1f1 24bf 50e1 dbbe 3c91 1bbc 9e9e c4be
000000f0: 8b72 573e 7884 e8be 2452 09be 7db9 a63c
00000100: 85ac 3abe 4a0d 793d 3adb 7e3c 885f 64be
00000110: ad06 b63e e770 123f 6a79 743f 56c9 033f
00000120: 9e24 37bf e8c8 6d3f 7f4e 553e ebf9 1b3d
00000130: 36cb bebc 4c4d 98be 580c 96bd 885d 5cbf
00000140: 4c6a 28bd 3fe0 c43d 84fb 583d 4e37 3d3c
00000150: 3b34 1e3e bb92 c8bc 07a8 413f 6d44 733e
00000160: 6470 5ebf 4f7c d73c eff6 81bd f985 aebc
00000170: 0cf8 e03e 9f99 89be 20be 1ebe 9c27 d1bc
00000180: 63a7 c0be 0366 013d dad9 45bd 9b41 95be
00000190: b135 f53c 246c a63e cbcf 553f bfcc da3d
000001a0: c4d6 5bbf aff7 84bd 33cb 8cbe 7c0d 593d
000001b0: 06c1 013f e34f 19bf d93a 7abe 500e 61be
000001c0: 0d88 7bbe fc9e 60be 7e94 41bd c9ce 38be
000001d0: 2e6a 0d3f caba 8c3d abfb 893f f006 293f
000001e0: f6c8 b5be cffa 9d3e 768a 8e3e 643f 223e
000001f0: d1e0 f23e 757f 22bf 7039 d23d e25a fabe
00000200: 1d06 3abe 4c72 563e 3f95 043e 565a 00bd
00000210: b160 323e 78b7 2c3d ca00 b93d c894 983e
00000220: d68d 763e afa0 9fbd 18b2 63bc 0b0b 89be
00000230: f858 90be 8ad3 72be 4c9e d73d 6efd 02bf
00000240: b3c2 5cbe c228 86bc 4ec5 f63d 1d3c b1ba
00000250: 3c43 a83e 1470 233e 79b5 643f 22b0 0a3f
00000260: a886 debe d82e 233e 0bb2 5b3d 3573 a3be
00000270: 84d4 2b3e b5ae b03c 1639 41bc 1125 b13d
00000280: e9f2 663d 175b cc3c 43dd dcbd 0ff9 d63e
00000290: e770 123f ab5d 5b3e f3a8 193f 7859 923e
000002a0: 3b23 4cbf f5be a6be 0184 3c3d ec47 e8be
000002b0: 6c2b 1abe 2dc7 b1be a0da 6cbe ba58 01bf
000002c0: 3274 75bc 6678 7e3e 031b 413e dc48 193e
000002d0: 5fe6 003f 3390 01be 061e bfbd 96bd c63e
000002e0: 6177 2fbe f417 94bd 03a5 83be 7b21 45be
000002f0: 79d7 afbe 06e0 403e 8ae6 b33e c418 eabe
00000300: 5bc2 8b3d a644 b73e a88c dd3e 27bb 0f3e
00000310: e0bf 253f 6717 0abd 8c40 573f 967e 043f
00000320: 1d79 2bbf a00c 94be 8a1b 67be 6aad fcbd
00000330: ee6c ffbc f326 85be dc5a d6be bbf2 913c
00000340: 6ebd fcbe 1a67 bcbe 0177 21bf 13a2 0abd
00000350: fbb5 583e 8bc4 81bd a828 5d3e 9b37 063f
00000360: f7ab 97bc e782 4f3e b1af a93d f31c 0fbd
00000370: 3fc1 85be 33fb 043f 7365 1ebf d2ba 30bd
00000380: c994 b1be 0f9a d1be 8c76 27bc 7203 b43e
00000390: c080 16be 75c3 783e df46 c33f 8f24 563e
000003a0: 92f6 7ebf a859 d9bd 31cd e2bd 2788 8bbd
000003b0: 28be 9bbd 2a22 75be 2ccd 57be 6546 65be
000003c0: e42c 23bd 62df 7f3e 2477 20bf cdee ad3e
000003d0: 70df a03d ffe5 42be 4fdf 133f 2924 fd3d
000003e0: 4cc2 aa3d b2b6 05bf 50b6 debe d6c8 41be
000003f0: 4211 0c3c 014f b03d 0b13 00be 5e26 7e3e
0.37375575 0.25263903 0.096440785 0.449865 0.74112177 -0.19150917 0.25216144 0.37886387
0.017990654 0.046538416 -0.23244269 -0.37665257 -0.29382885 -0.28178275 -0.32941583 -0.09788694
-0.11557388 -0.4591484 -0.2837586 0.033311766 0.009748489 -0.17086507 1.0287592 0.15657187
-0.46478108 -0.31221986 0.07040619 -0.23149496 0.2495835 -0.82095045 -0.35855657 -0.4493643
-0.6419933 0.02972589 0.009020567 -0.21391009 0.19118431 0.41823575 0.62746173 0.41140506
-0.50038004 0.53371537 0.27299398 -0.5002161 -0.32682005 -0.29964328 -0.19513908 -0.4371513
-0.14056651 -0.079670995 -0.0898552 0.14816016 -0.15243976 0.253092 0.34320235 0.2947348
-0.64431196 -0.42945337 -0.009495076 -0.38402265 0.21039788 -0.45413566 -0.1341024 0.02035212
-0.18229873 0.06080369 0.015555197 -0.22302067 0.35551968 0.57203525 0.95497763 0.5147909
-0.7154025 0.92884684 0.20830725 0.038080137 -0.023290258 -0.29746473 -0.07326573 -0.8608022
-0.041116998 0.09613084 0.05297424 0.01154883 0.15449612 -0.024484029 0.75647014 0.23756571
-0.86890244 0.026304392 -0.06345927 -0.021304118 0.43939245 -0.26875016 -0.15502214 -0.025531583
-0.37627706 0.031591427 -0.048303463 -0.29151616 0.029932829 0.3250438 0.8352019 0.106835835
-0.8587458 -0.064925544 -0.2749878 0.052991375 0.50685155 -0.5988752 -0.24436511 -0.21978116
-0.24563618 -0.21935648 -0.047260754 -0.18047632 0.5524014 0.06871565 1.0779928 0.6602621
-0.35504884 0.30855414 0.27840012 0.15844494 0.47437146 -0.63475734 0.102648616 -0.48897463
-0.18166395 0.20942038 0.12947558 -0.03133615 0.17419697 0.042167157 0.090333536 0.2980101
0.24077544 -0.0779432 -0.013897441 -0.26766238 -0.28192878 -0.23713508 0.105282396 -0.51167953
-0.21558647 -0.016376857 0.12049352 -0.0013521943 0.32863796 0.15960723 0.89339405 0.5417501
-0.4346211 0.15935838 0.053636592 -0.31923833 0.16780287 0.021567682 -0.0117933955 0.08649648
0.056384 0.024945779 -0.1078439 0.41986892 0.57203525 0.2142245 0.6002342 0.28583884
-0.7974126 -0.32567564 0.046024326 -0.45367372 -0.15055627 -0.34722272 -0.23130274 -0.5052601
-0.014981316 0.24850616 0.1885796 0.149692 0.5035152 -0.12652664 -0.093318984 0.38816518
-0.17135383 -0.07231131 -0.2571183 -0.19251053 -0.3434408 0.18835458 0.35136825 -0.4572202
0.0682418 0.35794562 0.43271375 0.14036237 0.64745903 -0.033713724 0.84082866 0.51755655
-0.6698168 -0.28915882 -0.22569099 -0.123377636 -0.031179871 -0.26006278 -0.41866195 0.017815938
-0.49363273 -0.3679741 -0.6307221 -0.033845972 0.2116317 -0.06336316 0.2159754 0.524286
-0.018514616 0.20264779 0.082854636 -0.034939718 -0.26123998 0.519458 -0.6187355 -0.043146916
-0.34683827 -0.4093785 -0.010221135 0.3515888 -0.14697552 0.24293311 1.5256003 0.20912383
-0.99594986 -0.10612804 -0.110742934 -0.068130784 -0.07604629 -0.23938814 -0.2107436 -0.22390135
-0.039837733 0.24987558 -0.62681794 0.33971253 0.07855117 -0.19033049 0.57762617 0.123604126
0.083378404 -0.52231896 -0.43498468 -0.18924269 0.008549036 0.08608819 -0.12507264 0.24819323

fc1.bias f4 [32]
00000000: 1742 ccbe ae59 7dbe 2dd2 2bbf fb3a 07bf
00000010: f259 00bf 85af edbe 502b 58bd 6173 f83d
00000020: 835a 05bf fbdc 05bf 839f 86be b090 11bf
00000030: fafe f7be 35eb 28be 86bf bbbe 7ce8 1abf
00000040: da1f b2be 42cc ca3e cd4f bbbe d304 06bf
00000050: f644 cbbe 59d2 27bf fc3d 6c3e d67b 79be
00000060: 1d39 25bf 3762 83be 7b9a 4e3f db7e 10bf
00000070: ffaf 0bbf 145b 5a3f 0392 42be 3bc6 8e3f
-0.39894173 -0.24741241 -0.6711758 -0.5282437 -0.50137246 -0.46422973 -0.05277568 0.12131382
-0.52091235 -0.52290314 -0.26293573 -0.568614 -0.4843672 -0.16495974 -0.36669558 -0.60510993
-0.34789926 0.3960896 -0.3658432 -0.5235111 -0.3970105 -0.6555534 0.2307052 -0.24363646
-0.6454027 -0.2566087 0.8070447 -0.56443566 -0.54565424 0.85295224 -0.19001012 1.1154245

fc2.weight f4 [32, 32]
00000000: 98d5 dbbe b325 c0bd f673 ffbe 1aca f8bd
00000010: ba68 76be c714 8cbe 771f 8b3e 63c2 c8be
00000020: 457b a4be 16ce 7dbe 2aca f23e 4c92 99be
00000030: da4d fb3d 7fdf 01bf 5e98 c4bd 5146 e0be
00000040: 25a9 b93c d91e aebd 9cc3 50be 3504 a9be
00000050: 9773 0abe 654e ecbe dc03 18be 9faa 82be
00000060: 85c6 e5be a787 c9be 2645 b9bd f02b 673e
00000070: e4d3 9cbd 4a98 3f3d 0ac9 3abf e35c db3c
00000080: f733 923d 0cf4 00be da9a 033e 834e 07bc
00000090: 8cbc 93bc 413d f43d e4c4 6b3d 3d80 62be
000000a0: 3faf 08be 1559 abbd 0ced 8dbd 5bfe 41bc
000000b0: 5c02 92bd 4b05 0bbb bfc2 0bbe c9a6 2ebe
000000c0: 1cc7 2ebd c882 9bbd a731 4fbe d62f f5bd
000000d0: d6b7 083e 3fc0 81bd 9461 9bbd dc48 59be
000000e0: 0643 2abe 2162 7e3d c410 233e e854 f9bd
000000f0: 5096 dbbd d33c 05be bf14 4fbc 2880 aebd
00000100: c127 a93d ff25 093e a4bb 5f3e 4bcb 1c3e
00000110: ea80 f93b b5d6 213e ba2a 38bd 13ff c73e
00000120: ace5 6ebd 1a61 7d3e b3eb 113c 609c 2dbe
00000130: f953 ae3e 1e4a b73e b985 2d3e bcea a33e
00000140: 85d7 b73e fbd5 1b3f 86b5 853d 3040 d43d
00000150: 6c8c a73d 6761 863d f563 313f bb7a cc3d
00000160: a1b7 36bd 70bc 913e 22b0 313f e61f ba3d
00000170: 8329 893e 6070 533f 58d5 1a3d 4d12 a63f
00000180: 656c a73e 7273 32be e9ac a13e 7315 8abb
00000190: 6eaf 363d 6852 153d 46c1 c23b 7600 733e
000001a0: 8302 83be f0c8 513e 2d8e aebe 90c6 14be
000001b0: cf1f dcbd a62b b73e 9249 46be ad9d 3a3e
000001c0: e0b9 a63e 993d 2cbe 0811 56be 73b2 cd3d
000001d0: 2c57 dabd 9330 463e 79c1 22be b75c 063e
000001e0: 2b34 4b3e e650 363e fbe1 c03f 1f1c 073e
000001f0: aafe 3c3e c7d7 113e ab12 c23e a6ba f43f
00000200: 5091 a0bb 16cd 39be 2a4c 47be 716e 773c
00000210: dc3e 63be 0766 8cbe 698b 71bd d581 b8bb
00000220: c90a afbe 2c68 133d defa 3e3d b5f7 a8be
00000230: 9921 f9bd 157b f6bb efd1 9c3c 1135 3f3e
00000240: 40e5 583e 4a31 8c3d a0eb 4c3d da31 48be
00000250: 18a8 edbc e476 1f3e 1023 693e 9e5c 4fbe
00000260: 0032 603d d087 133e 8f34 0b3f 30a5 58be
00000270: 16fc 86be 8453 1bbf d583 a73d 425f 3f3f
00000280: 9029 01be 876d 513d 7989 a3be dbe9 d33e
00000290: c491 1abf 0783 03be 518a b63d 7bc9 82be
000002a0: 5ee3 c4bd 77b3 03be 668d c73d ca8d 07bd
000002b0: 186a 96b9 89c6 703d b15e aabe 4e58 c43e
000002c0: 926b 783b 17f9 533f 99dc 77be 008e 99be
000002d0: 4f8b 083e b2c6 7abe efd8 5f3f 8c16 5ebe
000002e0: bbdb 40be 2254 f8bd a305 9c3e 1c27 e83d
000002f0: 0bc5 83be ddf2 373f e29f bbbd 20b2 203f
00000300: 5629 4d3e d066 a53e 8c57 e83e a8a1 8d3e
00000310: 7ad7 c83e fb6f 133f 5d85 ea3e c138 3b3f
00000320: 8aae cdbd 1e36 cb3e c8b3 d73e 24a5 903d
00000330: d549 f93d 9f08 9d3d 6aaa 893c 1046 9f3e
00000340: 1f75 cd3d 3d86 e13e 13db 4d3d 3b22 c8bc
00000350: ee91 fd3e 51c2 353f f884 d13e 3ccc 263e
00000360: 53b9 dc3e 54e7 a53e 2c5c 55be 6c67 293e
00000370: 2a97 873e cbf2 4bbf 9f52 193f cbae 4ebf
00000380: f5a7 eebc edc9 fc3d 6a8b ca3d d518 fdbc
00000390: 0319 d23e b7f8 05be 62bc 703e ff15 943e
000003a0: e3a1 5c3d 2b81 933c 721f c0bd 3f0c 863e
000003b0: 6625 77bd 77f4 8dbe 22c8 463e a310 96be
000003c0: 7404 013e a403 943e 85ac e13d 8b38 103e
000003d0: 80f2 9b3d 1438 bd3c 13a9 cd3e bc5f 1dbe
000003e0: 009e 273e 8c99 ddbd 45ba a6be c853 a73d
000003f0: 5f08 1c3e f737 49bf 9d31 f93d 39a5 eebe
-0.42936397 -0.093821906 -0.4989316 -0.12147923 -0.24063388 -0.27359602 0.27172443 -0.39210805
-0.32125297 -0.24785647 0.47419864 -0.29994428 0.122707084 -0.5073165 -0.09599374 -0.43803647
0.022663662 -0.085019775 -0.20387119 -0.33011022 -0.13520657 -0.4615356 -0.14845222 -0.255208
-0.4487802 -0.39361307 -0.09046392 0.22575355 -0.076576024 0.046776094 -0.7296301 0.02677769
0.07138818 -0.12593096 0.1285204 -0.008258465 -0.018034242 0.11925746 0.057560816 -0.22119232
-0.13348101 -0.083666004 -0.06929979 -0.011840428 -0.07129356 -0.0021212872 -0.13648508 -0.17055811
-0.042670354 -0.07593304 -0.20233785 -0.119720146 0.13351378 -0.06335496 -0.07586971 -0.212192
-0.1662713 0.0621053 0.15924364 -0.12174398 -0.10722029 -0.13011484 -0.012639224 -0.085205376
0.082595356 0.133934 0.21848923 0.15311925 0.0076142447 0.1580456 -0.044962622 0.39061794
-0.0583245 0.24744073 0.008906293 -0.16954184 0.3404844 0.35798734 0.16945542 0.32015026
0.35906616 0.60873383 0.065287635 0.10363805 0.0818108 0.06561547 0.6929315 0.099843465
-0.044608716 0.2846408 0.6940938 0.090881154 0.26789483 0.82593346 0.037801117 1.2974335
0.32699886 -0.17426851 0.31577232 -0.0042139827 0.044600897 0.03645554 0.00594345 0.23730645
-0.25587854 0.20486808 -0.34092847 -0.1452887 -0.107482545 0.3577549 -0.19364002 0.18224211
0.32563686 -0.16820373 -0.20904934 0.10043802 -0.10661158 0.19354467 -0.15894116 0.13121305
0.19844119 0.17804298 1.5068964 0.13194321 0.18456522 0.14242469 0.37904868 1.911946
-0.004900135 -0.1814464 -0.19462648 0.015102015 -0.22191948 -0.2742159 -0.058970843 -0.0056307116
-0.34187916 0.035988018 0.046625964 -0.33001485 -0.12164611 -0.0075219967 0.019143073 0.18672587
0.21181202 0.06845339 0.050029397 -0.19550267 -0.029010817 0.15572697 0.22767282 -0.20250174
0.054735184 0.14407277 0.54377073 -0.21156764 -0.263642 -0.6067431 0.08179442 0.74754727
-0.12613511 0.051129844 -0.3194082 0.41389355 -0.6037867 -0.12842952 0.089131005 -0.25544342
-0.09613679 -0.12861429 0.097437665 -0.033094205 -0.00028689275 0.058783088 -0.3327537 0.3834862
0.0037905914 0.82801956 -0.24205245 -0.2999115 0.13334392 -0.24489859 0.8744039 -0.21688288
-0.1883382 -0.12125422 0.3047305 0.113355845 -0.2573627 0.71854955 -0.091613546 0.627718
0.200353 0.32305002 0.45379293 0.27662396 0.39226896 0.57592744 0.45804873 0.73133475
-0.10043056 0.39689726 0.4212935 0.07062748 0.121722855 0.0766766 0.016804893 0.3110814
0.10032105 0.44047728 0.050257754 -0.024430385 0.49525398 0.7099963 0.4092176 0.16288847
0.4311014 0.32403052 -0.20835942 0.16543359 0.26482517 -0.7966735 0.59891695 -0.8073546
-0.029132823 0.12343202 0.09889872 -0.03089563 0.41034707 -0.13083158 0.23509362 0.28923032
0.053865325 0.018005928 -0.09380998 0.26181218 -0.0603384 -0.27725574 0.19412282 -0.29309568
0.12599355 0.28909028 0.110192336 0.1408407 0.076146126 0.02309803 0.40168056 -0.15368551
0.16368866 -0.10820302 -0.32563987 0.08170277 0.15237568 -0.7860102 0.12167666 -0.4661043

fc2.bias f4 [32]
00000000: 56da fcbd 1811 90be 787f 943f 1ab8 3b3f
00000010: 68a6 20be 21b7 f43e bb1d 8fbf cc77 93bf
00000020: a7a6 083f d46d 5abd f6e9 fcbe 78c3 aa3b
00000030: ff23 c13e 995c 2bbe 8095 1ebe c299 08bd
00000040: 1355 1b3d 2962 62be f899 dabe cdb3 22be
00000050: 4473 9d3f 603e 933e edbd 253f 08a9 5ebe
00000060: 9960 3b3e 8870 1d3f f921 6ebf e7aa d93e
00000070: cfc9 88be 3c5d d3bd e65e bcbe 22df 7ebf
-0.12346332 -0.28138041 1.16014 0.7332779 -0.15688479 0.47795966 -1.1180948 -1.1520934
0.5337929 -0.053327397 -0.49397248 0.00521129 0.37722775 -0.16734542 -0.15486717 -0.03334976
0.03792293 -0.22107758 -0.42695594 -0.15888901 1.2300801 0.28758526 0.6474293 -0.21744168
0.18298568 0.61499834 -0.9302059 0.425132 -0.26716468 -0.103205174 -0.36791152 -0.99559224

pi.weight f4 [5, 32]
00000000: 908f d9be 1878 5c3d 812e 2bbf 0427 98bd
00000010: 5f02 1dbe 5944 2ebf 8532 6dbe 7ff5 8e3d
00000020: 4029 d6bd e402 2a3e 50f8 53be 22b8 b8bc
00000030: 18ae 93be 247c 1bbe 5452 29bd c5ce cdbd
00000040: 9a96 f23d 5b66 92bd 2357 843e 9d2a 36be
00000050: 7c5c 10bf 9380 41be fdf6 a2bd f729 1c3d
00000060: cc57 103d 8f90 44bd 8067 953d 07ee c6be
00000070: ffc9 cfbe dbc4 55bd 9a3f b43e 389e 12bf
00000080: 7f76 46bf eadb 07bc 2d0e 22bf 7eac 3dbe
00000090: c6be f8bd 8ce7 00bf 0b55 85bf 91ca 64be
000000a0: 83c4 1d3d e271 b2bd 9ca7 9dbe 4a9b 8b3d
000000b0: dbcd 47be cae4 c53b 2deb abbb 6e57 24be
000000c0: c9ef 263e f495 58be ffda 88be fd34 61bd
000000d0: a1e6 2abf b444 98be d0f1 d2bd f9f3 e4bd
000000e0: 7342 4fbe 003e debd 6b3b 4fbe 760c b1be
000000f0: bb1c 8bbd bb53 463e 9e96 7dbe 3b91 82bf
00000100: 9f02 45bf 99e4 7ebd 4c61 1dbf f7ec c8be
00000110: f97e 6bbe 2b5a 4dbf 68b1 dabe 110e a0be
00000120: 3817 5cbe f9fb abbd 88be 90be b4ed 59be
00000130: 6e53 bdbe bf38 c9bd e3d9 82bd fac9 1abe
00000140: 29dc efbd 6f4d d73c 3d16 e33d 138e 5ebe
00000150: ae0e bdbe dde7 a4bc c434 9dbe 2b92 8cbe
00000160: 05b7 f2bc 66df b1be 465b ba3b e4fc d1be
00000170: a799 86be 85ef 73be a6b6 7d3e 026a f8be
00000180: bf63 c63e a2c8 c83d 5ead 743f 883e 5d3f
00000190: 1bf4 4a3e 8205 4f3f 2bfc cb3e 9686 f23e
000001a0: 0a2c 373f a77c 4f3d 687d 2b3e f1a4 30bb
000001b0: f775 073f d36d 013d 8d2b a73d 2662 f03d
000001c0: e82b 113e 903d 6fbd 5556 a0bd 9e6d 483d
000001d0: b5c0 ad3f a4ab 113f 7651 323f d7b6 ddbc
000001e0: cdc0 bd3e a95b 213f 9606 bf3e 348f 2f3f
000001f0: bdc9 f53e a34a 443d be4b f1bc 89ab 283f
00000200: fa44 7d3e 5c15 133e 6bbc 86bf 8d24 64bf
00000210: c027 e93d 3d45 30bf 1445 e63e d789 583e
00000220: 6bbe 0ebf 1f71 56be cce2 163e 4bd8 05be
00000230: bf3f 8cbe dee4 313b 7671 35bd be51 20be
00000240: f681 853c 1bc0 02bd 3a3e fb3d 46d4 03bd
00000250: 0457 90bf d6d3 fbbe f9fa 27bf 62e3 b6bd
00000260: 6f4f 5fbe 0ddf e0be 0e86 cc3d 884d 27bf
00000270: ef67 c43d 9a04 423c ed5a 293e 3e4c 0c3f
-0.42492342 0.053825468 -0.66867834 -0.07429317 -0.15332936 -0.6807304 -0.23163803 0.069804184
-0.104570866 0.16602665 -0.20700192 -0.022548739 -0.2884376 -0.15184075 -0.04133828 -0.10049204
0.11845131 -0.07148429 0.2584773 -0.17789693 -0.5639112 -0.18896703 -0.079572655 0.03812596
0.03523998 -0.047989424 0.07295132 -0.38853475 -0.40583798 -0.05218969 0.35204774 -0.5727267
-0.7752456 -0.008292178 -0.6330288 -0.18522832 -0.12145762 -0.5035331 -1.0416578 -0.22342898
0.038517486 -0.08713128 -0.30791938 0.068167284 -0.19512121 0.0060392367 -0.005246541 -0.16048977
0.16302408 -0.21150953 -0.2672958 -0.054982174 -0.6675816 -0.29739916 -0.10300028 -0.111793466
-0.20240192 -0.10851669 -0.2023751 -0.3457982 -0.06792589 0.19367878 -0.24764487 -1.0200571
-0.76957124 -0.062229726 -0.6147659 -0.3924329 -0.22997655 -0.8021571 -0.42713475 -0.31260732
-0.21493232 -0.08397669 -0.28270364 -0.21282083 -0.36977714 -0.098252766 -0.06389215 -0.1511611
-0.11711914 0.02628204 0.11088226 -0.21733885 -0.36925262 -0.020130092 -0.3070432 -0.27455267
-0.029628286 -0.34740752 0.00568715 -0.41013253 -0.26289102 -0.23821838 0.24776706 -0.48518378
0.38747975 0.09803893 0.9557704 0.8642354 0.19819681 0.8086778 0.39840826 0.47368306
0.71551573 0.050655987 0.16747057 -0.0026953781 0.52914375 0.031598877 0.081626035 0.1173747
0.14176905 -0.05840832 -0.078289665 0.048932664 1.3574435 0.5690253 0.6965555 -0.027064724
0.37061158 0.6303049 0.37309712 0.68577886 0.48005477 0.04792274 -0.029455062 0.6588674
0.24733344 0.14363617 -1.0526251 -0.8911827 0.11384535 -0.6885565 0.44974577 0.21146332
-0.55759305 -0.2094159 0.14734954 -0.1307079 -0.27392384 0.0027144472 -0.044297658 -0.15656182
0.016297322 -0.031921487 0.12267728 -0.03218486 -1.1276555 -0.49185055 -0.6561733 -0.089300886
-0.21807645 -0.43920174 0.099865064 -0.6535268 0.09590136 0.011841917 0.16538592 0.54803836

pi.bias f4 [5]
00000000: 5219 b43e 280e 17bf 148b 2b3d c9d7 2a3f
00000010: 7494 12bf
0.35175568 -0.59005976 0.041880682 0.6673551 -0.5725777
