code/tmp/maddpg/predator_preyadversary_0+1/adversary_0_actor.pt (torch, 9255 bytes, 6 tensors)

fc1.weight f4 [32, 16]
-3.047271 0.12620705 -0.990826 1.43053 2.8630116 -1.6812541 0.940206 -2.0473776
1.3369904 -2.1478992 -0.079882436 -1.5156837 10.327204 2.2675245 4.102545 1.0875385
1.82368 1.977682 -0.22948489 -1.4581553 0.51403874 -0.2824134 0.78889453 0.46428332
0.29769543 0.6362091 0.0021780073 0.2791824 -7.682967 -13.084749 -2.9535842 -1.9421383
2.1838367 3.0001976 -0.5540174 -1.1748873 0.10548696 -0.49279517 0.0077981707 -0.9180315
0.2484633 0.7676973 -0.921346 1.2980117 -6.5401735 -13.364555 -2.6941726 -3.3331335
0.022251636 -0.3877241 -0.44935873 0.39481494 -0.5696066 -0.865052 2.4233043 -1.2470142
0.89129174 0.31736612 0.034067772 -2.2651198 -2.4776487 0.059761863 0.33380315 2.0925953
1.0034423 -2.930033 -0.6333717 1.1896635 0.4266143 0.5388401 -0.8518454 -0.5861296
0.06170702 0.26289767 -0.11867899 -0.57337403 5.1044536 14.793811 -0.44322997 3.6250143
-1.7629751 -0.9324548 1.6623528 -0.1745545 1.0047419 -0.75079876 0.27472252 -0.6011701
1.4179331 -0.18667185 0.21200933 1.559165 0.5670151 -1.9645412 0.87675965 3.9268365
0.5378124 -0.18981959 0.75192094 0.80600756 -0.19920795 0.7932299 -0.06051726 -0.7677627
-1.2107972 -1.6655617 -3.7740343 2.3506737 5.6802325 1.7316352 -0.5674778 1.4062802
3.307425 -0.117180936 -0.6556074 -2.063571 2.7712457 -1.0501454 -1.0437108 0.25924787
2.5712607 0.9351356 0.41263634 -0.48122346 -7.332065 -3.482815 -0.28388032 -1.6478873
-2.2156222 -1.08638 0.500987 -1.2117218 -1.4708722 2.1822107 -2.3657186 1.3474678
0.94774216 -2.7226725 1.4699324 1.7812115 -5.0970283 -5.158895 -0.87778544 -0.55287427
-4.112774 0.19958498 -0.11588526 0.8738089 2.5365436 -1.5546803 -1.3365306 -0.7542386
2.9019952 -1.573866 0.3228487 -1.1537874 -2.2082136 1.6705947 -1.91308 -0.004826137
0.019282755 -0.30895436 -0.16640215 -0.40871474 0.28522962 -0.30046597 0.41559625 -0.19760905
-0.0852965 -0.048918232 -0.27372223 0.0037641965 0.36877882 -0.48565573 0.29742733 0.40165824
1.0397117 1.0624452 -0.022080475 0.10225525 -0.7104403 -0.48940447 2.8716898 -0.9512238
1.2424518 -4.4737744 -2.6791859 0.74526346 1.706753 2.441211 0.92328054 0.3344061
-0.5591855 1.2272445 -0.27667055 1.7701045 -0.37594494 -0.095093094 2.8369205 -0.6566078
-0.3266037 1.4856706 -2.1617024 1.6776962 1.5085571 -5.0454354 -2.6749141 0.80359143
1.1668454 -0.119692884 0.87739223 -0.5817396 0.39430326 -0.6769853 2.0473409 0.61519206
0.5281871 0.8249266 -0.4236248 -0.81041837 -4.32982 -4.283861 -0.104453094 0.5445391
1.0519373 -2.1967402 -1.6175843 -3.2220554 0.08889617 0.017066984 0.20388147 4.1607533
1.325986 0.048857365 -0.5270547 3.2575865 1.4501309 10.804977 2.1921697 2.8674357
-3.6506822 0.4801167 -1.2121563 0.9055438 -0.3750159 1.1827874 0.44347247 -1.5016446
-0.0589767 0.3574079 -1.1450695 0.7355453 17.066854 -1.0619224 2.2682717 0.40201053
00000000: 7d06 43c0 6c3c 013e c6a6 7dbf 9b1b b73f
00000010: 953b 3740 5633 d7bf 57b1 703f 3c08 03c0
00000020: 8022 ab3f 2e77 09c0 6799 a3bd ec01 c2bf
00000030: 3a3c 2541 1f1f 1140 0c48 8340 7634 8b3f
00000040: 596e e93f af24 fd3f 16fe 6abe d5a4 babf
00000050: 0b98 033f 7d98 90be fef4 493f 8bb6 ed3e
00000060: 896b 983e 99de 223f e6bc 0e3b fff0 8e3e
00000070: deda f5c0 225b 51c1 8607 3dc0 fd97 f8bf
00000080: fbc3 0b40 3d03 4040 16d4 0dbf b562 96bf
00000090: 8c09 d83d a64f fcbe cc87 ff3b 1d04 6bbf
000000a0: 2a6d 7e3e cf87 443f 55dd 6bbf 3f25 a63f
000000b0: 1a49 d1c0 38d5 55c1 536d 2cc0 0f52 55c0
000000c0: 1049 b63c c683 c6be 5912 e6be 2f25 ca3e
000000d0: bdd1 11bf 0c74 5dbf 6b17 1b40 299e 9fbf
000000e0: b22b 643f d07d a23e a68a 0b3d b9f7 10c0
000000f0: cc91 1ec0 dbc8 743d 3fe8 aa3e 15ed 0540
00000100: cc70 803f a985 3bc0 a624 22bf e546 983f
00000110: 316d da3e 6df1 093f 8a12 5abf 970c 16bf
00000120: 80c0 7c3d 869a 863e f80d f3bd a4c8 12bf
00000130: af57 a340 73b3 6c41 0aef e2be 3c00 6840
00000140: 2ba9 e1bf 5cb5 6ebf fac7 d43f 6abe 32be
00000150: 629b 803f 5934 40bf 6ea8 8c3e 49e6 19bf
00000160: d57e b53f e826 3fbe f918 593e b892 c73f
00000170: e727 113f 1676 fbbf 5273 603f 4a51 7b40
00000180: 13ae 093f 1160 42be e47d 403f 8356 4e3f
00000190: 2bfd 4bbe 1d11 4b3f f2e0 77bd 198c 44bf
000001a0: 67fb 9abf 2031 d5bf c789 71c0 7071 1640
000001b0: 77c4 b540 39a6 dd3f 3a46 11bf fd00 b43f
000001c0: daac 5340 8ffc efbd e3d5 27bf 8c11 04c0
000001d0: 175c 3140 2a6b 86bf 5198 85bf 23bc 843e
000001e0: 898f 2440 0c65 6f3f 1245 d33e ec62 f6be
000001f0: 47a0 eac0 71e6 5ec0 c358 91be f9ed d2bf
00000200: c1cc 0dc0 800e 8bbf af40 003f b319 9bbf
00000210: 8a45 bcbf 57a9 0b40 ef67 17c0 d379 ac3f
00000220: 3b9f 723f 4440 2ec0 bf26 bc3f bdfe e33f
00000230: db1a a3c0 ab15 a5c0 8cb6 60bf 2b89 0dbf
00000240: d89b 83c0 0160 4c3e 4055 edbd f1b1 5f3f
00000250: bb56 2240 c4ff c6bf 6f13 abbf c815 41bf
00000260: 4aba 3940 7174 c9bf 6d4c a53e 4eaf 93bf
00000270: 5f53 0dc0 0cd6 d53f cedf f4bf 9224 9ebb
00000280: def6 9d3c 442f 9ebe 5365 2abe 0f43 d1be
00000290: 9e09 923e add6 99be 08c9 d43e 075a 4abe
000002a0: eeaf aebd 7c5e 48bd 5225 8cbe bdb0 763b
000002b0: 94d0 bc3e dea7 f8be 6548 983e 26a6 cd3e
000002c0: 4615 853f 34fe 873f 1de2 b4bc 336b d13d
000002d0: 6adf 35bf 3993 fabe c4c9 3740 6783 73bf
000002e0: a908 9f3f 2929 8fc0 c877 2bc0 96c9 3e3f
000002f0: e276 da3f cd3c 1c40 1d5c 6c3f 4737 ab3e
00000300: c826 0fbf 5916 9d3f c3a7 8dbe c992 e23f
00000310: db7b c0be 2bc0 c2bd 1b90 3540 7317 28bf
00000320: 9a38 a7be 742a be3f 5559 0ac0 c0be d63f
00000330: 6618 c13f 3574 a1c0 cb31 2bc0 2bb8 4d3f
00000340: 315b 953f 8b21 f5bd c79c 603f e3ec 14bf
00000350: 1ee2 c93e e94e 2dbf a207 0340 3a7d 1d3f
00000360: 4537 073f 642e 533f 5ae5 d8be 9477 4fbf
00000370: e38d 8ac0 6415 89c0 81eb d5bd ea66 0b3f
00000380: e2a5 863f 6497 0cc0 010d cfbf 2836 4ec0
00000390: 320f b63d 0fd0 8b3c 4ec6 503e e424 8540
000003a0: e9b9 a93f a91e 483d 0fed 06bf 4c7c 5040
000003b0: e49d b93f 30e1 2c41 824c 0c40 1184 3740
000003c0: c7a4 69c0 dbd1 f53e f027 9bbf b8d1 673f
000003d0: 1602 c0be 9465 973f d30e e33e e435 c0bf
000003e0: 8d91 71bd 2bfe b63e a391 92bf b24c 3c3f
000003f0: eb88 8841 13ed 87bf 5d2b 1140 53d4 cd3e

fc1.bias f4 [32]
-1.2136797 2.7145662 4.017671 -6.9287868 1.7853031 -4.9010143 -2.9705818 3.8984547
-1.02217 -2.2702985 -3.0819445 -4.7883763 -2.7630513 -7.576715 -3.3287828 0.2332424
0.625762 0.8138743 -8.524527 -8.112968 0.16240242 -4.392859 1.235588 -3.5428138
-5.146375 -3.8838315 -2.6094298 -2.4874997 -2.0136204 -5.484888 -1.7335178 1.4803697
00000000: db59 9bbf 74bb 2d40 c390 8040 9fb8 ddc0
00000010: d084 e43f 1cd5 9cc0 031e 3ec0 4880 7940
00000020: 77d6 82bf 924c 11c0 943e 45c0 613a 99c0
00000030: d5d5 30c0 7374 f2c0 c70a 55c0 19d7 6e3e
00000040: f031 203f 115a 503f 7664 08c1 b8ce 01c1
00000050: d24c 263e 4d92 8cc0 bf27 9e3f 76bd 62c0
00000060: 1baf a4c0 b290 78c0 e600 27c0 3233 1fc0
00000070: 28df 00c0 3484 afc0 e9e3 ddbf c17c bd3f

fc2.weight f4 [32, 32]
0.9554842 -3.9580703 -5.960168 -0.11286432 0.7974107 0.14155975 -0.18411215 0.46143326
-0.5020867 0.40691313 0.45183522 -0.5195196 -1.516366 -1.0074646 2.1996253 -2.2799575
-1.08447 1.8232211 -1.0442442 -1.4792428 -0.4964767 1.3505846 2.3821304 -1.0290953
-2.232964 -4.247532 -1.5622106 -1.4262699 -1.5155365 -1.4900514 -2.5324051 -6.2793775
-0.7450112 -0.34159815 -0.585009 -0.39792976 -0.17174768 -0.74338484 -0.3257997 -0.56090397
-0.76176316 -0.46535578 -0.39266413 -0.61705464 0.15764014 -0.57542825 -0.69227546 -0.6598647
-0.5278548 -0.6918826 -0.36896938 -0.2622887 -0.80492616 -0.6425733 -0.75430626 -0.6106298
-0.34566957 -0.5977721 -0.39716247 -0.4200872 -0.501519 -0.3952798 0.05121513 -0.4249759
-1.0735518 -1.2610687 -0.29864538 -0.75336593 -0.20138252 -0.5904209 -0.30805945 -0.38727573
-0.5586864 -0.061824147 -0.5675785 -0.63219863 0.19825074 -0.47183064 -0.94397765 -0.13448845
-0.05116484 -0.10009893 -0.43536267 -0.4785097 -0.86498815 -1.1739106 -1.0467987 -0.8778562
-0.73880106 -0.80510926 -0.2939962 -0.14260717 -0.4305326 -0.22832686 -0.2296448 -0.32106787
-0.12841074 -0.10217434 0.061610144 -0.2191181 -0.2312042 0.008787304 -0.21296068 -0.037289463
-0.19091153 -0.29260415 -0.49558866 -0.11987707 -0.50022745 -0.060073096 0.10780278 -0.53133565
-0.031069163 -0.12367941 -0.26658294 -0.13743824 0.07240111 -0.19065872 0.050299343 -0.15500136
-0.14406987 -0.035755053 0.07738283 -0.11678213 -0.13674758 -0.23152769 -0.21244302 -0.10435972
-2.7244205 5.29868 5.2229543 -2.0746195 -4.0434375 0.93815404 -2.0151975 2.0060663
-0.3007787 -0.39699304 -0.061616786 -3.2769747 1.8824753 -2.15688 -0.16665472 -0.8409947
-5.1925406 -1.8743519 -3.9321282 -0.6322847 2.3517256 0.734438 -1.8893945 -2.512746
1.0046543 1.0661302 -0.21113056 -1.9422104 1.3899443 0.17422916 -2.7117412 -1.444467
-0.22151388 -0.35436952 -0.25134128 0.05576669 -0.17207663 -0.0081487885 -0.079532914 0.0448296
0.012297865 -0.05176186 -0.18162657 -0.12025216 -0.20717037 -0.14060715 -0.30603755 -0.13762057
-0.1436967 -0.3327507 -0.1511153 -0.0044465517 -0.21997431 -0.16539711 -0.07209897 -0.092219435
-0.35376865 -0.12656507 0.030561805 0.052095864 0.064432524 -0.2733657 -0.1642533 -0.09016663
0.0674886 -3.6782627 -3.0643022 -4.506932 1.6131858 -0.7919891 -1.6206936 0.702946
0.30375615 -0.76836824 0.776816 -0.64153254 -0.82477945 -1.1321179 1.7040429 -3.0608094
-1.6949875 2.3001819 -2.627153 -0.21913542 -1.0844375 -0.491077 2.617099 -1.5942445
-3.5789893 -3.7639728 -2.2230694 -2.2667606 0.2533036 -3.1054459 -3.6522248 -4.9486556
-0.12447289 0.008637716 -0.2057242 0.108776815 -0.14886186 0.09738463 -0.07743608 -0.20683144
-0.19756053 -0.19185235 -0.2380394 0.01506942 -0.19934355 -0.16708313 -0.1015272 -0.19055404
-0.122881524 -0.21934181 -0.42022732 -0.115692444 0.046569288 -0.14594363 -0.058663156 -0.09061453
-0.16082136 0.09999446 -0.10006545 -0.019753212 0.016924487 -0.15837435 -0.03194904 -0.21414886
00000000: 9d9a 743f 0651 7dc0 b2b9 bec0 6925 e7bd
00000010: 1c23 4c3f 0af5 103e e587 3cbe fb40 ec3e
00000020: c188 00bf eb56 d03e f256 e73e 3dff 04bf
00000030: 4818 c2bf 9af4 80bf a9c6 0c40 d3ea 11c0
00000040: eacf 8abf 4f5f e93f cba9 85bf d457 bdbf
00000050: 3232 febe f5df ac3f d374 1840 65b9 83bf
00000060: e2e8 0ec0 c8eb 87c0 84f6 c7bf 0390 b6bf
00000070: 1afd c1bf 01ba bebf ed12 22c0 a9f0 c8c0
00000080: 0eb9 3ebf f4e5 aebe 26c3 15bf 73bd cbbe
00000090: a0de 2fbe 784e 3ebf 38cf a6be 6797 0fbf
000000a0: e902 43bf 1d43 eebe 460b c9be 4bf7 1dbf
000000b0: 6b6c 213e 444f 13bf f738 31bf e5ec 28bf
000000c0: 7e21 07bf 381f 31bf 8ee9 bcbe b44a 86be
000000d0: a40f 4ebf af7f 24bf 371a 41bf 3c52 1cbf
000000e0: 9afb b0be 9807 19bf e158 cbbe ab15 d7be
000000f0: 8d63 00bf 1d62 cabe f5c6 513d 7196 d9be
00000100: 256a 89bf b36a a1bf 0ce8 98be 97dc 40bf
00000110: 3837 4ebe d325 17bf f8b9 9dbe 0149 c6be
00000120: 1206 0fbf 513b 7dbd d34c 11bf c5d7 21bf
00000130: 3e02 4b3e c993 f1be 85a8 71bf 57b7 09be
00000140: 3992 51bd ab00 cdbd dbe7 debe 39ff f4be
00000150: dd6f 5dbf b442 96bf 80fd 85bf 2fbb 60bf
00000160: 1122 3dbf a41b 4ebf ac86 96be 9d07 12be
00000170: c56e dcbe 84ce 69be 0228 6bbe 0263 a4be
00000180: 1b7e 03be c840 d1bd eb5a 7c3d 7f60 60be
00000190: cbc0 6cbe a0f8 0f3c 5d12 5abe d6bc 18bd
000001a0: 507e 43be 36d0 95be ccbd fdbe 1c82 f5bd
000001b0: e80e 00bf 350f 76bd b4c7 dc3d 9d05 08bf
000001c0: c284 febc a14b fdbd 8f7d 88be 9cbc 0cbe
000001d0: 0847 943d 0a3c 43be af06 4e3d adb8 1ebe
000001e0: 0d87 13be e473 12bd e47a 9e3d 782b efbd
000001f0: 8f07 0cbe 9815 6dbe aa8a 59be 8dba d5bd
00000200: e85c 2ec0 c98e a940 7122 a740 91c6 04c0
00000210: d763 81c0 dd2a 703f fff8 00c0 6463 0040
00000220: aaff 99be ac42 cbbe e261 7cbd f4b9 51c0
00000230: f3f4 f03f 520a 0ac0 89a7 2abe 6e4b 57bf
00000240: 4b29 a6c0 c3ea efbf fda7 7bc0 69dd 21bf
00000250: ac82 1640 2104 3c3f aed7 f1bf d5d0 20c0
00000260: 8398 803f f476 883f 9c32 58be 5a9a f8bf
00000270: b2e9 b13f 2169 323e 2b8d 2dc0 4be4 b8bf
00000280: 89d4 62be ec6f b5be ceaf 80be 9d6b 643d
00000290: db34 30be 7f82 05bc 27e2 a2bd 3e9f 373d
000002a0: fc7c 493c 3e04 54bd 51fc 39be c446 f6bd
000002b0: 7824 54be 52fb 0fbe f4b0 9cbe 68ec 0cbe
000002c0: 3a25 13be 4d5e aabe f8bd 1abe 61b4 91bb
000002d0: f240 61be dc5d 29be a0a8 93bd 8bdd bcbd
000002e0: 2a21 b5be 469a 01be c05c fa3c 7962 553d
000002f0: 33f5 833d 97f6 8bbe 0432 28be 48a9 b8bd
00000300: 7737 8a3d a868 6bc0 871d 44c0 c938 90c0
00000310: df7c ce3f ccbf 4abf e372 cfbf 45f4 333f
00000320: ed85 9b3e c8b3 44bf 6add 463f 7a3b 24bf
00000330: bf24 53bf 3de9 90bf 141e da3f 4de4 43c0
00000340: 5af5 d8bf 2e36 1340 4623 28c0 0965 60be
00000350: d9ce 8abf 726e fbbe 8d7e 2740 3410 ccbf
00000360: 290e 65c0 eee4 70c0 c546 0ec0 9b12 11c0
00000370: 02b1 813e a0bf 46c0 0dbe 69c0 635b 9ec0
00000380: a4eb febd 3585 0d3c 5da9 52be 61c6 de3d
00000390: 3e6f 18be 9871 c73d cf96 9ebd 9fcb 53be
000003a0: 4f4d 4abe f174 44be 9ac0 73be bbe5 763c
000003b0: b720 4cbe d717 2bbe 7eed cfbd 9920 43be
000003c0: 4fa9 fbbd 249b 60be 0928 d7be 29f0 ecbd
000003d0: 70bf 3e3d 3f72 15be c748 70bd 1c94 b9bd
000003e0: 5bae 24be e5c9 cc3d 1def ccbd 7dd1 a1bc
000003f0: 39a5 8a3c e32c 22be ffdc 02bd d749 5bbe

fc2.bias f4 [32]
-1.069426 -0.19863796 -0.68859816 -0.39399114 4.1941633 -0.21226783 0.8295054 -0.36463532
0.4765101 -1.1730118 -1.6719834 -1.9787743 -0.9143344 -7.424559 7.504098 -0.6259042
-0.4011604 0.1410662 -0.3398437 -0.005087777 -1.1481366 -0.8583091 -0.9709737 8.611632
-1.2679893 -0.40889904 -0.47496518 -0.5729741 2.4365852 8.627102 -0.58119404 -3.713066
00000000: f3e2 88bf c067 4bbe f847 30bf 35b9 c9be
00000010: 9636 8640 bd5c 59be 775a 543f 7bb1 babe
00000020: 22f9 f33e 4025 96bf 8d03 d6bf 7a48 fdbf
00000030: d211 6abf fd95 edc0 9221 f040 423b 20bf
00000040: e564 cdbe a873 103e feff adbe 5eb7 a6bb
00000050: 24f6 92bf 25ba 5bbf bb91 78bf 3fc9 0941
00000060: 794d a2bf 375b d1be a32e f3be 6eae 12bf
00000070: 03f1 1b40 9c08 0a41 22c9 14bf e0a2 6dc0

pi.weight f4 [5, 32]
-0.13217093 0.80850166 0.8255847 -0.20152257 0.74243724 0.14035824 -0.18600717 -0.272237
-0.18291762 0.28198314 0.11228956 0.4280218 0.16899729 -0.3122803 -0.719477 0.43549857
-0.04039552 0.03376105 -0.05451286 0.6173451 -1.1287507 0.48743302 -1.1807641 0.14025868
0.5341334 -0.8043155 -0.7787264 0.37293383 -0.13988005 -0.46868023 -0.09824278 0.16697928
-1.241398 -0.38934442 0.08267444 -0.19264926 -0.04715465 0.03907041 -3.0735006 0.07037211
0.022208925 -0.51693773 1.0018348 -0.18808125 -0.9995352 2.9519105 -2.357814 -0.4458101
0.11855744 0.7493927 0.031209797 -0.42315015 2.1703627 -0.4781499 2.8985076 -4.072685
-0.55450463 2.915935 0.82343054 -0.39822724 -1.5109382 -4.3580065 0.2791307 2.7104416
-0.8652071 -0.9874654 -1.0110295 -0.08808336 0.22760633 0.08028302 -0.6452143 -0.078112274
-0.66198635 -0.7852807 0.2592251 -0.9877371 -0.77340436 -0.06730587 -0.73697835 -1.0088496
0.07471734 -0.90404344 -0.016413126 -1.0305953 -0.8511573 -0.40537873 -0.756848 -0.72487897
-0.7842262 -0.23572578 -0.17520773 -0.28957033 -0.113122515 -0.52568334 0.07817371 -1.0607269
2.868317 0.6537535 -0.23063001 0.19418943 -3.5778062 0.17174084 3.2177043 -0.3098247
3.4944012 0.056308698 -0.21903357 0.43784022 0.008164391 -5.2131453 -1.0003765 0.44530022
-0.20562556 2.567723 0.13533717 0.6891231 -4.6383653 0.5036714 1.3282222 1.2964594
-0.24128231 0.63906175 -0.2035768 0.03659859 -1.7532359 2.9227285 0.4917919 -0.15157427
-0.15275756 -0.62063783 -0.7434994 -0.09643313 4.6912107 0.04617274 1.0736707 0.21273616
-2.5600853 0.3954137 0.48568422 -0.12707089 0.45374173 1.1376042 4.5226674 -0.43172362
0.2268001 -3.3244011 -0.19453557 -0.7038719 2.0880988 0.9487351 -5.592174 3.8513575
0.59330714 -4.238931 0.44842187 0.18263263 3.4095726 2.7887669 -0.0805129 -2.6126769
00000000: d157 07be f7f9 4e3f 8559 533f ef5b 4ebe
00000010: 5e10 3e3f 12ba 0f3e aa78 3ebe a662 8bbe
00000020: c24e 3bbe 1860 903e 12f8 e53d ac25 db3e
00000030: a00d 2d3e 34e3 9fbe a52f 38bf abf9 de3e
00000040: c675 25bd 0749 0a3d e048 5fbd 540a 1e3f
00000050: e77a 90bf d290 f93e 4723 97bf f99f 0f3e
00000060: f7bc 083f 9fe7 4dbf 9d5a 47bf 2ff1 be3e
00000070: b73c 0fbe dbf6 efbe 8333 c9bd 9efc 2a3e
00000080: 21e6 9ebf 2758 c7be 3851 a93d d945 45be
00000090: 3c25 41bd 4b08 203d 3cb4 44c0 411f 903d
000000a0: 7eef b53c 0856 04bf 1f3c 803f 5f98 40be
000000b0: 8ae1 7fbf 1aec 3c40 6de6 16c0 3941 e4be
000000c0: 3ece f23d 33d8 3f3f b0ab ff3c 23a7 d8be
000000d0: 39e7 0a40 10d0 f4be 2681 3940 6f53 82c0
000000e0: 04f4 0dbf ae9e 3a40 58cc 523f 71e4 cbbe
000000f0: 6c66 c1bf ca74 8bc0 38ea 8e3e e077 2d40
00000100: 367e 5dbf 88ca 7cbf 6a69 81bf 0c65 b4bd
00000110: a211 693e 6d6b a43d c42c 25bf 54f9 9fbd
00000120: f077 29bf 2808 49bf 27b9 843e 57dc 7cbf
00000130: d4fd 45bf a9d7 89bd 9daa 3cbf fc21 81bf
00000140: 6805 993d 646f 67bf d274 86bc 8cea 83bf
00000150: 72e5 59bf cd8d cfbe cac0 41bf ab91 39bf
00000160: 0cc3 48bf 1962 71be a869 33be 9042 94be
00000170: c7ac e7bd 2f93 06bf 8a19 a03d e6c5 87bf
00000180: 8192 3740 645c 273f 462a 6cbe 98d9 463e
00000190: c7fa 64c0 d5dc 2f3e deee 4d40 58a1 9ebe
000001a0: 45a4 5f40 f3a3 663d 564a 60be 982c e03e
000001b0: f0c3 053c 16d2 a6c0 560c 80bf 64fe e33e
000001c0: 828f 52be 9355 2440 d495 0a3e 5f6a 303f
000001d0: 7d6d 94c0 9cf0 003f 2f03 aa3f 62f2 a53f
000001e0: b612 77be 8d99 233f 7076 50be 67e8 153d
000001f0: 096a e0bf fc0d 3b40 26cc fb3e 4936 1bbe
00000200: 7a6c 1cbe 1fe2 1ebf fa55 3ebf bc7e c5bd
00000210: 661e 9640 a11f 3d3d 0b6e 893f 82d7 593e
00000220: 70d8 23c0 aa73 ca3e 9aab f83e df1e 02be
00000230: d650 e83e 049d 913f b1b9 9040 e10a ddbe
00000240: 493e 683e fdc2 54c0 5534 47be f330 34bf
00000250: 69a3 0540 4ee0 723f 17f3 b2c0 a47c 7640
00000260: fae2 173f 53a5 87c0 8d97 e53e 0c04 3b3e
00000270: 7036 5a40 287b 3240 f3e3 a4bd 1936 27c0

pi.bias f4 [5]
0.30064872 -8.0126505 -0.6864952 2.1847963 8.229269
00000000: a1ee 993e d133 00c1 26be 2fbf b4d3 0b40
00000010: 16ab 0341
