code/MADDPG/plots/tmp/maddpg/k_3/Keep_Awayadversary_0+1/adversary_0_target_actorBest.pt (torch, 8447 bytes, 6 tensors)

fc1.weight f4 [32, 8]
6.6272125 -0.2612847 -0.17481393 -7.821081 0.4912617 0.73560196 -0.46283203 0.033676013
0.34958744 7.6632833 3.7893174 7.259558 1.632507 2.2255425 0.05384345 -0.91956776
-7.3485417 -2.0263925 -7.0120435 0.8286629 -0.55323315 -1.0711256 -4.1100883 1.2586653
-1.4029658 5.232947 0.06842947 6.7973075 0.41367102 0.6910597 -1.6324251 0.63831353
10.05824 2.7836635 -0.6883147 1.8012079 0.4674862 -1.134919 2.0370946 0.93682796
-0.7637884 5.7503233 3.0723093 5.9072127 0.83632195 2.6515741 -3.5279305 0.57568246
1.3509611 6.113172 3.1562371 6.0367312 2.3962023 1.9084336 -0.43221447 -1.8239305
0.37435776 0.1510942 -0.03109959 -0.24593422 -0.096231416 0.107462436 0.052520126 -0.279932
0.09031192 0.21299517 -0.15648097 0.5401288 -0.14505029 -0.2521793 -0.110354014 -0.49622852
1.6064613 6.2166486 0.99820584 5.125977 3.5643735 0.9708239 -1.361297 -0.91639423
5.6906466 -3.231886 -0.43130377 -1.00345 0.5481552 0.56209844 1.7909498 -1.6298267
1.5664146 6.155271 1.3190796 6.2121997 2.2302358 0.93396217 -0.8364593 -1.6805824
1.3155736 7.3365183 2.647901 4.754323 2.513362 1.1181529 -1.8034228 -2.8369486
1.366061 -7.070645 6.722174 -2.5164735 -0.36853606 -0.812454 -1.4446284 -1.467306
-8.096725 0.038631763 -7.0934052 -2.8247912 -2.943631 0.9938941 0.80049103 -1.6482102
3.1766086 -2.0925472 1.3686534 -5.371261 0.8192729 3.972292 -1.0298842 -0.45076388
8.711637 -2.421971 0.29789433 -4.245652 1.9428596 -1.3256148 3.6961513 1.9806671
1.6820405 -1.8398304 1.1969525 -1.4424872 2.362352 -0.45080978 -1.878424 0.34926653
0.54858553 -1.3919684 2.8329837 -1.74281 2.7277088 3.1148696 -0.70267045 -0.24590886
-1.7882035 -1.7702236 -3.7191534 2.457826 -1.3877131 -2.6802547 -0.6772128 1.2275562
0.77078116 -0.053435802 0.28176782 -0.4560639 -0.42166302 -0.56212896 0.03664851 -0.33539712
-0.2077753 0.38916653 -0.19998793 -0.09032459 -0.34346762 -0.28283474 -0.60741067 -0.39552936
1.07767 -0.5391492 3.8849456 -0.9444637 3.3323023 -0.6673092 1.0062948 -1.2686878
-9.176869 -1.202144 -7.0005074 -0.45954666 -3.8562686 -0.19839555 -2.0517616 -1.3962958
1.7731898 1.6309191 1.2718718 -10.330685 -0.3842374 -1.7797956 -1.0748775 0.25230306
-0.27724835 -3.7623603 8.206858 -5.0492177 0.2502053 -0.41370407 -1.6617771 0.7890508
4.1881676 0.13907342 1.8909618 -9.847824 -1.0910366 -0.49308452 0.66829824 1.809738
0.6237721 0.9193816 -0.14257967 1.3243389 -0.01114119 -0.89096814 -0.43882623 -0.592122
2.4771605 0.7150551 1.4055649 0.28901628 1.0596058 -1.2317382 2.2471704 -0.7985563
4.5450583 5.443005 1.4823487 4.8422413 1.8842672 0.50930506 -1.8438313 -0.12205682
-2.3790543 -0.935537 -4.5890217 -1.4755412 -0.09075178 0.08923619 2.5509386 0.95099205
-3.5621088 -1.2443873 -0.33737698 -4.9949765 0.22071153 0.9311065 3.865752 -0.25126582
00000000: 2012 d440 1cc7 85be 6c02 33be 4c46 fac0
00000010: a786 fb3e 6950 3c3f 52f8 ecbe dcef 093d
00000020: 20fd b23e 9e39 f540 2d84 7240 4d4e e840
00000030: fdf5 d03f 4a6f 0e40 f38a 5c3d cb68 6bbf
00000040: 4127 ebc0 6ab0 01c0 a962 e0c0 4023 543f
00000050: b0a0 0dbf a51a 89bf d885 83c0 f21b a13f
00000060: 6294 b3bf 4d74 a740 c024 8c3d 8b83 d940
00000070: b0cc d33e 4ae9 303f 4ef3 d0bf 8468 233f
00000080: 8dee 2041 8b27 3240 6435 30bf fb8d e63f
00000090: 5a5a ef3e 0745 91bf c25f 0240 f5d3 6f3f
000000a0: a387 43bf a602 b840 b7a0 4440 e307 bd40
000000b0: 3219 563f 64b3 2940 9dc9 61c0 ed5f 133f
000000c0: 4bec ac3f 1b9f c340 caff 4940 e72c c140
000000d0: 615b 1940 8d47 f43f 374b ddbe 8e76 e9bf
000000e0: d2ab bf3e 70b8 1a3e 91c4 febc 2ed6 7bbe
000000f0: fa14 c5bd 4415 dc3d 581f 573d 3f53 8fbe
00000100: 75f5 b83d 681b 5a3e 8c3c 20be e245 0a3f
00000110: 1088 14be a51d 81be 4901 e2bd aa11 febe
00000120: 86a0 cd3f c9ee c640 6b8a 7f3f 0108 a440
00000130: b21e 6440 ea87 783f fb3e aebf d098 6abf
00000140: c719 b640 38d7 4ec0 d9d3 dcbe 0d71 80bf
00000150: e653 0c3f afe5 0f3f d83d e53f 299e d0bf
00000160: 4680 c83f fbf7 c440 9ad7 a83f 57ca c640
00000170: 2fbc 0e40 2518 6f3f 3222 56bf 531d d7bf
00000180: b764 a83f c2c4 ea40 3677 2940 6a23 9840
00000190: ecda 2040 a21f 8f3f 8fd6 e6bf 9190 35c0
000001a0: 16db ae3f b942 e2c0 0d1c d740 e70d 21c0
000001b0: c2b0 bcbe fcfc 4fbf 95e9 b8bf afd0 bbbf
000001c0: 308c 01c1 573c 1e3d 2dfd e2c0 61c9 34c0
000001d0: 7364 3cc0 d86f 7e3f fbec 4c3f 8df8 d2bf
000001e0: 8e4d 4b40 4bec 05c0 0930 af3f 5fe1 abc0
000001f0: debb 513f 083a 7e40 3fd3 83bf 86ca e6be
00000200: dd62 0b41 9301 1bc0 9b85 983e 62dc 87c0
00000210: a0af f83f bfad a9bf be8d 6c40 8086 fd3f
00000220: 1a4d d73f 907f ebbf bd35 993f 6ca3 b8bf
00000230: c630 1740 8ad0 e6be 3370 f0bf 10d3 b23e
00000240: 1a70 0c3f 052c b2bf 9b4f 3540 6614 dfbf
00000250: c892 2e40 065a 4740 36e2 33bf 88cf 7bbe
00000260: dae3 e4bf b096 e2bf 9c06 6ec0 054d 1d40
00000270: 95a0 b1bf 4b89 2bc0 d15d 2dbf 9020 9d3f
00000280: ea51 453f 80df 5abd df43 903e 3581 e9be
00000290: 37e4 d7be afe7 0fbf bf1c 163d 2cb9 abbe
000002a0: 0cc3 54be d640 c73e a3c9 4cbe 19fc b8bd
000002b0: fdda afbe b7cf 90be 447f 1bbf d382 cabe
000002c0: 17f1 893f af05 0abf f3a2 7840 5fc8 71bf
000002d0: 7144 5540 c7d4 2abf 45ce 803f 5d64 a2bf
000002e0: 75d4 12c1 dbdf 99bf 2804 e0c0 b349 ebbe
000002f0: 1bcd 76c0 3428 4bbe 1050 03c0 d2b9 b2bf
00000300: e2f7 e23f f5c1 d03f b2cc a23f 7c4a 25c1
00000310: c4ba c4be 58d0 e3bf 9695 89bf de2d 813e
00000320: 7ff3 8dbe 83ca 70c0 4a4f 0341 3193 a1c0
00000330: e91a 803e 05d1 d3be 1db5 d4bf 3cff 493f
00000340: 7805 8640 4369 0e3e 090b f23f b090 1dc1
00000350: 16a7 8bbf 9375 fcbe 9815 2b3f 7fa5 e73f
00000360: 87af 1f3f 985c 6b3f 6800 12be f083 a93f
00000370: 8a89 36bc 7d16 64bf d5ad e0be 4f95 17bf
00000380: cc89 1e40 da0d 373f 8de9 b33f f1f9 933e
00000390: 2aa1 873f 99a9 9dbf a4d1 0f40 306e 4cbf
000003a0: 1e71 9140 192d ae40 9abd bd3f a4f3 9a40
000003b0: ab2f f13f d161 023f aa02 ecbf edf8 f9bd
000003c0: 6d42 18c0 5a7f 6fbf 44d9 92c0 89de bcbf
000003d0: 12dc b9bd 77c1 b63d 9442 2340 3774 733f
000003e0: 97f9 63c0 1548 9fbf adbc acbe d9d6 9fc0
000003f0: 3402 623e ff5c 6e3f 7b68 7740 eaa5 80be

fc1.bias f4 [32]
0.1390014 -1.7233665 -3.15007 -1.6970068 0.6550064 -1.3556952 -1.2803152 -1.7471509
-2.2808218 -1.0109463 -3.7217965 -1.9971775 -1.7263033 2.6809938 -3.5401344 -1.1607718
5.3245516 -3.2376833 -3.4031444 -3.7751167 -2.9985337 -3.0852468 -3.9973867 -2.1916356
-0.46781775 3.8113613 3.345118 -3.6705172 -1.9686129 -0.6863939 -4.54499 -2.721008
00000000: 6256 0e3e 4697 dcbf bf9a 49c0 8537 d9bf
00000010: 80ae 273f 6c87 adbf 5ee1 a3bf a4a2 dfbf
00000020: fcf8 11c0 b066 81bf ea31 6ec0 83a3 ffbf
00000030: 82f7 dcbf 6795 2b40 9091 62c0 2c94 94bf
00000040: ba62 aa40 3436 4fc0 1ecd 59c0 839b 71c0
00000050: fae7 3fc0 af74 45c0 2fd5 7fc0 c243 0cc0
00000060: cf85 efbe 58ed 7340 6a16 5640 c1e9 6ac0
00000070: 82fb fbbf 83b7 2fbf 8f70 91c0 ff24 2ec0

fc2.weight f4 [32, 32]
-0.19970928 -0.24919459 0.018741487 -0.36350673 -0.22815265 -0.03150975 0.07608354 0.052208316
-0.03333598 0.10517063 -0.29960155 -0.1282358 -0.1480469 -0.14342457 -0.053377688 -0.3551293
-0.34547335 0.11967618 -0.11286337 -0.080018945 -0.1228315 -0.018384792 -0.0364075 -0.010274128
-0.09969893 0.004457896 -0.3840793 -0.155572 -0.088452265 -0.5041083 -0.24360219 -0.057340655
-0.3435332 -0.26014027 -0.23923466 -0.036304668 0.0025802432 0.0724402 -0.09738477 -0.0081463335
-0.029905263 0.026835993 -0.0641559 -0.19655769 -0.24061151 -0.18558297 -0.0107800225 -0.215886
-0.22976197 0.08038327 -0.0521625 -0.38808772 0.3225136 -0.17170699 0.14654107 -0.0063489024
-0.2585816 -0.10559234 -0.31748596 -0.13764887 -0.04988895 -0.10794151 -0.16059966 -0.3722239
-0.20185056 -0.55882686 -0.3061819 -0.3635127 -0.17025413 -0.32760385 0.10076882 0.023741204
-0.29324767 -0.10421249 -0.29379904 -0.099793546 -0.14176309 -0.021178016 -0.040485192 -0.34603363
-0.2754229 -0.405227 -0.1689458 -0.15706213 -0.0020704137 -0.093600616 -0.09413632 -0.5065357
0.055722762 0.018952897 -0.1407677 -0.28358874 0.025250321 -0.23187794 -0.5080556 -0.17070265
-0.79941726 -2.1886134 -2.5539303 -0.313513 -0.054560494 -2.0806446 -1.2194799 0.4330326
0.12094428 -1.509054 -0.1280941 -2.6956513 -1.040875 2.4107985 -1.2851229 -0.2935645
2.8506591 0.6410969 3.0832746 0.85708725 0.74152714 0.70734394 -0.34484112 -0.38288757
2.5497496 3.571923 1.6675876 -0.65240026 -0.5307966 0.16238348 -0.22630143 -0.15903507
-1.968475 0.019528082 -0.7563569 -0.2857852 -0.48299628 -3.1244667 0.44508767 -0.13453451
0.33795714 -1.3567759 -0.65966016 -0.23642728 -0.5361771 -2.8924136 0.10384368 -0.52695024
0.37208083 0.81159246 -1.8549161 -0.9824256 -0.06600587 -0.28193176 0.012113492 -0.0059518325
-0.9089449 -0.78819174 -1.6042783 -0.47797754 0.0047701225 -0.0007645089 -0.67056185 -0.4226763
-1.0489134 5.642404 1.6649078 2.5181842 3.7644343 3.862131 2.900735 0.38062224
-0.7573046 3.2473001 0.37719756 3.538895 2.9615333 -1.4641521 -2.4318535 -1.2633811
-1.2704047 -1.4904969 -1.2053363 -1.4182075 0.2771842 -0.0065218955 1.0069726 -3.5236614
-4.1289988 -2.898164 -2.8591688 0.2932119 0.3590892 2.8134394 0.19210924 -5.174177
-1.4251761 5.9521084 1.4723349 2.9386501 3.5794427 3.933332 2.9825191 0.35402066
-0.7679917 3.2629268 1.0455271 3.0476658 2.7508726 -1.6125087 -2.3016517 -0.36534724
-1.6410346 -1.1385052 -1.4485699 0.36652866 0.22356755 -0.25397417 1.3230631 -0.6557226
-3.5438864 -2.4469 -3.608003 0.3808934 0.13191658 3.4754972 0.111957155 -3.5198817
-0.15546918 -0.54418796 -0.002765996 -0.14305353 -0.4455556 -0.15286893 -0.30918598 -0.33342722
-0.11523936 -0.013048168 -0.10882366 0.029204905 -0.2056191 -0.53543204 -0.43978587 -0.030544896
-0.21682775 0.09741904 -0.014253021 -0.44602647 -0.14326811 -0.3301132 -0.31104267 -0.3498513
0.089705445 -0.048360463 -0.30097246 -0.17978492 -0.09644153 -0.2629983 -0.42199087 -0.07100895
00000000: 9780 4cbe de2c 7fbe bf87 993c 8e1d babe
00000010: d9a0 69be 5e10 01bd b0d1 9b3d 63d8 553d
00000020: 4f8b 08bd b363 d73d 6065 99be 3f50 03be
00000030: 9b99 17be e4dd 12be 90a2 5abd 82d3 b5be
00000040: e2e1 b0be c918 f53d e924 e7bd f9e0 a3bd
00000050: 158f fbbd b49b 96bc 0820 15bd d154 28bc
00000060: f42e ccbd 8b13 923b 0ba6 c4be 444e 1fbe
00000070: 7626 b5bd 3e0d 01bf da72 79be 09de 6abd
00000080: 95e3 afbe 1b31 85be eef9 74be 34b4 14bd
00000090: 4c19 293b 875b 943d ab71 c7bd 3378 05bc
000000a0: e2fb f4bc 28d7 db3c 2b64 83bd 6b46 49be
000000b0: dd62 76be 7609 3ebe b19e 30bc 3811 5dbe
000000c0: b946 6bbe fc9f a43d 58a8 55bd 6fb3 c6be
000000d0: 8120 a53e f5d3 2fbe dd0e 163e 740a d0bb
000000e0: cf64 84be cc40 d8bd 858d a2be d3f3 0cbe
000000f0: 5b58 4cbd 7010 ddbd 3d74 24be 2294 bebe
00000100: eab1 4ebe 470f 0fbf e0c3 9cbe 561e babe
00000110: 1957 2ebe b1bb a7be e25f ce3d ea7c c23c
00000120: 8f24 96be 5c6d d5bd d46c 96be 8f60 ccbd
00000130: 582a 11be 857d adbc cdd3 25bd 522b b1be
00000140: 3b04 8dbe ea79 cfbe 2100 2dbe e5d4 20be
00000150: c7af 07bb aeb1 bfbd 8bca c0bd 53ac 01bf
00000160: 8d3d 643d 1b43 9b3c 6825 10be 8b32 91be
00000170: c3d9 ce3c 6971 6dbe ef0f 02bf adcc 2ebe
00000180: 9ca6 4cbf 3e12 0cc0 9873 23c0 c784 a0be
00000190: d37a 5fbd 4829 05c0 eb17 9cbf 73b6 dd3e
000001a0: a2b1 f73d ae28 c1bf 1a2b 03be 8d85 2cc0
000001b0: 643b 85bf 864a 1a40 e87e a4bf 164e 96be
000001c0: 3371 3640 ed1e 243f 5f54 4540 126a 5b3f
000001d0: b9d4 3d3f 7e14 353f 048f b0be d709 c4be
000001e0: 192f 2340 639a 6440 8373 d53f b403 27bf
000001f0: 49e2 07bf db47 263e 90bb 67be 17da 22be
00000200: fdf6 fbbf 5bf9 9f3c 9ba0 41bf 7052 92be
00000210: 4a4b f7be 43f7 47c0 88e2 e33e 6ac3 09be
00000220: b808 ad3e d5aa adbf 7ddf 28bf fe19 72be
00000230: e742 09bf 4e1d 39c0 ffab d43d 36e6 06bf
00000240: 6181 be3e 86c4 4f3f e46d edbf 3e80 7bbf
00000250: 162e 87bd 5c59 90be ab77 463c 9707 c3bb
00000260: 9db0 68bf efc6 49bf fe58 cdbf 79b9 f4be
00000270: b04e 9c3b 5369 48ba f1a9 2bbf 0769 d8be
00000280: cb42 86bf 938e b440 b31b d53f ee29 2140
00000290: 7eec 7040 282d 7740 a4a5 3940 ebe0 c23e
000002a0: b7de 41bf c4d3 4f40 0a20 c13e 417d 6240
000002b0: c389 3d40 5669 bbbf 7da3 1bc0 79b6 a1bf
000002c0: 9f9c a2bf 9ac8 bebf 7648 9abf d387 b5bf
000002d0: 16eb 8d3e a0b5 d5bb 7ae4 803f ab83 61c0
000002e0: c220 84c0 857b 39c0 9ffc 36c0 df1f 963e
000002f0: 8ada b73e 640f 3440 49b8 443e dc92 a5c0
00000300: 2c6c b6bf ac77 be40 7875 bc3f d812 3c40
00000310: 9715 6540 b6bb 7b40 98e1 3e40 3242 b53e
00000320: 1b9b 44bf cbd3 5040 d5d3 853f f50c 4340
00000330: 4c0e 3040 af66 cebf 434e 13c0 cb0e bbbe
00000340: 6c0d d2bf 8aba 91bf bd6a b9bf a5a9 bb3e
00000350: e4ee 643e e708 82be 225a a93f 70dd 27bf
00000360: 09cf 62c0 029a 1cc0 85e9 66c0 7604 c33e
00000370: 2415 073e 8c6e 5e40 cb49 e53d be45 61c0
00000380: 5033 1fbe e74f 0bbf b645 35bb a07c 12be
00000390: dd1f e4be ac89 1cbe a04d 9ebe f9b6 aabe
000003a0: 9d02 ecbd fcc7 55bc f0de debd 203f ef3c
000003b0: d08d 52be 1312 09bf 9d2b e1be 4a39 fabc
000003c0: 1808 5ebe a283 c73d 8185 69bc 955d e4be
000003d0: e0b4 12be 9904 a9be fc40 9fbe b61f b3be
000003e0: 7db7 b73d 9f15 46bd 1019 9abe 8a19 38be
000003f0: 2383 c5bd b7a7 86be 300f d8be 246d 91bd

fc2.bias f4 [32]
-0.46997267 -0.27321753 -0.15381664 3.6874807 -0.21928348 -2.0969412 -1.4177097 -0.44135645
-2.9247549 -0.45305982 3.856893 -2.5056803 -1.8719033 -1.4313891 5.1381454 -3.8192947
-0.33552232 -1.4393286 -0.47570962 -0.1407662 -0.44062033 -1.6872959 -0.12523508 -1.491497
3.5365937 -0.70019734 -1.1176537 -2.1314523 -2.5340462 -0.38620123 -0.21884836 4.558584
00000000: 42a0 f0be 2be3 8bbe 1c82 1dbe afff 6b40
00000010: d98b 60be 4934 06c0 8377 b5bf 79f9 e1be
00000020: 2f2f 3bc0 75f7 e7be 56d7 7640 115d 20c0
00000030: 879a efbf c237 b7bf b06b a440 536f 74c0
00000040: 95c9 abbe eb3b b8bf 3690 f3be 0425 10be
00000050: fd98 e1be 50f9 d7bf a03d 00be 60e9 bebf
00000060: 8d57 6240 2240 33bf 470f 8fbf b769 08c0
00000070: d02d 22c0 2bbc c5be c919 60be ecdf 9140

pi.weight f4 [5, 32]
0.4159857 0.09602355 -0.27459437 1.7135967 1.0053794 -3.9418907 -4.424406 0.16487928
-2.215351 0.17173976 4.0786867 -1.5645915 -3.571439 0.37935263 4.6752443 -0.39990312
-0.20256434 -0.99989146 0.14615445 0.17183216 0.46692383 -0.4868944 0.07237985 -1.3642418
3.878734 1.7994362 1.3061239 0.41567278 0.3239042 -0.039320294 0.2705681 2.102742
0.21791106 0.041024614 0.050664555 -1.1952591 -0.53739303 -0.43303856 -1.2087415 -0.115181245
0.16687006 -0.067945264 -0.43236804 -2.2089381 -0.33628824 -1.3693644 -1.0747265 -0.47897
-0.16895176 -0.32311264 -0.048490476 -0.19753371 -0.1324126 0.0055578356 -0.059825797 -0.5059516
-1.7229872 0.19193533 -1.0813068 0.31810284 -0.43133387 0.06213436 0.058980156 -3.0958085
0.048093356 -0.09989637 -0.08286655 -0.88465106 0.11752818 -1.3484876 -0.58593416 -0.0016124876
2.0874455 -0.07929996 -1.7561405 3.0703912 -1.7148061 0.9687046 -3.2182555 0.6119303
-0.12683359 3.0723784 -0.39951095 0.31073865 0.10920662 0.3914345 0.0653465 -2.5801976
-3.4005194 -0.7523633 0.95229536 -0.19108298 -0.6027794 -0.112329155 0.16512364 -4.5304904
-0.19596313 0.20503944 0.10118233 0.5659842 0.3461439 3.1097703 3.3668594 0.18482299
0.249584 0.23165442 1.1474473 -3.0190148 4.6403 0.41423628 -0.581761 -2.461014
0.034257617 -2.4957964 0.41906726 -0.1627812 0.43831363 0.38176963 0.011227523 5.671616
-0.857004 -1.0803173 0.3528971 0.24232216 0.87646776 0.15950888 -0.022214392 0.67096955
0.12677398 0.069073275 -0.21151847 -1.8586473 0.1061854 -1.0657737 -1.2696577 0.14066635
-0.67712426 -0.04632906 0.040391315 -2.2043366 -0.9563724 -3.7854114 -0.3050166 -0.77439916
0.11336777 -1.0203551 0.26254234 -0.19948725 -0.005777023 -0.28444707 0.064517245 -0.119880326
-0.9339073 -0.036296096 0.078874536 -0.5776262 0.30495104 0.26975748 -0.088432886 -1.6380744
00000000: 14fc d43e ffa7 c43d a297 8cbe 2357 db3f
00000010: 46b0 803f f047 7cc0 bc94 8dc0 1dd6 283e
00000020: 50c8 0dc0 8cdc 2f3e 9a84 8240 8944 c8bf
00000030: 7592 64c0 823a c23e 9a9b 9540 1ac0 ccbe
00000040: 076d 4fbe e3f8 7fbf 83a9 153e c5f4 2f3e
00000050: a410 ef3e 394a f9be e33b 943d 7a9f aebf
00000060: 2e3d 7840 ed53 e63f 112f a73f 10d3 d43e
00000070: c5d6 a53e 510e 21bd e787 8a3e 5393 0640
00000080: 1424 5f3e 6d09 283d a385 4f3d 40fe 98bf
00000090: 9792 09bf 3bb7 ddbe 0bb8 9abf 25e4 ebbd
000000a0: fcdf 2a3e e326 8bbd 585f ddbe 3e5f 0dc0
000000b0: f92d acbe 5547 afbf a390 89bf 8e3b f5be
000000c0: b101 2dbe 056f a5be f39d 46bd 4746 4abe
000000d0: 2b97 07be 811e b63b e50b 75bd 0b86 01bf
000000e0: d88a dcbf b28a 443e 4368 8abf 60de a23e
000000f0: cbd7 dcbe 9980 7e3d 2d95 713d ba21 46c0
00000100: 8afd 443d 7896 ccbd f0b5 a9bd 7e78 62bf
00000110: 9db2 f03d 3e9b acbf c8ff 15bf 1b5a d3ba
00000120: b598 0540 0468 a2bd 36c9 e0bf 4a81 4440
00000130: c47e dbbf 06fd 773f e6f7 4dc0 77a7 1c3f
00000140: aae0 01be d9a1 4440 b38c ccbe 2319 9f3e
00000150: b8a7 df3d 1a6a c83e 63d4 853d f521 25c0
00000160: 1ca2 59c0 e29a 40bf a1c9 733f 42ab 43be
00000170: c04f 1abf d40c e6bd 2c16 293e c7f9 90c0
00000180: 8faa 48be dcf5 513e ae38 cf3d 57e4 103f
00000190: c639 b13e 7a06 4740 a07a 5740 3d42 3d3e
000001a0: f392 7f3e d136 6d3e 8edf 923f 8a37 41c0
000001b0: 567d 9440 c716 d43e 4aee 14bf 4181 1dc0
000001c0: b751 0c3d 21bb 1fc0 fc8f d63e 1db0 26be
000001d0: a56a e03e 4f77 c33e a5f3 373c e17d b540
000001e0: 9d64 5bbf d647 8abf eeae b43e 4d23 783e
000001f0: 3160 603f 4c56 233e f5fa b5bc a9c4 2b3f
00000200: 0ad1 013e 4a76 8d3d 4c98 58be 28e8 edbf
00000210: bb77 d93d 466b 88bf 2584 a2bf d70a 103e
00000220: 0458 2dbf 8ac3 3dbd 5d71 253d da13 0dc0
00000230: d2d4 74bf 2e44 72c0 232b 9cbe 063f 46bf
00000240: 5d2d e83d ff9a 82bf f36b 863e 6346 4cbe
00000250: 2e4d bdbb 0ca3 91be 9e21 843d d183 f5bd
00000260: 8c14 6fbf 37ab 14bd f988 a13d 50df 13bf
00000270: 8b22 9c3e a71d 8a3e 4d1c b5bd 6cac d1bf

pi.bias f4 [5]
5.290143 -2.068629 -2.1167736 -1.5997692 -1.5616491
00000000: da48 a940 6b64 04c0 3879 07c0 3dc5 ccbf
00000010: 1ee4 c7bf
