code/tmp/maddpg/k_4/Cooperative_Communicationlistener_0+0/listener_0_target_actorBest.pt (torch, 8759 bytes, 6 tensors)

fc1.weight f4 [32, 11]
000000 a7 57 aa be 1e f6 0d bf dc a6 2a c0 43 c3 e8 3e
       -0.33269998 -0.5545367 -2.6664343 0.45461473
000010 68 28 09 bf a1 77 74 3f 27 4d 06 40 9f e7 8a 3f
       -0.5357728 0.9549504 2.098459 1.0851935
000020 80 f9 0e 3f f9 50 cf be 70 9b 3a be 63 21 0e 3f
       0.55849457 -0.40491465 -0.18223357 0.55519694
000030 9f 0d 98 3e 78 60 2e 3e 15 8a 67 3e 49 13 b8 3e
       0.29697892 0.17028987 0.22611268 0.35952213
000040 fc b7 20 bf c9 6a 38 be 21 1d 3d bd 23 5e c7 be
       -0.6278074 -0.18009485 -0.046170358 -0.38939008
000050 05 e7 aa be e9 69 68 bf 24 02 2a bf 8e c0 af bf
       -0.3337938 -0.90786606 -0.66409516 -1.3730638
000060 d9 95 37 3f 95 45 4c 3f 0d 5b e9 3f 67 ad 36 3f
       0.71713024 0.79793674 1.8230911 0.7135834
000070 cd 6f b0 3e cb 61 14 40 bd 7c f6 bd 25 fd dd bf
       0.34460297 2.3184688 -0.12035511 -1.7342879
000080 41 00 2c bf 17 27 c4 3e 62 58 70 3c 87 27 cc be
       -0.6718789 0.38311073 0.01466951 -0.39873907
000090 56 c0 f8 bd 7c 1e eb bd d5 7d 28 be e2 58 cb 3e
       -0.1214606 -0.11480424 -0.16454251 0.3971625
0000a0 b9 11 b8 bd 2c 3c 12 bf 62 b8 39 be 9f f2 0f bf
       -0.08987755 -0.57123065 -0.18136743 -0.56229585
0000b0 db 2e 86 3f 9b da b6 bf e9 41 86 c0 5c 99 f6 bd
       1.0483049 -1.4285463 -4.1955457 -0.1204097
0000c0 f5 4f 8b 3f c1 38 00 40 90 ba 0d 3e 5f f3 5d bd
       1.0883776 2.003464 0.13840699 -0.054187175
0000d0 91 81 0a 3f 8e 02 b4 bd f4 05 1a bf e0 e0 2c bd
       0.5410395 -0.0878955 -0.60165334 -0.042206645
0000e0 ab 0c 83 3e f3 a2 01 bf b2 fe f9 3b 1e b5 fa 3e
       0.25595602 -0.50639266 0.007629239 0.48966306
0000f0 d7 4d 89 3e 68 83 11 3e f5 cf b8 bd 21 62 65 bf
       0.268172 0.14210284 -0.0902404 -0.8960286
000100 b6 16 c1 3e d9 09 25 bf c1 f3 cf 3f 34 c3 6e 3f
       0.3771264 -0.6446815 1.6246263 0.93266606
000110 d9 0a 10 c0 d5 bb c4 bf 27 f7 82 bf 87 19 19 c0
       -2.250662 -1.5369822 -1.0231675 -2.392183
000120 d5 69 b1 3e 67 23 d2 bf ce 38 ca be 9a 6b ab 3f
       0.34651056 -1.6417054 -0.39496464 1.3392212
000130 01 33 44 bf 26 7d 07 40 3b b8 0a 3f 16 ef 87 3e
       -0.76640326 2.1170135 0.54187363 0.26549596
000140 46 99 9d bf 55 06 e1 3e 2e 8a 52 bf 48 d0 e0 bf
       -1.23124 0.43950143 -0.82242095 -1.7563562
000150 d6 0f 0f 3f 95 bc 05 c0 36 72 f8 3f 95 73 54 bf
       0.5588354 -2.0896351 1.9409854 -0.82988864
000160 21 ab 70 3f 3c 36 dd 3f 8d aa 95 3f ca 02 63 bf
       0.9401112 1.7282176 1.1692673 -0.8867613
000170 a5 75 49 40 87 06 bf bf a6 65 a3 3f b2 42 a8 bf
       3.1478055 -1.4923867 1.2765396 -1.3145354
000180 d7 9f b9 bf d7 13 3d 3f e8 f7 ff bf 6c 85 66 bf
       -1.4501904 0.738584 -1.999753 -0.90047336
000190 e4 1f 4f 40 f1 1b 8b bf 10 97 68 bd 5e 2b 15 40
       3.2363214 -1.0867902 -0.05678469 2.330772
0001a0 71 45 4d bf 1f ff e0 bf d9 f9 2d bf c1 99 21 bf
       -0.80184084 -1.7577857 -0.6795936 -0.63125235
0001b0 b4 ad 6f 3d f3 70 de be 0e cc 2f bf 79 74 8c 3f
       0.058515266 -0.43445548 -0.6867074 1.0973045
0001c0 35 55 b1 3f 0a 72 18 bf 8a f1 06 40 78 6b 31 3e
       1.3854128 -0.5954901 2.1084924 0.17326152
0001d0 1f f1 1a bf 2d 5b c9 3f 4d af 03 c0 1c 9a fa 3d
       -0.6052417 1.573095 -2.0575745 0.12236425
0001e0 dc f3 f4 bf 35 fd 06 c0 fc d0 19 c0 d2 fc f3 3f
       -1.913692 -2.1092045 -2.4033804 1.906153
0001f0 42 51 ad be ed 29 fe 3f f1 b5 2b 3f 8d f3 3b 40
       -0.33851057 1.9856545 0.67074496 2.9367402
000200 14 d3 7c bf d4 9b db ba 68 56 a5 bf 1e 34 1f bf
       -0.9875958 -0.0016754814 -1.2916994 -0.621889
000210 74 99 87 be 85 88 78 3f 16 da c7 3f 0c 30 00 3d
       -0.26484263 0.9708331 1.561343 0.03129582
000220 2e a8 63 3f 7e b4 f0 bf bf c3 26 3e 31 9d 74 3f
       0.88928497 -1.8805082 0.16285609 0.95552355
000230 d2 94 ea bf e6 b8 14 bd 8c 64 c6 bf f9 00 87 bf
       -1.8326666 -0.036309145 -1.5499434 -1.0547172
000240 86 71 b0 3f 6e 10 0c 3f d7 d6 a2 bf 81 f8 ab 3f
       1.3784645 0.5471257 -1.2721814 1.3435212
000250 7b 74 3b c0 05 f5 02 3f 8b 94 2b c0 f5 14 67 bf
       -2.9289844 0.5115512 -2.6809413 -0.9026635
000260 58 9b e5 bf 62 31 ab bf f5 d2 ca 3f 02 a4 de 3f
       -1.7938032 -1.3374445 1.5845629 1.7393801
000270 5a 18 c6 3d 54 6c 17 bf 7f b8 71 c0 48 a9 e0 bf
       0.096726134 -0.5914967 -3.7768857 -1.755166
000280 2d 89 90 bf 58 55 e5 3d c2 b2 32 bf 1c 74 3b 3f
       -1.1291863 0.11197919 -0.6980401 0.73224044
000290 78 a4 f6 3d bf d2 91 3e c3 ee 91 3f 68 15 52 3f
       0.12043089 0.284811 1.1400989 0.82063913
0002a0 d7 9d 88 be 79 4b 78 bc 48 f1 d3 be 54 48 ab be
       -0.26682922 -0.015154713 -0.4139502 -0.3345362
0002b0 94 a0 a1 3d 02 77 3a c0 39 71 7f bc 4f 51 4c bf
       0.07891956 -2.9135137 -0.015590959 -0.7981157
0002c0 99 75 b7 3f b2 e6 9d 3f 68 d4 64 3f 0a f5 5b bf
       1.4332763 1.2336028 0.89386606 -0.85920775
0002d0 ae 84 b9 3d 4b 23 a8 bf ce 9a 0b 3f 5d b8 d0 3e
       0.0905851 -1.313577 0.5453309 0.40765658
0002e0 3b c4 c6 bf dd d7 45 3f ac 9f b3 bf f0 a1 92 3f
       -1.5528635 0.77282506 -1.4033103 1.1455669
0002f0 1d 92 df 3e 7f 76 e7 3f 64 70 06 3f 0a 12 38 c0
       0.43666163 1.8083037 0.52515244 -2.876101
000300 51 3b 05 3e c9 38 0e 40 cc d8 fe be 9e 3f d6 be
       0.13010909 2.222216 -0.49774778 -0.4184541
000310 37 0e 92 3f f0 0c 4a bf 40 44 a1 3f 91 1d 4c 3f
       1.1410588 -0.7892599 1.2598953 0.79732615
000320 25 a7 d0 3f 50 23 24 bf e5 a1 84 bf 3a 49 91 3f
       1.6301008 -0.6411638 -1.0361906 1.1350472
000330 b5 27 7c c0 6c 5f 07 c0 bd 3e e7 3e 66 66 7b 3d
       -3.9399235 -2.115199 0.45165053 0.06137695
000340 21 e4 44 3f f8 eb 1d 3f 09 6f 70 be c5 29 bc be
       0.769106 0.61688185 -0.23479857 -0.36750618
000350 a4 e3 d0 3d 2b d0 0a 3e dc 78 ea 3d e9 8e bf 3e
       0.10199669 0.13555972 0.11448833 0.3741372
000360 f8 12 24 be f6 82 c9 be d8 63 56 bf 29 a7 e3 be
       -0.16022861 -0.39357728 -0.837461 -0.4446347
000370 a6 27 24 bf 77 d7 98 bf bf dd d3 bf c1 ff 58 bf
       -0.64123 -1.1940755 -1.6552047 -0.8476525
000380 42 fd 2c bf e5 d5 7e bf 13 07 bf 3d 0a 68 b1 bf
       -0.6757394 -0.9954513 0.09327521 -1.3859875
000390 f9 66 8c bf 0e ce 00 40 4f ce 69 bf 96 6a a2 3f
       -1.0968925 2.0125766 -0.91330427 1.2688777
0003a0 d2 9f 06 3f 97 6a 51 3e 06 62 24 bf a1 92 c0 3d
       0.52587616 0.20450817 -0.6421207 0.09402967
0003b0 d2 cd 97 be 39 b8 7d 3f a2 7b ea 3d a5 f4 88 bf
       -0.29649216 0.99109226 0.11449362 -1.069966
0003c0 8c ea dc be d9 d0 b2 bf 50 76 98 3f 29 c8 ea 3e
       -0.43147695 -1.3969985 1.1911106 0.45855835
0003d0 a4 4f 98 3e 6e a6 84 bc 46 60 35 3f 8a 1d 88 bd
       0.2974826 -0.016192641 0.70850027 -0.06646259
0003e0 36 09 d6 bc 9e e4 c9 bd 60 91 9a bf 2b a7 95 3f
       -0.026127439 -0.098580584 -1.2075615 1.1691641
0003f0 bc 0d 9a bf e9 64 73 be 48 89 1c 3f dd 7b d2 be
       -1.2035441 -0.23768963 0.61146975 -0.41110125

fc1.bias f4 [32]
000000 a1 fb 97 be 15 bc a7 bf 8c ef 20 be f6 70 b3 bf
       -0.29684165 -1.3104273 -0.1571638 -1.4018848
000010 2a 7a 1f bf 79 1b ad bf 03 d2 bb bf 5d 6a ca bf
       -0.6229578 -1.3524009 -1.4673465 -1.581371
000020 a6 9d 16 c0 24 bd 9e bf fc 28 34 c0 76 32 d6 be
       -2.353372 -1.2401471 -2.8150015 -0.41835374
000030 d5 b8 2e c0 12 23 94 bf 6e 09 92 bf ea 7a ef bf
       -2.7300313 -1.1573203 -1.1409128 -1.8709385
000040 61 48 14 c0 ba 33 9e be 85 97 13 be 06 8d b9 bf
       -2.3169177 -0.3089884 -0.14413269 -1.4496162
000050 2e 2e cd bf 68 30 03 c0 ed b8 ea bf b7 b1 e8 bf
       -1.6029718 -2.0498295 -1.8337685 -1.8179234
000060 c9 b9 af bf 2b 4e cf bf 6d ef e3 bf 50 45 92 be
       -1.3728572 -1.619573 -1.7807442 -0.28568506
000070 69 8e e4 bf 13 f8 49 3f 52 3f fb bf c4 c1 dd bf
       -1.785596 0.78894156 -1.9628699 -1.7324758

fc2.weight f4 [32, 32]
000000 37 e9 66 3f 01 2a f2 bc 01 10 85 c0 71 c1 a5 3e
       0.9019961 -0.029561045 -4.1582036 0.32374147
000010 6f 2a 95 3f 1c bd e8 bc ac d0 90 3f b7 9c d9 3f
       1.1653575 -0.028410487 1.1313682 1.700095
000020 5e 54 51 bf ce 33 2d 3c 70 b9 d0 bf 74 bb bf be
       -0.8176936 0.010571433 -1.6306591 -0.37447703
000030 a0 be 9b 3e fa 35 82 bf ab ff c5 3e 2c 1c b7 bc
       0.30418873 -1.0172722 0.38671622 -0.0223523
000040 fe 17 2f bd 1e 04 e7 3f a6 0c 71 3e ac 72 a4 be
       -0.04274749 1.8048131 0.23539981 -0.32118738
000050 92 55 f2 3e 6e ba 17 3f ab 66 4d 3b af b1 98 bf
       0.4733091 0.59268844 0.0031341712 -1.1929225
000060 33 f4 01 bf b2 1b 31 3f 7e 7d 49 3f 7d ac 61 bf
       -0.50763243 0.69182885 0.7870711 -0.8815382
000070 ad 66 3f be 83 11 db 3f a3 6b 12 c0 78 e5 a5 be
       -0.18691511 1.7114719 -2.2878196 -0.32401633
000080 f7 1e 40 c0 33 eb 4f be 1e fe c6 bf 85 e6 28 bf
       -3.00189 -0.20304565 -1.55463 -0.65976745
000090 ca a9 93 be ee aa fd bb 77 2c 25 3f 0a 5c 9a 3e
       -0.28840476 -0.0077413237 0.6452097 0.30148345
0000a0 4e 63 c0 3f 03 70 f5 be 0f 5a fb be ce 6e e1 bf
       1.5030305 -0.4793702 -0.49092147 -1.761194
0000b0 b9 1b 2a be 9d 8d 11 40 81 22 93 be 7d 3b 2b bd
       -0.16612138 2.2742684 -0.28737262 -0.04180478
0000c0 66 74 0a bf 6c 68 35 bb 1e 38 dd be 25 8d ed be
       -0.5408386 -0.0027680648 -0.43206877 -0.46396747
0000d0 c8 f4 74 3f 0c 70 cf bf cd 51 aa be 32 c5 0d 3f
       0.95686007 -1.6206069 -0.33265534 0.5537902
0000e0 f7 89 cc be 66 8c 43 bf 11 15 bc 3e 1f c0 92 3f
       -0.3994901 -0.76386106 0.36734822 1.1464881
0000f0 44 83 6b 3f 81 99 f1 bf ae 6e c6 bf d9 c1 0a 3e
       0.9199717 -1.8874971 -1.5502527 0.1355051
000100 09 e8 41 3f 6f d5 11 3f 44 4f 2c bf 9c 4d 13 3e
       0.7574468 0.569663 -0.6730845 0.14385074
000110 3f 88 54 c0 33 b6 5c 3d 47 74 ad 3f 9b db e2 be
       -3.3208158 0.053884696 1.355111 -0.4430817
000120 7f e3 6d 40 6a 2c 2f 40 2a 8b e2 bf 79 33 54 bf
       3.7170103 2.7370858 -1.769872 -0.8289104
000130 6e b5 de 3c 7a a7 07 3f ee 45 6c 3e 7a 3b b7 3e
       0.027186122 0.52989924 0.23073551 0.35787565
000140 0f 15 eb 3e c6 d4 c1 bf 62 9a 33 3e c3 87 8b be
       0.45914504 -1.5143058 0.17539361 -0.27252015
000150 6e 10 2a 3f 65 a9 d6 3d 9e 7b ce 3e fb 6f 93 3f
       0.6643132 0.10481528 0.40328687 1.1518549
000160 ec 3f e1 bc 3e 52 b2 3e 3e 8e c1 3e e0 ed d5 3f
       -0.0274963 0.3482837 0.37803835 1.6713219
000170 9a 37 46 3f bf 8b 86 bf 0f 5b 28 bf b6 d5 ac 3f
       0.7742859 -1.0511397 -0.65763944 1.3502719
000180 cb 10 07 bc c5 b9 7d 3d 8f a9 84 be 0a a8 8c 3d
       -0.00824375 0.06194474 -0.25910613 0.068679884
000190 5b 46 8f bc 7d 3d 6a be fa 0b 7a be a3 7f 10 be
       -0.017489603 -0.22875018 -0.24418631 -0.1411119
0001a0 e7 d7 85 be 47 3d d8 bb 20 96 14 be eb 9e 0d bf
       -0.26141283 -0.0065991017 -0.14510393 -0.55320615
0001b0 ee 6f 32 bd e5 cb ae be 0c 93 5c bb 68 bd 58 3d
       -0.043563776 -0.34139934 -0.0033656983 0.052915007
0001c0 3a 17 06 be 02 b1 c1 bd 76 22 3e be e6 c2 3c be
       -0.13094798 -0.0945759 -0.18567833 -0.18433723
0001d0 58 42 66 3b 35 67 25 3d 8a 9b 4c 3d 05 32 ab bd
       0.0035134759 0.04038163 0.04995302 -0.0835915
0001e0 7c 85 1e bd a2 96 88 3d 3b 98 05 bc 41 34 a9 be
       -0.03870152 0.06669356 -0.00815397 -0.3304768
0001f0 19 d7 21 be fa f0 31 be 3f 13 09 bf 39 fa 24 be
       -0.1580471 -0.17377082 -0.5354499 -0.16111077
000200 38 5c dd bf 13 f1 81 3f bc ae ad bf 4d ae 65 3d
       -1.7293768 1.0151695 -1.356895 0.05607443
000210 80 0f ec bf 41 34 29 3f 60 d6 db bf d3 dd 58 3e
       -1.844223 0.6609536 -1.7174797 0.21178369
000220 c5 06 1d 3f f7 63 ca be e6 d7 45 bf 56 83 7d bf
       0.61338454 -0.39529392 -0.7728256 -0.9902853
000230 52 46 9d 3e 9f df 8d 3f 3f ea 13 bf 69 06 aa be
       0.30717713 1.1083869 -0.57779306 -0.33208016
000240 a2 f3 12 3f 11 a8 80 bf cf 96 dd be 62 e8 71 be
       0.57403004 -1.005129 -0.4327912 -0.23623803
000250 60 89 13 bf f7 e9 81 be 0f 8f 17 be 0b 44 0c 3e
       -0.5763149 -0.25373814 -0.14800666 0.13697831
000260 e6 e8 fe 3d f5 07 f8 bd 7c 01 1b 3e a9 0a 07 3f
       0.124467656 -0.12110893 0.15137285 0.5275064
000270 9c 4d d3 3e d3 eb b6 bf 22 40 cc bf bf 53 ef 3e
       0.4127015 -1.4290718 -1.5957072 0.4674358
000280 23 45 07 bf a7 d7 1d 3d 94 68 5e be 0a 9c 75 be
       -0.5283987 0.03853574 -0.21719581 -0.23985305
000290 60 ca 9d bd 94 6d 99 be e6 7c b7 be e4 e6 5d bc
       -0.077046156 -0.29966414 -0.35837477 -0.013543818
0002a0 55 57 24 be 24 58 a1 3c 0a a7 cb bd 80 e9 d0 be
       -0.1604894 0.019695349 -0.099439695 -0.40803146
0002b0 f6 ab dd 3d c1 00 1e be dc 03 98 bd 97 97 44 be
       0.108238146 -0.15429975 -0.07422611 -0.19198452
0002c0 c6 3a f9 3d d4 3a 16 be 4a c8 f7 bd 19 8d a5 bc
       0.12169413 -0.14670879 -0.12098749 -0.020208882
0002d0 62 4f a3 3d de 9d a8 3d b9 de 33 3a 5f 42 0a be
       0.079741254 0.08233236 0.00068614964 -0.13501881
0002e0 f0 47 16 be de 1d ce 3c e8 a5 1e be 5f ab 85 be
       -0.1467588 0.025160726 -0.15492976 -0.26107308
0002f0 f7 2a 87 be 8f 00 83 be 21 d9 a6 be 77 aa 51 3c
       -0.26399967 -0.25586364 -0.3258753 0.01279699
000300 fe 93 3f bf dc 97 d0 be 79 0c 69 bf d1 39 e0 be
       -0.74835193 -0.4074086 -0.91034657 -0.4379411
000310 fc fd 50 c0 7c 98 df bd 13 cf 21 3f a2 16 af 3f
       -3.265502 -0.10917756 0.63206595 1.3678782
000320 74 8d 04 40 70 5a b5 3e 38 7c 05 c0 b3 2d f4 bf
       2.0711336 0.3542056 -2.0857067 -1.9076446
000330 71 56 14 3e 13 fd 03 40 05 5a 6f bf 58 a8 a8 3e
       0.144861 2.0623214 -0.93496734 0.32940936
000340 e8 1f 5c 3d 21 d8 43 bf 32 c2 fa be f0 7a 1e bf
       0.053741366 -0.7650166 -0.48976284 -0.6190634
000350 cd 51 50 bb c9 98 18 be a7 68 4a bf c0 0e a9 3d
       -0.0031787038 -0.14902033 -0.79065937 0.082547665
000360 6d 17 2e be 37 a7 dd be 30 46 53 3f c6 68 41 3f
       -0.17001124 -0.43291637 0.8252897 0.75550497
000370 83 30 8c bc f4 81 f5 bf f4 dc e1 bf 51 00 2e be
       -0.017112976 -1.9180284 -1.7645555 -0.16992308
000380 21 74 22 bf c3 e5 0c 3f 5e 17 cd bf 5e 04 b3 bd
       -0.6345845 0.5503809 -1.6022756 -0.08741067
000390 51 fa 34 3e f8 4c 12 bf 53 85 94 3e d9 bf 68 3f
       0.17673613 -0.57148695 0.29007968 0.90917736
0003a0 45 2b a9 be 67 cb 9e bd a4 b1 e9 be 71 39 ab bf
       -0.33040825 -0.0775364 -0.45643342 -1.3376905
0003b0 4f 48 cf bd 88 11 18 bf bf 8f 07 be 3c 2b d3 3e
       -0.10121214 -0.5940175 -0.13238429 0.41243923
0003c0 69 10 60 be c9 50 74 be aa 02 34 be 50 eb 91 bd
       -0.2188126 -0.23858942 -0.17579141 -0.071249604
0003d0 3e a9 b0 be 24 6c 66 3e 3b 43 0f bf f2 3d 3d bf
       -0.34504122 0.2250219 -0.5596196 -0.73922646
0003e0 5c 3f 25 3e 09 ca 25 3c 43 73 1d 3e c0 d2 59 bf
       0.16137451 0.01011897 0.15376 -0.85087204
0003f0 32 b3 b7 be 3a de 71 bf 43 ab 03 bf 58 c5 25 3f
       -0.35878903 -0.94479716 -0.514332 0.6475425

fc2.bias f4 [32]
000000 74 5b 6a bd 79 f1 ef bf 9e e6 31 c0 fa 0f f1 be
       -0.057216123 -1.8745567 -2.7797008 -0.47082502
000010 18 2e 23 c0 84 b0 18 bf 2b df 59 c0 be c9 f5 bf
       -2.5496883 -0.5964434 -3.404246 -1.9202192
000020 b3 e1 d2 bf fb b6 83 be 20 0e 1a bf c3 53 03 bf
       -1.6475128 -0.2572554 -0.60177803 -0.51299685
000030 50 7c 17 c0 c1 79 6e bf bd a2 2f bf 6a b8 16 be
       -2.3669624 -0.9315453 -0.68607694 -0.14718786
000040 ca 25 61 bf 70 69 0f bf 23 95 a8 bf cc 98 10 c0
       -0.87948287 -0.5602026 -1.3170513 -2.259326
000050 f5 6d 67 bf e4 3b 54 bf bb 33 ec bf 8c bc 53 be
       -0.90402156 -0.82903886 -1.8453287 -0.20677394
000060 48 16 10 c0 e7 24 ea 3f 90 9a 38 c0 8d 2c 93 3e
       -2.25136 1.8292512 -2.8844337 0.28744927
000070 f2 64 48 bf b0 10 e3 bd 62 fb f2 be 98 b6 9c be
       -0.7827903 -0.11087167 -0.47457415 -0.30608058

pi.weight f4 [5, 32]
000000 d6 79 85 3f 95 38 c4 be bc d3 dd bd d0 95 99 be
       1.0427806 -0.3832442 -0.10831401 -0.2999711
000010 73 d1 12 3f ed 74 2d bd 32 13 70 bf c5 fa 6e be
       0.57350844 -0.042347837 -0.9377929 -0.23337848
000020 da 4b 8c be 9a d4 09 3e 14 a0 5b bd c6 90 c8 bd
       -0.2740162 0.13460007 -0.05361946 -0.09793238
000030 76 f0 fd bc ed 5c 3a 3f 08 4e 80 bc 72 70 0c bf
       -0.03099845 0.72798043 -0.015662208 -0.5485908
000040 d3 7e fc 3f 2d 5c b9 bd 13 ea d0 bf 43 dc 4b be
       1.9726204 -0.09050784 -1.6321434 -0.19908242
000050 ab b8 80 3e c2 bf 4a 3e c3 1e b5 3e 13 ae 88 bd
       0.2514089 0.19799712 0.35375032 -0.06673827
000060 56 a9 ca 3c 94 3c 8d 3f a3 e6 98 be 3e eb 24 3f
       0.024738949 1.1034112 -0.29863462 0.6442145
000070 44 4a 63 3e a5 5a 50 3f e4 22 ed 3e 1f f5 c0 3d
       0.22196299 0.8138831 0.46315682 0.09421753
000080 07 64 a4 bf a9 8f e9 bf 0c d9 3c c0 6a 9b 3f bd
       -1.2843026 -1.8246967 -2.9507475 -0.046779074
000090 f0 fa aa 3e ec 79 a8 bd 36 f4 f3 bf b2 70 40 3e
       0.33394575 -0.0822638 -1.9058902 0.1879299
0000a0 7c 8e 15 bf ef 3a 98 be 07 44 5a 3d 3f 5f 8d bd
       -0.5842054 -0.29732463 0.053287532 -0.069029324
0000b0 46 75 be bd 33 10 6d c0 b8 10 5b 3e 3a 5e c3 3f
       -0.09299712 -3.7041137 0.21393096 1.5263131
0000c0 86 ef 33 c0 6a 54 06 c0 3b 18 c3 3f 4b 5b 85 bf
       -2.8114944 -2.0989022 1.524177 -1.0418485
0000d0 a2 02 77 be 97 f4 01 bb df 84 da bf f3 fa 03 3d
       -0.24122098 -0.0019829625 -1.7071799 0.032221746
0000e0 a0 07 87 c0 46 7d 88 c0 55 71 a8 bf e7 c0 a6 bf
       -4.219681 -4.265292 -1.3159586 -1.3027619
0000f0 f3 dd 8c bf 02 d1 06 c0 f9 a7 79 be d6 bb ff be
       -1.1005234 -2.1065068 -0.24380483 -0.49947995
000100 75 47 66 3f d4 d7 8e 3b 0e 0e 90 3e c0 21 6a 3e
       0.89952785 0.004359225 0.28135723 0.22864437
000110 79 da fb be 6e a9 f7 bd 04 fe ae be 57 bb d6 3e
       -0.4919012 -0.12092863 -0.34178174 0.41939804
000120 d0 56 49 3d 68 12 a8 bd 85 03 a0 3e 52 95 89 3d
       0.049155056 -0.08206636 0.31252685 0.06717934
000130 0c 58 d1 3e ac c7 bf 3f da 07 76 3e ed 10 b8 3f
       0.40887487 1.498281 0.24026433 1.4380165
000140 c6 0d ef bf 2b b7 8d 3f ab ad b6 3f 0f dc 1a bf
       -1.8676078 1.1071523 1.4271749 -0.6049203
000150 4c db aa be 72 2f ce bd 5a f6 c9 bd c5 51 6d bd
       -0.33370435 -0.10067643 -0.09861441 -0.05793931
000160 37 13 65 3f 6f 35 93 bf 65 cf c8 3f 61 12 84 3f
       0.89482445 -1.1500682 1.5688292 1.0318109
000170 fb ba 56 3f e2 91 b0 3f 6f c7 4b be 41 b3 71 3e
       0.8387906 1.379452 -0.19900297 0.23603536
000180 de 42 04 3f 57 fc 12 be b5 fc 8b 3e ca ee 7b 3e
       0.5166453 -0.14354073 0.27341238 0.2460281
000190 17 57 15 bf d8 95 96 3e b3 51 35 bf e7 ef 5a bf
       -0.58336014 0.29411197 -0.7082779 -0.8552231
0001a0 e6 78 04 be ba 1b 87 be 23 d1 91 be 82 3f 3d 3e
       -0.12936744 -0.2638834 -0.2847987 0.18481258
0001b0 40 5a 12 bf 94 88 36 40 c3 64 d5 bd 23 b7 49 bf
       -0.5716896 2.852086 -0.104196094 -0.7879507
0001c0 ef 52 a1 bf 55 78 b5 3e b5 18 f6 3d 18 f4 e6 3e
       -1.2603434 0.3544337 0.12016431 0.45108104
0001d0 a7 ab 9c 3e ba 28 00 3c 34 11 ae 3e 4c 36 60 bd
       0.3059971 0.00782221 0.339975 -0.05473928
0001e0 05 e3 7a 3f 3d 7b b8 bd 12 a8 49 3d cb 89 93 c0
       0.98002654 -0.09007881 0.04923255 -4.6105704
0001f0 0f 47 45 40 fd 45 35 bf 3a 31 f9 3d 1b 6d d4 bd
       3.082462 -0.7080992 0.12167592 -0.10372373
000200 50 bc 6c bf 2d f6 71 3f 44 21 a0 3f 94 26 90 3d
       -0.9247484 0.9451626 1.2510152 0.07038608
000210 df cd 4c 3f 64 33 24 bd 3d 62 de 3f 7e a5 7a 3e
       0.80001634 -0.040088072 1.737373 0.24477193
000220 1c fc 74 3f d0 fb 21 bd ac 49 56 3e 44 6c 1a 3e
       0.9569719 -0.039546788 0.20926541 0.15080363
000230 0c 7d a8 3e 3f c6 e7 3e 0a e2 7a bb fe 28 97 3f
       0.32907903 0.45268437 -0.0038281702 1.1809385
000240 be 01 98 3f 91 1f a6 bf b3 63 ab 3d f1 a6 2b 3f
       1.1875532 -1.2978383 0.083686255 0.6705161
000250 3b ca 45 3e 43 44 10 be c2 1d 3e 3f d8 c9 1e 3b
       0.19315426 -0.1408854 0.74264157 0.0024229195
000260 05 d3 95 3d bf e9 9c 3f e9 8d b9 3f 6a 32 87 3f
       0.073156394 1.2258834 1.4496433 1.056226
000270 ec 91 a4 3e 42 17 51 bf 2e fa b5 3e c4 df 66 3e
       0.3214258 -0.81676114 0.35542434 0.22546297

pi.bias f4 [5]
000000 70 6a 94 3f fb e2 7d c0 59 94 2a 3e c4 73 b6 3f
       1.1594982 -3.9669788 0.16658153 1.4254079
000010 c2 6b 7f bf
       -0.997738
