code/MADDPG/plots/tmp/maddpg/k_1/predator_preyadversary_0+0/adversary_0_actorBest.pt (torch, 9287 bytes, 6 tensors)

fc1.weight f4 [32, 16]
00000000: ab13 3a3f 5892 0b3e 1cf7 e8be 8abd 1bbf
00000010: d74d 633e aac8 703e f0db 2b3f b3d3 2c3f
00000020: 487e a7bd 74a6 f8be 0b63 58bf 703f 0bbf
00000030: cf1c 2b3e 0e56 373e dddb 3abe a76b 75bd
00000040: 97df 26be a5bb 53be e8c9 1b3e ce59 45bf
00000050: f58a 6ebe bdd7 543f 8a6b f3bd f500 203f
00000060: 7c12 19bf 8f54 bf3d 1982 0ebf 097b dcbe
00000070: 35d7 afbd 22b8 6d3f 0510 953e fae7 d6be
00000080: fc58 46be 56a7 be3e 6be3 323d 7b13 4c3d
00000090: 9e16 ef3e 4874 5ebd 4424 c2be b4cd 32be
000000a0: 91ed d03e bb3d b63e 89e2 ce3e 1f9b b63f
000000b0: 2467 debd e21b 7dbd ee50 f33e bf40 833d
000000c0: 637a c43e dc64 573e 599b fcbe 847b 3cbf
000000d0: 7c6e 13be 1500 12be 0fe5 973e 57d4 c43e
000000e0: 425b eb3e ea46 263f 1f8e f7be 4d54 4abe
000000f0: 46c8 283d 88f1 3bbe ef45 e73e e95f a2be
00000100: b7bb 003f 5a8b 233f 0a24 a63d 4580 aebe
00000110: c694 d7bd affc 5cbe 1f88 c6bc 089e 853f
00000120: 92fd 72bf 9848 243e 6507 abbf d05f fc3e
00000130: f10f 96be 75dd 0cbe fe9e c43e 19ba 40be
00000140: 8d07 583f baca 9fbf 8163 f0be 8e2c d73e
00000150: a3f3 e33e 1fca 283f 0f0b 663f c73b af3e
00000160: b5c7 acbe e189 85be ee48 5d3d 5dcc d3bf
00000170: 5e7d 5a3f 0424 b6bc 5bf6 743d 60bd e6be
00000180: f95f 3abf 9ee0 3a3e 023c d3be 8ed5 2a3e
00000190: 408c 1f3f 1724 f23d 94cb 28be 96ad 91bd
000001a0: 9354 f23e bf23 5b3e 3930 e33e 5d57 993f
000001b0: c28f 303e 0877 63bd 01aa 063f fd3b dd3e
000001c0: 2d8e 793e 80c5 8c3e d1c9 47be 10ef 3ebf
000001d0: 0c7d 353e 1afc 49bf 39a8 803e 11ff 133f
000001e0: 5be4 f4bd 69fe 233f a4ac e7bd ed97 953d
000001f0: a1df 88be 0387 29bf 53f1 373e 8247 83bd
00000200: aa46 b33d ca0c 623e 1e33 3d3d de65 ccbe
00000210: 12f9 7e3e e974 923e 2f7b 963e d3dc fa3e
00000220: 0ff7 38bf 3798 5f3e 100f f7bd 14c6 03bf
00000230: 61c3 003d 0e85 083e eeae 08bf 3be3 12bf
00000240: 8bc4 2e3f c497 bbbf a8c7 01bf dad1 61be
00000250: d7fa 3bbf ba34 013d 4d11 693f 7222 2d3e
00000260: c506 b13e 4e11 173f a531 27bd 43c9 c8bf
00000270: f69a 853d b2c8 983e 13dd dabe 5983 843e
00000280: 5a78 173e 470e bebe eb00 ccba d023 33bf
00000290: 35a6 16bf b8ea 483f 5c37 49bb 1444 a53d
000002a0: ac64 f8bc 8b33 643e cf29 70bf 963f 60be
000002b0: b7bc 2e3e a36f 373f 3daa 1abd 0b51 f53d
000002c0: c7bd 3f3f f58c 7ebf 7dfe b4be e843 473f
000002d0: 8e21 6dbe 6b98 013f daea 1c3f 99b8 1ebf
000002e0: bd66 88be 78a5 84bf d31b 093f 8072 dabf
000002f0: 0dfd e73d ee76 9fbf a9dd 583e a987 773e
00000300: 31b5 9f3f 3029 cebe a844 87bd 316f b43e
00000310: 1b9e febb 9ba5 463f 8d19 093f 7836 233f
00000320: a7e9 9dbe 2c2b 0cbf a607 f1be 3ab4 1abf
00000330: 86e6 1f3f b08b eabc ec63 1e3e 659e a53e
00000340: a814 0b3d 2351 93be d3ed 153f 6d49 5dbe
00000350: 059c 3fbe 9c96 b13b f699 b1be 5f48 5ebe
00000360: c4be c9bd 68fb 2bbd e5e1 89be ea60 2fbe
00000370: 1d1f 0fbf 012a 093d 96c3 28be 0c68 e33e
00000380: 49e2 ce3d 042f bd3e 0fb4 c8be 19ec 58bf
00000390: 1256 2bbf c6a1 adbd 9df5 5b3e 63d3 3e3f
000003a0: f451 133f 005f 14bf b957 eebe 2c94 8ebe
000003b0: f1d6 18be 8b17 a23e 293e f93e 0c49 51be
000003c0: 91ee 9a3f 270f dabd 4b2b b1bd 8225 0f3f
000003d0: c3e2 9a3e e8ee c3be 18fb 93be 64dd 463e
000003e0: af9c c0be 47d1 0abf a45b 61be 0075 d8be
000003f0: e06f 403e 9ebc 34bf 3a01 443e 6795 e2be
0.7268626 0.13630044 -0.4550103 -0.6083609 0.22197662 0.23514047 0.67132473 0.6751053
-0.08178383 -0.48564494 -0.8452613 -0.5439367 0.16710208 0.17903921 -0.18247934 -0.05991712
-0.1629623 -0.2067705 0.1521374 -0.77090156 -0.23295195 0.8314169 -0.11885746 0.6250146
-0.5979383 0.093423 -0.55667263 -0.43062618 -0.08585969 0.9285909 0.29113784 -0.4197386
-0.19369882 0.37237042 0.043673914 0.049823266 0.46696943 -0.054310113 -0.37918293 -0.17461282
0.4080625 0.35593972 0.40407208 1.4266089 -0.10859516 -0.06179417 0.47522682 0.06408834
0.38374624 0.21034569 -0.4933727 -0.7362597 -0.14397615 -0.14257844 0.29666945 0.38443252
0.45968062 0.64951956 -0.48350617 -0.1975872 0.04120662 -0.18353856 0.45170543 -0.317138
0.5028643 0.6388451 0.08112343 -0.34082237 -0.10526423 -0.21580766 -0.02423483 1.0438852
-0.9491817 0.16043317 -1.3361632 0.4929185 -0.29309037 -0.13756354 0.3840255 -0.1882099
0.8438652 -1.2483742 -0.46950915 0.4202618 0.44521818 0.6593341 0.89860624 0.34225294
-0.33746114 -0.26081756 0.05402463 -1.6546742 0.85347545 -0.02223397 0.059805255 -0.45066357
-0.7280269 0.18249747 -0.4125672 0.16683027 0.6232338 0.1182329 -0.16483909 -0.07113187
0.4733015 0.21400355 0.44372728 1.1979786 0.17242339 -0.05553344 0.52603155 0.4320983
0.24370642 0.2749443 -0.1951058 -0.7458353 0.17723483 -0.789003 0.25128344 0.57811075
-0.11957618 0.64060074 -0.113122255 0.07304368 -0.26733115 -0.66221637 0.17963152 -0.064101234
0.087537125 0.22075191 0.046191327 -0.39921468 0.248997 0.2860482 0.29390857 0.489966
-0.7225198 0.21835409 -0.1206342 -0.5147412 0.031436328 0.13332006 -0.5339192 -0.57377976
0.6826865 -1.465569 -0.50695276 -0.22052708 -0.73429626 0.031544425 0.91042024 0.16907671
0.34575477 0.5901078 -0.04081883 -1.568642 0.06523697 0.29840618 -0.4274679 0.2588146
0.14792004 -0.37120268 -0.0015564238 -0.6997652 -0.5884736 0.7848315 -0.0030703163 0.080696255
-0.030321442 0.22285287 -0.93813795 -0.21899256 0.17064176 0.7165472 -0.037760008 0.11978348
0.7489895 -0.99433833 -0.3535041 0.7783799 -0.23157331 0.50623196 0.61295855 -0.62000424
-0.26640883 -1.0362997 0.5355808 -1.7066193 0.113275625 -1.245817 0.21178307 0.24172844
1.247717 -0.402658 -0.06604892 0.35241082 -0.0077703125 0.77596444 0.5355461 0.6375499
-0.30842325 -0.54753375 -0.47076148 -0.60431254 0.62461126 -0.028631061 0.15467805 0.32347408
0.033955246 -0.2877284 0.58566016 -0.21610041 -0.1871186 0.0054195654 -0.34687775 -0.21707295
-0.09850839 -0.041987807 -0.26930156 -0.17126814 -0.5590685 0.033487324 -0.1648086 0.4441532
0.10101754 0.36949933 -0.39199874 -0.84735256 -0.6692821 -0.084781215 0.21480413 0.745413
0.57546926 -0.5795746 -0.46551302 -0.2784742 -0.14925744 0.31658587 0.48680237 -0.20438021
1.2104055 -0.10647421 -0.086508356 0.5591661 0.3025113 -0.38268209 -0.28902507 0.19420391
-0.3761954 -0.5422558 -0.22007614 -0.42276764 0.18792677 -0.70600307 0.19141093 -0.4425461

fc1.bias f4 [32]
00000000: 72e6 5d3f 12bf 063f 8e38 efbd 550a de3e
00000010: c00f b23e 65e8 893f 5737 99be 3619 d63e
00000020: 1e34 0bbe 9815 da3e 4611 143f 368f ee3e
00000030: 9e2c 933f fa52 c0be 84d0 de3e 81d2 2a3f
00000040: e7c9 293f e0a3 2c3f ffc0 2f3f 494f 47bf
00000050: 484c 16bf d07b 1c3e e623 fb3e 3851 b63f
00000060: ab77 14bf 0517 b13e f3e4 753f 2560 3cbe
00000070: 6681 243f 6c8b 1a3f b89b dc3c b18f aa3e
0.86679757 0.526353 -0.11680709 0.43367258 0.3477764 1.0774046 -0.29925033 0.4181611
-0.135941 0.425946 0.5783886 0.46593636 1.1497991 -0.37563306 0.4351846 0.66727453
0.66323704 0.67437553 0.68653864 -0.77855355 -0.58710146 0.15281606 0.49050826 1.4243536
-0.579951 0.34587875 0.96052474 -0.18396051 0.64259946 0.6036899 0.026929721 0.33312753

fc2.weight f4 [32, 32]
00000000: c2e9 0ebe 273b 1ebe 3c98 b0bd 8837 c93d
00000010: 59d7 1d3e 52b3 47be 52a7 26be e230 10bd
00000020: 6e02 bebd e913 943b cdb6 82be fcf4 8fbd
00000030: 5f4d 4abe e929 00bd d695 ae3d f54a e3bd
00000040: 9ffa 38be 6674 a73c cef6 70bd 251a 07bd
00000050: e732 5b3d dbbc 3ebe 1657 423c 74dd bfbd
00000060: 2d3d 3bbd cff6 44be 8e27 c23d 2435 a3be
00000070: 2f33 073e 4359 2d3e 5573 3fbe 84f2 79be
00000080: a681 8cbd 52e7 07bb 22b5 2c3e 4dfd 9bbd
00000090: 2a7a 24bf 8571 fabe b551 b33e 562f 74be
000000a0: 4f5f 37be 6051 42bf 3160 18be 7af4 3bbf
000000b0: 25e1 b4be fcfe b33e d5d0 27be 0b1c 843d
000000c0: 2ddd 213c 69d0 433e a731 30be fe6f 8b3e
000000d0: 4a62 2f3e 6d35 08bd 8631 fbbd eb1d e7be
000000e0: 1444 443e f238 303e 742c b1be da76 743e
000000f0: f606 93bd 5ccd c0be 0acb b73e 3ab6 a3be
00000100: d5fd 23be 8730 81be f254 e4bd c9f9 eebb
00000110: dad8 3fbd 0281 8b3d e7a8 dfbd 17a1 923e
00000120: 4742 9c3d e409 ecbc b93b 15bd 131c 343d
00000130: 7d79 123e e9de 96be 4763 c0be 09be 5f3d
00000140: 6b11 77be b848 05be 3cb4 2fbe 75fc 3dbe
00000150: 2c24 a3bd c117 aabe a2b0 27be 5f89 563d
00000160: d691 19be 56e3 cfbe 5408 35be 2716 2abe
00000170: 50bf e93a b633 213c 5410 04be 2ce1 3c3d
00000180: 2a5b 7fbd 4c61 353d f300 6ebc 0f1e 303e
00000190: cd79 02be 6751 23be d05b 383c 1590 38bd
000001a0: 375d dc3d f1cd 98bd c71b 3b3d cebc d23b
000001b0: 0289 9d3d b8a4 96bd 9717 043e b56e 8dbd
000001c0: 56e1 e2bd 0f9b 853d ccf6 243d 7603 ed3d
000001d0: 6c6c 4cbe 4eab 873d fca5 32bd 486b 27bd
000001e0: 7cc5 2abe 68ef 993c dd84 0bbe 38af d3bc
000001f0: 47bc 6ebe 97bf 19be 6034 31be a194 a5bd
00000200: f20a 373c 6c4d e5bd a4b9 023f 216a 6cbe
00000210: d0b1 53bf 0f02 fcbd aa30 2c3e 915b 0abe
00000220: 4b82 bc3d 91ef 31bf 4087 a03d ffe6 2bbf
00000230: 9d03 a1bd f932 403e ac58 05bd 7c85 ab3e
00000240: cd4f 433e 849c a73e 052e 233e 7171 913e
00000250: eb7c ea3e 6b28 aebd ebec 01be 9a3a 2fbd
00000260: 2d4c d73e 0589 c33e 9536 123e 76fb f13e
00000270: 595e 12be fc6a 50be ee74 c83e eaab 4fbd
00000280: d0e5 fdbe 771a eabe 2dcc ed3e 56f4 38bf
00000290: 7ca9 3ebf 30ad 70bf 26c6 e73e 13f0 17bf
000002a0: 4b26 a6be 7444 fabe bccd 6dbd 4202 69bf
000002b0: 83c4 84bf ffac 413d 0d06 06bf 9961 a3be
000002c0: 8bc2 b2be 336a 97be 76b8 17bf 7a84 b63e
000002d0: e36c 453d 3b6d 99be 959e 29bf 685c 66bf
000002e0: d63c ed3e dee1 7ebe 54ce 6fbf 6c4f 173f
000002f0: c214 26bf 3bca 39bf d4f7 a13e 6e0d 2abf
00000300: 274d a0bd a192 803d d534 47be 5618 983c
00000310: dc5c 2a3e 27c1 103e c587 06be 972e 263e
00000320: 754b f7bd 8cb7 68be 0468 75be 26f6 d9bd
00000330: 6880 db3d d091 8cbd ffd6 05be 8465 2cbc
00000340: a694 96bd 62af 6fbe 6870 8dbd d241 05bc
00000350: 429b 2d3c f53b 9c3d c9da 3abe 5ee7 5ebe
00000360: 084b a03d f9b1 ee3d e149 6b3d de75 74be
00000370: 018f d73b 0db4 a63d 78a7 ccbd 955c 63bd
00000380: caa3 0d3e 827e 1d3e b815 eabd 509d 563d
00000390: bd60 fd3d bf89 103e cfc4 983d b658 2ebe
000003a0: 3f27 0d3c 31f1 0cbe 3f91 38be e3ae 92bd
000003b0: 060e 35bc 46b9 16bd 2eda d83c c7d4 c93d
000003c0: 2077 81bd 07c6 1bbe dc35 5abd 79b8 7abc
000003d0: 6409 f63d c5ab 933d 432a a0bd 418b 11bd
000003e0: a0d4 2f3c b4bd f2bc 8101 f7bd e14e 0e3d
000003f0: 67ec 2fbe 39e1 24bd 3642 3bbe 5341 ff3d
-0.13956359 -0.15452252 -0.086227864 0.09825045 0.1541418 -0.19501999 -0.16274765 -0.03520287
-0.09277807 0.004518975 -0.2553009 -0.07029149 -0.19756077 -0.03128997 0.08524673 -0.11098281
-0.18064354 0.020441245 -0.05882912 -0.032983918 0.05351534 -0.1862673 0.011861583 -0.09368411
-0.04571264 -0.19234775 0.09480201 -0.3187648 0.13203119 0.16928582 -0.1869634 -0.24408919
-0.06860666 -0.0020737243 0.16865972 -0.07616673 -0.6424891 -0.48914734 0.35023275 -0.23846182
-0.17907451 -0.7590542 -0.14880444 -0.73419917 -0.35328022 0.35155475 -0.16388257 0.06450661
0.009879393 0.19122471 -0.17206441 0.2723388 0.17127338 -0.033254076 -0.12265305 -0.45140013
0.19166595 0.17209223 -0.34604228 0.23873463 -0.07179062 -0.37656677 0.35897094 -0.31974965
-0.16014798 -0.25232336 -0.111490145 -0.0072929603 -0.046837665 0.06811716 -0.109208874 0.28638527
0.07629829 -0.02881331 -0.03643391 0.043972086 0.14304157 -0.29466942 -0.37575743 0.05462459
-0.24127738 -0.13016021 -0.17158598 -0.18553336 -0.079658836 -0.33221248 -0.16375974 0.0523771
-0.14997038 -0.4060313 -0.17678958 -0.16610013 0.0017833505 0.009838989 -0.12896854 0.046113178
-0.0623428 0.044282243 -0.0145265935 0.17198966 -0.12741776 -0.15949021 0.011252359 -0.045059282
0.10759967 -0.07461155 0.045680787 0.0064311987 0.07692148 -0.07355636 0.12899624 -0.06905881
-0.11078136 0.06523716 0.040274426 0.11572926 -0.19963235 0.06624471 -0.043615326 -0.040873796
-0.16676897 0.018790916 -0.13624902 -0.025840387 -0.2331401 -0.15014492 -0.17305136 -0.08084989
0.011172043 -0.11196408 0.51064515 -0.2308736 -0.82693195 -0.1230508 0.16815439 -0.13511492
0.09204539 -0.69506174 0.07838297 -0.6714935 -0.07862017 0.18769445 -0.032555267 0.33500278
0.1907341 0.327366 0.15935524 0.2840686 0.4579843 -0.08503803 -0.12688033 -0.042780496
0.42050305 0.38190475 0.14278634 0.47262162 -0.14293803 -0.20353311 0.3915171 -0.05070106
-0.49589396 -0.45723316 0.46444836 -0.7224783 -0.7447736 -0.94014263 0.45268363 -0.593507
-0.3245109 -0.4888035 -0.05805753 -0.9101907 -1.0372471 0.047284123 -0.5235298 -0.319104
-0.3491405 -0.2957321 -0.5926584 0.35647947 0.048199546 -0.2996615 -0.662576 -0.8998475
0.46335477 -0.24890849 -0.93674207 0.59105563 -0.64875424 -0.72574204 0.3163439 -0.6642674
-0.07827216 0.06277967 -0.19453748 0.018566292 0.16636986 0.14136182 -0.1313773 0.1622871
-0.12074939 -0.22726268 -0.2396546 -0.10642652 0.10717851 -0.06863749 -0.13070296 -0.01052225
-0.07352571 -0.23406747 -0.069062054 -0.008133369 0.010596098 0.076286234 -0.18247522 -0.21767947
0.07826811 0.11655039 0.057443503 -0.23873088 0.0065783267 0.08139811 -0.0999288 -0.055508215
0.13832012 0.1538029 -0.11429924 0.05239612 0.12371967 0.14115046 0.07459413 -0.17026028
0.008615314 -0.13763882 -0.18024157 -0.07162263 -0.011050707 -0.036797784 0.026471224 0.09855037
-0.063215494 -0.1521226 -0.05327402 -0.015302771 0.1201351 0.07210497 -0.07820561 -0.035533193
0.010731846 -0.029631473 -0.12060834 0.034743194 -0.17180024 -0.04025385 -0.18286976 0.124636315

fc2.bias f4 [32]
00000000: e201 c33a 8c7a 61bc e604 4ebe 90bf c0bd
00000010: b7ce 1e3e 474c 0bbe b5d8 45be 54df 67be
00000020: 0f6a 273f 43db f8bb f80a 8f3e cfbb 4cbe
00000030: 915b 3dbe 4801 783f c642 b93e 94ed faba
00000040: b38a e43e 73a5 6bbd 784d 28bd 8064 31be
00000050: f0dd 9bbe 619c d63e 12e8 3abe ed4e 23be
00000060: 6cb6 4a3e f795 d43e 1259 d6bd 40b6 f9bd
00000070: 559c 103d 982c 643d 64df d33c a93a e1bd
0.001487788 -0.013762128 -0.20119056 -0.09411538 0.15508543 -0.13603316 -0.19320948 -0.22643787
0.6539621 -0.0075944974 0.27938056 -0.19993518 -0.18491961 0.96876955 0.36183757 -0.001914429
0.4463707 -0.05753083 -0.041089505 -0.17323494 -0.30442762 0.41916183 -0.1825259 -0.15948077
0.19796151 0.41520664 -0.104662076 -0.121929646 0.03530534 0.05570659 0.025863357 -0.10997517

pi.weight f4 [5, 32]
00000000: 99ea ca3d 54f8 c63e dcd0 873d 4d02 8f3d
00000010: 2573 f33e f30d 0c3f 7d51 343d 33d4 a63d
00000020: c737 27bf 346d bebd 1265 01bf 0928 bdbd
00000030: 8c09 0fbd be6b 92bf b759 2fbf 3f54 07bf
00000040: 8ed4 2cbf 701f 78bd a6d7 9bbd cec8 cabd
00000050: 2e29 bf3b e010 2ebf bab6 bdbd 80c5 babd
00000060: ba23 36bf c0bc 73bf a674 39be fb4e 133f
00000070: 2d2b 423e 10bb 8fbd d746 edbe 774f 81bd
00000080: fdc5 d13d c7e1 823e d471 163d 7813 823d
00000090: 4d10 ca3e 9c2b 16bf 3c7c 49bd 702a 263d
000000a0: 6c5d cf3e 35d6 b3bc d833 ec3e 9b64 5fbc
000000b0: efca 21be 42f3 803f ea5d 093f 29cc 8b3e
000000c0: 8122 343f 4349 a13d a7f0 aabb b3b2 60bd
000000d0: db63 60bd 0e93 0c3f e9ee bb3d f0ff 163c
000000e0: ad66 1b3f e7c2 523f 2c84 dd3d dfc4 edbe
000000f0: f102 5f3e ad66 7b3d b59c 983e 801b 433e
00000100: 6f8c bcbd 581e 1dbe 4860 653e c3cb d03b
00000110: ae4e 99be deae 99be 4047 95bd 97bf d5bd
00000120: c959 223b 3ea0 673c a292 06bf aeba 79bd
00000130: 8715 eebd ae1b a23d 26fc 543d a64b a1bd
00000140: a2d9 78be f530 ca3d 4673 12be 31ad ed3d
00000150: bc86 48bd 52c1 82be 2009 a23d 8fec 133e
00000160: 369e 9bbe 47ff 18be 7c25 97bd c117 a1be
00000170: d352 87be 5f04 abbd c207 2dbe 9222 90bc
00000180: fd01 473e 926d 9fbe 3143 95bc a448 2f3e
00000190: e6a9 11be 1bde 67be 4de1 39be 1ef8 f63a
000001a0: 3052 dfbc 4f59 2c3c 6dfe a7be b4a2 6bbd
000001b0: 2195 a23d 2266 3a3d cae4 b7bd 14b0 43be
000001c0: eccc 31be 668c 0a3e 3d57 0e3d 1efc aabd
000001d0: e4c5 90bd ac5d 62bd 5a87 12bd deb0 bc3d
000001e0: f3fa a8be 0aa6 19be 5c1c c8bd 9335 9dbe
000001f0: b719 dbbe 9677 be3d 1d5a 3bbe 2e5c 823d
00000200: 1b59 9b3d a7b4 dbbe c8c5 58bd 8bee a03d
00000210: 9394 ddbe 4055 b6be 3c96 473e 5f1f f53d
00000220: cdb7 1a3e 6fb9 1e3e 422c 50bd 6d31 1cbe
00000230: 9d8d c6bd 8cf0 4dbd 4707 0c3e 1d0e 083e
00000240: e426 433e 6cea b33d bbf4 a13d 5c76 5abd
00000250: d756 c43d ccd8 4dbd f800 d13d 9149 0d3e
00000260: b3b5 563e 78ae 1e3d 9dc2 e63c 9f96 82be
00000270: 1ab4 0fbf d5ac 083e 6ece 453e 1817 4b3e
0.09908027 0.38861334 0.06631634 0.06982861 0.47548786 0.54708785 0.044023026 0.081459425
-0.65319484 -0.092981726 -0.50544846 -0.09236152 -0.034921214 -1.143913 -0.6849627 -0.52862924
-0.6751183 -0.060576856 -0.07609491 -0.09901582 0.0058337664 -0.679945 -0.09263368 -0.091197014
-0.71148264 -0.95209885 -0.18110904 0.5754239 0.18961783 -0.07018101 -0.4634311 -0.06313985
0.102428414 0.2556288 0.03672965 0.063513696 0.39465562 -0.5866029 -0.049190745 0.040567815
0.40500963 -0.021952728 0.46133304 -0.013634826 -0.1580007 1.0074236 0.53658926 0.273042
0.7036515 0.07875302 -0.0052166763 -0.05485792 -0.05478273 0.5491189 0.09176428 0.009216294
0.60703546 0.8232865 0.108162254 -0.46439263 0.21778466 0.061377216 0.29807058 0.19053459
-0.09206473 -0.15343606 0.2240001 0.0063719465 -0.2994284 -0.30016226 -0.072889805 -0.104369335
0.0024772754 0.014137326 -0.52567494 -0.060969047 -0.116252 0.07915436 0.05199828 -0.07875757
-0.2430177 0.09872619 -0.14301786 0.11605299 -0.048956618 -0.25538117 0.07911897 0.14445709
-0.30394143 -0.1494113 -0.073801965 -0.31463435 -0.26430377 -0.08350443 -0.1689749 -0.01759461
0.19434352 -0.31138283 -0.018220516 0.17117554 -0.14224967 -0.2264332 -0.18152352 0.0018842255
-0.02726087 0.01051934 -0.328113 -0.057528213 0.079386 0.045507558 -0.08979185 -0.19110137
-0.17363328 0.1353012 0.034751166 -0.08348869 -0.07068995 -0.055265114 -0.035773613 0.09213422
-0.3300396 -0.15004745 -0.09771034 -0.30704936 -0.42793056 0.09300153 -0.18296094 0.06365238
0.07585355 -0.42911264 -0.052922994 0.078579985 -0.43277416 -0.35611916 0.19490904 0.11968874
0.15109177 0.15500425 -0.050823458 -0.1525323 -0.09694979 -0.05027823 0.13674651 0.13286634
0.19057804 0.08784947 0.07908007 -0.053335533 0.09586876 -0.05025558 0.10205263 0.13797595
0.2096775 0.038740605 0.02816897 -0.2550554 -0.5613419 0.1334718 0.19317028 0.19833028

pi.bias f4 [5]
00000000: 929e efbc 90fe 193e fd06 e63c 91c7 99be
00000010: 4bb3 87be
-0.029250417 0.15038514 0.028079504 -0.3003507 -0.26503977
