code/tmp/maddpg/predator_preyagent_0+1/agent_0_actorBest.pt (torch, 8999 bytes, 6 tensors)

fc1.weight f4 [32, 14]
-1.8649007 -2.3939807 0.4748025 -3.1858416 -1.4264278 -0.7544413 -0.8996807 1.8630557
-2.8249652 1.5814245 1.3128864 -0.38016722 1.1543139 0.3891683 0.23754352 0.1872643
-0.045278594 0.9997727 0.11108876 0.6075111 0.11597019 0.18948098 -0.14137168 -0.26351032
-0.456241 -0.107311785 -0.092798874 0.25043857 -1.3621839 2.7924576 -3.3942435 -1.2818992
1.298878 1.365724 1.9360108 1.1456991 -2.398879 0.68341696 3.9900448 -2.0351398
1.4891311 -1.968941 -2.37969 2.2556763 1.2434105 4.2007174 0.12560196 3.7069342
-3.2319171 0.6835863 -1.4121803 3.2636669 -1.0914426 0.045895424 -0.64825636 2.114452
0.038327936 -4.249725 1.4153897 -3.266119 1.90464 -0.3088818 0.6184085 2.2893648
2.978616 2.4425175 -2.4506557 -0.388669 4.32971 1.5983766 1.0210503 -0.20669298
-6.0520506 -3.616333 -1.4953676 1.1698678 1.9395616 1.7258987 -5.2595778 1.6697444
-0.37511724 -1.9478872 -3.1287148 4.9601417 0.25789648 -0.8405823 -0.38814348 0.28855366
0.19295582 0.57188064 -0.17894764 0.032641463 0.039003424 -0.19933942 -0.16938995 -0.5305408
0.595694 -0.14216474 2.1933131 -2.662081 1.4641843 -5.1259913 0.8954818 0.111007914
0.3473706 1.6484787 2.6198118 3.4481535 0.6458243 -0.1653699 3.257978 -0.35273072
3.737438 1.8447969 9.059028 0.066318296 0.13525492 1.3946228 -0.8421856 0.27287188
-2.1046576 -0.71946734 -2.5102708 -0.7417519 0.20908652 0.112540275 0.107168734 -0.030984301
-0.42455313 -0.23077409 0.026278714 0.105936445 -0.36955565 -0.13632245 -0.19232278 0.18322971
0.031192597 -0.15689187 0.19672915 -0.27420434 1.0547211 -3.8250299 3.4626255 -0.43691483
1.8983638 2.6539657 -1.9394892 0.66210234 0.94261765 -3.3983185 4.699714 0.77683455
-1.0514559 -1.51029 -4.0136914 1.2474089 -7.093251 3.0936706 -0.967177 1.7213079
0.52335703 -0.4204926 2.8065596 0.5741903 -0.9136687 2.3225427 0.6131557 -0.9289893
-2.5034375 -0.13075344 -1.3336433 0.95273274 -0.1787014 0.69082695 -1.8459424 3.8230534
3.296281 -3.9920886 0.9540606 2.118987 -2.0163019 -1.5667857 -1.1716446 -1.7334708
-3.5701468 0.9663824 -0.33825153 0.042864587 -0.17753506 0.77557516 0.708483 0.5912013
-1.4778203 -0.7634712 -1.0820476 1.7734485 -0.34820813 4.780115 -0.84935915 10.068728
-0.22634299 -1.7678012 -0.03752501 -1.036522 0.5173155 -2.2620304 0.11283719 -0.28867885
2.33074 -1.0086256 -0.6834438 1.7086246 4.097262 -2.5270734 -0.72027814 0.5218571
-1.2419817 1.5847229 2.0279746 -0.06653665 2.5562754 0.019760512 5.321086 3.137325
0.8916293 0.94341445 -0.11414068 -1.9757736 -0.27766663 1.0693686 -1.4286362 0.9425132
-2.869652 4.500707 2.025818 0.27160263 -0.081842355 0.087429784 -0.12375516 1.0504622
5.936976 -2.3772247 -2.4751883 2.232911 -1.4570508 1.4262395 2.1287503 -1.6048737
-1.0846523 1.778855 0.6331869 -0.542376 0.5194351 1.097395 -3.9246113 5.769608
00000000: 11b5 eebf fb36 19c0 5019 f33e d4e4 4bc0
00000010: 3095 b6bf 1123 41bf 7951 66bf 9c78 ee3f
00000020: 3bcc 34c0 1e6c ca3f a90c a83f 47a5 c2be
00000030: 8fc0 933f 1141 c73e 9c3e 733e 36c2 3f3e
00000040: 0c76 39bd 1bf1 7f3f 8182 e33d d985 1b3f
00000050: c781 ed3d 4d07 423e bdc3 10be d3ea 86be
00000060: 6c98 e9be 48c6 dbbd 560d bebd 7c39 803e
00000070: 0b5c aebf a0b7 3240 493b 59c0 4615 a4bf
00000080: a241 a63f 0bd0 ae3f 34cf f73f 45a6 923f
00000090: 3c87 19c0 6af4 2e3f e55c 7f40 bb3f 02c0
000000a0: d99b be3f 4206 fcbf d74c 18c0 005d 1040
000000b0: 1328 9f3f 476c 8640 cd9d 003e 693e 6d40
000000c0: bbd7 4ec0 83ff 2e3f 53c2 b4bf ebdf 5040
000000d0: 64b4 8bbf d7fc 3b3d 21f4 25bf 2e53 0740
000000e0: c1fd 1c3d bffd 87c0 7d2b b53f 1808 51c0
000000f0: 3ecb f33f c125 9ebe 0550 1e3f f484 1240
00000100: a5a1 3e40 3552 1c40 8bd7 1cc0 a0ff c6be
00000110: fc8c 8a40 9b97 cc3f c7b1 823f 53a7 53be
00000120: 66aa c1c0 0072 67c0 3568 bfbf 3abe 953f
00000130: 8e43 f83f 40ea dc3f 764e a8c0 2fba d53f
00000140: 5e0f c0be 5e54 f9bf dd3c 48c0 7bb9 9e40
00000150: 020b 843e 6730 57bf beba c6be 4ebd 933e
00000160: 3696 453e c566 123f 0d3e 37be 0eb3 053d
00000170: 0ec2 1f3d a21f 4cbe 8f74 2dbe 86d1 07bf
00000180: 677f 183f a293 11be 3e5f 0c40 895f 2ac0
00000190: 646a bb3f 1f08 a4c0 4c3e 653f 1e58 e33d
000001a0: 8fda b13e 5a01 d33f ffaa 2740 8cae 5c40
000001b0: be54 253f ba56 29be b682 5040 1f99 b4be
000001c0: 2f32 6f40 4e22 ec3f c7f1 1041 e3d1 873d
000001d0: 4480 0a3e 0083 b23f 7a99 57bf ddb5 8b3e
000001e0: b6b2 06c0 032f 38bf 47a8 20c0 74e3 3dbf
000001f0: c71a 563e 847b e63d 487b db3d cad2 fdbc
00000200: 075f d9be 0b50 6cbe 7546 d73c 35f5 d83d
00000210: 6636 bdbe 1d98 0bbe 43f0 44be 92a0 3b3e
00000220: 9e87 ff3c 43a8 20be 5e73 493e 8364 8cbe
00000230: 1a01 873f 4acd 74c0 a89b 5d40 4db3 dfbe
00000240: 96fd f23f 93da 2940 2f41 f8bf 8a7f 293f
00000250: 644f 713f 0d7e 59c0 0f64 9640 a1de 463f
00000260: 1b96 86bf 2f51 c1bf 2970 80c0 18ab 9f3f
00000270: eafb e2c0 b3fe 4540 e998 77bf d153 dc3f
00000280: bafa 053f ce4a d7be ac9e 3340 23fe 123f
00000290: 31e6 69bf 8aa4 1440 c6f7 1c3f 3ed2 6dbf
000002a0: 5238 20c0 3be4 05be d3b4 aabf 4be6 733f
000002b0: 80fd 36be 09da 303f d747 ecbf e8ac 7440
000002c0: 45f6 5240 617e 7fc0 513d 743f 7c9d 0740
000002d0: 170b 01c0 6f8c c8bf 73f8 95bf 5fe2 ddbf
000002e0: 497d 64c0 d664 773f 4e2f adbe c792 2f3d
000002f0: c0cb 35be 188c 463f 245f 353f f858 173f
00000300: 3729 bdbf d972 43bf 8980 8abf 5c00 e33f
00000310: 5648 b2be b4f6 9840 9a6f 59bf 8319 2141
00000320: 75c6 67be 4f47 e2bf d3b3 19bd c1ac 84bf
00000330: ca6e 043f 1bc5 10c0 2f17 e73d b7cd 93be
00000340: d82a 1540 a51a 81bf 2cf6 2ebf 36b4 da3f
00000350: c51c 8340 92bb 21c0 2664 38bf 6d98 053f
00000360: 42f9 9ebf 33d8 ca3f 56ca 0140 5e44 88bd
00000370: 049a 2340 cce0 a13c 5646 aa40 efc9 4840
00000380: d141 643f 9c83 713f 97c2 e9bd 26e6 fcbf
00000390: 522a 8ebe 12e1 883f 8ddd b6bf 8c48 713f
000003a0: 61a8 37c0 cb05 9040 01a7 0140 800f 8b3e
000003b0: f79c a7bd 630e b33d 5873 fdbd 8c75 863f
000003c0: b5fb bd40 7324 18c0 7c69 1ec0 04e8 0e40
000003d0: a480 babf 048f b63f 723d 0840 806c cdbf
000003e0: e3d5 8abf 85b1 e33f 8918 223f 27d9 0abf
000003f0: b3f9 043f 7077 8c3f d52c 7bc0 a1a0 b840

fc1.bias f4 [32]
-4.690767 -2.4369104 -4.819564 -3.6237657 -4.689692 -0.28810367 -4.086172 -4.429382
-4.648556 -2.1644623 -3.2278714 -5.711695 -2.830707 -7.397047 -2.7746546 2.1149948
-6.373916 -2.5047574 -2.2281723 -2.1259184 -2.91408 -2.5785751 -5.8120146 -3.2501304
-3.8712366 -4.142347 -3.7362673 -5.2251415 -4.5340056 -2.9727902 -0.20775455 5.0785165
00000000: c31a 96c0 57f6 1bc0 de39 9ac0 c7eb 67c0
00000010: f511 96c0 5382 93be ecc1 82c0 7fbd 8dc0
00000020: f9c0 94c0 8d86 0ac0 7295 4ec0 35c6 b6c0
00000030: 4e2a 35c0 9cb4 ecc0 f193 31c0 135c 0740
00000040: 1ff7 cbc0 f24d 20c0 609a 0ec0 0c0f 08c0
00000050: 4980 3ac0 6007 25c0 06fc b9c0 2302 50c0
00000060: 57c2 77c0 1b8e 84c0 011f 6fc0 5c34 a7c0
00000070: 9316 91c0 3242 3ec0 9cbd 54be 3583 a240

fc2.weight f4 [32, 32]
-0.21673709 0.041781824 -0.33408272 -0.5657164 -0.21457556 -0.47756615 -0.1964523 -0.092819996
-0.14930534 -0.299312 -0.41864336 -0.018307753 -0.46187434 -0.5120548 -0.61859626 -0.11166791
-0.42735603 -0.16283067 -0.54273504 -0.3595204 -0.2903851 -0.5342361 0.28601205 -0.49846852
-0.41197273 -0.8404311 -0.15980561 -0.54279166 -0.3227797 -0.083957314 -0.98089063 0.0548569
2.358348 1.0030077 -3.4033618 0.21166006 0.023199964 1.2878765 -0.59921974 2.1208036
-1.9734681 -0.1295325 1.1965346 0.6689281 2.9789073 -3.3509347 0.14262472 -1.2274933
2.2961738 0.13061774 1.4214014 -0.21182476 -0.18118863 -3.4925518 -3.0569122 1.6850659
-2.6573358 1.831478 -3.192621 -0.90880156 -4.935498 1.4187177 2.02118 -5.4343
1.367426 -1.2059857 -1.3028266 0.8243917 -2.1022332 1.3915889 0.67994344 -0.21230288
-0.9604801 -0.06579774 0.93228406 -0.86524224 4.923839 -0.37346858 0.9807243 0.9083864
3.3916728 0.42331564 -0.043540087 0.666312 -1.057719 -4.265213 -1.6768986 1.1202247
-0.19936973 -1.1122991 1.2375389 0.7425384 -0.6013054 1.8764285 1.976616 -5.4230146
-0.5948459 -0.29160827 -0.34736863 -0.30836675 -0.34290397 -0.16552569 -0.2707254 -0.25625375
-0.19093938 0.11504837 -0.19472088 -1.0411857 -0.0828515 -0.12475954 -0.10232383 -0.36230952
-0.19601755 -0.08585093 -0.16833861 -0.36806798 -0.014112337 -0.24821182 -0.54245186 -0.08452702
-0.1475999 -0.44419628 -0.58476484 -0.15996152 -0.0689379 -0.3316632 -0.16798863 -0.33380765
-0.2100448 -0.0012532048 -0.20737648 -0.14800198 -0.08531303 -0.2848423 0.104387686 0.018326288
-0.19579054 -0.16626163 -0.16990532 -0.4453125 -0.512029 -0.23219635 -0.47222915 -0.42524868
-0.11855329 -0.2409695 -0.021804642 -0.15028071 -0.18441911 -0.08496993 -0.04434552 0.012911866
-0.056389123 -0.09171638 0.026645884 0.078223094 -0.063002765 -0.47731698 -0.11817098 -0.23370339
-0.3958024 -0.10007596 -0.17297785 -0.2665625 -0.06160173 -0.36514157 -0.06919127 -0.22989617
-0.14742896 -0.10406996 -0.03744673 -0.11474466 -0.13473074 -0.50100905 -0.283483 -0.43894774
-0.052619714 -0.21503825 -0.22124787 -0.17593502 -0.16432385 -0.103247836 -0.0772412 -0.017195866
-0.13539319 0.0044524535 -0.03896457 -0.11028263 0.050003953 -0.21784423 -0.20605682 -0.5003011
1.2731214 -0.3197499 -0.5153338 2.9773962 0.19862507 -1.8307949 1.4163437 3.1148918
2.3744454 0.39034376 -0.31767535 1.7545978 2.2372665 -0.8431644 7.0139003 -0.5564774
1.3462284 0.008592333 5.0088053 -0.9894715 -0.18284664 -0.35323024 -1.2580782 1.5315577
1.2043117 3.617168 -0.15277866 -1.6749493 2.345513 -0.92533815 1.8758204 -1.687511
-0.43412608 -0.015686724 -0.036411185 -0.12629987 -0.42522326 -0.40896964 -0.13642022 0.07127309
-0.017694015 -0.115634255 -0.18954544 -0.21023346 -0.13163541 -0.11156715 -0.47106278 -0.61424285
-0.11410291 -0.21417816 -0.3116228 -0.503026 -0.17417161 0.058876522 -0.3698898 0.20207009
-0.106221415 -0.48948386 -0.055595968 -0.40398806 -0.03943779 -0.34507933 -0.24905284 -0.5172224
00000000: 54f0 5dbe 6b23 2b3d e40c abbe cad2 10bf
00000010: b2b9 5bbe 8d83 f4be cb2a 49be 6918 bebd
00000020: 80e3 18be 6c3f 99be 6c58 d6be 24fa 95bc
00000030: cb7a ecbe 0616 03bf 535c 1ebf 25b2 e4bd
00000040: 69ce dabe 15bd 26be aff0 0abf 0f13 b8be
00000050: 5bad 94be b2c3 08bf 2c70 923e 4437 ffbe
00000060: 17ee d2be 7e26 57bf 15a4 23be 65f4 0abf
00000070: 6143 a5be d0f1 abbd a61b 7bbf a1b1 603d
00000080: 2cef 1640 8e62 803f aed0 59c0 6abd 583e
00000090: da0d be3c 23d9 a43f 7766 19bf 3fbb 0740
000000a0: 9a9a fcbf 2ba4 04be 0c28 993f df3e 2b3f
000000b0: 6ba6 3e40 b775 56c0 370c 123e 801e 9dbf
000000c0: 83f4 1240 a8c0 053e 7bf0 b53f 97e8 58be
000000d0: 8389 39be f885 5fc0 73a4 43c0 3db0 d73f
000000e0: ca11 2ac0 df6d ea3f e753 4cc0 38a7 68bf
000000f0: 9aef 9dc0 8b98 b53f 035b 0140 c9e5 adc0
00000100: d107 af3f bd5d 9abf 06c3 a6bf 560b 533f
00000110: fd8a 06c0 961f b23f c610 2e3f ed65 59be
00000120: 06e2 75bf f7c0 86bd 2baa 6e3f 8480 5dbf
00000130: 1790 9d40 4637 bfbe bf10 7b3f 038c 683f
00000140: 2b11 5940 d4bc d83e 1757 32bd 6c93 2a3f
00000150: 5663 87bf a07c 88c0 9da4 d6bf 8663 8f3f
00000160: 9427 4cbe d15f 8ebf ad67 9e3f ff16 3e3f
00000170: 27ef 19bf cf2e f03f c101 fd3f 5689 adc0
00000180: d247 18bf ae4d 95be 4dda b1be 3fe2 9dbe
00000190: 1c91 afbe 917f 29be 859c 8abe b133 83be
000001a0: 9d85 43be 7b9e eb3d e964 47be 9345 85bf
000001b0: 0cae a9bd ee81 ffbd 288f d1bd a280 b9be
000001c0: d3b8 48be 9dd2 afbd f560 2cbe 6873 bcbe
000001d0: 6e37 67bc 3d2b 7ebe 20de 0abf 811c adbd
000001e0: 6e24 17be b26d e3be 26b3 15bf f4cc 23be
000001f0: 502f 8dbd c2cf a9be 3605 2cbe d6e8 aabe
00000200: fc15 57be 9342 a4ba 805a 54be d58d 17be
00000210: 99b8 aebd dad6 91be 36c9 d53d 0321 963c
00000220: 517d 48be 7d40 2abe a9fb 2dbe 0000 e4be
00000230: 5514 03bf e1c4 6dbe 05c8 f1be 32ba d9be
00000240: 11cc f2bd b5c0 76be a69f b2bc 30e3 19be
00000250: 5dd8 3cbe b704 aebd a6a3 35bd 4b8c 533c
00000260: 48f8 66bd ccd5 bbbd 7848 da3c 6e33 a03d
00000270: 9807 81bd e462 f4be a003 f2bd f14f 6fbe
00000280: 9da6 cabe a0f4 ccbd 1b21 31be e17a 88be
00000290: 1852 7cbd d6f3 babe 27b4 8dbd e769 6bbe
000002a0: 9ef7 16be a222 d5bd be61 19bd 40ff eabd
000002b0: dbf6 09be 2142 00bf af24 91be c2bd e0be
000002c0: c587 57bd fd32 5cbe cd8e 62be 4f28 34be
000002d0: 8344 28be 9a73 d3bd a230 9ebd 58de 8cbc
000002e0: 83a4 0abe e3e5 913b 5099 1fbd dcdb e1bd
000002f0: f2d0 4c3d 8f12 5fbe 8f00 53be bc13 00bf
00000300: a4f5 a23f 42b6 a3be eaec 03bf a98d 3e40
00000310: 5f64 4b3e 7d57 eabf c04a b53f 635a 4740
00000320: eaf6 1740 23db c73e 58a6 a2be a996 e03f
00000330: 602f 0f40 9fd9 57bf df71 e040 4e75 0ebf
00000340: 3651 ac3f dbc6 0c3c 2248 a040 014e 7dbf
00000350: 263c 3bbe 98da b4be b508 a1bf 150a c43f
00000360: e326 9a3f ae7f 6740 0272 1cbe bd64 d6bf
00000370: e31c 1640 f6e2 6cbf e21a f03f 5c00 d8bf
00000380: c645 debe 7281 80bc e523 15bd c154 01be
00000390: ddb6 d9be 7864 d1be beb1 0bbe a0f7 913d
000003a0: 0af3 90bc a7d1 ecbd 3318 42be 7147 57be
000003b0: 6fcb 06be 517d e4bd 242f f1be 053f 1dbf
000003c0: c9ae e9bd 8551 5bbe 068d 9fbe 50c6 00bf
000003d0: 0b5a 32be 8228 713d 3262 bdbe 76eb 4e3e
000003e0: 9d8a d9bd a19d fabe 99b8 63bd 86d7 cebe
000003f0: 8589 21bd 3dae b0be b507 7fbe b068 04bf

fc2.bias f4 [32]
-0.69662136 3.8582938 -0.12968878 -0.3759569 -0.47237593 -0.4730671 -5.895102 -0.61222243
-0.53011227 -0.8343729 -0.8439127 4.287436 -2.8458476 -4.953519 -1.4357072 -0.40876833
-0.62363213 -0.014859444 7.383394 -1.3499982 -0.53863925 -2.2177496 -1.1358261 -0.7965276
-0.5073702 -4.5196395 -7.7447076 -0.62389815 -0.7131402 -0.8145077 2.7996228 -6.4756985
00000000: c755 32bf 49ee 7640 23cd 04be 6c7d c0be
00000010: 42db f1be da35 f2be ada4 bcc0 9cba 1cbf
00000020: 70b5 07bf 7699 55bf aa0a 58bf ad32 8940
00000030: 5e22 36c0 3a83 9ec0 41c5 b7bf 154a d1be
00000040: 5ba6 1fbf 0775 73bc c344 ec40 becc acbf
00000050: 43e4 09bf 9cef 0dc0 c062 91bf 3ce9 4bbf
00000060: 03e3 01bf e3a0 90c0 a5d4 f7c0 cab7 1fbf
00000070: 5b90 36bf 9483 50bf 052d 3340 ec38 cfc0

pi.weight f4 [5, 32]
0.1421424 2.2249193 1.5763111 0.27888644 -0.23752908 -0.3499681 2.4189303 -0.020427719
0.4062048 -0.116275996 -0.1615739 -1.7063715 -1.2312714 3.3341894 -0.8582988 0.099310316
-0.06959298 -2.7052991 1.43391 0.2460621 0.14454572 -1.2046865 -0.22040683 -0.033584498
0.39076763 0.18464082 5.9783955 -0.21972568 0.038363434 0.007206712 4.0962625 -2.1020045
-0.1290299 -1.4840636 -0.98177564 -0.54032725 0.12150205 0.0638934 2.0145764 0.23021069
-0.375542 -0.45209417 0.091198064 4.1198015 4.65249 -4.0640097 1.7477447 -0.04343457
-0.089474365 4.8002176 -6.5859795 0.3506422 0.56654805 -0.6065752 1.9929134 -0.30233598
-0.2668768 1.0304632 -2.924831 0.13347192 -0.2459589 0.09028119 -0.4417356 4.315781
-0.3562156 -1.823519 -1.0734696 -0.5699367 0.04818206 -0.09964392 -3.7684298 -0.16037177
-0.48044124 -0.44576454 -0.17188227 -3.444118 -2.1187024 -1.4360155 -0.5557948 -0.71953756
-2.9767797 -0.020217758 -5.226973 -1.0264157 -0.06315819 0.30630258 -0.45224792 -0.6652839
-0.6536852 -0.8177681 -0.88516384 -0.022287635 -0.39325088 -0.035756174 -0.93573433 -2.3146374
-0.07275565 -0.37065807 -0.36137143 0.35289094 0.37864217 0.112933986 -5.086189 -0.2077212
0.20007521 0.7202071 0.10512722 -0.3113551 -2.0270936 3.0655475 1.6127646 0.25867444
1.1878347 -2.776627 0.31127298 0.1274231 -0.452181 4.1615376 -1.0743498 0.26350668
0.16658935 1.6872725 0.81612295 0.15903325 0.24447551 0.054268442 -5.6555057 1.4746103
-0.60630965 -1.8760628 -0.63425416 -0.16305017 0.2486968 0.01067035 -3.7749302 -0.0053027454
-0.1983174 0.16021962 0.08087936 -3.4951239 -3.1391592 -0.8403862 -0.5836556 -0.36017033
-2.0056286 0.005413324 -6.433137 -1.288192 -0.07963094 -1.1872203 -1.9728444 -0.14789884
-0.024463063 -0.25026104 -1.2242144 0.018649071 -0.29122183 -0.070078045 -0.02936043 -2.2835658
00000000: c78d 113e 1465 0e40 90c4 c93f 34ca 8e3e
00000010: d33a 73be 052f b3be c1cf 1a40 0858 a7bc
00000020: 13fa cf3e 1c22 eebd a173 25be 626a dabf
00000030: 4d9a 9dbf 5c63 5540 78b9 5bbf 3563 cb3d
00000040: c486 8ebd 9f23 2dc0 5d8a b73f b4f7 7b3e
00000050: cb03 143e 2b33 9abf 54b2 61be e68f 09bd
00000060: b212 c83e 7c12 3d3e 044f bf40 c5ff 60be
00000070: fa22 1d3d 4826 ec3b 9514 8340 3e87 06c0
00000080: 6a20 04be ccf5 bdbf a655 7bbf e352 0abf
00000090: 11d6 f83d 8bda 823d d2ee 0040 5abc 6b3e
000000a0: 0b47 c0be e378 e7be 0dc6 ba3d 6ad5 8340
000000b0: 33e1 9440 5e0c 82c0 19b6 df3f 73e8 31bd
000000c0: 563e b7bd 629b 9940 58c0 d2c0 6087 b33e
000000d0: 4b09 113f 8348 1bbf c917 ff3f c8cb 9abe
000000e0: 13a4 88be 38e6 833f 6e30 3bc0 ddac 083e
000000f0: a6dc 7bbe 58e5 b83d 2b2b e2be e11a 8a40
00000100: e461 b6be 1269 e9bf 7467 89bf 5fe7 11bf
00000110: 8d5a 453d 1d12 ccbd f42d 71c0 7f38 24be
00000120: 65fc f5be 403b e4be e801 30be 6e6c 5cc0
00000130: d298 07c0 5bcf b7bf 9148 0ebf 9d33 38bf
00000140: 8f83 3ec0 b69f a5bc 5d43 a7c0 9761 83bf
00000150: 1559 81bd b1d3 9c3e 0a8d e7be 0c50 2abf
00000160: ea57 27bf 4059 51bf 199a 62bf 8f94 b6bc
00000170: 2e58 c9be 1175 12bd 498c 6fbf 0523 14c0
00000180: ea00 95bd e5c6 bdbe ad05 b9be 1fae b43e
00000190: 63dd c13e ef49 e73d 0fc2 a2c0 deb4 54be
000001a0: 84e0 4c3e 7e5f 383f f14c d73d f069 9fbe
000001b0: e7bb 01c0 ee31 4440 126f ce3f fa70 843e
000001c0: f80a 983f 42b4 31c0 2c5f 9f3e 337b 023e
000001d0: 4584 e7be 512b 8540 4b84 89bf 59ea 863e
000001e0: 6696 2a3e 8cf8 d73f 6fed 503f 9dd9 223e
000001f0: ca57 7a3e 9648 5e3d e7f9 b4c0 08c0 bc3f
00000200: 1c37 1bbf d322 f0bf 7b5e 22bf a0f6 26be
00000210: 60aa 7e3e b1d2 2e3c 7598 71c0 a7c2 adbb
00000220: b713 4bbe 9d10 243e 14a4 a53d 1cb0 5fc0
00000230: fce7 48c0 8d23 57bf 746a 15bf 3f68 b8be
00000240: 385c 00c0 4162 b13b 42dc cdc0 7ae3 a4bf
00000250: 8c15 a3bd d6f6 97bf 2a86 fcbf cb72 17be
00000260: c366 c8bc 3722 80be 0fb3 9cbf f0c5 983c
00000270: 071b 95be 1485 8fbd 4985 f0bc f125 12c0

pi.bias f4 [5]
-4.2924523 -0.08019071 -3.944754 5.623706 -5.504161
00000000: c55b 89c0 073b a4bd d976 7cc0 66f5 b340
00000010: 1622 b0c0
