code/tmp/maddpg/k_1/Cooperative_Navigationagent_1+0/agent_1_actorRegular.pt (torch, 9535 bytes, 6 tensors)

fc1.weight f4 [32, 18]
000000 9b d3 db 3e ee fa e5 3f 64 37 4d bf 0c d7 25 c0
       0.4293488 1.7967203 -0.80162644 -2.5912504
000010 65 3d 8e bd 9b 67 08 c0 6e 70 3a be 01 63 fa be
       -0.06945304 -2.1313236 -0.18206951 -0.4890366
000020 fd b0 b7 3d dc 28 0b bf ee f3 1b 3e 5e 34 c1 3f
       0.08969305 -0.5435922 0.1522977 1.5094106
000030 0c 55 d7 be 6f 56 a3 be fe 05 e3 bd 5c 80 54 3d
       -0.42057073 -0.3190188 -0.11085127 0.051880226
000040 6a cc 83 3d 77 97 f1 bd 08 ba c0 40 c5 8f 12 c1
       0.06435473 -0.11796468 6.022709 -9.1601
000050 8c 4e 8f 40 e4 f2 92 c0 66 e1 61 c0 75 38 3a 41
       4.4783382 -4.5921497 -3.5293822 11.638783
000060 f5 d4 9d c0 dd 25 fa 40 d4 98 71 c0 21 30 56 41
       -4.9322457 7.817122 -3.774953 13.38675
000070 87 c9 8e 3f ec 3f cf bf 66 dc 27 40 b9 a3 de bf
       1.1155251 -1.6191382 2.622827 -1.7393714
000080 b4 06 43 be 35 41 54 3e 3f 32 56 be 50 dd 4b 3c
       -0.19045526 0.20728 -0.20917605 0.012442902
000090 82 05 7e c0 98 2f f3 bf c5 5c 9c bf 22 03 ea 3f
       -3.9690862 -1.89989 -1.2215811 1.8282206
0000a0 e0 4f 3b c0 6b 68 9a c0 8e 98 60 c0 3a 37 b2 3f
       -2.9267502 -4.8252463 -3.5093112 1.3923104
0000b0 b7 bc 75 c0 51 82 06 3f b8 69 e4 40 0d e0 00 c0
       -3.8396432 0.525426 7.137905 -2.013675
0000c0 09 ce 88 40 1f c4 6d c0 64 28 3d 3d bb 1f 65 3e
       4.275151 -3.7150953 0.046181098 0.22375385
0000d0 32 93 d7 3d 9d 3a 3b 3e a3 11 aa bf 10 6f 84 c0
       0.10526122 0.18284078 -1.3286632 -4.1385574
0000e0 b9 20 05 c0 61 85 e9 bf 1f 16 ac 3f 6f 7e 00 40
       -2.0801222 -1.8243829 1.3444251 2.007717
0000f0 66 1f 15 40 92 81 91 bf f2 b2 86 bf 5d cb be 40
       2.3300414 -1.1367667 -1.052336 5.9623246
000100 25 86 6a c0 7c 59 a9 c0 3f 86 90 bf 33 e1 e4 3f
       -3.6644375 -5.2921734 -1.1290969 1.7881225
000110 ae 12 d8 3d 61 11 40 3e 46 cd 3e be 54 7d 4d be
       0.10550438 0.1875663 -0.18632993 -0.2006734
000120 83 f3 23 c0 f8 f7 43 40 21 1b d7 3f 51 8d d4 3f
       -2.5617378 3.0620098 1.6805154 1.6605626
000130 e6 22 79 c0 9e aa 39 c0 26 01 94 40 a1 19 50 bf
       -3.892755 -2.9010386 4.62514 -0.81289107
000140 6c d3 0e c0 09 f1 2f 3e cf 45 77 c0 0c 5e 9f 40
       -2.2316542 0.17181791 -3.8636358 4.9802303
000150 88 26 8d c0 ec a7 26 c0 00 c3 e7 3b 25 21 6a 3e
       -4.4109535 -2.6039991 0.0070728064 0.22864206
000160 94 ee 12 3d fe 6c 21 be 09 c5 27 c1 ca 61 37 c0
       0.035872057 -0.15764233 -10.485604 -2.8653436
000170 f4 ba 12 c1 e9 89 24 c0 4a 26 0a 41 83 8f 8c 40
       -9.170643 -2.5709174 8.634348 4.3925185
000180 c4 36 18 41 7a 70 4d 40 95 15 1b 41 d1 24 a0 3f
       9.5133705 3.20999 9.692769 1.2511235
000190 7a 4d 90 c0 3a 2a 5c c0 d1 82 b5 bf 98 db a2 bf
       -4.5094576 -3.4400773 -1.4180547 -1.2723265
0001a0 42 e0 2c be d0 6f 00 be 80 25 43 be 7d 49 20 be
       -0.16882423 -0.12542653 -0.19057274 -0.15653034
0001b0 06 88 62 bf 60 df 69 3e 40 0f 32 3f 5c e7 43 3f
       -0.88488805 0.22839117 0.6955452 0.765249
0001c0 bf 26 83 3e ae e5 1c 3e 50 cb 3a 3f f7 22 17 bf
       0.25615498 0.15321991 0.7296648 -0.5903773
0001d0 70 66 a1 bf 48 bf d8 3c 9f d7 7e 3f 1b e2 8f bf
       -1.2609386 0.026458398 0.9954776 -1.1240877
0001e0 3c 67 43 bf 4d 24 f8 3f 60 2d 8c bc fa d6 b7 3d
       -0.763294 1.9386078 -0.01711148 0.089765504
0001f0 60 e1 5b be de ac b5 3d d2 82 ce bf 08 38 66 3f
       -0.21472692 0.088708624 -1.6133673 0.89929247
000200 d0 f2 d2 c0 d9 23 a5 3f b6 11 8f 40 63 94 01 3f
       -6.59214 1.2901565 4.470912 0.50617045
000210 0c 77 e0 3f 04 33 32 c0 33 37 b4 3f c7 40 7f c0
       1.753633 -2.7843637 1.4079345 -3.9883287
000220 5c 9f 86 bf a8 79 f5 bf 41 12 37 c0 39 d7 f3 bf
       -1.0517383 -1.9177752 -2.8604891 -1.9050056
000230 55 af 4f 3e 8c 96 05 be c7 46 5b be 00 67 60 bc
       0.20281728 -0.1304571 -0.21413718 -0.013696432
000240 ce 13 05 41 97 3e 55 40 82 f0 d2 40 3d d4 8f 3f
       8.317335 3.3319452 6.591859 1.1236645
000250 14 36 ab c0 e0 bb 41 c0 b1 2d a4 c0 b8 18 30 c0
       -5.3503513 -3.027092 -5.1305776 -2.7515087
000260 7e 04 01 c1 da 85 13 c0 44 f2 8a 40 10 a8 cc 3f
       -8.063597 -2.3050447 4.3420734 1.5988789
000270 4b a7 5a 40 18 9c 43 40 49 11 11 3e b9 a2 57 be
       3.4164608 3.0564022 0.1416675 -0.21058168
000280 6a 38 83 3d d6 1f a9 3d dc 43 86 40 49 ff 65 40
       0.064072445 0.08258025 4.1957836 3.5937064
000290 5c fe 26 40 ce d2 91 c0 88 b9 83 c0 bb 58 e8 3f
       2.6092749 -4.556983 -4.116398 1.8152078
0002a0 c2 99 b4 3e 25 aa 20 3f 3e 46 d2 3f b9 0c 1b c0
       0.35273558 0.6275962 1.6427686 -2.4226515
0002b0 a2 8c 02 c0 c2 d3 a4 c0 0e ba d7 3f 95 8d 00 bf
       -2.0398335 -5.1508493 1.6853654 -0.5021604
0002c0 7f 33 48 3e d3 9e 61 3e 40 99 de bc ac 58 2f bd
       0.19550894 0.22033243 -0.027172685 -0.042809173
0002d0 00 d1 9f c0 ec 36 4d 40 99 48 08 40 54 ed 51 40
       -4.9942627 3.2064772 2.129431 3.2801104
0002e0 f2 2b a4 c0 c6 13 0f c1 83 52 a8 bf 12 96 05 c1
       -5.1303644 -8.9423275 -1.315018 -8.349138
0002f0 0b ec 54 c0 46 8d fc bf 86 eb 17 40 6f de 7e 40
       -3.326907 -1.9730613 2.3737502 3.9823263
000300 12 c3 85 c0 da db 5a bf 09 2e 4a be 4d f2 66 3e
       -4.1800623 -0.85491717 -0.19744124 0.22553368
000310 36 c7 19 be b2 f5 e2 3d 32 6a 3f 40 d7 47 19 3d
       -0.15017399 0.11082019 2.9908566 0.037422027
000320 9f d6 41 bf 55 cd 12 be 9f 34 03 40 5e 9c 9f 3f
       -0.7571811 -0.1433614 2.0500867 1.2469594
000330 0e f8 ff be a7 b8 0e bf b4 04 73 be 1f fb 07 3f
       -0.49993938 -0.5575051 -0.23732263 0.53117555
000340 b7 cf 42 c0 d9 2a 56 be 4a 0d 69 40 a2 47 16 3f
       -3.043928 -0.20914783 3.641436 0.58703053
000350 bd 67 58 be 07 c6 69 3e 44 4d 48 3d 48 c0 a9 bd
       -0.21133323 0.22829448 0.04890181 -0.08288628
000360 dc 65 70 40 c0 7b 08 c1 22 35 b3 3f d0 2e 87 bf
       3.756217 -8.530212 1.400059 -1.0561161
000370 e2 83 e5 bf c8 5c 11 41 13 81 00 c0 39 c4 f1 40
       -1.7930872 9.085152 -2.007878 7.555203
000380 6a 3f 9b bf ee e1 15 41 35 10 cb bd a6 04 5f 3f
       -1.2128727 9.367659 -0.099152006 0.8711647
000390 79 8a 8a 3f 2e cc c3 bf 56 0d c2 3d b0 d3 e1 bc
       1.0823509 -1.5296686 0.094752 -0.02756676
0003a0 b1 f6 64 3e 7f 54 59 be b2 84 4d c0 d8 8f f0 40
       0.2235973 -0.21223639 -3.211224 7.517559
0003b0 f0 f4 6f c0 e0 9e e2 3f 53 0d b9 40 36 1f dc bf
       -3.7493248 1.7704735 5.7828765 -1.7197025
0003c0 21 02 4a 40 70 e2 22 bf b6 2f 5f 40 84 6e 0e 3f
       3.15638 -0.63626766 3.487287 0.55637383
0003d0 49 45 d9 bf a1 c0 16 c0 57 4a 3d 40 08 b7 82 c0
       -1.6974269 -2.3555071 2.9576623 -4.0848427
0003e0 c4 53 01 be f4 91 46 be 44 6e 6f 3d 31 72 43 be
       -0.1262961 -0.19391614 0.058454767 -0.1908653
0003f0 4d fe 81 40 29 da 0e c1 11 d4 83 40 cf 79 6e c0
       4.0622926 -8.928262 4.119637 -3.7261846

fc1.bias f4 [32]
000000 a5 9d 27 c1 0f c1 df 40 dd 94 05 c0 92 02 bb c0
       -10.475987 6.9923167 -2.087211 -5.8440638
000010 78 c6 0c c1 16 17 75 bf 0a ec 08 c1 23 87 01 c1
       -8.798454 -0.9573835 -8.557627 -8.095492
000020 52 74 1f 41 bd 63 a4 c0 03 ad 6f c0 74 80 ed c0
       9.9658985 -5.137175 -3.7449348 -7.4219303
000030 0d 43 35 40 4b d8 b2 c0 87 fa 8f 40 62 76 7b 3f
       2.8322175 -5.588903 4.499332 0.9822751
000040 2e 20 cf c0 9f db c3 c0 de f0 88 c0 eb 6a b8 c0
       -6.472678 -6.120559 -4.2794027 -5.7630515
000050 75 d4 b3 c0 e0 ae ad c0 fe f7 06 c1 59 e1 b9 40
       -5.6196847 -5.427597 -8.435545 5.8087583
000060 8a af ce c0 08 a1 2e c1 45 b3 9d c0 6a 75 e0 c0
       -6.458928 -10.914314 -4.9281335 -7.014333
000070 bc 04 f6 be 09 30 57 c0 38 55 d0 c0 b8 61 ad c0
       -0.48050487 -3.3623068 -6.5104027 -5.4181786

fc2.weight f4 [32, 32]
000000 72 ce bc be 16 2b ae bd f1 3d 64 bd 57 1d 85 bc
       -0.36876255 -0.08504312 -0.055723134 -0.016249342
000010 2a ca be be df 98 87 be 0a 55 21 3d 58 88 b2 be
       -0.37263614 -0.2648382 0.03938774 -0.34869647
000020 e3 7f b3 be 5f ce d3 bd 75 54 ce be bd 98 66 bf
       -0.35058507 -0.103420965 -0.4029881 -0.9007681
000030 21 16 d1 3d a5 2b 57 be e5 70 c4 be 87 de e8 be
       0.10209299 -0.21012743 -0.38367382 -0.45482275
000040 df 16 2f be 62 c4 ea bd 75 3f c9 bd 62 c5 ad bd
       -0.17098568 -0.11463238 -0.098265566 -0.084849134
000050 17 2c ab be 86 13 a6 be bd f9 cb be 12 21 0f be
       -0.33432075 -0.3243677 -0.39838973 -0.13977459
000060 0b 23 03 bf fa 7e 40 bd e8 7b ed be 22 73 3f be
       -0.51225346 -0.046996094 -0.46383595 -0.18696263
000070 4a ec de bd 06 8a 08 be 58 5a 82 be 8d d5 32 be
       -0.10884912 -0.13333902 -0.25459552 -0.17464276
000080 53 a2 84 be 33 38 91 be e1 f3 0c be 23 ff 4c be
       -0.25905094 -0.2836319 -0.13764907 -0.20019202
000090 7c a9 17 3d 2b d0 c3 bd 00 1d 76 be 37 b9 47 be
       0.037026867 -0.09561189 -0.240345 -0.19504248
0000a0 07 c0 59 be eb 2a 0e be d8 1a 3b bd 94 4b 12 be
       -0.21264659 -0.1388356 -0.045679897 -0.14286643
0000b0 40 21 ed bb 14 6f 3d be 59 c0 fb be 22 17 11 be
       -0.0072366297 -0.18499404 -0.49170187 -0.1416898
0000c0 e2 53 f0 be be ad 1a be ba be fb be f2 bb aa 3d
       -0.46938998 -0.1510534 -0.4916895 0.08336629
0000d0 3d d9 87 3d 02 a7 17 be 33 02 29 3e 32 72 23 be
       0.06633232 -0.14809802 0.16504745 -0.15961531
0000e0 7f cf 34 bd 8c 8d 8d 3d 72 ca 5f be 84 03 a4 be
       -0.044143196 0.069117635 -0.2185457 -0.32033932
0000f0 be c1 a4 be ee 48 e3 be ee d8 27 be d6 e0 64 be
       -0.32179064 -0.44391578 -0.16391346 -0.22351393
000100 1c 5e 77 be 66 2a 8f 3d e6 e1 e4 be 60 84 29 bd
       -0.24156994 0.06990509 -0.44703597 -0.04138601
000110 40 75 4f bd 5a 11 08 bf 95 b5 0e bf 60 5f 71 be
       -0.050648928 -0.53151476 -0.5574582 -0.23571539
000120 d8 a5 d8 be f2 f2 48 be bd 8e 02 be 23 d3 a3 3d
       -0.4231403 -0.19623926 -0.12749763 0.079992555
000130 02 f8 27 be 83 2d 31 be e0 e1 82 3d 09 5b ec bd
       -0.16403201 -0.17302518 0.063907385 -0.11540801
000140 67 da 4e bf 56 b2 94 bd 59 a3 a1 bd 6a 3c ab be
       -0.80802006 -0.072605774 -0.07892484 -0.3344453
000150 fe 53 e9 3d 94 b0 70 be c0 ac 97 bd 1d 01 9b be
       0.11392973 -0.23504859 -0.07405996 -0.30274287
000160 a9 e4 ef be c4 59 41 be 5e fd aa 3d 4a d6 5e 3c
       -0.4685414 -0.18881899 0.08349107 0.013600895
000170 e7 0a 1a bf 5c 9c d6 bd 2d d8 e1 3c ab 1f 4e be
       -0.60172886 -0.10479042 0.027568901 -0.20129268
000180 7a 10 04 bf 8e c1 ab 3e f0 cd f5 be 92 6d 91 be
       -0.5158764 0.33546108 -0.4800868 -0.28403908
000190 42 ad 24 bf 84 8d 6f bf 59 8a e7 be 9c fe fe bc
       -0.6432687 -0.9357531 -0.45222738 -0.031127267
0001a0 74 8e 3b bf 40 d3 55 be 53 e1 b0 be aa 43 c0 bd
       -0.7326424 -0.20881367 -0.3454691 -0.09387906
0001b0 ef 29 9c be 5a f0 de be 1d 79 5f be 3a b4 be be
       -0.30500743 -0.4354275 -0.21823545 -0.37246877
0001c0 65 55 62 be 39 a6 d3 be 5b 60 b3 be 78 c3 c6 3d
       -0.22102888 -0.41337755 -0.3503445 0.097052515
0001d0 27 c8 2e be 0c 5e 55 3e 61 2c 95 be cb ec c6 be
       -0.1706854 0.20836657 -0.2913542 -0.38852534
0001e0 e0 23 a2 be 43 3e 50 be bc e5 50 be 3b 47 4c be
       -0.31667995 -0.20336251 -0.20400137 -0.19949047
0001f0 26 6e f3 be 5a d4 a9 bd 47 f3 83 bd 46 94 8b be
       -0.47544974 -0.08292456 -0.06442886 -0.2726156
000200 e9 09 71 be 6c 9a 8e be a7 48 c6 3d b3 ed aa bd
       -0.23538937 -0.2785219 0.09681826 -0.08346119
000210 0f 07 82 be 90 50 f4 be 61 38 37 be 76 52 b4 bc
       -0.2539601 -0.47717714 -0.178926 -0.022011977
000220 ce de 3d bd d5 4a cb be 86 8a 95 be 19 35 4f bf
       -0.04635506 -0.3970553 -0.29207247 -0.80940396
000230 a0 9e 1f bd 68 39 cc 3c c2 24 89 be 4d 5f 8e be
       -0.038969636 0.024929717 -0.26785856 -0.27807084
000240 d2 93 63 bd 11 39 4d be 3a 86 53 be 63 b6 bf 3c
       -0.055560894 -0.200413 -0.20656672 0.023402398
000250 6f b4 fc be 3f 89 c3 bc 3b b8 c6 be bb f4 85 be
       -0.4935641 -0.023869155 -0.38812432 -0.26163277
000260 a7 04 c9 be 5b 75 5f 3b 0c e9 b6 be c5 9d 02 bf
       -0.39261362 0.003409705 -0.35724676 -0.5102199
000270 e1 b4 25 be 17 3c 0b 3e ee 2e e1 be 77 e5 66 be
       -0.16182281 0.13597141 -0.43981117 -0.22548471
000280 52 27 49 40 ac 4d ea c0 5d 7b c8 bf bd b9 40 c0
       3.143025 -7.3219814 -1.5662647 -3.0113366
000290 c7 aa bb 3e 2e 2d 43 3f ae ef 77 bf 71 5d 13 bf
       0.3665373 0.76240814 -0.968501 -0.57564455
0002a0 41 65 7b 40 0e 5e 4b 40 33 ad cf 40 77 d4 a1 bf
       3.928055 3.1776156 6.4898925 -1.2642964
0002b0 97 6a 78 c0 47 e8 8d 40 e7 fe 4d c0 f8 4b a1 40
       -3.8815057 4.434604 -3.218683 5.0405235
0002c0 0e 2c 74 3f cc 7b 9b bf 67 ad ba c0 68 bd 2c 3f
       0.9537972 -1.2147155 -5.8336673 0.6747651
0002d0 d0 b0 de 3f f0 a6 6c 40 aa 46 2f bf 37 2c 52 40
       1.7397709 3.697689 -0.684672 3.2839487
0002e0 a6 92 9c 40 e9 6a b5 bf e6 fa 69 3f 54 b1 41 c0
       4.8929014 -1.4173251 0.91398466 -3.0264482
0002f0 c5 d6 f4 3f 7d 22 1e c0 c6 88 0c 3f 7d a4 53 40
       1.9128042 -2.470855 0.548962 3.3069146
000300 7e 8e a9 bf 4f 5c ee bf 6d e5 da bf fc d2 9e 3f
       -1.324661 -1.862192 -1.7101265 1.2408137
000310 3c e7 8a be 07 35 18 41 fe d3 88 3f 0d 2f 16 40
       -0.27129543 9.512946 1.0689695 2.3466218
000320 5c b7 8f c1 a6 64 00 c0 a2 e7 7c bf 8b e9 9c be
       -17.96453 -2.006143 -0.98790944 -0.3064693
000330 98 08 ef bd a2 57 49 40 65 75 6e 3f ec a6 04 40
       -0.11671561 3.1459737 0.9314788 2.072688
000340 1e 15 1c 40 68 67 e2 3f fe 66 12 40 cc 3a 52 40
       2.438789 1.7687807 2.2875361 3.2848387
000350 82 fb 18 40 00 2e 13 40 a2 c4 e2 3f 22 80 6b be
       2.3903508 2.2996826 1.7716258 -0.22998098
000360 11 8d 8d bf 65 38 65 be 9e 96 a6 40 eb 34 6d 40
       -1.1058675 -0.22384794 5.205886 3.7063549
000370 28 47 0a 41 06 7c 4a bf e5 c0 6d 40 c6 a4 45 bf
       8.642372 -0.79095495 3.7148983 -0.7720455
000380 a7 42 2c be 4f 20 ea be 7c 30 2b 3d 96 59 c1 bd
       -0.16822301 -0.45727775 0.041794285 -0.09440915
000390 d4 b7 0a be 9d 92 06 be 8c a3 05 be 4d 71 1a be
       -0.13546687 -0.13141866 -0.1305067 -0.15082283
0003a0 02 a2 4f be 61 62 cc be 48 2f f3 be 20 73 83 be
       -0.20276645 -0.39918807 -0.4749701 -0.2567377
0003b0 4a 38 28 be b1 09 d5 be 74 2e c6 be ae 1f 8f be
       -0.16427723 -0.41608956 -0.38707316 -0.27953857
0003c0 38 fc 8e bc c7 37 4b be 00 22 21 ba 63 d8 28 be
       -0.017454252 -0.19845496 -0.0006146729 -0.16488795
0003d0 c1 0d 99 be 30 48 1a be 08 55 9e be a6 35 c4 bd
       -0.29893306 -0.150666 -0.3092425 -0.09580545
0003e0 7a dc 1d be 6b 82 f7 3d 42 04 ce be ec 58 b9 be
       -0.15416136 0.12085422 -0.40237623 -0.36200655
0003f0 93 65 34 bd c0 55 00 be 19 ca 51 be e7 58 06 be
       -0.04404218 -0.12532711 -0.2048725 -0.13119851

fc2.bias f4 [32]
000000 cc f1 32 bf a4 30 2f bf 1d 4b 85 bd 9d 0e f1 be
       -0.699002 -0.68433595 -0.06508467 -0.47081462
000010 e2 fa 34 be ae 5d d9 40 26 b5 84 c0 21 a4 2e bf
       -0.17673829 6.7926855 -4.147113 -0.6821919
000020 ac 70 5f bf 96 46 7d bf 39 44 47 41 5c c2 08 bf
       -0.872813 -0.9893583 12.454156 -0.5342157
000030 5d 1f 15 c1 d6 03 01 bf c8 5c 2d 3f 17 dd e0 be
       -9.320157 -0.5039648 0.677197 -0.43918678
000040 5a ab bb 40 86 91 1d c0 b9 96 54 be 76 80 42 be
       5.864667 -2.462007 -0.20760621 -0.18994316
000050 eb 59 8b be e7 bf 55 bf 7c 83 2b bf 29 16 ac be
       -0.2721704 -0.83495945 -0.66997504 -0.33610657
000060 8a 48 93 c0 d2 82 91 3f e6 97 82 c0 ed 38 80 40
       -4.602605 1.1368048 -4.0810423 4.006949
000070 87 b5 7c be c2 83 d1 be ea 44 34 bf 08 4c 82 40
       -0.24678622 -0.40920836 -0.70417655 4.071781

pi.weight f4 [5, 32]
000000 1b eb c6 bb 60 91 fd 3d e0 76 38 bf 64 97 3c bf
       -0.006070507 0.12381244 -0.7205639 -0.73668504
000010 eb bb 8a bd 4c eb 1d bf 16 43 e7 bd bc fc 75 bd
       -0.06774124 -0.6168716 -0.112920925 -0.06005548
000020 f3 2b 8c be a3 ee 29 be 90 05 a2 40 1d c8 af bd
       -0.2737728 -0.16594939 5.063179 -0.085830905
000030 d8 9a 16 40 63 9f 66 bd 44 c6 8b 3f de 4c bc bd
       2.353201 -0.056304347 1.0919881 -0.09194349
000040 56 f1 24 c1 16 57 09 c0 e9 74 8d bd 62 ff 2e bf
       -10.30892 -2.1459403 -0.069070645 -0.68358433
000050 e3 f8 64 be 42 b2 04 be e7 a9 41 bd 8a 48 bc be
       -0.22360568 -0.12958625 -0.047281172 -0.36774093
000060 1f 3e 89 3f a6 04 07 40 cf 16 8b c0 c8 db 2a 40
       1.0722083 2.1096587 -4.3465343 2.6696644
000070 a5 f8 f2 bd 82 cd bb 40 ec fc 53 bd e5 a4 99 40
       -0.118638314 5.8688364 -0.051754877 4.8013787
000080 e3 75 aa bd f1 b8 e8 be ea 7c 65 3d b5 03 e5 3e
       -0.08323266 -0.454536 0.05602733 0.4472939
000090 d3 8c a6 be 0e ce 88 40 99 10 1a 41 36 29 a3 bd
       -0.32529315 4.275153 9.629052 -0.07966845
0000a0 fb fa 90 3e 58 c7 15 bf e1 23 8f c1 71 54 1f bf
       0.28316483 -0.585073 -17.892519 -0.6223822
0000b0 40 1d 08 40 a3 73 47 be 14 67 5d 3f 41 1b a5 be
       2.1267853 -0.19477706 0.8648541 -0.32247356
0000c0 11 58 cd 3f 17 cb a0 40 f4 fd a5 be e0 15 d5 3e
       1.6042501 5.0247912 -0.32420313 0.41618252
0000d0 f6 7c 7e be dc 04 33 3e 53 7c 34 3d 67 3d 14 3f
       -0.24852356 0.17482322 0.044063877 0.5790619
0000e0 88 5a bb 3f 23 5c b7 40 56 3b b7 c0 47 d4 50 c0
       1.4637003 5.729997 -5.725993 -3.2629564
0000f0 7d 00 c7 be 3e 26 3f 40 a4 01 75 be 0d 36 38 40
       -0.3886756 2.986709 -0.23926407 2.878299
000100 0d 32 89 be 98 90 8c 3e d8 fd 1e 3f 80 f4 2b 3f
       -0.26795998 0.27454066 0.62106085 0.6716995
000110 5d e0 1e be a2 16 31 c1 28 cd 5a c0 bf 75 c0 3e
       -0.15515275 -11.068026 -3.4187717 0.37589833
000120 80 e5 38 3e a2 b8 91 bd f9 df ea 40 30 d9 30 3e
       0.18056297 -0.07115294 7.3398404 0.1727035
000130 19 ef 1c c0 92 5b 2f 3d 90 60 d5 3f a6 79 b2 be
       -2.4520934 0.042811938 1.6670094 -0.34858435
000140 bc 8e f3 c0 a3 78 4d c0 d7 de 7f be 89 21 35 3f
       -7.6111736 -3.210488 -0.2498735 0.70754296
000150 66 e2 12 3f cd 41 88 3e 6c ba 25 3f c8 a9 52 3f
       0.57376707 0.26612702 0.6473758 0.82290316
000160 3d 74 17 bf 1e ca 20 c0 ba 0b 3a 41 38 48 fd bf
       -0.5916174 -2.5123363 11.627863 -1.9787664
000170 3e 4e 8a be 7d 3c 65 40 8c 4b f0 3e 87 e6 90 c0
       -0.2701282 3.581817 0.46932638 -4.5281405
000180 d1 9e b6 3e a6 ef 9c be 1f bc 0b 3c 48 85 b3 3e
       0.35668042 -0.30651587 0.008528738 0.35062623
000190 ee b3 37 3e 95 ef 1a bf 10 41 ec 3e 20 4f 63 be
       0.17939731 -0.60521823 0.4614339 -0.22198153
0001a0 9f f0 34 be 4f b9 b2 3e c0 2e 06 3f 83 6f b3 bd
       -0.17669915 0.34907004 0.52415085 -0.087615035
0001b0 3d 17 f9 3d c2 db fe 3e c0 ee c8 bd 07 61 09 3f
       0.121626355 0.49777037 -0.09811163 0.53663677
0001c0 f4 67 64 be 4e df 3e be 2a 02 5b 3e c2 e7 8c 3e
       -0.2230528 -0.18639871 0.21387544 0.27520567
0001d0 9b a0 c2 3c 1e 8f 63 be 2a ab d5 3e 81 6c 60 3e
       0.023758223 -0.22222564 0.4173215 0.21916391
0001e0 d1 6c 83 3e 88 ac 42 3f 90 c4 10 3f e1 0c 8a 3f
       0.25668958 0.7604451 0.5654993 1.078518
0001f0 13 5a ae 3e 51 9c 9f be 10 0e 2e 3e 47 77 ea 3e
       0.34053096 -0.31173947 0.16997552 0.45794126
000200 0f b4 0a bf 4c 18 19 3e 51 5e 22 3e af 9b 8d be
       -0.54181 0.14950675 0.15856291 -0.2765784
000210 e6 c0 64 be c4 e4 43 40 58 3d 8a c0 26 99 56 3e
       -0.2233921 3.0608377 -4.3199883 0.20956859
000220 fb eb 49 bd c8 72 2e be 4a 3c 22 40 7d 26 b8 3e
       -0.049297314 -0.17035973 2.5349298 0.35966864
000230 1d 20 6d bf 6f 65 02 bf 71 3f bc 3f a5 12 da be
       -0.92627126 -0.50936025 1.4706861 -0.4259235
000240 66 27 33 41 d8 a7 05 40 37 ec a2 be ad 7a 60 3e
       11.197119 2.0883694 -0.31820843 0.21921797
000250 a7 f4 5b be a7 dd b4 be c4 1f 38 3e 35 1a 9d be
       -0.21480046 -0.35325357 0.17980868 -0.30684057
000260 73 4b 7a bf 9e da 4a c0 ad a0 59 40 9c ac f9 40
       -0.97771376 -3.1695933 3.4004319 7.8023205
000270 68 56 7e be 8f b8 1b c0 93 bb 61 be e8 e0 6f 40
       -0.24837649 -2.4331396 -0.2204421 3.7481022

pi.bias f4 [5]
000000 c3 a6 11 41 bc 55 a0 c0 8f a9 cd be c3 88 f0 3e
       9.103213 -5.0104656 -0.40168425 0.4697934
000010 25 9a 58 40
       3.3844082
