code/tmp/maddpg/k_2/predator_preyadversary_0+1/adversary_0_actorRegular.pt (torch, 9375 bytes, 6 tensors)

fc1.weight f4 [32, 16]
-0.11830552 1.8370739 -0.047719542 1.3785137 -0.21482293 -1.5421276 -0.12053056 0.10806807
0.64381456 -0.8860368 -0.5737935 -1.7092401 -0.7733036 -1.2344472 0.42032826 -0.42026296
-0.7341064 -1.289793 -1.5362178 0.051076185 0.46019486 -0.4932618 0.88022494 0.6014014
1.8948379 1.2100292 1.9480096 0.15691145 1.1396896 -0.92004466 1.357817 0.37966958
-2.0131636 -1.7094297 -2.749502 0.93045723 0.78541535 -0.81873655 4.1324344 -0.33893165
0.04884216 1.5863261 0.26382786 -1.0412613 3.0746973 -0.93597853 -2.1272266 -0.5126286
0.36881176 -0.8771777 0.026583131 -0.55431265 0.74559534 0.37360495 0.7200826 -0.42359757
-0.16785291 -1.9033278 -0.4604947 1.9178811 0.34031707 1.1857911 1.0294918 -0.9655888
0.58099824 -0.673311 0.60344744 -0.2406659 0.061135963 1.7092012 -1.0345101 -1.1478428
-0.04655019 -2.0864866 0.72795653 2.928071 -0.044998094 0.25556493 0.50544214 -1.8215806
-0.57098246 0.007298046 0.052356325 -0.97450113 0.7845374 0.6352617 1.4286087 0.48839974
-0.26526698 0.26466885 0.051448226 0.16853166 1.05245 1.8626626 1.9878062 0.6881573
0.32405987 0.572291 0.26277292 -0.089952 -0.15091324 -1.2623308 0.7391028 0.8246741
1.2794619 1.0957896 0.57813084 -0.030925406 -0.51671183 -0.5119236 0.9036391 0.2859087
-0.51154745 -0.055799853 -2.095039 0.12083753 0.038859576 -1.6973035 1.3768897 2.1970184
1.401848 1.9269098 1.1774828 -1.4436533 1.2999904 -0.7514061 0.23258604 0.5641216
1.0840805 1.4025251 0.4154483 0.45937866 -1.026888 -1.6009622 -0.1761969 0.6379978
0.57459515 -0.41278332 1.4206626 0.9576797 -0.88046247 -0.011396881 0.40526116 0.43283916
-0.55281293 -0.2473251 -1.0247538 0.667877 -0.7508185 -0.85745066 1.6108519 0.24008487
1.8171809 1.4076699 0.4041109 0.33718008 0.5538009 -1.5075169 0.97498333 -0.3971741
1.0112448 0.4006992 1.0523608 -0.40562814 0.8733015 0.5630728 -1.8093843 -0.50303286
0.47238243 -2.156578 0.4559429 3.8827965 0.39293772 0.078010045 -0.7030151 -1.0249422
-1.1316893 -0.66633475 -2.8635144 -0.49865013 1.1182905 0.29888543 1.8130491 1.458737
1.547779 1.4183136 -0.30379537 -1.0769553 2.0589163 -0.79652697 0.924065 -0.14151661
0.1992596 -0.32110107 0.52931756 -0.21547683 0.5637407 0.57921654 -0.81996465 -0.35435694
-0.04083366 -2.5057123 0.49047956 3.3949714 0.69773567 0.7573433 0.23132017 -0.99328953
-1.2706957 -0.18672416 0.9945843 -0.4172058 0.3712279 1.6792085 -1.9227157 -0.8348593
0.51960325 -1.7458856 0.54205686 3.8563714 -0.15517853 -0.7058595 -0.09684554 -1.6734273
1.4635069 -0.96376806 0.49417692 -0.42480922 0.58117837 1.3974981 -1.4640495 -0.67080396
0.26350448 -2.2092972 0.7300384 3.0794954 0.46492594 0.14193945 -0.12432254 -1.5723014
0.21282077 -0.6172274 0.29015332 -0.22668993 0.3199722 1.3870381 -1.1529155 -0.51185733
-0.124610975 -1.3859329 1.228529 3.0279102 0.13562173 -0.031814862 -0.018729655 -1.745001
00000000: 2a4a f2bd 3d25 eb3f 9175 43bd 2373 b03f
00000010: 8bfa 5bbe 7064 c5bf bad8 f6bd cb52 dd3d
00000020: 08d1 243f 4fd3 62bf 21e4 12bf 61c8 dabf
00000030: 3af7 45bf 5e02 9ebf 4435 d73e b52c d7be
00000040: 66ee 3bbf f017 a5bf c9a2 c4bf 4335 513d
00000050: a99e eb3e d08c fcbe 6c56 613f 71f5 193f
00000060: 0c8a f23f 3de2 9a3f 6158 f93f 65ad 203e
00000070: 59e1 913f 0c88 6bbf f3cc ad3f 0d64 c23e
00000080: acd7 00c0 98ce dabf d7f7 2fc0 7232 6e3f
00000090: fb10 493f b898 51bf e73c 8440 7388 adbe
000000a0: b70e 483d bc0c cb3f 7214 873e 0d48 85bf
000000b0: d7c7 4440 4a9c 6fbf 7b24 08c0 a13b 03bf
000000c0: e5d4 bc3e b88e 60bf dec4 d93c 6fe7 0dbf
000000d0: 56df 3e3f 2649 bf3e 5557 383f c8e1 d8be
000000e0: a2e1 2bbe 3fa0 f3bf f6c5 ebbe 217d f53f
000000f0: 0a3e ae3e 01c8 973f 63c6 833f d430 77bf
00000100: 4dbc 143f 1c5e 2cbf 887b 1a3f 1f71 76be
00000110: b469 7a3d 1bc7 da3f d46a 84bf 83ec 92bf
00000120: 69ab 3ebd ff88 05c0 5c5b 3a3f 8465 3b40
00000130: ec4f 38bd 68d9 823e a864 013f 8e29 e9bf
00000140: e82b 12bf 7224 ef3b 9673 563d e878 79bf
00000150: 71d7 483f 83a0 223f a6dc b63f 880f fa3e
00000160: 13d1 87be ad82 873e 60bb 523d 9093 2c3e
00000170: aeb6 863f ba6b ee3f 6f70 fe3f 142b 303f
00000180: 2deb a53e aa81 123f 2c8a 863e c138 b8bd
00000190: 0089 1abe 0e94 a1bf d735 3d3f d81d 533f
000001a0: 68c5 a33f d542 8c3f 6200 143f 4757 fdbc
000001b0: 3a47 04bf 6d0d 03bf e454 673f a062 923e
000001c0: c6f4 02bf 638e 64bd 1e15 06c0 ab79 f73d
000001d0: 382b 1f3d 3e41 d9bf ec3d b03f f39b 0c40
000001e0: c16f b33f fba4 f63f c2b7 963f a2c9 b8bf
000001f0: 1666 a63f 265c 40bf 092b 6e3e 466a 103f
00000200: 26c3 8a3f f185 b33f a4b5 d43e ae33 eb3e
00000210: 1171 83bf 54ec ccbf f66c 34be d353 233f
00000220: ab18 133f 5658 d3be 46d8 b53f 7f2a 753f
00000230: fd65 61bf fcb9 3abc 647e cf3e 189d dd3e
00000240: 2685 0dbf ca42 7dbe 222b 83bf fdf9 2a3f
00000250: a435 40bf e381 5bbf 6530 ce3f cfd8 753e
00000260: 6299 e83f 872e b43f a0e7 ce3e dea2 ac3e
00000270: e5c5 0d3f 50f6 c0bf 8298 793f 675a cbbe
00000280: 7870 813f 7228 cd3e c2b3 863f 7eae cfbe
00000290: b090 5f3f 8a25 103f e899 e7bf c3c6 00bf
000002a0: 1cdc f13e 6005 0ac0 5971 e93e bd7f 7840
000002b0: 222f c93e bbc3 9f3d ccf8 33bf 4e31 83bf
000002c0: 32db 90bf ea94 2abf d243 37c0 124f ffbe
000002d0: 2524 8f3f 8307 993e fe11 e83f e5b7 ba3f
000002e0: 9f1d c63f 4d8b b53f 118b 9bbe acd9 89bf
000002f0: 49c5 0340 31e9 4bbf 868f 6c3f bbe9 10be
00000300: b50a 4c3e 5c67 a4be 5b81 073f f5a5 5cbe
00000310: 4f51 103f 8947 143f 34e9 51bf 466e b5be
00000320: 3241 27bd 975d 20c0 2320 fb3e 3647 5940
00000330: ce9e 323f 40e1 413f 32df 6c3e 3948 7ebf
00000340: 28a6 a2bf 9e34 3fbe 149d 7e3f 009c d5be
00000350: 9511 be3e 4ef0 d63f 8c1b f6bf 57b9 55bf
00000360: b804 053f 2e79 dfbf 3dc4 0a3f cace 7640
00000370: 1fe7 1ebe 35b3 34bf f456 c6bd de32 d6bf
00000380: 3254 bb3f 81b9 76bf c204 fd3e 9880 d9be
00000390: 1bc8 143f 38e1 b23f f965 bbbf cfb9 2bbf
000003a0: 0fea 863e 2065 0dc0 cce3 3a3f 7416 4540
000003b0: c60a ee3e 9358 113e d19c febd 2c41 c9bf
000003c0: b0ed 593e 9d02 1ebf fa8e 943e 6821 68be
000003d0: 65d3 a33e 778a b13f bc92 93bf 1509 03bf
000003e0: 0a34 ffbd 4066 b1bf 7040 9d3f 48c9 4140
000003f0: 6ce0 0a3e 4d50 02bd ef6e 99bc 315c dfbf

fc1.bias f4 [32]
-0.4843055 -0.32616606 1.2859921 -1.0395774 -2.2288198 -1.8833444 -1.0375643 1.3232125
-1.3492969 -1.7061379 -0.62689465 1.1762543 -0.93427306 -1.5143406 -1.332141 -1.5499804
0.80318767 -2.566101 -1.3849827 -1.6759883 -0.66962427 -2.1969225 0.38876197 0.85795367
-0.3978586 2.3500211 -1.1608685 3.650592 -1.6523489 2.9620862 -1.7521207 -0.41926658
00000000: e4f6 f7be 3dff a6be 649b a43f df10 85bf
00000010: fca4 0ec0 6e11 f1bf e8ce 84bf 075f a93f
00000020: c3b5 acbf ba62 dabf 2b7c 20bf 808f 963f
00000030: 852c 6fbf ead5 c1bf 9983 aabf c265 c6bf
00000040: b59d 4d3f 003b 24c0 1d47 b1bf c986 d6bf
00000050: 7f6c 2bbf 619a 0cc0 cf0b c73e daa2 5b3f
00000060: 1fb4 cbbe bf66 1640 5797 94bf 4da3 6940
00000070: 2b80 d3bf d292 3d40 7e45 e0bf 1caa d6be

fc2.weight f4 [32, 32]
-0.102704085 -0.00576204 -0.027358046 -0.21141326 -0.29646242 -0.07453135 -0.081777245 0.034537386
-0.10986326 0.0034802705 -0.10914869 -0.0011434283 -0.43289325 -0.14940572 -0.30918145 -0.09253173
-0.154094 0.0506583 0.056667298 -0.1367465 -0.0005966723 0.05224991 0.0105333915 -0.09412909
-0.11268455 0.09946296 -0.28567597 -0.19378014 -0.0888742 0.17447405 -0.091214776 -0.0755031
-0.33774656 -0.25642624 -0.31403327 -0.39081094 0.245717 -0.7834433 -0.34698257 -0.07848778
-0.18851489 -0.3083371 -0.21369909 -0.29090852 -0.49251145 -0.35527033 -0.40026316 -0.24153844
-0.3479556 -0.38617423 -0.2558519 -0.053697556 -0.47251487 -0.03540572 -0.5282331 -0.117127396
-0.5624105 -0.666416 -0.8596978 -0.31773314 -0.30650398 -0.3865515 0.34348702 -0.5023095
0.019698907 0.06565823 0.00018990516 -0.18663736 -0.15004031 -0.06678052 -0.09177476 -0.17375697
-0.35775274 -0.027632331 -0.113105275 -0.19086385 -0.20067115 -0.071535766 -0.16601431 0.0670527
0.0002754349 -0.200936 -0.07093789 -0.12709273 0.0036116506 -0.10746603 -0.23643543 -0.16308561
-0.16504271 -0.07727134 -0.10922968 -0.2293677 -0.17479062 -0.12879197 0.03662349 -0.1343116
-0.1090279 -0.21010749 -0.20296215 -1.3408179 -0.83698016 -0.2703585 0.13026035 -0.3306641
-0.07035011 -0.1601543 0.23953895 0.17430393 -0.7526156 -0.54721117 -0.6565837 -0.85012466
-0.16709794 -0.498146 -0.25057754 -0.4245261 -0.39015672 -0.74345905 0.17260455 -0.41711286
-1.0190561 -0.09966187 0.42614543 -0.51563346 -0.019615745 -0.21321605 -0.036253553 -0.080786325
-0.2894917 -0.17227913 0.008476575 -1.2763582 -0.92351776 -0.08042091 0.07124855 0.07237092
-0.065824755 -0.064604394 0.15300721 0.09051687 -1.0573993 -0.5807214 -0.9957787 -0.9821651
-0.12060174 -0.647467 -0.18985005 -0.2706582 -0.4844477 -1.0243062 0.41027108 -0.3273767
-0.3648322 0.2188127 0.44527528 -0.20394585 0.2583951 -0.37417653 0.13762826 -0.49264476
1.0736163 0.35800657 1.6970164 -0.7405923 -1.3920594 -0.85770524 0.6976472 2.435926
0.78187984 -0.69149756 0.8068908 1.4409587 -0.19079822 -1.3472685 0.03565881 -1.0549359
1.352686 -1.2791568 -0.15315056 -0.5066564 1.5662228 -0.11158474 0.38499057 1.2343295
0.8007692 1.7205297 1.5161836 2.6680348 0.416327 1.26207 0.3587358 1.249295
-0.21117043 -0.06535102 -0.09967951 -0.27726126 -0.22766845 0.07120592 -0.08424429 -0.30686066
-0.023151154 0.04926498 -0.12784226 0.010518896 -0.3377978 -0.23920554 -0.11933618 -0.31047446
-0.044143856 -0.093302995 -0.023673428 -0.20556904 -0.15246467 0.123989046 -0.07731779 0.03424262
-0.03414454 -0.09679265 -0.29877433 -0.19413592 -0.29026878 -0.23282897 -0.33498067 -0.16127461
-0.32274944 0.1366783 0.013404459 -0.0723892 -0.1482661 -0.09161015 -0.027277142 -0.2217507
-0.12470162 -0.08752119 -0.052621022 -0.1287242 0.005529917 -0.19250628 -0.32454783 0.044264823
-0.054058075 0.021559708 0.028639808 -0.21036634 -0.13668133 -0.13921277 -0.029185958 -0.112117335
-0.10989688 -0.1646655 -0.324923 -0.098505944 -0.0032817572 -0.061146222 0.067449 0.062220514
00000000: 8556 d2bd 7fcf bcbb fb1d e0bc b87c 58be
00000010: ecc9 97be e4a3 98bd d47a a7bd 1377 0d3d
00000020: fdff e0bd 4015 643b 5989 dfbd 16df 95ba
00000030: 2fa4 ddbe d0fd 18be 084d 9ebe 4781 bdbd
00000040: d1ca 1dbe 147f 4f3d f81b 683d 4607 0cbe
00000050: 006a 1cba 0004 563d 3f94 2c3c c1c6 c0bd
00000060: 28c7 e6bd 3db3 cb3d 1f44 92be 4d6e 46be
00000070: ad03 b6bd 53a9 323e d0ce babd 5fa1 9abd
00000080: 1eed acbe 4d4a 83be f8c8 a0be 5f18 c8be
00000090: 3d9d 7b3e bd8f 48bf b3a7 b1be 34be a0bd
000000a0: 0c0a 41be 5cde 9dbe efd3 5abe f6f1 94be
000000b0: 762a fcbe fee5 b5be 4bef ccbe da55 77be
000000c0: 3d27 b2be a1b8 c5be 05ff 82be f8f1 5bbd
000000d0: 78ed f1be 9705 11bd 493a 07bf 7de0 efbd
000000e0: 22fa 0fbf 3d9a 2abf 2815 5cbf ebad a2be
000000f0: 17ee 9cbe 14ea c5be 88dd af3e 5b97 00bf
00000100: 9a5f a13c d277 863d 4721 4739 dd1d 3fbe
00000110: 2ba4 19be 3ac4 88bd 68f4 bbbd 59ed 31be
00000120: 5e2b b7be 335d e2bc bda3 e7bd d071 43be
00000130: bd7c 4dbe 5881 92bd a8ff 29be ed52 893d
00000140: 3f68 9039 2bc2 4dbe e247 91bd 9924 02be
00000150: 71b1 6c3b 2617 dcbd 211c 72be eaff 26be
00000160: f500 29be 7040 9ebd cfb3 dfbd 5edf 6abe
00000170: 50fc 32be 0be2 03be 8302 163d fb88 09be
00000180: 054a dfbd 6b26 57be 4fd5 4fbe ec9f abbf
00000190: 5544 56bf 6e6c 8abe f862 053e ce4c a9be
000001a0: b813 90bd 7dff 23be b349 753e bb7c 323e
000001b0: 6aab 40bf 0816 0cbf df15 28bf c5a1 59bf
000001c0: b91b 2bbe fe0c ffbe b34b 80be 7c5b d9be
000001d0: 9fc2 c7be 5553 3ebf 3fbf 303e d18f d5be
000001e0: 6e70 82bf 861b ccbd bc2f da3e 8e00 04bf
000001f0: 33b1 a0bc 4f55 5abe 9b7e 14bd 4d73 a5bd
00000200: 4238 94be f169 30be 55e1 0a3c b55f a3bf
00000210: a96b 6cbf b8b3 a4bd c3ea 913d 3437 943d
00000220: 21cf 86bd 4f4f 84bd ecad 1c3e e960 b93d
00000230: dc58 87bf 28aa 14bf 5aeb 7ebf 2c6f 7bbf
00000240: 0cfe f6bd 66c0 25bf 0d68 42be b693 8abe
00000250: 8709 f8be 771c 83bf 0d0f d23e eb9d a7be
00000260: 49cb babe 7010 603e 1ffb e33e 2ed7 50be
00000270: 5d4c 843e 1194 bfbe 6cee 0c3e ef3b fcbe
00000280: 426c 893f a34c b73e d537 d93f 7597 3dbf
00000290: 012f b2bf 9292 5bbf 0299 323f 36e6 1b40
000002a0: 4729 483f fc05 31bf 6590 4e3f 5671 b83f
000002b0: 9c60 43be 4b73 acbf f90e 123d 2408 87bf
000002c0: d124 ad3f 69bb a3bf 80d3 1cbe 3cb4 01bf
000002d0: fd79 c83f 8a86 e4bd 7c1d c53e 82fe 9d3f
000002e0: 36ff 4c3f 513a dc3f 4e12 c23f 15c1 2a40
000002f0: d028 d53e 828b a13f 38ac b73e e6e8 9f3f
00000300: 103d 58be c1d6 85bd c524 ccbd 30f5 8dbe
00000310: eb21 69be 69d4 913d 4588 acbd d71c 9dbe
00000320: 7da7 bdbc 13ca 493d 15e9 02be 7357 2c3c
00000330: d5f3 acbe 4cf2 74be 8766 f4bd 82f6 9ebe
00000340: 30d0 34bd a415 bfbd c7ee c1bc b180 52be
00000350: b31f 1cbe f8ed fd3d ca58 9ebd fd41 0c3d
00000360: 25db 0bbd 3a3b c6bd f3f8 98be 91cb 46be
00000370: 1c9e 94be b86a 6ebe 9682 abbe 2c25 25be
00000380: 6a3f a5be 65f5 0b3e 609e 5b3c ca40 94bd
00000390: 12d3 17be 1a9e bbbd 5074 dfbc 9e12 63be
000003a0: 9063 ffbd 4f3e b3bd 2489 57bd 47d0 03be
000003b0: 4e34 b53b 5e20 45be 222b a6be 084f 353d
000003c0: 006c 5dbd fc9d b03c 089e ea3c 466a 57be
000003d0: 31f6 0bbe cb8d 0ebe 6417 efbc c69d e5bd
000003e0: 9e11 e1bd 139e 28be 4f5c a6be 7cbd c9bd
000003f0: c012 57bb 7674 7abd b422 8a3d f0da 7e3d

fc2.bias f4 [32]
-0.44157478 -0.38200024 -0.20044695 -0.6265831 -0.8864658 1.7731882 -0.09147886 -0.43122157
-0.46352437 -0.45534793 -1.9373939 -0.16468029 -0.32057387 -0.0682019 2.5593035 -0.3947309
-0.62738204 1.7811124 -0.98527944 -0.3965329 1.5226214 -0.16465665 -1.9250062 -0.5885894
1.3584104 -0.3178641 2.1946251 -0.63021576 -0.36919126 -0.60264313 -2.2576265 1.1828774
00000000: 1716 e2be 8995 c3be f741 4dbe c067 20bf
00000010: 6cef 62bf d5f7 e23f 4559 bbbd 13c9 dcbe
00000020: 1153 edbe 5d23 e9be 86fc f7bf f3a1 28be
00000030: 4222 a4be 70ad 8bbd a1cb 2340 2b1a cabe
00000040: 1c9c 20bf 7efb e33f 463b 7cbf 5c06 cbbe
00000050: 42e5 c23f c19b 28be 9a66 f6bf cbad 16bf
00000060: 64e0 ad3f 15bf a2be bd74 0c40 d255 21bf
00000070: a306 bdbe d246 1abf f47c 10c0 8768 973f

pi.weight f4 [5, 32]
-0.20877217 0.41000575 0.16166206 1.0156647 0.7917108 0.9274331 -0.17521961 0.03261145
0.16310227 0.52964276 -1.6051978 0.21692777 -1.314326 0.06438012 0.48658583 -0.21771759
0.1647503 0.9196077 -1.1966053 0.81312263 0.46664378 -0.23847531 -0.59302986 0.4145742
1.126945 0.3501932 0.63627565 0.680701 -0.11390225 -2.2377493 -0.6128032 0.4005789
0.025660278 -0.28544435 0.09635702 0.57255036 0.5879673 -0.030133871 0.07712885 0.056704625
0.05296225 -0.06960935 2.1921244 0.054389793 1.0508422 0.026878193 -1.0143846 0.26930943
-0.17347935 0.3837329 1.7216216 -0.40751886 -1.0101725 0.056436524 1.8462251 0.05217075
0.7581631 -0.37071076 -1.6826303 0.63137543 -0.19355778 1.326016 1.2200617 -0.61904496
0.13291915 -0.25130683 0.19586278 -0.33086264 -0.4459779 -0.38485673 0.015712807 -0.04527651
0.034622557 -0.3910724 -0.50243914 0.07680109 -0.22033826 0.08566715 -0.267436 0.022402687
-0.34061304 -0.29579628 -0.40110716 -0.31793424 -0.26622066 0.1712983 -0.25875652 -0.30647814
-0.21860762 -0.34089932 -0.2882844 -0.79509646 -0.04744769 -0.34921625 -0.50814515 0.022099042
-0.0515741 -0.010549831 0.06352793 -0.555284 -0.5373768 -0.7270095 -0.04735594 -0.008942718
-0.08844175 -0.09806581 0.15217514 -0.0058874544 0.025999848 -0.023575455 -0.2605169 -0.05684469
-0.14499505 -0.7743134 0.011616716 -0.66347826 0.083712995 0.04747344 -0.26396412 -0.2268978
-0.77207774 -0.03289089 0.007838212 -0.2933696 -0.25369027 -0.029069556 0.20823143 0.018891715
0.020891154 -0.028775472 0.019832663 0.5229528 0.4435578 1.9584289 0.111789465 0.1329004
-0.14524166 -0.09554356 1.4273757 0.07726485 2.1103783 0.25252825 2.0298061 0.06552227
-0.1913312 1.5130094 2.045157 1.5494822 1.3060194 0.19388323 1.3607168 -0.14588818
1.3663415 0.04664304 1.7722831 0.33176607 0.001165688 2.4067028 1.0472674 1.1362172
00000000: 5fc8 55be 46ec d13e bd8a 253e 4d01 823f
00000010: 8fad 4a3f 416c 6d3f c56c 33be 9593 053d
00000020: 4804 273e ab96 073f 1f77 cdbf 5022 5e3e
00000030: d63b a8bf b9d9 833d c721 f93e 5cf1 5ebe
00000040: 4db4 283e 696b 6b3f 5d2a 99bf ce28 503f
00000050: efeb ee3e df32 74be ced0 17bf 1243 d43e
00000060: bc3f 903f 864c b33e f6e2 223f 6c42 2e3f
00000070: 9545 e9bd 4937 0fc0 ace0 1cbf ad18 cd3e
00000080: 8135 d23c c325 92be d456 c53d a992 123f
00000090: 0685 163f 4fdb f6bc bbf5 9d3d 1c43 683d
000000a0: f2ee 583d 598f 8ebd c44b 0c40 d5c7 5e3d
000000b0: ff81 863f a82f dc3c 5bd7 81bf ede2 893e
000000c0: 92a4 31be a378 c43e 195e dc3f 50a6 d0be
000000d0: 554d 81bf fc29 673d 1b51 ec3f ffb0 553d
000000e0: fa16 423f cdcd bdbe 6e60 d7bf d2a1 213f
000000f0: 0334 46be e4ba a93f fb2a 9c3f bb79 1ebf
00000100: f51b 083e 4aab 80be 4190 483e d466 a9be
00000110: 3757 e4be f10b c5be 25b8 803c dd73 39bd
00000120: 62d0 0d3d a43a c8be da9f 00bf e449 9d3d
00000130: 5aa0 61be 4272 af3d 5fed 88be d785 b73c
00000140: d564 aebe 9c72 97be eb5d cdbe 47c8 a2be
00000150: 134e 88be d268 2f3e bc7b 84be b4ea 9cbe
00000160: adda 5fbe 5b8a aebe 039a 93be 718b 4bbf
00000170: 8258 42bd 79cc b2be cd15 02bf 0d09 b53c
00000180: 5d3f 53bd 33d9 2cbc ee1a 823d 1827 0ebf
00000190: 8791 09bf 4b1d 3abf 4df8 41bd 7a84 12bc
000001a0: f320 b5bd bad6 c8bd cdd3 1b3e 8ceb c0bb
000001b0: a2fd d43c 5021 c1bc 7962 85be fad5 68bd
000001c0: 9579 14be 6739 46bf 0a54 3e3c b6d9 29bf
000001d0: b871 ab3d 8373 423d 4e26 87be e657 68be
000001e0: e3a6 45bf 99b8 06bd d86b 003c 8a34 96be
000001f0: b1e3 81be 4723 eebc 9f3a 553e ccc2 9a3c
00000200: ed23 ab3c 8aba ebbc 1c78 a23c 3ce0 053f
00000210: 021a e33e ccad fa3f e0f1 e43d 0b17 083e
00000220: 3bba 14be 58ac c3bd 3fb4 b63f 093d 9e3d
00000230: 7010 0740 624b 813e 58e8 0140 8a30 863d
00000240: 53ec 43be 4baa c13f dae3 0240 6f55 c63f
00000250: a52b a73f 5389 463e f82b ae3f b663 15be
00000260: 47e4 ae3f c60c 3f3d 2cda e23f 3edd a93e
00000270: 00ca 983a 6b07 1a40 dc0c 863f 916f 913f

pi.bias f4 [5]
1.1625457 -1.1810486 -0.57256985 0.17120321 1.5187535
00000000: 4cce 943f 9a2c 97bf f093 12bf e54f 2f3e
00000010: 8466 c23f
