simple_tag_maddpg/MADDPG/model/simple_tag/agent_1/1_actor_params.pkl (torch, 41167 bytes, 8 tensors)

fc1.weight f4 [64, 16]
00000000: 6516 47be 593b 61be 5883 79bd 99ab 57bd
00000010: 12ce 273f 2be9 3fbf 15e5 4cbf ad6c 0e3f
00000020: ec5c 1f3f d266 183f 1607 b13e 4d29 a43e
00000030: 03d7 2c3e 6fec f4bf 994a ebbf 8ce9 7dbf
00000040: bc96 b7be 70c1 09bf 3cfe a5be 0588 b4be
00000050: 4877 653d 3b38 66be fe69 d4be b4cb cd3b
00000060: 0e69 0f40 5bf9 cebe 9015 1340 6627 123e
00000070: ed80 253f 9f30 6dbf 1a6f 36bf 3755 b3be
00000080: 8a67 053f 185b 24be bd8b cebd d9b5 93be
00000090: 6b11 0fbe da9a 98be 43c6 753d 5766 53bc
000000a0: 015c d3bd 8a23 8e3f eed7 af3f e737 11c0
000000b0: b789 35bf e784 a23f fcba 8ebe a747 b53f
000000c0: c71f eb3d 0893 c5bd ba30 41be 2705 d3be
000000d0: 235f 87be f758 d2bd fb35 d13d f4ec b8be
000000e0: 2624 8bbf c479 4fbf ffb7 a9bf 1ca3 17bf
000000f0: 6644 fb3f 7a14 03c0 676d ccbe 076b a13e
00000100: 0c30 883e 9e71 aa3e 8217 8fbe 00c6 983e
00000110: 2921 f8be 4dc1 723e 193f 523e 4090 b63d
00000120: 9abc 32c0 49cd 29bf 9a51 353f 205a 51be
00000130: b63f 0740 8eca f6bd 4dd8 4f3f 5937 883e
00000140: b8bf 17be 2ad7 62bd 6af5 06be a7e0 673e
00000150: 6369 45be 121e 223e b6d1 ef3d 0921 523d
00000160: 799d 8e3f 61fe c8bf 8011 4fbc 7cb0 b43e
00000170: 3a4a 43bf 6314 84c0 1865 f9bd ee9e a53e
00000180: 1529 c6bd 49c7 9ebd 9a74 1abf 645f a5be
00000190: 22ef 2ebe fcdb 2f3e 0f1e 9ebe b65c 14bf
000001a0: 8773 dabe 5828 d73d 972d 0e3e ec82 c03e
000001b0: a25f 4040 f806 5d40 c450 c43e 7be1 513f
000001c0: 606b bd3e 5083 0b3f ff04 c9be 0334 063e
000001d0: 23ca 00bf 961d 1d3f 313f 003e bf43 debe
000001e0: 8404 f43e f335 7d3f f755 0fbe f365 04bf
000001f0: fee3 8f3a 85bc a6bf 97f0 9b3e 9f8a 9abe
00000200: 0845 7abd d7ee 883d a7cd e03e 3d2b 21be
00000210: 9840 8fbd a32c f83d 5f98 143f 52f4 b6be
00000220: 4d4d 543f 0ae8 ebbf 243a 8a3e 2c41 403f
00000230: c170 3a3f d6f5 dc3f 9be8 663f ae91 903e
00000240: f4bc 483e a08c 7f3f 61ed ce3e f631 22bf
00000250: 7bfc 05bd 7585 79be 46e7 e43e f348 aebe
00000260: aaa2 b1bf 37dd c93d 9792 9cbf 7a40 1b40
00000270: 91c6 b6bf 3e56 213e 8041 803f f7c2 1a3f
00000280: 6aa1 44bf 9a18 4a3f 2282 2dbe 2349 003f
00000290: 5bd6 b7bd 8da4 873e 4946 c8bd d24a 473e
000002a0: d269 cfbe 5f07 2fbe a476 873f 5f39 f7bd
000002b0: 4c43 30c0 6e03 0540 abdb 1cbf 9a7d 3a3f
000002c0: 8c3e f3bb 7d86 243e 2b71 ffbe 6a5b ee3e
000002d0: 6516 0cbf 62f3 c23e 10bf f23c 3a18 1e3d
000002e0: f2a5 d13f 4646 613f 0d8c 51bf 7055 d0bf
000002f0: 84bf 0240 4bfa 4cbe 196a aa3f e994 ba3f
00000300: 4344 24bd 9a19 fdbe 698b b73e cedf 823e
00000310: d27f 8d3e 58e6 02be 7946 d93c 19fc cf3e
00000320: 1c10 b93e 720d 78bf d30c 99bf 27ed eb3f
00000330: ec82 0cbf 66d6 5bbf 3a51 b8bd 7ed9 7abf
00000340: b84b 0ebe 27dc e5be 5b0a ebbc d93d 98bc
00000350: e851 be3d 6400 9ebd c9ff cebd f3d8 b03d
00000360: 88e9 313f e35f d5bf 5926 b7bf ff0f 4340
00000370: 6af0 2340 96c3 0f40 69f0 4e3e 72e2 7b3f
00000380: a4c9 babe ff65 40be 5e30 9d3d 4748 82be
00000390: d46a 043f 2efc 24bf 5c9b b2be e985 c13e
000003a0: fb81 103e 464e a83e f8a4 dcbe d20f 06bf
000003b0: a33f 8e40 99bc 3bbe 4f05 973e ee21 9d3d
000003c0: 20d6 073e 5068 b63d 85a0 03bc dc40 24be
000003d0: a429 f23d d993 73bb 61b0 1abe 837f 3fbe
000003e0: ce82 52bf 1fba e93e 3dd1 3d3d 3a9b f8be
000003f0: ec51 4940 6c9e aa3f af49 5a3f 5c0a 0b3f
-0.19442137 -0.21995296 -0.060916275 -0.052653883 0.65548813 -0.7496516 -0.8003705 0.55634576
0.6225116 0.5953189 0.3457572 0.3206276 0.16878895 -1.9134654 -1.838214 -0.9918449
-0.3585719 -0.5381079 -0.32420528 -0.35260025 0.05602196 -0.22482388 -0.41487116 0.006280387
2.240787 -0.40424618 2.298191 0.14272842 0.6464985 -0.92652315 -0.7126328 -0.3502595
0.52111113 -0.16050375 -0.10085247 -0.28849676 -0.13971488 -0.29805642 0.06000353 -0.012902818
-0.10320283 1.1104596 1.3737772 -2.269037 -0.7091326 1.2696809 -0.27877033 1.4162492
0.114806704 -0.096471846 -0.18866244 -0.41214868 -0.2643977 -0.10270875 0.10215374 -0.3611828
-1.0870407 -0.81045175 -1.3259276 -0.5923326 1.9630249 -2.0481248 -0.39927217 0.31526968
0.26599157 0.33289808 -0.27947623 0.29838562 -0.484628 0.23706551 0.20531882 0.08914232
-2.7927613 -0.66328865 0.7082764 -0.20444536 2.1132636 -0.12050353 0.81189424 0.26604727
-0.14819229 -0.055380978 -0.13179556 0.22644292 -0.19278483 0.15831783 0.11709921 0.051301036
1.1141807 -1.570263 -0.01263845 0.35290897 -0.76285136 -4.1274886 -0.12177485 0.32347816
-0.096758045 -0.077528544 -0.6033417 -0.3229934 -0.1708341 0.17173761 -0.30882308 -0.57953966
-0.42666265 0.10505742 0.13884579 0.37599885 3.005837 3.4535503 0.3834287 0.8198468
0.36995983 0.5449724 -0.39261624 0.13105778 -0.50308436 0.6137327 0.12524106 -0.4341106
0.47659695 0.98910445 -0.13997637 -0.5171806 0.0010977981 -1.3026282 0.30456993 -0.30183885
-0.06110099 0.0668618 0.439069 -0.1573915 -0.06994742 0.12117889 0.58045 -0.35733277
0.8293045 -1.8430188 0.26997483 0.75099444 0.728283 1.7262523 0.9019868 0.28236145
0.1960333 0.9982395 0.4041548 -0.63357484 -0.032711487 -0.24367316 0.44707698 -0.3404003
-1.3877766 0.098566465 -1.2232236 2.4258103 -1.4279348 0.15755555 1.0019989 0.6045374
-0.768088 0.7894379 -0.16944173 0.501116 -0.08976432 0.2649273 -0.09779031 0.19462135
-0.40510422 -0.17092656 1.0583081 -0.120714895 -2.7541075 2.0783343 -0.61272687 0.728479
-0.0074232277 0.16066928 -0.49891028 0.46554118 -0.5472167 0.3807631 0.029632121 0.038597323
1.6378767 0.87997854 -0.81854326 -1.6276073 2.0429392 -0.20017354 1.3313628 1.4576694
-0.040104162 -0.49433595 0.3584855 0.25561374 0.27636582 -0.12783182 0.026522862 0.40622023
0.36145103 -0.96895516 -1.1957039 1.8431748 -0.5488727 -0.8587402 -0.08999868 -0.97988117
-0.13896072 -0.44894525 -0.028691461 -0.018584179 0.09292966 -0.07714918 -0.10107381 0.0863513
0.69496965 -1.6669887 -1.4308578 3.0478513 2.5615487 2.2463126 0.20208897 0.98392403
-0.36481965 -0.18788908 0.07675241 -0.25445768 0.51725507 -0.64447296 -0.34884155 0.37797478
0.14112084 0.32872218 -0.4309461 -0.5236789 4.445268 -0.18333663 0.29496238 0.07672487
0.13265276 0.08906615 -0.008033876 -0.16040367 0.118243486 -0.0037166981 -0.15106346 -0.18700986
-0.8223084 0.45649812 0.046342123 -0.48555928 3.145625 1.3329597 0.8526868 0.5431268

fc1.bias f4 [64]
00000000: 5ecc 99bf c44d ffbe 2a5e 473f 7d8a 223f
00000010: 0946 bdbe c56f 8cbd 9c25 d13f c7c4 c23f
00000020: a02d 553f 4c6e 13bf 1aa2 6ebf 23bb 2abf
00000030: 71da 3abf c5d7 6d3f 158f 953f 1d1f 1cbf
00000040: efe7 333f 7c5a 393e e2e4 cd3e e4b2 a83f
00000050: 212f 4c3f a5a1 3cbf 0afc 913f 205a a1bf
00000060: 1035 ee3e 52a6 6b3e a1be 643f 82b7 343e
00000070: 9526 bdbe 5f51 013c a08b 9e3e ecfb bd3a
00000080: 2f71 2d3f fcb2 943f 1438 b03f 6431 303e
00000090: 5e4e 3c3f 8a97 223f fcd2 6abf 453c 633f
000000a0: d4ec 333e 9865 bf3f f0e3 50bf 6786 64bf
000000b0: 2411 47bf d5b8 62bf f2fe d43f 4d54 3d3f
000000c0: 0a81 bc3f 1c0a 6cbf 399f ad3e ef35 e03e
000000d0: 17e2 c13f f94f c73f 9cf6 d33f 5959 e03f
000000e0: e449 75bf b080 fa3e b871 6f3f 8eec 7c3f
000000f0: d3f0 833e 1c67 5c3f 2be7 863f ac66 11bf
-1.2015493 -0.49864018 0.7787806 0.63492566 -0.36967495 -0.06857256 1.6339602 1.5216302
0.83272743 -0.57590175 -0.932161 -0.666918 -0.72989565 0.92907363 1.168429 -0.60984975
0.7027578 0.18100923 0.40213686 1.3179593 0.79759413 -0.7368415 1.1405041 -1.2605629
0.46524858 0.23012665 0.89353377 0.17648128 -0.36943498 0.007892936 0.309659 0.0014494634
0.6775083 1.1617122 1.3767114 0.17206341 0.7355708 0.6351248 -0.91728187 0.8876384
0.17570812 1.4952879 -0.81597805 -0.8926758 -0.7776053 -0.8856328 1.6640303 0.7395676
1.472688 -0.92202926 0.3391054 0.43791148 1.5147122 1.5571281 1.6559634 1.7527267
-0.95815873 0.48926306 0.93532896 0.98798454 0.25769672 0.8609483 1.0539297 -0.5679729

fc2.weight f4 [64, 64]
00000000: 2f35 40be 42b7 9fbe 8552 05bf 7558 213e
00000010: 8ed4 f53d 3b66 1d3f 1e21 38bf 172c 6b3e
00000020: 6174 b8be 0076 e4be 3ecf a2bf 0e2e 273f
00000030: 63a8 93bf abf4 30bf 685d 18bf ac4b 4bbe
00000040: 6729 a73e 3d18 53be 5c01 1b3f 45d2 93be
00000050: e137 3f3c 2bde b5bf 1c8d bb3e 75a8 a93d
00000060: abbb 85be ccea 103e 37e9 023f 010f 93be
00000070: f923 b33f c579 503d 0623 34bf 7368 f63e
00000080: dd91 753e ea50 943e 454d 70bf c289 ca3e
00000090: 3337 cf3c bf12 63be f9a1 97be d3e1 683f
000000a0: a8a1 7d3e 3797 51bf 0f8e f3be 7a5f e9be
000000b0: 8ef4 62bd 07b6 b23e 3d1a 8dbd 573b 13bf
000000c0: 27a3 483f 1db5 8bbe b8c7 4b3f 01e7 363d
000000d0: 5b26 2e3f 8f44 1e40 ce1a dd3e 29bc ae3f
000000e0: c534 71bf 8e66 4dbe fa54 f4be e68f 61bf
000000f0: 63ba ccbe 47ad 8fbe 8cdb f1bf 5faa 9abd
00000100: f656 adbe 2646 40bf 0391 32be 1683 b7be
00000110: 60bd fcbe 4d46 463f a268 803f 74c8 e9bb
00000120: cdff ac3d ef1e 90bd bb40 a23e 875d 8c3c
00000130: 1dc9 40bf 75cf c23d bd9e 00bf ebc0 84be
00000140: 1702 893d 3f0a 1fbe dc3f b83e 4589 2b3f
00000150: 044b 4cbf 5304 0d3f 940c 73be 471b 883e
00000160: 7b36 31bf c22f 50bf 0239 bd3e 3982 0ebf
00000170: 117e c4be 8a4c 2b3e 7673 4a3f 063a 07be
00000180: c311 6bbf 44e4 d83d ed37 043f 07b4 d83e
00000190: 9b1b 13bf b48f 82be f719 1a3f 2574 7c3d
000001a0: beb3 b3bd 6f0c bc3e 01cf b9bd 5c96 a6bd
000001b0: 8910 1e3f d9fd febe db9e d0bc f1ee 883f
000001c0: 78cf 7cbf 8f6d 22bf 83c9 303e 2a2a 3f3f
000001d0: 28e9 3e3f 8635 11bf 3105 353e d4e0 dcbe
000001e0: dbd2 ac3f 87f8 9b3e 8d47 b8be 1550 953d
000001f0: a2ab a03f 7477 10bf c1dd f83f 5701 ee3e
00000200: 68d4 b13d dc6a 4e3f 9570 133f 8281 643f
00000210: 3a9a ddbe 23dd 933d 0ddb 383e ea58 d9be
00000220: 3154 94be 7481 3fbe 4532 c73e 28cb 28bd
00000230: d0b6 24be 0b46 a3bf ae8b 93be 938d a9be
00000240: 9016 f9be 1088 a93d 8ab2 303f cf65 efbe
00000250: 7e38 df3e 625c 18be da44 7fbe 07ef 51be
00000260: b1ed c03e 679b 9bbe c9f4 343e 8ac3 9a3f
00000270: bbac 0e3e 13d1 313f 6406 e93d d3b5 b23e
00000280: 0f4e 1c3f 99e5 25be da20 8cbe 5133 85be
00000290: f372 c83e f581 49bf dbd5 043e 4a28 8a3f
000002a0: ef3b 9e3f 8653 cabf 97f8 97be 5dc6 573f
000002b0: d330 66bf c3ef 543f fbe7 06bd 5c2a 1fbf
000002c0: 00d4 163f 8aa9 593e 9625 a63d f2ab cebe
000002d0: 0020 13bf 3170 333f 87dd e33e ea2b 513f
000002e0: ec57 dc3e 225b 203f 37b7 3b3e 0b40 453e
000002f0: 964c ecbe 8fba 3ebf 3a27 5cbf cad5 38bf
00000300: 3a10 94be 589b 3b3e b8de 583c f7b8 a2bd
00000310: 4632 fbbe 6adb 523f 3b12 9cbe 837b 403f
00000320: 56da a9be f4b9 e1be 25a7 023f 48ed ea3e
00000330: ba16 533f ffe0 b63f d797 713f b79e 323e
00000340: e65e ba3f 774f 213e 1473 b1be 268d 2d3f
00000350: e20f a7bf 5587 143f ca06 823f 7fbd 813d
00000360: e4e5 ac3e 4a26 cd3e 9d53 d3be 3302 14bd
00000370: bd43 e43f 2ffc cdbf f4cd debe f62d ddbe
00000380: 529b e4bf 1aeb 8d3f f798 223f c5ce a0be
00000390: ac18 683e 1996 eabd 367c 12bf 2b11 843e
000003a0: 6bd7 f5be 59fa a33e 3b7c 44bf fc0c 6c3e
000003b0: 356d 6d3e 0aef 9cbe 37a1 083e 285d f03e
000003c0: af3e 203d d2c7 3a3f 875c 373f 2830 6e3e
000003d0: 8df8 1f3e 87b0 833f f51d 083e 9fbc 9a3e
000003e0: 7e00 94be 6350 c43c 725d df3d ff8f 933e
000003f0: dd08 9e3f 3e4a 903c 0e26 84be 1e39 3a3e
-0.18770288 -0.31194502 -0.5207904 0.157564 0.12003432 0.61484116 -0.7192553 0.22966038
-0.3602629 -0.44621277 -1.2719495 0.6530465 -1.1535763 -0.69123334 -0.59517527 -0.19853085
0.32648775 -0.20614715 0.6054895 -0.2887136 0.011671037 -1.4208425 0.36631095 0.08284084
-0.26119742 0.14152068 0.5113711 -0.28722385 1.3995353 0.05089738 -0.7036594 0.48126563
0.23981424 0.28967983 -0.93867904 0.39558226 0.025294876 -0.2217512 -0.29615763 0.9096958
0.24768698 -0.8187136 -0.4756932 -0.45580655 -0.055409007 0.349045 -0.0688977 -0.5751242
0.7837395 -0.27286616 0.7960162 0.044653896 0.68027276 2.4729345 0.43184513 1.3651172
-0.94221145 -0.20058653 -0.47721082 -0.88110197 -0.39985952 -0.28061888 -1.8895125 -0.07552027
-0.33855408 -0.7510704 -0.1743813 -0.35842198 -0.49363232 0.7745102 1.0031931 -0.0071344916
0.084472276 -0.0703715 0.3169001 0.017134441 -0.75306875 0.095122255 -0.50242215 -0.25928435
0.06689852 -0.15531252 0.3598622 0.6700633 -0.79801965 0.55084723 -0.23735267 0.2658331
-0.69223756 -0.8132287 0.36957556 -0.55667454 -0.3837743 0.16728416 0.7908243 -0.13205728
-0.9182398 0.10590413 0.51647836 0.4232485 -0.57464 -0.25500262 0.6019587 0.0616342
-0.087745175 0.36728236 -0.09072686 -0.081341475 0.6174398 -0.49803045 -0.025466373 1.0697919
-0.9875407 -0.63448423 0.1726437 0.7467371 0.7457452 -0.56722295 0.17677762 -0.4314028
1.3501848 0.3046305 -0.3599209 0.07290665 1.2552378 -0.5643227 1.9442674 0.46485397
0.086830914 0.80631804 0.5759366 0.89260113 -0.43281728 0.07219913 0.18052311 -0.4245065
-0.28970483 -0.18701726 0.3890554 -0.04120937 -0.16085362 -1.275575 -0.28817505 -0.33115825
-0.48650026 0.08277905 0.6902243 -0.4675736 0.43597788 -0.14878991 -0.24928609 -0.20501338
0.37681344 -0.30392 0.17671503 1.2090924 0.13933079 0.69459647 0.11378172 0.34904346
0.6105661 -0.16200866 -0.27368814 -0.26015714 0.391502 -0.78713924 0.12972204 1.0793545
1.236204 -1.5806739 -0.29681846 0.84287053 -0.8991825 0.8317835 -0.032936078 -0.6217401
0.58917236 0.2125608 0.08112638 -0.4036556 -0.57470703 0.70093066 0.4450495 0.8170763
0.4303583 0.6263906 0.1833161 0.19262712 -0.4615218 -0.74503416 -0.85997355 -0.72201216
-0.2891863 0.18320978 0.013236694 -0.079454355 -0.49061793 0.8236605 -0.3048266 0.75188464
-0.3317439 -0.44087183 0.5103629 0.45884156 0.82456553 1.4287413 0.94372314 0.17443357
1.4560211 0.1575297 -0.3465811 0.677935 -1.3051722 0.58019 1.0158322 0.06334972
0.33769143 0.40068275 -0.4127473 -0.03613491 1.7833172 -1.6092585 -0.43516505 -0.43199128
-1.78599 1.1087372 0.63514656 -0.31407753 0.22665662 -0.1145441 -0.5722078 0.25794348
-0.48015913 0.32026938 -0.7675206 0.23051828 0.2318619 -0.30651122 0.13342749 0.46946073
0.03912228 0.7296115 0.7162556 0.23260558 0.15622158 1.0288247 0.13292678 0.3022203
-0.28906626 0.023964113 0.10906495 0.28820798 1.2346455 0.017613526 -0.25810283 0.18185851

fc2.bias f4 [64]
00000000: e650 b13e 4e64 89bd 4b58 293f 27a7 103e
00000010: 85c1 14bf 5b27 ef3e bd65 d03e d2f8 b33e
00000020: 7759 ba3d 5035 a6be 6321 5c3f ef0c c3bc
00000030: fb1f 14be 0ee1 85be 8ca9 d63c 57e4 013f
00000040: 1968 13bf 39b8 c53e 7b8d 303e 7ff2 12bd
00000050: ab90 903f ddef 413e 3357 84bf 5c20 68be
00000060: eb65 ee3e 4da6 8b3e ff88 893e ccfc f9be
00000070: bbac 36be b075 5d3d 6055 a73f acdc 1dbf
00000080: 97e0 26be 78b9 7f3f 7210 c0be e877 14be
00000090: 49bc 983e 759e efbe 12ad bebe 8a7c 0fbf
000000a0: b62e 5f3c 69cf 843f bf34 5abe 9cd4 4bbf
000000b0: 3f60 bebe 6c18 ffbe 85b4 443f 3848 5c3f
000000c0: 494b 3d3f a086 513f 9939 2d3f 2f98 f03e
000000d0: b7da 66be 0113 0abe 4846 a8be 6111 7e3f
000000e0: 949c e8be 1fd2 cfbe bc58 5abf 56bd 3bbe
000000f0: 225f fcbd e583 bb3d 7697 a9be c56f 87be
0.34632033 -0.06708585 0.6615035 0.14126264 -0.5810779 0.46709713 0.4070262 0.35150772
0.09099095 -0.3246255 0.85988444 -0.023809878 -0.14465325 -0.26148266 0.026203893 0.50739044
-0.57580715 0.38617113 0.1724147 -0.035875794 1.1294149 0.18939157 -1.0339111 -0.22668594
0.46562132 0.27275315 0.26862332 -0.4882568 -0.17839329 0.054067314 1.3072929 -0.61664844
-0.16296612 0.9989238 -0.37512547 -0.14498866 0.2983115 -0.4680058 -0.37241417 -0.56049407
0.013621977 1.0375797 -0.21309184 -0.7962129 -0.37182805 -0.4982332 0.7683795 0.860477
0.73943 0.81846046 0.6766601 0.46991107 -0.2254437 -0.13483812 -0.3286612 0.9924527
-0.4543196 -0.40589997 -0.8529165 -0.18333945 -0.12322833 0.09156016 -0.33123368 -0.2645246

fc3.weight f4 [64, 64]
00000000: 860b 383b 8b61 743c 69df 473e 19b2 343f
00000010: b232 543f 6b66 a13e 89e2 983f c9a5 323e
00000020: 6b6c ff3e 3ef3 a1bf 030d 90bf e445 143e
00000030: 8837 143f c512 783e 6fbc 0d3f 0038 1bbf
00000040: 56b0 01c0 e130 2cbe 524f aebe 0fff ca3e
00000050: 821b b4bf a335 5bbf acb9 413f 45c3 8fbf
00000060: 5204 f8be cd78 473e 7e25 a63e fd77 423e
00000070: 1232 113e 7883 9c3f 0bcc 9bbe ddb9 46bf
00000080: fac4 3d3f 40e5 05c0 151b acbf bf81 0ebe
00000090: 855c 92be 9010 efbd fb6c 2bbf 8652 23be
000000a0: f295 0d3f 1704 89be c1c6 753d f375 4fbe
000000b0: 653c d3be e8ab bf3f 7ce1 4d3d f3e4 6b3e
000000c0: 282d 7abd 8af3 223c 54ec 063f f2a0 143f
000000d0: 4585 063e 7842 31bc 340c 4b3f 8e7e b8bf
000000e0: 3980 bb3e fa94 b6be 296d b5bf b6e0 e23c
000000f0: f277 c83e 21ae b73f 24c3 443f 906a f1bd
00000100: f5da 92bc 9b93 803d 5c4d 76bd 586f 22be
00000110: 80c8 10be 062f 423d 6643 a2bc 223a c4bd
00000120: 2bca efbd 081c 14be 15fa dcbd effb c8bd
00000130: 6d2a 1dbe 7def 03bd e279 a23c 23ab be3c
00000140: ca78 d83c 151d 4d3d 067f 05bd 7cd0 a6bc
00000150: 5483 47bd e3ef f4bd 1873 ea3a 904c 2abe
00000160: 1493 cfbd f96b 1dbe 6024 d8bd 78af 0abd
00000170: 82bd c6bd 346d f7bc d82b cbbd fd39 393d
00000180: 48e5 19be 8404 583d 8e24 4b3d 35f0 85bd
00000190: 0173 57bc cdc2 5f3c 6852 88bd 7d0d 883c
000001a0: f5d5 f33c f0f1 4fbd 90c8 30be 2354 3cbe
000001b0: 5f1a 2b3d 770b eb3c 375a 48bb 2c9b dbbc
000001c0: fd2f dfbd 8964 af3c 9341 19be ad82 4f3d
000001d0: 2d32 28be 7559 d4bd b163 d4bd 221a 933d
000001e0: 3cf6 02be 103a 18be 636c 86bd 555c d53b
000001f0: 74b0 06be 0726 5dbe 610f 9bbd c9e7 30bb
00000200: 74d3 493f b74d ccbf a184 04bd bdde ebbf
00000210: 1530 bfbe 8df7 f6be 35ba 50bf 6cba 93bc
00000220: c469 80bf fc09 f93e efe0 c93f 7e95 133f
00000230: 949d af3e 5954 ef3d 4570 41bf e076 60bf
00000240: 3dba 93bf 9911 2dbf 4f22 87bf 54b5 573f
00000250: 833d dfbe 0c0f 043f 5d8f 21c0 b4f2 963e
00000260: 8cf4 d1be b4c2 123f 83ba 85be 3547 71bf
00000270: 2f4d d33d 0a85 b13e 0182 bc3e 3b41 743e
00000280: 4236 10bf be34 c63e 8775 c4bf 2759 35bd
00000290: bab1 383e 61c0 4dbf c583 073f f7e7 b23e
000002a0: 58ac 123e c647 05bf 6be7 8bbd 90aa b9bd
000002b0: af47 cfbf 45a3 9e3c 2913 c6bd 785f 063f
000002c0: 64cf f63d 58a0 86bf 9ef1 99bf 6f5c 333c
000002d0: 4e68 083f bed3 113d 4101 82be 1b5c 5a3f
000002e0: 0083 81be 1b6b 84bf 47ab 1f3f edc9 85be
000002f0: 8922 473e 94d9 9c3d 3719 97bd 0e4d 0cbf
00000300: 2ccd c6be 346b 8abe 2311 5a3f 70d0 d3be
00000310: 7f52 a53e 79f1 e6be ac36 653f 9545 b53e
00000320: 16fa ecbe 6e91 f0be 5f74 b33e 1725 8a3f
00000330: 0561 603e 56af 373e 0b39 27be a1b2 323f
00000340: 5aa7 79be ed34 9fbe ce0a 7cbe 0dfc 06be
00000350: a61e 4ebf 85db d4bd 721f 723e 7e49 94bf
00000360: 5daa 9b3e fe5e ba3f 592a 49be 4dd4 6dbd
00000370: 41cc 1f3c e9ef 3c3e de60 ac3f fa8c 06be
00000380: fc6b 143f adc9 ab3f 5b64 b3bf 8b54 643e
00000390: a751 be3e 0950 ffbe bfc9 6dbf 3943 e2be
000003a0: 6233 703f 5da7 4d3f 0afd 053e d473 b53c
000003b0: 2faf 88bf 0ada 65bf 4cd8 1dbf 830f 843f
000003c0: 0f84 533f af5d 5b3f 5e0c a23e 7583 ac3f
000003d0: a452 73bd 4d92 e03d 9df0 46bf 5bcd 2c3f
000003e0: 6a2f 753e 7073 693b c995 c5bf 6706 78bf
000003f0: 11b9 c53e 8458 a73f 6968 1f3f 1e93 33bd
0.002808304 0.014915834 0.19518818 0.70584255 0.82889855 0.3152345 1.1944133 0.17446055
0.49887404 -1.2652357 -1.1253971 0.14479786 0.57897234 0.2422591 0.5536565 -0.60632324
-2.0263877 -0.16815521 -0.34044892 0.3964772 -1.4070895 -0.8562872 0.7567394 -1.1231467
-0.48440796 0.19479676 0.3245048 0.18991084 0.14179257 1.2227621 -0.3042911 -0.77627355
0.7412869 -2.0921173 -1.3445765 -0.13916682 -0.28586212 -0.11673081 -0.66963166 -0.15949449
0.55306923 -0.26760933 0.060004 -0.20259838 -0.41257015 1.4974337 0.050263867 0.23036556
-0.06107822 0.00994576 0.5270436 0.58058083 0.13136776 -0.01081907 0.79315495 -1.4413621
0.36621264 -0.35660535 -1.4173938 0.027695041 0.3915401 1.4350015 0.7686026 -0.11787903
-0.017926672 0.062781535 -0.06013237 -0.15862787 -0.14138985 0.047408126 -0.019807529 -0.095814005
-0.11708482 -0.14463818 -0.10789887 -0.098136775 -0.15348215 -0.032210816 0.019833509 0.023274964
0.026424784 0.050076563 -0.032591842 -0.020363085 -0.04870923 -0.11959817 0.0017887084 -0.16630769
-0.10135475 -0.1537322 -0.10553813 -0.033858746 -0.097041145 -0.03020344 -0.09920472 0.045221318
-0.1502887 0.05273868 0.04959541 -0.065399565 -0.013149978 0.013657284 -0.06656343 0.016607994
0.029765109 -0.05076784 -0.17264009 -0.1839147 0.041773196 0.02869199 -0.003057135 -0.02680739
-0.10897825 0.021410244 -0.14966421 0.05066173 -0.1642539 -0.10368625 -0.10370577 0.07182719
-0.12789243 -0.14865899 -0.06563642 0.006511251 -0.13153249 -0.21596538 -0.07571293 -0.0026993623
0.78838277 -1.5961217 -0.032353047 -1.8427349 -0.3734137 -0.4823574 -0.8153413 -0.018033229
-1.0032277 0.4864043 1.5771769 0.5764998 0.3429991 0.1168601 -0.75561935 -0.8768139
-1.154121 -0.67604977 -1.0557345 0.8426106 -0.43601617 0.5158546 -2.5243752 0.29482043
-0.41006887 0.57328343 -0.2611886 -0.9424928 0.10317456 0.34671813 0.36817935 0.23853008
-0.5633279 0.38712114 -1.5348366 -0.044274475 0.18036547 -0.8037167 0.5293544 0.349426
0.14323556 -0.5206264 -0.06831249 -0.09065735 -1.6193751 0.019364962 -0.09671623 0.52489424
0.12051275 -1.0517683 -1.2026861 0.010947331 0.53284156 0.035602324 -0.25391582 0.8529679
-0.25295258 -1.0345186 0.62370723 -0.2613062 0.19446768 0.07658687 -0.07377856 -0.54805076
-0.3882841 -0.27034914 0.851824 -0.41369963 0.32289502 -0.45106104 0.8953655 0.3540465
-0.4628455 -0.46985954 0.35049722 1.0792569 0.2191201 0.17937979 -0.16330354 0.69803816
-0.24380246 -0.31095067 -0.24613497 -0.13182087 -0.80515516 -0.103934325 0.23644808 -1.1584928
0.30403414 1.4560239 -0.1964506 -0.058063794 0.009753288 0.18450893 1.3467062 -0.13139716
0.5797727 1.3420922 -1.4015001 0.22297876 0.3717167 -0.4986575 -0.92885965 -0.44191912
0.93828404 0.803335 0.13084808 0.022149958 -1.0678462 -0.89785826 -0.6165817 1.0317234
0.8262338 0.85689825 0.3165006 1.3477618 -0.059404984 0.10965405 -0.77710897 0.6750085
0.23943868 0.0035621785 -1.5436336 -0.9688477 0.38617757 1.3073888 0.6226869 -0.043841474

fc3.bias f4 [64]
00000000: 3b25 71be 9f1e 5cbe f6bc 46be a05b 8e3f
00000010: 36fd 64be 1ab7 70be ab20 323f 2471 7b3f
00000020: 6591 123f c4a1 af3e 3d9f d3bd d33a 60be
00000030: 1e7f ba3d fca7 84bf 1c5c bbbe 4aa5 c33d
00000040: 3a6f 003f 2821 bcbe b9b3 913f 45a3 06bf
00000050: ac15 e03e b693 9ebf 1acd 7ebf 4867 8a3f
00000060: 73e8 993e 1bfb 233f e7f4 0e3e 6ffd b13e
00000070: f3a9 863f 62cb 39be af0d a53e bddb 94be
00000080: 24a4 97be ebc3 c1be b386 083e 4362 2c3f
00000090: 08d3 a73e eed2 48bc e6ac 0f3e de07 f23e
000000a0: 0785 af3e 33d9 713d 6e80 2dbf fb51 fa3c
000000b0: fb09 0fbf b2b8 893e ffed 073f 68c5 22bf
000000c0: b7f1 a6bf 7bde 133f 0d34 e13b c705 11bd
000000d0: c7dc 253e e573 1c3f 0600 cb3e 0015 d03e
000000e0: 9041 07bf b554 d4bd 2f0c 2dbd 9808 343e
000000f0: 48bd e73e 8587 cb3e 5413 6c3f a5a2 8dbf
-0.23549359 -0.21496056 -0.1940802 1.1121712 -0.22362217 -0.23507348 0.695811 0.98219514
0.57253104 0.34303105 -0.10333107 -0.2189744 0.09106277 -1.0363765 -0.3659371 0.09553011
0.5016972 -0.36744046 1.1382972 -0.5259288 0.43766534 -1.2388828 -0.9953171 1.0812769
0.30060157 0.6405503 0.1396061 0.34763667 1.0520614 -0.1814399 0.32237002 -0.29073897
-0.29617417 -0.37844786 0.13332634 0.67337435 0.32778192 -0.012257321 0.140308 0.47271627
0.3428118 0.059045028 -0.67774093 0.03055667 -0.55874604 0.26898724 0.5309753 -0.6358247
-1.3042516 0.57761353 0.00687266 -0.0354059 0.16197501 0.6111434 0.39648455 0.40641022
-0.52834415 -0.10367719 -0.042247947 0.17581403 0.45261598 0.3975183 0.9221699 -1.106526

action_out.weight f4 [5, 64]
00000000: ce4b 803e 9ad5 26bd c5ed 23bf 34ae e3be
00000010: ee78 82bf 804a 12be 3c47 4ebf 0eb2 843e
00000020: c0c8 113f 8bf1 4ac0 8ff7 763f a4b5 a83f
00000030: 49b7 303e 703d be3e 2603 31bf f20a 8fbe
00000040: 79c6 933e d0fd 8bbd 56b9 d33f 9ef4 7d3f
00000050: f291 2cbf 26eb ecbd e294 623f a8f4 e1be
00000060: ce6c 0dbf f07f 623f c2d0 253e 636a 6f3e
00000070: 5a45 683f f47b f1bc 4262 87bf be6e 963e
00000080: 87d1 973e cbba d93e 8d45 f0bd 11cb 13bf
00000090: adb1 fb3f bb8c a3bd 9ca3 a73f 121c e2be
000000a0: 0cf9 12bf 06f9 a7be 5756 89bf fe08 d2bd
000000b0: b9f6 f53f 0425 56bf c39a 7abe d361 093f
000000c0: e4b0 d43f 85fd aebf d323 573f 5131 a73f
000000d0: 1333 273f 89f7 d53e 0b95 bc3e 18e8 2cbf
000000e0: bb30 4cbe 8181 d9be 47bf 6f3f 99c5 9ebe
000000f0: 04c3 513f 3abd 9d3e 1561 86bf 3d0d b33d
00000100: 7d98 8dbe aebf c1bb 6fd6 babe 3339 f0be
00000110: 0ae6 e1be b113 8abd df9e 4c3f 12d3 973f
00000120: 0792 cf3e 7a07 9abf 4de2 203f ef85 d2be
00000130: f37f 41bd 5188 e33d 84c7 c7bf 89ba c13e
00000140: f8ce 0fbf da5b 7e3e 7e0e 803e cc2c 9bbf
00000150: 56d6 4f3f 4303 a7bf 15ac 5cbd b304 5f3f
00000160: 17c3 48bf 802b 393d 119d 543f 19e9 25be
00000170: a00b 8f3e 0f03 d7bc 7e90 88bf 4209 c0be
00000180: 6772 793f f618 13be 147a 4cbf 8470 8a3e
00000190: af1f a6be fdba de3d 5b43 803f 181f b63e
000001a0: 108d 05bf f63e b83e 5bbb 8cbf 2cb6 b53f
000001b0: 549a 0b3f cff2 d13f c5c1 84bf 07a4 24be
000001c0: 0171 8bbf fc22 0bbe 7cf5 86bf 61f2 bdbe
000001d0: aeab b0bf 9311 f33e b16c 47bf cecc 5fbf
000001e0: 50fb 083f 5635 89be 12ef 83bf 570f c43f
000001f0: 0dbc cc3e 5b0a b83f 6f97 c2be 92bd 953f
00000200: 77fc 3ebf 188f 89bb 547a 2c3f 04af f1bc
00000210: df5b 43be d992 863c b393 aabe 200a 13bf
00000220: 1d84 81be f896 7fbe bc7d dabd 2727 f7be
00000230: 9978 4c3d b21b 4a3e 5ace 7b3f fee3 903e
00000240: 38f1 a93f 322d bebe ad71 19bf 0b52 5c3f
00000250: bf08 13bf 8e22 623f f582 ad3e e331 7abf
00000260: 6a40 8f3e 7702 aabe 897d 52bf f90d 873e
00000270: a4a0 3abf 632f f4bc 0f51 3d3f 27a6 303f
00000280: edca babe e72b 94be 5f55 4a3f e416 24bf
00000290: d7ce f8bd be55 debd 38e8 c0be ae2d a3bf
000002a0: 4758 103f dcb8 7ebf 3890 34bf 39d5 9cbe
000002b0: c29d 923e f5bd 75bf 1e41 003f 7f10 f43e
000002c0: 3012 d6bd 3b24 d23d 9e41 7f3e 9b45 d23d
000002d0: 2c90 303f 91c2 f3be 40fd fa3e 9836 5d3f
000002e0: 0679 a23d bbd0 abbe 0cc6 733f e91e 81bf
000002f0: c51d 98be afd8 67bf f27f 923e cf6e a1bd
00000300: c42e 9bbf 9758 21bc c200 d83d d52b 453e
00000310: 94f0 aebe 2596 b5bd 14a3 c6bd b889 62be
00000320: bcf9 833f 42dd bfbd c506 8f3f 8888 743e
00000330: 3bce 45be f589 683f d89e ba3f 6cf3 f53e
00000340: 4fc4 4f3e e96b 763e 99f4 ba3d 4a28 913f
00000350: fb0a bf3d 60d9 ce3e f727 393f 953a e83d
00000360: bb3e f83e fade 51bf 7812 b43d 814f 83be
00000370: 522c 49bf 4ca4 25bd 14dc 02be 61ba a8bf
00000380: 182b a2be 7c15 f53e 50bc 1ebf af3a 9dbe
00000390: 11fd 29bf 66d9 673a 0c02 fc3f a15c ee3e
000003a0: 874b ecbd 5e59 67bf 1c11 f33e ff4a 803e
000003b0: 520e 043f 3251 75be 730c edbe cce9 0d3e
000003c0: fa48 40be 0605 40bf 092b 2a3f fc74 693f
000003d0: 1f86 fabe 40b6 85be 9bfe d03d 3ba0 173f
000003e0: 81bb 483f 24d5 8bbf 5ac9 4bbf 7577 48be
000003f0: 8465 9e3e 57c1 a63e d465 2dbf 850a 9b3e
0.25057834 -0.04073105 -0.6403468 -0.44468844 -1.0193155 -0.14286232 -0.80577445 0.25917095
0.56946945 -3.1709926 0.96471494 1.3180432 0.17257418 0.37156248 -0.6914543 -0.27938038
0.2886236 -0.0683552 1.6540935 0.9920138 -0.67410195 -0.115682885 0.8850843 -0.4413197
-0.5524415 0.8847647 0.16192916 0.23380427 0.9073082 -0.02947805 -1.0576861 0.29381365
0.29652044 0.42525324 -0.11732016 -0.5773173 1.9663597 -0.079858266 1.3096805 -0.4416204
-0.57411265 -0.32807177 -1.0729474 -0.102556214 1.9215919 -0.8365023 -0.244731 0.5366489
1.6616483 -1.3671118 0.8403904 1.3061925 0.6531231 0.41790417 0.3683246 -0.67541647
-0.19940464 -0.42481616 0.9365124 -0.3101013 0.81938195 0.3080843 -1.0498377 0.087427594
-0.27655402 -0.0059127426 -0.36491725 -0.4691864 -0.44120818 -0.06742037 0.7992992 1.1861289
0.40541098 -1.2033532 0.6284531 -0.41117808 -0.047241163 0.11109985 -1.5607762 0.37837628
-0.56175184 0.24839726 0.25011057 -1.2123046 0.81186426 -1.304787 -0.053875048 0.87116545
-0.78422683 0.0452075 0.83052164 -0.16202201 0.27938557 -0.026246576 -1.0669096 -0.37507063
0.9744019 -0.1436499 -0.79873776 0.27038968 -0.32446048 0.10875509 1.0020555 0.35570598
-0.5216837 0.35985535 -1.0994676 1.419622 0.5453236 1.6402224 -1.0371634 -0.16078196
-1.0893861 -0.13587564 -1.0543666 -0.37098983 -1.3802392 0.47474346 -0.77900225 -0.8742188
0.5350847 -0.26798505 -1.0307333 1.5317181 0.3998722 1.437816 -0.3800616 1.1698477
-0.7460398 -0.0041979663 0.6737416 -0.0295024 -0.19078015 0.016427444 -0.3331581 -0.57437325
-0.25296107 -0.24959934 -0.10668513 -0.48272058 0.0499197 0.19737127 0.9836174 0.28298944
1.3276739 -0.37143856 -0.5993908 0.8606269 -0.5743522 0.88333976 0.33888975 -0.9773237
0.27978832 -0.33205006 -0.822228 0.26377848 -0.7290137 -0.029807752 0.7395181 0.6900353
-0.36482945 -0.28939745 0.79036516 -0.6409743 -0.121488266 -0.10856198 -0.3767717 -1.2748315
0.563847 -0.99500823 -0.7053256 -0.30631426 0.28635985 -0.95992976 0.5009936 0.47668836
-0.10452688 0.10260817 0.24927375 0.102671824 0.6896999 -0.4760938 0.4902134 0.8641143
0.0793324 -0.33557686 0.9522407 -1.0087558 -0.29710212 -0.9056501 0.2861324 -0.07882463
-1.2123647 -0.009847782 0.105470195 0.19255002 -0.34167922 -0.088665284 -0.096990734 -0.22122848
1.0310588 -0.093683735 1.1173941 0.23880208 -0.19316952 0.90835506 1.4579725 0.4803728
0.2028973 0.24064602 0.091286846 1.134042 0.09328266 0.4040022 0.72326607 0.11339299
0.4848536 -0.8198086 0.08792585 -0.25646594 -0.7858325 -0.04043989 -0.12779266 -1.3181878
-0.31673503 0.47867954 -0.6200609 -0.30708835 -0.66401774 0.00088443456 1.9688125 0.46555045
-0.11537843 -0.9037074 0.4747399 0.25057217 0.5158435 -0.23956755 -0.4629856 0.13858718
-0.18777838 -0.75007665 0.66471916 0.9119413 -0.4893045 -0.26115608 0.10204812 0.5922887
0.7841111 -1.092442 -0.79604113 -0.19576819 0.30936825 0.32569382 -0.677335 0.30281463

action_out.bias f4 [5]
00000000: f24f 9fbe 139c 953e 7379 14bf b3b4 a6be
00000010: 61d2 3b3f
-0.3111568 0.29220638 -0.57997817 -0.32559738 0.7336789
