code/tmp/maddpg/k_2/predator_preyadversary_2+1/adversary_2_target_actorBest.pt (torch, 9471 bytes, 6 tensors)

fc1.weight f4 [32, 16]
00000000: 8781 383f c433 df3f b6eb 1740 9cda 57bf
00000010: 1068 01bf cbfd 33be f373 fabf c1ba 0b3f
00000020: b499 5abf e1df 44c0 d25a 16c0 d6c6 cfbf
00000030: 9859 68c0 d74f c13f 0346 d23f 0d84 22be
00000040: ffdf 0cbf d6ec 2fc0 fc05 ff3e 6580 40be
00000050: 5f78 fd3d f241 fc3f 9d1a fb3f 4a3e 6cbf
00000060: fd05 3540 959d 3d3f a02e 27bf 57e4 af3f
00000070: b44a 8b40 deb3 8940 8ad5 0cbf 19ef ac3f
00000080: 6bab 70bf 74d2 acbe 28f5 66c0 d736 a43f
00000090: 2274 3640 0869 943f 059a bd3f 3ca1 ffbe
000000a0: b1ed adbe c753 9cbf 78ba 5840 4771 a73f
000000b0: e7b4 8940 8bbe 41c0 87d2 1a3e 34ff 1dbe
000000c0: 8619 0bbf f422 78bf f905 05c0 b2d3 59be
000000d0: e35b ca3e 391e 4ebf 02c6 a13e 7eb4 b13e
000000e0: 40e4 ab3f 68d9 d13f 9ae1 003f 6969 58c0
000000f0: 9d7a 4240 a7c8 4ec0 27b6 b3bf d3e7 72bf
00000100: 234c 0fbe 5e6b 7f3f b347 c73f f6e4 eabe
00000110: 94b1 25bf 17b4 6ebe 5146 e9bf 8118 08bf
00000120: 0912 d13f 4b6f c7be 1376 b7bf 0d17 cebe
00000130: 68af bbbf 52b4 f53f 638a 1540 2113 5540
00000140: b99a 85bf e2c0 023e 71e3 593d e561 073f
00000150: c467 343f 3381 283f 9b80 59be 40db cebf
00000160: a5fc 20bf 838f 4e3f 3ba5 8cbd 0d01 003f
00000170: 78f2 5d3f 9edd 16bf 823a 6dbe 978d 183c
00000180: 925d a03f 17b4 7ebf ccb9 10be 7f82 06be
00000190: 9d61 903e 7b61 093f 04ae 87bf e001 133f
000001a0: b1a7 a23e 7988 babe 0436 1dbc 95cc 91be
000001b0: 6f8f 853e 52d6 583f 0aa9 843f d191 3040
000001c0: 1079 b3bf 302d 77bf 908a 1640 65b9 e2be
000001d0: a822 04c0 5ab9 24be 8938 d6bf ba99 853f
000001e0: 31df 56bf 8391 cdbf 902c 61c0 22aa f0bf
000001f0: c2e5 21c0 1b14 0bbf c4c0 d03f 632d 13c0
00000200: 230d c83e 7077 10bf 6ed0 3dbe e355 583f
00000210: e79a cb3e e3c0 9bbb d1f4 b7be da60 fc3e
00000220: 326d f23d 66aa 3e3e 516c fb3d 0238 383e
00000230: f404 933d c7e5 d7bd 3279 093f b227 883f
00000240: e1f3 86be 71ed a6bf 4589 95bf 2cf6 c83e
00000250: 6b99 543f 5e22 f6be 2ef1 883e a147 e7be
00000260: 4124 113e 3c10 09be 1053 34be 18a4 b53f
00000270: fd9a 143f 7741 ea3d 0af2 d73f 1385 2640
00000280: 2181 3a3f d52f cdbf d973 71be c9cc a3bf
00000290: 3f76 67bd b7d9 20bf 29fb c0bd 0231 733e
000002a0: b9ee d63f c9a1 d43f 0b72 a5bf 8b03 8bbf
000002b0: e395 63bf 0280 fa3c 89c3 47be 5364 30bf
000002c0: ac8b c33f 1adb b53f 947b 0a3f 6f6b 9d3f
000002d0: a33c 2f3e 4a5d bf3f a30e 0840 f49b fdbf
000002e0: 4b92 973f 3fec 923e e75e dd3e 17f7 d33f
000002f0: 80ce 7f3f 4ba1 babf 8aea d93f 604e 203f
00000300: 196e d2bf 4e72 c3bd 21db 18c0 cdd0 4d3f
00000310: 5795 d33e 8533 cdbf 6865 463f 7da4 ca3f
00000320: bb72 38bf 3f18 ca3e 7df8 5640 83eb 7ebf
00000330: dad1 c240 817b a9bf 83c1 01bf 0704 973f
00000340: d61d ee3f aeb3 823e 8432 99bf 8892 8b3f
00000350: f868 c73f f796 19bf 02b9 843f 61f5 64bd
00000360: cd0d 303e 7867 913f a9ee 883f d8ec db3e
00000370: 46f4 8c40 abed 39c0 5ee7 fb3e bca9 c93e
00000380: a5fb cabf a8d9 3bbc 5dd7 cdbf c407 a03f
00000390: 8578 0340 9fd8 0b3f 7e95 3f3f 1a7a 99bf
000003a0: 4aeb a4bf e17f 9fbf 1215 7340 5477 1e40
000003b0: f762 8f40 ad96 6ac0 71c8 1a40 aa7c 4f40
000003c0: bef3 293f 084c 4a3e 4071 73be cffd bcbf
000003d0: e618 4cbf 68ae ff3f 535f fdbf d51f 863f
000003e0: 447a 5140 3ad5 2a40 429c 3ebf e94a 7dbf
000003f0: 1d8e 2040 3f36 55bd e699 37c0 4efb 6ebf
0.72072643 1.7437673 2.3737617 -0.84317946 -0.5054941 -0.17577283 -1.9566635 0.5458184
-0.8539078 -3.0761645 -2.3492932 -1.6232555 -3.6304684 1.510249 1.6427616 -0.15870686
-0.5502929 -2.7488303 0.49809253 -0.18798979 0.123764746 1.9707625 1.9617497 -0.92282546
2.8284905 0.74068576 -0.6530552 1.3741559 4.352869 4.3032064 -0.55013335 1.3510467
-0.94011563 -0.33754313 -3.6087132 1.2829236 2.8508382 1.1594553 1.4812628 -0.499277
-0.33970407 -1.2213067 3.3863811 1.3081445 4.303333 -3.0272548 0.15119372 -0.15429384
-0.5433582 -0.96928334 -2.0784895 -0.21272162 0.3952323 -0.80514866 0.3159638 0.34708017
1.3429031 1.6394472 0.5034424 -3.3814337 3.0387337 -3.2309968 -1.4039963 -0.94884986
-0.13993888 0.99773204 1.5568756 -0.45877808 -0.6472409 -0.23310886 -1.8224584 -0.5316239
1.6333629 -0.38952097 -1.4332908 -0.4025196 -1.4662905 1.9195654 2.3365715 3.3292925
-1.0437843 0.12768891 0.05319542 0.5288375 0.70470834 0.6582214 -0.21240465 -1.616066
-0.62885505 0.8068773 -0.06867453 0.50001603 0.866981 -0.5893191 -0.2316685 0.009311101
1.2528555 -0.99493545 -0.14133376 -0.13135718 0.28199473 0.5366437 -1.059998 0.57424736
0.31768563 -0.36432245 -0.009595398 -0.28476396 0.26085994 0.84702027 1.0364087 2.7589
-1.402132 -0.96553326 2.3522072 -0.4428207 -2.0646152 -0.16086331 -1.6736003 1.0437539
-0.83934313 -1.6060032 -3.5183449 -1.880192 -2.5296483 -0.54327554 1.6308827 -2.2996452
0.39072523 -0.5643225 -0.18536541 0.8450605 0.3976662 -0.0047532185 -0.35928968 0.49292642
0.118372336 0.1861969 0.12276519 0.17990115 0.07178679 -0.105418734 0.53700554 1.0637114
-0.2635794 -1.3041211 -1.1682516 0.39250314 0.830466 -0.48073095 0.26746505 -0.45171836
0.14173986 -0.13385099 -0.17609811 1.4190702 0.58048993 0.11438268 1.687074 2.6018722
0.72853285 -1.6030222 -0.23579349 -1.279687 -0.056509253 -0.62832206 -0.09422905 0.23749164
1.6791602 1.6611873 -1.2925428 -1.0860456 -0.88900584 0.030578617 -0.19508184 -0.6890308
1.5277 1.420749 0.54094815 1.2298411 0.17112975 1.4950345 2.1258934 -1.9813218
1.184152 0.28695866 0.43236467 1.6559781 0.9992447 -1.4580473 1.7024701 0.6261959
-1.6439849 -0.09543286 -2.3883746 0.8039673 0.41324875 -1.6031348 0.77498484 1.5831448
-0.72050065 0.39471623 3.3589165 -0.9957811 6.0881166 -1.3240815 -0.506859 1.1798104
1.8602855 0.2552771 -1.1968541 1.0904093 1.5578909 -0.5999598 1.036896 -0.055898074
0.17192765 1.1359701 1.0697833 0.42954135 4.4048185 -2.905131 0.49199957 0.3938731
-1.5858046 -0.0114654675 -1.6081349 1.250237 2.054231 0.5462741 0.7483748 -1.1990387
-1.2884305 -1.24609 3.798161 2.4760332 4.4808307 -3.6654465 2.418484 3.241984
0.66387546 0.19755566 -0.2377367 -1.4764956 -0.7972549 1.99751 -1.9794716 1.0478464
3.2730875 2.6692643 -0.7445718 -0.9894243 2.508674 -0.052053686 -2.8687682 -0.9335221

fc1.bias f4 [32]
00000000: f71f e1be bbd3 a83f f989 5dbf 5e55 09c0
00000010: 156f 2fc0 d8ab 37c0 771e 1fc0 872c fcbd
00000020: e4e9 10c0 7665 2dc0 43a6 dbbf b602 f2bf
00000030: faaf 9e3d 2aa3 eabf c910 1e3e 6af2 e63e
00000040: 953a f53e 97f5 183f ee80 eebf e9a6 b63f
00000050: 8d70 28c0 78f0 5d3f f585 12c0 22b0 403d
00000060: cbb7 0cc0 e1a9 aebf 3c0d d03f 3c35 a3be
00000070: 53cf 64c0 f05d 30c0 1643 74bf aadb 21be
-0.439697 1.3189615 -0.86538655 -2.1458354 -2.741155 -2.8698635 -2.4862344 -0.123131804
-2.2642756 -2.7093177 -1.7160114 -1.8907077 0.077484086 -1.8331044 0.1543609 0.45106822
0.47896257 0.5974974 -1.8633096 1.4269687 -2.6318696 0.8669505 -2.289426 0.047042973
-2.1987178 -1.3645593 1.6254039 -0.31876552 -3.575154 -2.7557335 -0.95414865 -0.15806451

fc2.weight f4 [32, 32]
00000000: 6279 773e c0c0 9cbf ac3d d8be 7d61 a4bf
00000010: d3eb 453d 4ab5 8f3c 9b40 91bf 52a8 6c3e
00000020: d473 993d 1aef 36bf fa57 3e3f f12c 2b3d
00000030: 4c13 d1bf 6ff4 803e 3c65 dabf 67e1 0ebf
00000040: fca6 e73e 7618 d43e 4a5c 893f ffbe 19bf
00000050: d299 82bf 5a84 4dbf 0137 90bf 6b57 5b3d
00000060: 261e 0c3f 3634 7abe 6037 103f 604f 25bf
00000070: 6c27 63be 5db4 f13f 5e43 b53e 7ff9 05bf
00000080: 99e4 65bd a572 e7bc 619c 6dbd 2463 5bbe
00000090: afb0 543d f187 60be 758f 703d 2485 73bd
000000a0: d6e6 bcbc b0bc 52be 1ff9 d0bd 0b9b 8abd
000000b0: 6559 26bd 064e 37be 9b6a 0abd 97b2 ccbe
000000c0: fe89 30be 7d43 69bd 563d 39be d837 95bd
000000d0: 9f92 06be bfed 48be c9e9 a7bd 6c93 6dbd
000000e0: ad3c 2dbe 1c11 1bbe e426 e43d 5967 24bd
000000f0: 06c3 80bc 6b13 85be edbd be3d 6022 e03a
00000100: 52ed 4bbe 65e4 2cbf f8e8 11be dbc7 48bf
00000110: 427b 4b3d 4813 0dbe d08e 56be 5709 0abf
00000120: e9df a53e ea03 f9be 74c2 1b3e 559c e5be
00000130: 207a 21bf bf88 5dbe da4c b73d 18ba d1be
00000140: 64f4 08bf 51f8 2cbe d31c 1b3e 9264 35be
00000150: 1783 96be a447 11bf 319c 7fbe 7070 e63c
00000160: bdd1 fcbe ce51 833c 1fb1 43be c2eb b23d
00000170: 00ed 1e3d 7248 35be a05a e03d d27e fabe
00000180: 52da 4abd 391e f8bd 6c49 d5bd 1c3f 3dbe
00000190: 1087 a93d aeda 0d3d 1758 993d 6655 083d
000001a0: 40df d9bc cf3b 0fbe bf24 dd3d 78e4 d8bd
000001b0: 220e 73be a441 02be 8863 5bbe bdda eebe
000001c0: c44a 81be dfa1 51be a382 c3be 1c82 9dbe
000001d0: 929e fc3d 9a4c f6be b924 e0bd 1b75 823d
000001e0: 2d7f e4bd 5195 00be 16b3 75be 0524 25be
000001f0: 3014 2cbe d1e9 bdbd 58ce 97be 593a 383d
00000200: a00f a0bd 88ca a73d fe9c b1be 84b4 28bf
00000210: 64ee 623e f2df 7bbf 4ff5 87be 1bf4 4abe
00000220: 04b6 953e 40f5 a63e fde8 f5be a3f0 92be
00000230: a496 21bf 1c22 d4be cf7f cc3d b87f 15bf
00000240: 08e3 65be 8942 adbe 4b89 8ebd f1c6 22bf
00000250: 04c2 d33e 32f3 3dbf 0b20 d2be de22 89be
00000260: d3be c03c bf2b 07bf f33e 413e e897 18be
00000270: 9bb8 d6bd 8b7c 0dbf 83b2 07be fde1 32bf
00000280: 1f34 9c3b 14dc 113f 123e ca3e a764 d3bf
00000290: e6d3 0e3e 878e d83e c4af 153e 75f9 6fbf
000002a0: 59fd 3d3f ff61 183e 6096 2ebf b95f 2bbf
000002b0: 7417 92bf 1f72 9abf eae6 813e 7fff 9dbf
000002c0: 023e 37bf 25ab 28bf cd29 60bf 3328 8abf
000002d0: d26f 893e 5115 bd3e 8706 5ebe 5a09 7cbf
000002e0: ca00 b9be b7fd 593e 0726 06bf fcec 13bf
000002f0: d17c 72be 2bbe 0dbf 675d cf3e 47f9 41bf
00000300: 6316 633f 7d8f f1bf 0722 0dc0 b225 373f
00000310: c146 1e3f a9e6 c33e cedc 06bf e18e da3f
00000320: 11f9 6f3e 9cc2 3b3f 5afe cb3e 8491 d43e
00000330: 8db8 c9bf ac43 d6be 8374 17c0 54c3 acbd
00000340: 7b4e 4640 2cc5 77be 12fa 0540 0afa cdbf
00000350: d7ab 8abe 74bc b13f 8dbb d9be 9729 0740
00000360: f0b0 3d3f d508 ad3f 52e0 1140 bd19 80bf
00000370: 8671 c5bc 3080 01be 1303 273f 1d9b 0cc0
00000380: 4801 27bf 52f5 d83d ad7a 8fbe a4fc 8ebf
00000390: e087 de3f 6b15 1b3f 8413 b43f fad4 d83d
000003a0: 55b4 ba3e 83e7 a23e 69ba 95bf d081 37be
000003b0: e421 a33d 7b29 ccbe 2645 0840 2876 4cbe
000003c0: b06c 4dc0 7691 f73d e611 74bf 1354 f03f
000003d0: 10cc 2a3e aca1 73c0 3589 e53f 1b65 0dc0
000003e0: c339 583e 95c1 a33e d7ab b13f 0280 413e
000003f0: b0a3 6b3d 0186 7e3d c054 eebd db7b d2bd
0.24167398 -1.2246323 -0.42234552 -1.2842251 0.048320603 0.0175425 -1.1347841 0.23111084
0.074927956 -0.7145859 0.7435299 0.041790906 -1.6334014 0.25186488 -1.7062144 -0.55812687
0.45244586 0.41424912 1.0731289 -0.6005706 -1.0203192 -0.8028008 -1.1266786 0.053550165
0.547335 -0.2443398 0.56334496 -0.6457424 -0.22183007 1.8883168 0.3540296 -0.52333826
-0.05612621 -0.028252909 -0.058010463 -0.21424538 0.05192631 -0.21926858 0.05873056 -0.059453145
-0.02305929 -0.20579791 -0.10203766 -0.06767853 -0.040612597 -0.17900857 -0.033793073 -0.39980003
-0.1724014 -0.056949127 -0.18089804 -0.07286042 -0.13141869 -0.19621943 -0.08198888 -0.05800192
-0.16917677 -0.15143245 0.1114023 -0.040137623 -0.015717994 -0.25991377 0.09313569 0.0017100088
-0.1991475 -0.67536 -0.14249027 -0.78429955 0.049678095 -0.13776886 -0.20952916 -0.539205
0.32397392 -0.486358 0.15210897 -0.44845834 -0.6307697 -0.21634196 0.08950205 -0.4096229
-0.5349791 -0.168916 0.15147714 -0.17714146 -0.2939689 -0.5674994 -0.24961926 0.028129786
-0.49378768 0.016030218 -0.19110535 0.087363735 0.03880024 -0.17703417 0.10954785 -0.4892488
-0.049524613 -0.121151395 -0.10414395 -0.18481106 0.08277714 0.034632377 0.07487505 0.033284567
-0.026595712 -0.13987659 0.107980244 -0.10590452 -0.2373586 -0.12720352 -0.21424687 -0.4665126
-0.25252354 -0.20471905 -0.38185605 -0.30763328 0.123349324 -0.48105317 -0.10944504 0.06369992
-0.11157069 -0.1255696 -0.23994097 -0.16127022 -0.16804576 -0.092731126 -0.29649615 0.04497752
-0.0781548 0.08192927 -0.34690088 -0.65900445 0.22161251 -0.9838859 -0.26554343 -0.19819681
0.2924043 0.32608986 -0.48029318 -0.28699216 -0.63120484 -0.41432273 0.09985315 -0.5839801
-0.22449887 -0.33839825 -0.0695978 -0.6358481 0.4135896 -0.7419921 -0.41040072 -0.26784414
0.023528492 -0.52801126 0.1887167 -0.14901698 -0.104844294 -0.5526816 -0.1325169 -0.6987608
0.0047669555 0.5697644 0.3950048 -1.6515092 0.1394802 0.4229624 0.1461783 -0.93740016
0.742147 0.14881133 -0.68198204 -0.66942936 -1.1413407 -1.2066077 0.25371486 -1.2343596
-0.7157899 -0.65886146 -0.8756378 -1.0793518 0.26843125 0.36930326 -0.21682177 -0.9845177
-0.36133415 0.21288191 -0.52401775 -0.57783484 -0.23680426 -0.553683 0.40500948 -0.7577099
0.88706034 -1.8871914 -2.2052019 0.71541893 0.6182671 0.38261917 -0.5268067 1.7074853
0.23434855 0.73343825 0.39842492 0.4151727 -1.5759445 -0.41848505 -2.3664863 -0.084356934
3.09854 -0.24196309 2.093388 -1.6091931 -0.27084228 1.3885636 -0.42525902 2.1119134
0.7409811 1.351832 2.2793164 -1.0007855 -0.024101984 -0.12646556 0.65239066 -2.1969674
-0.6523633 0.10593666 -0.28023282 -1.117085 1.7385216 0.60579556 1.4068456 0.10587497
0.36465707 0.31817254 -1.1697513 -0.17920613 0.079654485 -0.39875397 2.1292205 -0.19966948
-3.2097588 0.12088291 -0.9533981 1.8775657 0.16679406 -3.8067427 1.7932497 -2.209296
0.21115784 0.3198363 1.3880566 0.18896487 0.05752915 0.062139515 -0.116372585 -0.1027753

fc2.bias f4 [32]
00000000: 9af9 c7bf 38e5 dbbe f84f 1ebf 8c61 debe
00000010: 765a 3dbf c6bc b0be 6109 88bf 5974 3b3e
00000020: 5ebe 913f afb9 86be dc11 163e f3b7 8abd
00000030: 27e3 e73f 0b28 c0bf 75b8 e5be 19be e53d
00000040: 966f fabe 65df bfbe be49 1440 d1de 883e
00000050: 710c 5bbf 795f eabf 0353 ac3f cc26 6f3e
00000060: 48cc 95bf cde0 e7be f8a2 41bf cf31 49bf
00000070: 6240 b4bf 1ae2 b4bf d84e 0c3f 45bf a1be
-1.5623047 -0.42948318 -0.6184077 -0.43433797 -0.7396616 -0.34519023 -1.0627862 0.18306102
1.138622 -0.2631354 0.1465525 -0.06773367 1.8116196 -1.501222 -0.44867292 0.11217899
-0.48913258 -0.37475124 2.3170009 0.26732495 -0.8556586 -1.8310386 1.3462833 0.23354644
-1.1702967 -0.45288697 -0.75639296 -0.78591627 -1.4082148 -1.4131501 0.54807806 -0.3159124

pi.weight f4 [5, 32]
00000000: f94d 6fbe a75a 443e 248c 90be 2f10 033d
00000010: 5545 27be 9466 d6bf c3b3 0cbf b0f1 5ebf
00000020: 3c0d d8bd dd32 25be 6b00 ddbd 67c5 06be
00000030: 95f0 f13c 02b3 00bf 4fa4 08bd a118 ab3e
00000040: e561 2fbe e5af e2be f3b0 c7bd 63d9 c0bf
00000050: ebb5 45be fce6 14bf cf37 983e 88c6 57bf
00000060: 2718 4dbe 7257 bfbe ce27 cabe eced 1dbe
00000070: cff6 8dbe 3444 96be e99b 28be b639 77bf
00000080: cb78 57bd 299b 65be a6d2 89be dd9e 6c3e
00000090: 4dbf b7bb 27d2 873f a760 d3be 7f7a 0540
000000a0: 4576 fb3f 9d9f af3d e120 be3f 45a0 bbbc
000000b0: 8268 3a40 a668 cabd e11e ab3d a4a9 f3bf
000000c0: 6ba3 463e fd60 713e 050d 4440 1347 ab3d
000000d0: 4e4b 513f 9b1e 9f3e d220 e93f abe1 27bf
000000e0: 200a a33e 3850 9fbe 9db7 e4bf fa70 08c0
000000f0: a3c3 8d3e 9b49 c33e a6c6 823f 8abb 763f
00000100: 45bd 5fbd 99d1 3d3d 0a17 073d 7859 92be
00000110: 081f 5cbe 1edd 843f 025c 0740 8977 25bf
00000120: 864f fdbf ca69 343e 5858 a1bf 0ac0 08bd
00000130: 448c 18c0 80dc a73d aa4a 413e 696c 2b3f
00000140: 3447 e23d 9789 2c3e 4631 33c0 56ac 1440
00000150: ae8f aabe ee1d 88be 8202 1fc0 553f 0540
00000160: 5232 8dbb d758 5cbe 41ba 0740 2693 2440
00000170: 8e9f 75be bbb5 573e c3c1 1dbf 5c6b 663f
00000180: 9613 c1be 7d1c a33d 197f f8bd 3255 36bd
00000190: 12b3 433c b1bc 2bbf b2c9 46bf c06e 19bf
000001a0: 6e94 07be 65a3 22be d294 87bd cc97 963d
000001b0: 4f8b 48bf 8f86 cebe c20a 72be a9f8 24bf
000001c0: 5ba7 5c3d 5cbe 14bf 9741 cabe 351d 69bf
000001d0: eb18 c2be cc8a 54bf a824 26bf 9ec0 76bf
000001e0: bac5 33bf 3151 26bf 36a5 7cbf e01b dfbe
000001f0: 9123 abbe 18f8 cfbe 66b0 7dbf d84a 16bf
00000200: 1145 b4be b835 19bd 58fa 583e 8545 aebd
00000210: 7f65 0dbd 32dd 30bf f19d 6dbf dd4a 21bf
00000220: 06d0 cbbe ae2b 743e 1ee8 fe3d 1635 313e
00000230: e32b 86be f0f4 2bbe 4471 d5bd 963f 82bf
00000240: 7262 f93d af5d 8dbe 5cdc a83d b47b 2cbf
00000250: 788f a23d 18ba 11be 7434 e2be 8a49 09be
00000260: 8ded a8be 107a 67bf 01b3 30bf 0c65 acbe
00000270: 8376 51be 4d45 2abe 758f 30bf 0785 0bbf
-0.23369588 0.19175206 -0.2823192 0.031997856 -0.16335042 -1.6750054 -0.54961795 -0.87087536
-0.10549399 -0.16132684 -0.10791095 -0.1316124 0.029533664 -0.50273144 -0.033359822 0.33417228
-0.17127188 -0.44274822 -0.09750547 -1.5066341 -0.19307677 -0.58164954 0.2973008 -0.8428731
-0.20028745 -0.37371403 -0.39483494 -0.15422791 -0.27727363 -0.2934891 -0.16465725 -0.96572435
-0.05260543 -0.2242247 -0.26918525 0.23107477 -0.0056075216 1.0611008 -0.41284677 2.0856016
1.9645468 0.08575366 1.4853784 -0.02290357 2.9126287 -0.09883241 0.08355499 -1.9036145
0.19398277 0.23572154 3.0632946 0.08363166 0.8175553 0.31078038 1.8213141 -0.65578717
0.31843662 -0.3111589 -1.7868534 -2.1318955 0.2768832 0.38142094 1.0216873 0.9637991
-0.05462386 0.046342466 0.032980956 -0.28583884 -0.21496212 1.037998 2.1149907 -0.6463552
-1.9789894 0.1761848 -1.2605085 -0.033386268 -2.3835611 0.08196354 0.18876138 0.66962296
0.11048737 0.16849361 -2.7998824 2.3230186 -0.33312744 -0.26585335 -2.484528 2.0819905
-0.004308977 -0.21518265 2.120743 2.5714812 -0.23986647 0.21065418 -0.6162378 0.9000757
-0.37710255 0.07964418 -0.12133617 -0.044514842 0.011944549 -0.67084795 -0.7765151 -0.59934616
-0.13240215 -0.15882643 -0.06620182 0.07353172 -0.7833757 -0.40337035 -0.23636916 -0.64441925
0.05387054 -0.58102965 -0.39503166 -0.9106019 -0.37909636 -0.8302429 -0.64899683 -0.9638766
-0.7022358 -0.6496764 -0.9868959 -0.43575954 -0.33425573 -0.40618968 -0.9909729 -0.5870795
-0.35208943 -0.037404746 0.21189249 -0.085093535 -0.034520622 -0.6908752 -0.92819124 -0.6300486
-0.39807147 0.23844787 0.124466166 0.17305407 -0.26205358 -0.16792655 -0.10421994 -1.0175655
0.1217698 -0.27610537 0.08245155 -0.67376256 0.07937521 -0.14231145 -0.44180644 -0.13406959
-0.32993737 -0.9042063 -0.6902314 -0.33670843 -0.20455365 -0.16627999 -0.689689 -0.5449986

pi.bias f4 [5]
00000000: 31d5 a9bf 89a8 d83f 067c fa3e 712c e9be
00000010: 918d aabe
-1.3268186 1.6926433 0.48922747 -0.4554172 -0.33311132
