code/tmp/maddpg/k_1/Keep_Awayadversary_0+0/adversary_0_target_actorBest.pt (torch, 8447 bytes, 6 tensors)

fc1.weight f4 [32, 8]
00000000: 371f 4abf 7900 e53e 9fec 50bf fdb1 613d
00000010: 5d29 f1be 1371 ce3e f329 d1be 95a1 e1bd
00000020: dfe9 1e3f e5e6 76bf 21f9 293f 14f8 9dbf
00000030: aeb0 bb3f b249 ba3e aba6 933e c729 553f
00000040: d52a 21bf 2a85 8abf fa23 cfbd f66a b4bf
00000050: 4a76 4dbc 4355 c9bd acad 16bf 2463 5bbe
00000060: bd6e e7be 62a3 003f a9b7 333e 9f03 09bf
00000070: e63c 313e e9a3 ef3e f1a9 6b3e 7795 08bd
00000080: a8f7 603e 5772 85bf 860c 84be 3690 b33c
00000090: b781 1dbe 0a05 01bf b913 e7bf 493b e9bd
000000a0: 18a9 d8bd e0e0 d3bc cb5e 933e fb85 c7be
000000b0: 178c 483d 96d5 c2be 6bc9 483e 5519 3f3e
000000c0: b6c0 063c d46d 1a3f c056 5dbe bb86 0a3e
000000d0: 29f2 a33e fb08 c73e d0bc 9f3e a4fc 80bd
000000e0: 347e 9dbf 329c bf3f f639 38bf a962 a43e
000000f0: 4bf0 813e fa70 3ebf 8106 ba3b 3724 5e3f
00000100: d7c1 97bf af8b 163e 9533 2bbf 5fc7 11bd
00000110: e897 98bf b9d6 ac3d 39da 21bf 9a38 4a3e
00000120: 8f83 42be 08aa a2be bee8 f4bc 40b6 24be
00000130: fdd5 743e 4926 603e 7a8d 0cbf 255a e93d
00000140: fe98 7abf 6f75 c83f f384 dfbe 8068 993f
00000150: 7dd5 32be 2ba1 d6be 92b0 393e caa8 8f3f
00000160: 9f1c 09bf 9817 913e 6daa e2be 7050 fcbd
00000170: c7b3 97be cb2e c23e 0af6 bfbd 75a5 3d3d
00000180: 31e1 a7bf adde ab3e f9ec 7abf 42fb 3e3e
00000190: 2342 14bf 55d0 2d3f 1108 fabe e4fd 55bd
000001a0: e9b7 b4bf 3c7c d23f 9610 4ebf 903b 273f
000001b0: 0e94 39bf 6296 87bc dbac 993d 0245 ba3f
000001c0: 0445 6c3d 0a64 763d 2aa2 81be ecc4 e8bd
000001d0: a298 b73e 0e97 05be 5a52 74bb 7014 143e
000001e0: be50 053f b14b 693f 66d5 7b3f f467 28bd
000001f0: 439a ca3f 071d 543f 0968 6d3e e6df f33f
00000200: bfad 423e 18e7 2fbe 068b b13e 8ee0 7fbf
00000210: e89c 133f dfb4 12be 08ed 1b3f 556e 35be
00000220: bbd5 c1bf a9b5 eb3e aa13 86bf 4c34 983e
00000230: 29bf b8bf e9fd 203f eb0e 0cbf f436 13be
00000240: b26c c93a 440e 193f 85cd a83e 902a 2e3f
00000250: ae18 8cbd d72a 133e a6d2 893c 3de3 773e
00000260: a32b 9e3e dd19 fe3f 337d 19bf b664 f43f
00000270: b656 87be 9ca4 113f fc4a 553e f251 c23f
00000280: 6c32 1d3f 6d10 abbf 7ee2 cd3e db7b 1dbf
00000290: b1ad 21bf 4030 99bf 557c 22be 020b 73bf
000002a0: b0e5 a03f 0224 8cbf fdea 643f ca57 37bf
000002b0: 7e6b 0cbf 7c87 a6bf ffdd d43f 46be 76bf
000002c0: 935b 1cb9 a76b 963e afe6 8b3e 4451 92bd
000002d0: af5b 85bb 6f0c 0d3d 5677 c0be 58ea 23be
000002e0: 76d2 c23d c8ae 9c3c 0dcd a33e e094 68be
000002f0: 97d2 8f3e 0160 693f 56f2 b8be ea3c bcbe
00000300: 56e5 b6be 2568 6fbe da34 f3be a2e5 8e3d
00000310: 2a1c 763d 9f49 0ebe 1585 6c3e e9ff 28be
00000320: 9695 3cbf 14f5 aabe ab36 15bf a7f1 48bf
00000330: 4fb8 cd3e 5b4f 9abe 0f32 c1bf b898 95be
00000340: 3c85 ddbe dddb 7fbe 885a 80be 4745 df3c
00000350: 7633 f73e bcac 25be a1fe 7f3d 37e1 0b3e
00000360: 7e73 fabe 86c1 03bf 1b94 9abf c6d0 0e3f
00000370: 9b5f 90bf a109 a13e 9db8 efbf 4753 0cbe
00000380: c20d 7ebf 1078 9f3f 5f3b 873d f39d 063f
00000390: 6f35 1bbf 338e 92bf db6a 0b3f ce5a 4e3f
000003a0: 6aea f6bd 1830 e8be b367 ce3e cfdd 8dbe
000003b0: f4ae 183e bcb4 ec3d 928b bbbe f3b1 cbbe
000003c0: 0c6c 96bf 06dc b03c 749b 6ebf 7afd f1bb
000003d0: c8e6 dbbf cfc2 9ebd 3698 fabe 5da3 65bb
000003e0: 295c bcbe f898 163f ea40 f33d 4720 c83d
000003f0: cac6 713d 0ad8 84bd 1ef2 8dbe 77d4 ca3e
-0.7895388 0.44726923 -0.81611055 0.055101383 -0.4710187 0.40320644 -0.40852317 -0.110171475
0.6207561 -0.9644607 0.66395766 -1.2341332 1.4663293 0.3638435 0.28838095 0.8326687
-0.6295598 -1.0821888 -0.10114284 -1.4095142 -0.012540409 -0.098307155 -0.5885875 -0.21424538
-0.45201674 0.502493 0.1755053 -0.5352115 0.17308387 0.4680474 0.23014046 -0.033345666
0.21969473 -1.0425519 -0.25790805 0.021919351 -0.15381514 -0.50398314 -1.8052894 -0.11388261
-0.10579127 -0.025864065 0.2878326 -0.38969406 0.048961725 -0.38053578 0.19608085 0.18662007
0.008224657 0.60323834 -0.21615124 0.13527958 0.3202069 0.3887404 0.3119874 -0.062981874
-1.2304139 1.4969542 -0.7196344 0.32106522 0.2537864 -0.7439114 0.005677045 0.8677401
-1.185603 0.14701723 -0.6687558 -0.035590526 -1.1921358 0.084393926 -0.63223606 0.19748154
-0.18995498 -0.3177035 -0.029896136 -0.16085148 0.23909755 0.21889605 -0.54903376 0.11394147
-0.978897 1.5660838 -0.4365612 1.1985016 -0.17464252 -0.41919836 0.18133762 1.1223385
-0.535593 0.28338313 -0.4427065 -0.1232003 -0.29629347 0.37926325 -0.093731 0.04630037
-1.3115598 0.33568326 -0.9801784 0.18650535 -0.57913417 0.67896014 -0.4883428 -0.052244082
-1.4118625 1.6444163 -0.8049406 0.6532526 -0.7249154 -0.0165512 0.07503673 1.455231
0.057683006 0.060154 -0.25319034 -0.11365685 0.35858637 -0.13045904 -0.003728053 0.14460921
0.5207633 0.9113112 0.98372495 -0.041114762 1.5828327 0.8285679 0.23184218 1.9052703
0.19011591 -0.17177999 0.3467638 -0.9995202 0.57661295 -0.1432681 0.60908556 -0.1771787
-1.514335 0.46037033 -1.0474751 0.297274 -1.4433337 0.62887436 -0.54710263 -0.14376432
0.0015367477 0.5978739 0.329693 0.68033695 -0.06840645 0.14371811 0.016824078 0.24207778
0.30892667 1.9851643 -0.59956664 1.9093235 -0.26433343 0.568918 0.20829386 1.5181258
0.6140506 -1.3364388 0.40211862 -0.61517113 -0.6315566 -1.196785 -0.15867741 -0.9493867
1.2570095 -1.0948489 0.89421064 -0.7161833 -0.5485152 -1.3010097 1.6630248 -0.96384084
-0.00014911433 0.29379007 0.27324435 -0.071444064 -0.0040697674 0.034435686 -0.37591046 -0.16007364
0.095127985 0.019126311 0.3199238 -0.22713041 0.28090355 0.91162115 -0.36122388 -0.36765224
-0.35721844 -0.23379572 -0.4750126 0.06977393 0.060085453 -0.13895272 0.23097642 -0.16503872
-0.7366575 -0.33390105 -0.5828654 -0.7849373 0.4017968 -0.30138668 -1.5093402 -0.29218078
-0.43265712 -0.24986215 -0.2506907 0.027254714 0.4828145 -0.16179174 0.062498692 0.13660131
-0.4891624 -0.5146717 -1.2076448 0.55787313 -1.1279176 0.3145266 -1.8728215 -0.13703643
-0.9923974 1.2458515 0.06603121 0.5258476 -0.6062841 -1.1449646 0.54459924 0.80607307
-0.1205643 -0.45349193 0.4031349 -0.2770829 0.1491049 0.1155791 -0.3662992 -0.39784202
-1.1751723 0.02158929 -0.9320595 -0.007384953 -1.7179804 -0.077520005 -0.48944253 -0.003504
-0.36789063 0.5882716 0.11877616 0.097717814 0.05902747 -0.06486519 -0.27723783 0.39615223

fc1.bias f4 [32]
00000000: d9d6 a03e 63e9 4e3f 1ea0 cabd 8098 91bf
00000010: 5af4 0bbe dd5a afbf 1c3b 6dbf 23b1 ce3d
00000020: b2fa 02bf b5cc abbf 52db b53e 976d 4bbf
00000030: 4c0a 1f3f 3ea0 fe3e 500b 95bf 4237 b53e
00000040: 11cd 2ebf 67e1 52be 830f 05bf b891 d23f
00000050: ff55 dabe bff9 863f dde0 61bf f3ac 90bf
00000060: 7c95 93bf f987 b6be d729 8fbf 2d60 a53e
00000070: 58b6 1b3f 948b 2dbf e692 84bc f4f4 5dbf
0.31413916 0.8082487 -0.09893821 -1.1374664 -0.13667431 -1.3699604 -0.9266832 0.1009238
-0.5116378 -1.3421847 0.3551889 -0.79464096 0.62125087 0.4973163 -1.1644077 0.3539372
-0.68281657 -0.20593797 -0.51976794 1.645072 -0.42643735 1.0544966 -0.8823374 -1.130278
-1.1529994 -0.35650614 -1.1184644 0.3229994 0.6082511 -0.67791104 -0.016183328 -0.86701894

fc2.weight f4 [32, 32]
00000000: 7a6f b8be 8826 a13d cc18 8eba 31a7 20be
00000010: 3eb2 3bbd 6f03 42be e359 cfbe 11fe 2abe
00000020: cc0c 293e 4c9d 93be 06be b5be 3d77 b03c
00000030: ae03 033e 33b0 84be eca6 14bc 08f1 d2bd
00000040: 8d7c e6bc 9f7e c1be dddc eabe a057 d4be
00000050: 1f10 09be 25aa 64be c8b5 1fbe 3c36 263b
00000060: 3afb 413b 79e1 a5bd acc2 dfbd a11b f73d
00000070: bed1 bcbe e2a9 71be 8fbb 01be 7418 56bd
00000080: ae33 7bbb 3218 fcbf 41bf 2fbf 0f0d 43bd
00000090: 27ec 4bbe 59a3 f33e bed3 443e d32b 8cbe
000000a0: a740 40be 2897 15be 5c99 16be 978a db3b
000000b0: 1c35 95bf bcc3 9dbe 413c 303e 81b5 21bf
000000c0: a0d4 ad3d 40ca 00be e019 17bd 8379 84be
000000d0: ead6 b3be ad61 abbe ffa9 0cbe 858e 263d
000000e0: 8d94 e2bd fdfd a5be 55b8 313d 919e a3bf
000000f0: ef6d 03bd 0b8c 193e 42d3 f4bc 1be9 503e
00000100: d86e 80be 5687 35bf 2a69 bebe bf9a 41bd
00000110: 6507 3c3d ac81 15be 2815 5abf 3566 21bf
00000120: 2c2e a53d 935c c7be e78b 41bf 6a37 3fbe
00000130: e291 75be 408c 92be 0587 21be 061b 33bf
00000140: fe8a 34bf 9ec6 35bf 32ac b4be ec70 1dbf
00000150: bb79 08bf 5f7f 44bf 5c29 d8be a301 ccbe
00000160: 14e5 dcbe 2fd0 953d c023 99be 3789 49be
00000170: 8ba8 4ebf 2657 b6be 3638 81be 09de 6abc
00000180: e354 94bf eed9 71bf 3418 d5bd 45cb 38be
00000190: d344 0cbf 3956 f7be 7f75 9b3e d273 c0bc
000001a0: 3b78 02bf 55f3 23bf b0fd 1c3e d2a9 b7be
000001b0: d6ce 40bf 27bf 46be a64b fabd 1c0b 5cbe
000001c0: 7f53 803d c22c bdbd 3600 4bbe 1005 95be
000001d0: d072 e3be 8b2c 923e 8756 40be f872 94bd
000001e0: fe64 32bf d046 223d 56ce bebb 6e42 84bf
000001f0: 9bb0 8fbc 6e3c c53d f56f 2fbf d09e a43e
00000200: a352 4b3f f724 883f bbd2 4e3f 578f 153e
00000210: f18d b83f 8bad 093f d6d4 3f3f 95c3 6c3f
00000220: e73b 463f 50f5 e03e d94e 3f3f 80af a23e
00000230: 0206 783f 96fc 083f 33c9 843e b43b a63f
00000240: c821 273e a1fe 263f b363 d73e d3e7 4e3f
00000250: 36e2 cfbd f683 b43e 98db 9a3e 7f9f 143f
00000260: 356d 7d3e 5937 ac3f 6819 6b3e 96c0 793f
00000270: 9ea3 7f3f a987 223f ef32 113f d1f2 6f3f
00000280: 73c9 85be a91f ebbe 7d03 63be 2819 aa3e
00000290: dfcd 923e e4ac af3e 4afb 3bbe 6925 29bf
000002a0: 96c4 00be a79f 85be 7425 d8be f4a0 ab3d
000002b0: 7cb5 ef3d db04 83bd f300 43be 1aee 32bf
000002c0: d760 4abf ad08 65be 3267 f3bd 6f4b 0fbf
000002d0: af09 42bf 72ab 71bf 38ba 5ebe d00a 93bd
000002e0: 5124 6ebe f7a0 84bb c323 0bbe 4217 f2bd
000002f0: 3321 07bf 4464 53ba 2b4b c3bd 7423 293d
00000300: d3fb 93be caec 333d 268a babd 1b9b 1dbf
00000310: b43d aebf 23e6 01bf 4925 753e 9d38 fcbd
00000320: 22dc 4b3c cf7f 4cbf e4cc d93e 619e b53e
00000330: 5b0b 1dbe f6ea 40be 5978 f63d 5368 c43e
00000340: 1373 963b 5d26 7ebe 216e fcbe 3fa8 c53e
00000350: 4982 b23d c6da 44be d04e 693d aec3 bcbe
00000360: b6c1 8a3e 2450 dabe ae1c 033e c670 85be
00000370: 549c 253d 3be5 4dbe f3dc 48bf 6a6c 0b3d
00000380: 5294 45bf c574 e33e cbfc 81be aa4f 3c3e
00000390: 9100 35bf edd8 edbe c57e b23e ed78 e43e
000003a0: 5c56 5dbe bfa8 87be abf4 5fbe e42e eb3e
000003b0: 067f 0cbf 3f62 d9bd 3d48 bc3b 2a9a ba3e
000003c0: 7fb1 11be 4285 41be 1540 2b3e c805 1b3f
000003d0: b6f9 09be 7634 bb3e c39b 803e 7399 cdbe
000003e0: 4c2a e23e 64a6 15bf a72b 903e 6f65 d3be
000003f0: 7a04 8ebe 9ad6 78bf 1e91 40bf c082 1ebe
-0.3602255 0.078686774 -0.001084113 -0.15688778 -0.045824282 -0.18946622 -0.40498266 -0.16698481
0.16508788 -0.28830945 -0.3549654 0.021541232 0.12794372 -0.2591568 -0.009073 -0.10299879
-0.028135562 -0.37791917 -0.4587163 -0.41473103 -0.13385056 -0.2233053 -0.15596688 0.0025361916
0.0029599206 -0.08099646 -0.109258026 0.12065817 -0.3687877 -0.23599961 -0.12669204 -0.052269414
-0.0038330364 -1.9694884 -0.68651205 -0.047619876 -0.19914304 0.47585562 0.19221398 -0.27377185
-0.18774663 -0.14608443 -0.1470694 0.006699871 -1.1656833 -0.30813396 0.17210485 -0.6316758
0.084878206 -0.12577152 -0.03688991 -0.25873956 -0.35124904 -0.33472958 -0.13736723 0.04066326
-0.1106349 -0.3242034 0.043388683 -1.2782766 -0.032087263 0.14994828 -0.029885892 0.20401423
-0.25084567 -0.7090963 -0.3718961 -0.047266718 0.04590549 -0.14600247 -0.8518853 -0.6304658
0.08065447 -0.38937816 -0.756041 -0.18673483 -0.23981431 -0.28622627 -0.15774162 -0.6996311
-0.70524585 -0.7100619 -0.35287625 -0.6150043 -0.53310746 -0.7675685 -0.42219055 -0.39845
-0.43143523 0.073150985 -0.29910088 -0.1968125 -0.80725926 -0.35613364 -0.25238198 -0.014335164
-1.1588405 -0.9447316 -0.10405007 -0.18046291 -0.5479252 -0.4830797 0.3036308 -0.023492727
-0.5096471 -0.6404317 0.15331149 -0.3587175 -0.75315607 -0.19408856 -0.1222146 -0.21488613
0.062659256 -0.092370525 -0.19824299 -0.29105425 -0.44423532 0.2854961 -0.18783008 -0.07248491
-0.6968535 0.039618313 -0.005822937 -1.0332773 -0.017540267 0.09630667 -0.6853021 0.32152414
0.7942297 1.0636281 0.807903 0.14605461 1.4418317 0.5378043 0.74934137 0.92485934
0.77435154 0.4393716 0.74729687 0.3177452 0.9688417 0.53510416 0.25934753 1.298697
0.1632148 0.6523228 0.42068252 0.80822486 -0.10150568 0.35256928 0.30245662 0.5805587
0.2474869 1.3454391 0.2295891 0.9755949 0.99859035 0.6348825 0.56718343 0.93729883
-0.26130256 -0.45922592 -0.221693 0.33222318 0.28672692 0.34311593 -0.18357578 -0.6607271
-0.12574992 -0.26098368 -0.42216074 0.08380309 0.11704537 -0.063974105 -0.19043331 -0.69894564
-0.79054016 -0.22366591 -0.11884917 -0.5597448 -0.75796026 -0.9440223 -0.21750724 -0.07179797
-0.23256041 -0.004047509 -0.13587861 -0.11820842 -0.52785033 -0.0008063952 -0.095358215 0.041293576
-0.28903064 0.04392699 -0.09108381 -0.615648 -1.361258 -0.50741786 0.23940004 -0.123154856
0.0124426205 -0.7988252 0.42539132 0.35472396 -0.15336363 -0.1883963 0.12034673 0.38360843
0.0045913546 -0.24819322 -0.49302772 0.38604924 0.08716256 -0.1922408 0.056959927 -0.36868042
0.27100915 -0.42639267 0.12803909 -0.26062602 0.04043229 -0.20106976 -0.7846214 0.03403894
-0.77179444 0.44425026 -0.25388178 0.18389764 -0.7070399 -0.46454564 0.34862342 0.4462351
-0.21614975 -0.2649593 -0.21870677 0.45934212 -0.5488132 -0.10614442 0.005745916 0.36445743
-0.14227866 -0.1889849 0.16723664 0.60555696 -0.13474163 0.36563462 0.25118837 -0.40156135
0.44172895 -0.58457017 0.28158304 -0.41288325 -0.2773779 -0.97202456 -0.7522143 -0.15479565

fc2.bias f4 [32]
00000000: a06f 50be 0cbe 19bf 34cc 00bf 8d2b 67bc
00000010: a4a5 d23f af43 09bf dde8 a83b 0412 68be
00000020: ae8e b0be e895 90bd ade4 aa3e f234 f2be
00000030: 6c16 d13c 4ce9 1740 52e3 7cbe 2624 f2bd
00000040: 7d22 a2bd 970a 8fbe a685 c13e 847c d0be
00000050: 8617 bebb effd 44bf 6d35 29bf e2f2 423f
00000060: b731 0940 a0a8 53be 4d52 2cbf 4961 6b3f
00000070: 4cd2 1fbe 5889 16bf 761c ffbe f801 12bf
-0.20355082 -0.60055614 -0.5031159 -0.014109504 1.64568 -0.536189 0.0051547126 -0.22663122
-0.34483856 -0.07059842 0.3337759 -0.4730602 0.025523387 2.3736143 -0.24696091 -0.11823301
-0.07916734 -0.27937767 0.37797278 -0.40719998 -0.005801144 -0.7694997 -0.66097146 0.7615186
2.1436594 -0.20669794 -0.6731308 0.9194532 -0.15607566 -0.5880332 -0.498264 -0.57034254

pi.weight f4 [5, 32]
00000000: 4734 0d3e ec76 9cbe 995a bc3d 407a 2e3e
00000010: a157 adbd 951c f33c eac1 033f 9513 a8bc
00000020: 55cf 693d 46f2 be3d cd12 a8bf 67f9 0ebe
00000030: 5c92 133e 837e 583e 19f0 21be dac9 773e
00000040: 2098 9c3d 7c01 9b3e 6b3b cfbd 472d 8abd
00000050: 3222 b2bc 042d 17be c62d ccbe a395 04be
00000060: 1009 653e ca9b f4bb 4fe7 9abe 125d 89bf
00000070: 4aaa fcbd 6368 d7bc c25e bd3e 9a43 043f
00000080: 18c2 58be 295b f8be ee49 80be b085 973e
00000090: 783c 9b3f 7d86 3bbf 2e18 313f 0a8f 333f
000000a0: 8569 68bf 04c8 6bb8 0cd6 953f ebc7 c23d
000000b0: f99a 77be 84dc d93f bafd 32bb 083c 53be
000000c0: dc2a 1ebd 8e35 cfbd 2b9c 423f a2a3 8a3c
000000d0: 9be0 c7bc becc 81be 861d bd3c f450 573f
000000e0: 5cbe d43f 4de9 70be 0d57 ffbe 20da aa3f
000000f0: c22b b9be 8cf6 da3e 6d29 ebbe 02ac 863e
00000100: 9888 2cbe 5c4f 1abd 13fe 83be 04e1 923e
00000110: 2a47 0cbf a416 95be 767b 843e 1abc 4bbe
00000120: 3e78 74be 516d 3f3c cf4b 9dbf 164e 8a3e
00000130: 1281 03be 71ec 223e 98c8 19be 6095 513d
00000140: 42e0 763c dc59 12be aab7 0cba 107d 1abd
00000150: a54b a1be 09dd 26bf 1654 89bc 7c9f a2bd
00000160: fa56 3a3e 7b9a cebe 5f2f 49be 842b 2a3f
00000170: e3a8 5fbd 02c0 cb3a eea9 b9be e94d 353e
00000180: 594d a03d 5e0a b2bd 5e6d 473f e55c 743f
00000190: f8d2 9dbf 3fd3 1b3f 19d1 223d d311 883e
000001a0: 9506 3f3f 1210 b23d 96be ca3f ae6c 7ebe
000001b0: a0a9 17be 7e4b f0bf bd7a e53e 0a6f b0bd
000001c0: b571 b63d 1bf2 823e 47f4 06be 6152 71bd
000001d0: 9d42 b23d 89d9 313f 1cd7 2c3f 895f 64bd
000001e0: d22b f3bf 13ac 403f 60a6 233f 4db8 b43f
000001f0: 0ed7 cb3d 2c71 debc a56b e43e 2ed0 7c3e
00000200: cd5a 753e 1ae0 ac3e eeed 0fbd 2282 c13d
00000210: 948a 803f 40e6 1c3e 3170 25bf cde2 afbe
00000220: bf23 c03e e04c 5bbd 0dcd 633f b4d0 a23d
00000230: 84dc 193e 586f d23e a320 0bbd 3ae4 303e
00000240: 885d 1c3d fca7 52bd ca68 c9be 6404 803c
00000250: cb16 863e c356 cf3d a51a 253e eb99 d2be
00000260: 34db 9a3e 32bf b5bc 3c38 2e3d 2d22 e73e
00000270: e6d5 3dbe aea2 f5bd 0e33 853c 5c3c d9bc
0.13789473 -0.3055948 0.09196968 0.17038822 -0.084639795 0.029676715 0.51467764 -0.02051715
0.057082493 0.09323554 -1.3130738 -0.13962327 0.144113 0.2114201 -0.15814246 0.24198094
0.07646203 0.3027457 -0.10118755 -0.06746917 -0.021744821 -0.14763266 -0.39878672 -0.12947707
0.22366738 -0.0074648606 -0.302546 -1.0731528 -0.123371676 -0.026294893 0.36986357 0.5166565
-0.21167791 -0.4850705 -0.25056404 0.29594183 1.2127829 -0.7325209 0.6917752 0.70140135
-0.9078601 -5.6214645e-05 1.1705947 0.095107876 -0.24180211 1.7020421 -0.0027311877 -0.20628369
-0.038615093 -0.101176366 0.76019543 0.01692373 -0.024399092 -0.25351518 0.023085367 0.841079
1.6620593 -0.23526497 -0.49871102 1.3347816 -0.36166197 0.42766225 -0.45930043 0.26303107
-0.16848981 -0.03767334 -0.2577978 0.28687298 -0.5479609 -0.29118836 0.25875443 -0.19895974
-0.23873994 0.011683778 -1.228876 0.270127 -0.12842205 0.15910508 -0.15017927 0.051167846
0.015068116 -0.14292091 -0.0005367944 -0.037716925 -0.31503025 -0.6518102 -0.016763728 -0.079405755
0.18197241 -0.40352234 -0.19646977 0.6647265 -0.054604422 0.0015544894 -0.3626246 0.17705502
0.07827253 -0.08693384 0.77901256 0.95454246 -1.2330008 0.6086921 0.039750192 0.265761
0.7461942 0.086944714 1.5839412 -0.24846146 -0.148108 -1.8773038 0.44820204 -0.08614929
0.08908407 0.25575337 -0.13179122 -0.058916453 0.08704112 0.6947256 0.6751573 -0.055755172
-1.8997748 0.75262564 0.63925743 1.4118744 0.09953128 -0.027153574 0.44613376 0.24688789
0.23960419 0.33764726 -0.035139017 0.09448649 1.0042291 0.15322208 -0.64624316 -0.34352723
0.37527272 -0.05354011 0.8898476 0.07949963 0.15025526 0.41100574 -0.03396667 0.17274562
0.038175136 -0.051429734 -0.3933776 0.015627094 0.26189265 0.1012397 0.16123445 -0.41133055
0.30245364 -0.022185896 0.042534098 0.45143262 -0.18538627 -0.11993919 0.016259696 -0.02651804

pi.bias f4 [5]
00000000: a9c2 edbe 19e0 2c3f 8857 9dbe 6267 babd
00000010: 06cd ff3d
-0.46437576 0.67529446 -0.30730844 -0.0910175 0.12490277
