code/tmp/maddpg/k_2/Waterworldpursuer_1+0/pursuer_1_target_actorRegular.pt (torch, 38023 bytes, 6 tensors)

fc1.weight f4 [32, 242]
0.015448653 -0.05466664 -0.016040465 -0.019435883 -0.015688285 0.00244271 -0.037398785 -0.08235098
0.0059763724 -0.0050884024 -0.09441497 0.022279771 -0.0264562 -0.03575705 -0.0064833853 -0.04589357
-0.06916418 -0.05504215 -0.0841041 -0.09866702 -0.07769808 0.002857242 -0.08529843 -0.055842344
-0.06280753 -0.09667846 -0.017492583 -0.084431924 0.012449605 0.011031107 -0.0068315137 -0.07302359
0.020238496 -0.0068634585 -0.08133248 -0.075505376 -0.06902485 -0.08322642 -0.100618325 -0.10394427
-0.024850225 0.0062782606 0.02217714 -0.09234892 -0.07279858 0.019691996 -0.047699597 -0.07015809
-0.037044138 -0.04160427 -0.03721848 0.02171241 -0.073761195 -0.007328422 -0.057629738 -0.092694625
0.021527076 0.013930596 0.0070335176 -0.04730397 -0.05844185 -0.037471056 -0.07528335 -0.08819075
-0.04864992 -0.011056999 0.008657815 -0.100924544 -0.0013969329 -0.0009405756 0.02174482 -0.08527086
-0.008807946 -0.08930983 0.02147492 -0.091937646 -0.08274735 -0.07846252 -0.10266501 -0.046648316
-0.06405755 -0.0038278676 0.013514481 -0.0665751 0.01780234 -0.02082728 -0.001965669 -0.03351442
-0.03200307 -0.045732267 0.033176336 -0.05348172 -0.025156671 -0.02716739 -0.016945945 0.013598512
-0.004600382 -0.02834325 -0.06072808 -0.054207627 0.047069684 -0.03463587 0.03567365 -0.041894715
-0.023660267 -0.046022777 0.044119757 -0.05505363 0.060052175 -0.022680828 0.038919702 -0.055906206
-0.008192341 0.020108966 0.018091265 -0.038445856 -0.022146221 0.006058824 -0.023125414 -0.02100828
-0.012621062 0.09673434 -0.10002377 -0.101931125 -0.08499444 -0.0058876644 -0.071374774 -0.060326852
-0.003961315 -0.0776802 -0.0632432 0.009349509 -0.10248023 -0.04485943 0.0017612083 -0.07528633
-0.080924936 0.0035512643 -0.022858683 0.020564273 -0.03184959 -0.032593157 7.5035925e-05 -0.0051051197
-0.004384042 -0.055600945 0.015961673 -0.03438018 0.019884223 -0.018495431 0.040696044 -0.016472038
-0.013182492 -0.050253656 -0.09016143 0.02689923 0.036974378 0.028677098 -0.0075608073 -0.048989456
-0.015286325 0.056329828 0.03686574 0.057190835 -0.01912515 -0.05043015 0.013879485 -0.055479996
0.005184997 -0.028502816 -0.03586856 -0.047009036 0.0082904 -0.03798403 0.029326726 0.028501146
-0.003539768 -0.016410427 -0.048696484 0.003380902 0.013796672 -0.030041609 -0.07509261 -0.02070118
-0.0812699 -0.026438132 -0.08316458 -0.054308638 -0.07143736 -0.055465344 0.016011033 -0.04287981
-0.05975502 -0.04256651 -0.023163784 -0.011970534 -0.009252559 0.016182955 -0.08719982 -0.075296015
-0.08084745 -0.10253686 -0.101455025 -0.03934041 0.014993795 -0.00823127 -0.07558584 -0.04712292
-0.06240631 0.013411104 -0.03817636 0.03701491 0.042322945 -0.04382046 0.008923936 -0.01362193
-0.014695121 0.04219176 0.05040381 -0.025029343 0.010338246 0.018454809 -0.017306974 -0.007447087
-0.058148947 0.022350129 0.06185987 -0.017441293 -0.05030577 0.06410623 0.025773168 -0.055060964
-0.0031509367 -0.009484757 -0.022674613 -0.032026034 0.02772044 -0.0037994157 -0.0008110356 -0.015318134
-0.022609584 0.020258449 -0.050416213 -0.040519837 0.022997005 0.009617382 -0.051945467 -0.0039678346
-0.03429755 -0.02355149 -0.008087213 0.027369985 0.030784884 -0.0028103595 0.05907529 -0.040176313
00000000: 591c 7d3c 20ea 5fbd 4b67 83bc 0038 9fbc
00000010: b884 80bc e015 203b 782f 19bd a1a7 a8bd
00000020: 72d5 c33b 9dbc a6bb a35c c1bd 1184 b63c
00000030: acba d8bc fc75 12bd 9472 d4bb e5fa 3bbd
00000040: f3a5 8dbd e173 61bd c53e acbd ef11 cabd
00000050: 2c20 9fbd 9140 3b3b f1b0 aebd f1ba 64bd
00000060: 3ca1 80bd 5bff c5bd 9b4c 8fbc a5ea acbd
00000070: 6ef9 4b3c d1bb 343c e4da dfbb 648d 95bd
00000080: 34cb a53c dde6 e0bb a591 a6bd 90a2 9abd
00000090: e75c 8dbd 9d72 aabd fb10 cebd bce0 d4bd
000000a0: b392 cbbc deb9 cd3b d5ac b53c 6e21 bdbd
000000b0: 6c17 95bd 1c51 a13c a760 43bd 0baf 8fbd
000000c0: 98bb 17bd 3d69 2abd 6872 18bd 39de b13c
000000d0: 1c10 97bd 4223 f0bb 290d 6cbd aed6 bdbd
000000e0: 8d59 b03c 283d 643c 6c79 e63b cfc1 41bd
000000f0: b960 6fbd 407b 19bd 282e 9abd 5a9d b4bd
00000100: 2345 47bd 6a28 35bc 82d9 0d3c 87b1 cebd
00000110: 4a19 b7ba f690 76ba 3122 b23c 7da2 aebd
00000120: 344f 10bc 12e8 b6bd 2cec af3c ce49 bcbd
00000130: 7177 a9bd f5b0 a0bd 0842 d2bd 4e12 3fbd
00000140: 9b30 83bd f6dc 7abb d76b 5d3c 8758 88bd
00000150: 37d6 913c f99d aabc 74d2 00bb 6b46 09bd
00000160: a715 03bd c251 3bbd e9e3 073d a60f 5bbd
00000170: 5d15 cebc 258e debc 39d2 8abc 4bcc 5e3c
00000180: cdbe 96bb 1a30 e8bc 02be 78bd d108 5ebd
00000190: 24cc 403d 58de 0dbd 891e 123d cb99 2bbd
000001a0: 2dd3 c1bc 6182 3cbd ebb6 343d ea7f 61bd
000001b0: 45f9 753d 25cd b9bc 446a 1f3d e8fd 64bd
000001c0: 2b39 06bc 8fbb a43c 2234 943c 6779 1dbd
000001d0: fe6b b5bc 1989 c63b 8271 bdbc 8e19 acbc
000001e0: 92c8 4ebc a71c c63d 43d9 ccbd 44c1 d0bd
000001f0: 9111 aebd 4fed c0bb f02c 92bd 4a19 77bd
00000200: ebcd 81bb cc16 9fbd a785 81bd af2e 193c
00000210: 28e1 d1bd 86be 37bd 58d8 e63a b82f 9abd
00000220: f9bb a5bd 54bc 683b 2242 bbbc 6876 a83c
00000230: b774 02bd 6780 05bd 9b5c 9d38 d948 a7bb
00000240: 03a8 8fbb d1bd 63bd 0ec2 823c 3bd2 0cbd
00000250: 3de4 a23c bb83 97bc e5b0 263d 5ef0 86bc
00000260: 61fb 57bc c7d6 4dbd 8ea6 b8bd c65b dc3c
00000270: 7272 173d 3cec ea3c a6c0 f7bb 2ba9 48bd
00000280: 7e73 7abc 1bba 663d 8800 173d f040 6a3d
00000290: 59ac 9cbc d88f 4ebd c866 633c fe3e 63bd
000002a0: e8e6 a93b bd7e e9bc e9ea 12bd 8c8c 40bd
000002b0: 75d4 073c 2495 1bbd 9a3e f03c 3c7b e93c
000002c0: 74fb 67bb 296f 86bc f775 47bd 2092 5d3b
000002d0: 700b 623c d219 f6bc 28ca 99bd 8595 a9bc
000002e0: d570 a6bd c894 d8bc 3152 aabd bc72 5ebd
000002f0: c04d 92bd a12f 63bd 9229 833c bda2 2fbd
00000300: aec1 74bd 395a 2ebd fac1 bdbc 0f20 44bc
00000310: 0c98 17bc 1e92 843c d295 b2bd cc34 9abd
00000320: 5993 a5bd d8fe d1bd a7c7 cfbd 6923 21bd
00000330: 89a8 753c 73dc 06bc c0cc 9abd f703 41bd
00000340: c29d 7fbd 3fba 5b3c d15e 1cbd f29c 173d
00000350: d35a 2d3d 157d 33bd b335 123c 842e 5fbc
00000360: cec3 70bc 44d1 2c3d 3a74 4e3d 560a cdbc
00000370: bf61 293c 8a2e 973c 5bc7 8dbc b206 f4bb
00000380: 972d 6ebd 9e17 b73c c660 7d3d 0be1 8ebc
00000390: 6c0d 4ebd 214a 833d 4022 d33c 9b87 61bd
000003a0: f27f 4ebb f465 1bbc 1cc0 b9bc bb2d 03bd
000003b0: fa15 e33c 9eff 78bb ae9b 54ba e9f8 7abc
000003c0: bc37 b9bc 0cf5 a53c 3b81 4ebd 21f8 25bd
000003d0: 3764 bc3c 3992 1d3c c5c4 54bd 9c04 82bb
000003e0: 967b 0cbd 0eef c0bc 3b80 04bc 0537 e03c
000003f0: 9530 fc3c 022e 38bb eef8 713d eb8f 24bd

fc1.bias f4 [32]
0.0159952 -0.024575083 -0.02215728 0.1257216 0.06530552 -0.09115608 -0.1127233 -0.07115573
0.02330963 0.038022056 0.09637224 -0.008339117 0.1204503 0.01591157 0.033719953 -0.05973284
0.022874488 0.04666052 -0.047707066 0.045693524 0.09967955 -0.04203922 0.015542316 0.06807416
-0.08586616 0.13420819 -0.017921738 -0.11463214 -0.07467687 0.0029330375 -0.04364715 -0.10498586
00000000: 5e08 833c af51 c9bc 2f83 b5bc 2abd 003e
00000010: e7be 853d 0ab0 babd 79db e6bd 18ba 91bd
00000020: d6f3 be3c 04bd 1b3d cf5e c53d cba0 08bc
00000030: a6ae f63d fb58 823c ef1d 0a3d 6caa 74bd
00000040: 4763 bb3c 1a1f 3f3d 7c68 43bd 2229 3b3d
00000050: cb24 cc3d 5131 2cbd 33a5 7e3c 776a 8b3d
00000060: 99da afbd df6d 093e 9cd0 92bc 41c4 eabd
00000070: 30f0 98bd 3438 403b 5bc7 32bd d402 d7bd

fc2.weight f4 [32, 32]
-0.12260259 -0.12622045 -0.12076374 -0.008378512 -0.023694267 0.093909815 -0.01540898 0.09621279
-0.1725072 0.03941221 -0.05130978 0.09300531 0.034838386 -0.05989956 -0.05311582 0.01587126
0.040008128 0.07413051 -0.06957595 -0.21931626 -0.1924539 -0.12850167 0.09379385 -0.15646012
-0.16096623 -0.16346665 0.044532347 0.10186481 0.0754182 -0.107658155 0.031434383 -0.1294279
-0.12648287 -0.14416966 0.082452826 -0.22640027 -0.16412826 -0.1519823 -0.065076046 -0.16381533
0.0039638756 0.14216372 -0.030505035 0.053384762 -0.22525884 0.08915336 0.013674018 -0.10794094
-0.0785855 0.0153835155 0.08972333 -0.16169937 0.054653596 -0.118516244 0.0998463 -0.09200172
-0.14526486 0.047983088 -0.108550966 0.017643271 0.058020517 -0.11103649 -0.13836887 -0.07731289
0.018658388 0.014806146 -0.14454636 0.038271192 -0.16471542 -0.13360682 -0.028899882 -0.1621164
0.08331764 -0.002611524 0.0028028707 -0.0030294943 0.14745559 -0.06258152 0.007732895 0.028998274
-0.027380383 -0.15929987 -0.028519234 -0.12434888 -0.076955885 -0.14564364 0.102662496 -0.014549724
-0.15374531 0.10321039 0.011709026 0.036539126 0.02294192 0.09430471 -0.12361064 0.02515916
0.047620244 0.023634477 0.029719954 -0.052857637 0.08784279 -0.016151851 -0.11669744 -0.14502794
-0.050246205 -0.0719783 -0.12174149 -0.004705768 0.034412213 -0.005329941 -0.07930922 -0.05663411
-0.110057265 0.08695856 0.13612163 0.040919557 -0.23360498 -0.012023758 -0.028481534 -0.198696
-0.19014125 0.059668962 0.009985417 -0.14239639 0.10674568 -0.026113385 0.080745414 -0.016778072
0.017218215 0.03550695 0.09089718 0.13595311 0.1663694 0.21677113 0.14205962 0.1959214
-0.056500226 0.105546705 0.09296657 -0.06566687 0.061865397 0.24193177 -0.12240161 0.013179045
-0.14232759 -0.13469101 -0.015617514 0.08828612 0.08275182 0.070351854 0.016220193 0.07213622
-0.030303309 0.16668381 -0.06020019 -0.09314165 -0.051068377 0.026611878 0.06696462 0.011904038
-0.07254078 0.005138375 -0.11612151 0.23290761 -0.040250868 0.041338656 0.0973207 -0.015733918
0.03261551 -0.1155575 0.1849139 -0.06247783 0.18863921 0.061599784 0.068459444 -0.11337946
-0.12690341 -0.077051416 -0.1175834 0.19677375 -0.038179602 0.14196457 0.072788954 0.1622373
0.061192237 0.17405543 -0.05542697 0.096436314 -0.09550275 -0.01121711 -0.13051419 0.01738902
-0.011862167 -0.17527819 -0.05661348 -0.1735509 0.068894014 -0.018089617 -0.1131003 0.013857954
0.17674902 -0.00996853 0.0021239694 -0.07001968 -0.115377314 -0.12240711 -0.0924508 0.05056665
0.03382428 0.0031430188 0.1666102 0.04078068 -0.13238077 0.10312379 0.15071349 -0.052594017
0.04676924 0.045288876 0.1693526 0.110295035 0.0943347 0.018857807 -0.030919496 -0.047993165
-0.014431376 -0.07911682 -0.16153792 -0.09696331 -0.123508155 -0.14400196 0.13384311 0.083801694
0.15745331 -0.10235286 -0.0068692616 0.09566251 -0.1422481 -0.16548583 0.12477313 -0.082593136
0.12861714 -0.1360299 -0.17552617 0.089160435 -0.09888989 0.14641145 0.04019979 -0.050157763
-0.028300723 -0.17134154 -0.17471921 0.12312112 -0.09138781 0.14342372 -0.00084200973 -0.09671083
00000000: 1117 fbbd ef3f 01be fb52 f7bd 0746 09bc
00000010: 7b1a c2bc ca53 c03d f275 7cbc 360b c53d
00000020: baa5 30be b36e 213d 342a 52bd 9179 be3d
00000030: b2b2 0e3d 3e59 75bd f98f 59bd 7204 823c
00000040: 90df 233d bdd1 973d d67d 8ebd 7194 60be
00000050: a312 45be f195 03be fd16 c03d 1537 20be
00000060: 55d4 24be cd63 27be 8d67 363d 7f9e d03d
00000070: db74 9a3d e17b dcbd 57c1 003d bf88 04be
00000080: ba84 01be 36a1 13be 07dd a83d 79d5 67be
00000090: 3d11 28be 40a1 1bbe 9746 85bd 35bf 27be
000000a0: 66e3 813b 5e93 113e b2e5 f9bc fba9 5a3d
000000b0: 41aa 66be 0996 b63d fd08 603c 2410 ddbd
000000c0: 6ff1 a0bd 240b 7c3c dec0 b73d 8594 25be
000000d0: 73dc 5f3d a5b8 f2bd 387c cc3d 666b bcbd
000000e0: 50c0 14be ea89 443d f84f debd 9f88 903c
000000f0: eca6 6d3d 1967 e3bd 92b0 0dbe 3856 9ebd
00000100: 7ad9 983c 7a95 723c f603 14be 41c2 1c3d
00000110: 29ab 28be 3ad0 08be 72bf ecbc d701 26be
00000120: 70a2 aa3d 1a26 2bbb 5eb0 373b 7b8a 46bb
00000130: 99fe 163e bd2a 80bd 3a64 fd3b ca8d ed3c
00000140: d34c e0bc 811f 23be 2ba1 e9bc a0aa febd
00000150: 0c9b 9dbd 9b23 15be b740 d23d f761 6ebc
00000160: 696f 1dbe f85f d33d 37d7 3f3c 0daa 153d
00000170: b2f0 bb3c d422 c13d 9327 fdbd 951a ce3c
00000180: 720d 433d 179d c13c 4377 f33c 4081 58bd
00000190: ece6 b33d e350 84bc 11ff eebd 3482 14be
000001a0: f7ce 4dbd 5c69 93bd 9a53 f9bd d832 9abb
000001b0: d2f3 0c3d c9a6 aebb df6c a2bd 2bf9 67bd
000001c0: b465 e1bd 5417 b23d 7863 0b3e 449b 273d
000001d0: 2536 6fbe 4cff 44bc 1b52 e9bc f776 4bbe
000001e0: 63b4 42be 7167 743d e099 233c 5cd0 11be
000001f0: 7b9d da3d bdeb d5bc da5d a53d 2b72 89bc
00000200: 370d 8d3c bc6f 113d 4d28 ba3d 4b37 0b3e
00000210: bd5c 2a3e 40f9 5d3e 1478 113e 9f9f 483e
00000220: c86c 67bd df28 d83d 4265 be3d 5a7c 86bd
00000230: 9266 7d3d f6bc 773e b2ad fabd ecec 573c
00000240: 53be 11be 71ec 09be 9ae0 7fbc 5acf b43d
00000250: c979 a93d a214 903d 36e0 843c 28bc 933d
00000260: a53e f8bc 29af 2a3e 7994 76bd 0dc1 bebd
00000270: 132d 51bd 2701 da3c bf24 893d 2709 433c
00000280: 4390 94bd d05f a83b 1dd1 edbd 557f 6e3e
00000290: 18de 24bd b952 293d 1350 c73d 6be4 80bc
000002a0: d797 053d 69a9 ecbd 125a 3d3e c1e8 7fbd
000002b0: a32a 413e 0e50 7c3d 7734 8c3d 7e33 e8bd
000002c0: f8f2 01be 22cd 9dbd 91cf f0bd 0f7f 493e
000002d0: 3762 1cbd 295f 113e 6012 953d 8921 263e
000002e0: b6a4 7a3d 963b 323e 6407 63bd 6780 c53d
000002f0: f296 c3bd f8c7 37bc 83a5 05be 6b73 8e3c
00000300: 8959 42bc 207c 33be 89e3 67bd 54b7 31be
00000310: 4e18 8d3d ad30 94bc 21a1 e7bd 790c 633c
00000320: b2fd 343e 0c53 23bc 4b32 0b3b 7a66 8fbd
00000330: f14a ecbd 94b0 fabd d856 bdbd fa1e 4f3d
00000340: 548b 0a3d 1bfb 4d3b dd9b 2a3e a409 273d
00000350: d38e 07be 9132 d33d a354 1a3e d36c 57bd
00000360: 1a91 3f3d d480 393d c56a 2d3e 5de2 e13d
00000370: 8d32 c13d b07b 9a3c e24a fdbc 7b94 44bd
00000380: 9471 6cbc 0008 a2bd 326a 25be b394 c6bd
00000390: d8f1 fcbd 4075 13be 2b0e 093e 39a0 ab3d
000003a0: 713b 213e 609e d1bd 8b17 e1bb b5ea c33d
000003b0: 7ca9 11be 1e75 29be 0e89 ff3d 9726 a9bd
000003c0: 36b4 033e 6c4b 0bbe 22bd 33be bf99 b63d
000003d0: c886 cabd e2ec 153e 89a8 243d 3a72 4dbd
000003e0: ebd6 e7bc 2874 2fbe 98e9 32be ed26 fc3d
000003f0: 8829 bbbd abdd 123e 51ba 5cba 5410 c6bd

fc2.bias f4 [32]
-0.022887368 0.074958496 -0.16736041 -0.24012277 0.1391211 0.23612627 -0.15651377 0.0046950323
-0.0034323344 -0.018000713 -0.11977253 -0.012334401 -0.08021191 -0.08805663 -0.123285994 0.098660104
0.13749538 -0.047499243 -0.05961777 0.12294178 0.07758409 0.10041939 0.24462292 -0.113223605
-0.00815816 -0.0050376863 -0.092877164 -0.10570633 -0.1250179 -0.032314874 -0.1060798 0.006858988
00000000: 4a7e bbbc d783 993d 8760 2bbe bee2 75be
00000010: c375 0e3e 16cb 713e 2545 20be c9d8 993b
00000020: 04f1 60bb 3b76 93bc 4d4b f5bd 3a16 4abc
00000030: 2446 a4bd 0957 b4bd 5e7d fcbd 4f0e ca3d
00000040: 97cb 0c3e 918e 42bd c331 74bd e6c8 fb3d
00000050: 68e4 9e3d aea8 cd3d 6e7e 7a3e c7e1 e7bd
00000060: cea9 05bc 2d13 a5bb 6236 bebd 8f7c d8bd
00000070: b104 00be 9a5c 04bd 5e40 d9bd 5dc1 e03b

pi.weight f4 [2, 32]
0.00081512635 0.09131552 -0.056544423 -0.09352014 0.008597373 0.2432386 -0.14161219 0.034211524
-0.070470266 0.16764642 0.17015038 0.013444819 0.23016132 0.22648372 0.11391349 -0.1265536
0.22033848 -0.054411497 -0.16668458 0.1148415 0.22706039 -0.061574448 0.19001459 -0.07352082
0.15821101 0.16715643 0.09464296 0.13322322 0.07452374 0.1534307 0.08472273 0.12657432
0.080430955 0.107618146 -0.009703617 -0.1784319 -0.18850808 -0.21822995 0.039592877 0.13429914
-0.24736324 -0.23288377 -0.07138091 -0.1143736 0.058325246 -0.08019254 0.047765464 0.14844932
-0.10568473 0.05755694 -0.0028045566 -0.22906758 -0.10575253 -0.024969062 -0.08334265 0.0672135
-0.031339318 0.14130671 0.03292284 -0.142456 -0.17479941 -0.06960898 0.07045933 -0.23118652
00000000: 34ae 553a a203 bb3d 209b 67bd 7d87 bfbd
00000010: ffdb 0c3c 8a13 793e c902 11be 6221 0c3d
00000020: b752 90bd 81ab 2b3e e73b 2e3e a847 5c3c
00000030: 69af 6b3e 59eb 673e 7a4b e93d 4497 01be
00000040: 69a0 613e 97de 5ebd 5daf 2abe 0532 eb3d
00000050: 8582 683e 7d35 7cbd 2f93 423e 1592 96bd
00000060: 1102 223e 0e2b 2b3e 2bd4 c13d ab6b 083e
00000070: e79f 983d f01c 1d3e 1c83 ad3d b39c 013e
00000080: fcb8 a43d e766 dc3d ebfb 1ebc dab6 36be
00000090: 4308 41be ac77 5fbe 242c 223d b785 093e
000000a0: ca4c 7dbe 1579 6ebe 2830 92bd b53c eabd
000000b0: 74e6 6e3d fd3b a4bd b8a5 433d 1903 183e
000000c0: 3c71 d8bd d3c0 6b3d a7cc 37bb b190 6abe
000000d0: c894 d8bd eb8b ccbc 8daf aabd 3ba7 893d
000000e0: a85d 00bd b5b2 103e 1ada 063d fcdf 11be
000000f0: 9efe 32be 278f 8ebd fb4c 903d 29bc 6cbe

pi.bias f4 [2]
0.13940273 -0.023339804
00000000: 97bf 0e3e 1e33 bfbc
