code/MADDPG/plots/tmp/maddpg/k_3/Cooperative_Navigationagent_0+2/agent_0_target_actorRegular.pt (torch, 9655 bytes, 6 tensors)

fc1.weight f4 [32, 18]
00000000: e91c 203e 566d f1be 2353 8d3d bc60 e1bd
00000010: e1b2 a3bc 778e 453f c3a5 9f3d 9f2f 8abe
00000020: 1c81 d9bd feb6 b53e 3cf2 283f 46d9 febe
00000030: 422b 37bf 9a3a 79be df42 0c3d 303c 89bc
00000040: c0b9 9a3b cc41 15be 53ea 58bf f541 e6bd
00000050: 763a fabd f920 eabd c7b5 1fbd b5cf b73e
00000060: 9c33 a8be ec69 1abf b8e3 2e3f 1463 213f
00000070: fc27 df3d bacb 0bbd 400f 52be b118 bebd
00000080: 7196 22be 82e2 9ebd dbd0 1f3e 4dc0 403e
00000090: ec55 d5bf d71f 19bf f0e1 51bf 6e6f 09bf
000000a0: 5433 813f 605f 1a3f 22c7 823e 186e e6be
000000b0: a217 403e c2e4 08be 8c98 d93f 0eb1 b03f
000000c0: 5909 233f 5f70 533f 7f20 8cbc 24fc 6b3d
000000d0: d4cc 013d 14be 2e3d 7b08 853e 832b 01bf
000000e0: 52a8 8abd 529b 88bd 1b3e 47bd 7daa 753e
000000f0: 3059 54bd 0217 31be af36 47be 775b 01bf
00000100: b1cc b93e 60b9 8bbe b33c d1be 2cf3 19bf
00000110: 38cf e23c 4450 51be 1966 1f3e 01d7 483e
00000120: 5e98 84bd 747c d6be a996 ecbe bc34 20bf
00000130: 0e7e 053e a247 383f 8f2e 4cbe 82ef 01be
00000140: c406 ad3e 95f3 243e c4d6 1b3f a526 23bd
00000150: ba19 3fbf ceac b8be 5147 193e 68e0 d43c
00000160: 75eb 293e e88f eb3c a8b0 973d 93a3 00bf
00000170: d23f 383e 3ab3 4dbe 7035 9bbd 5fcf d83d
00000180: 4a70 b5bc d826 9cbd aafe bcbe ce49 bcbe
00000190: ad39 3a3e 64d7 11bf e6ab 84be f696 35bd
000001a0: f52b 123e aa64 ed3d d63d f03d 729f cd3d
000001b0: af18 8cbf 493a e53e 5674 b43e 9777 813f
000001c0: accb 2abf 0af3 73bf deb0 823e 2bd3 d6bf
000001d0: e94e f9bd f7df 9fbf ffc0 44bf 3e9d 8b3d
000001e0: 2eeb 043f 5427 d3be 407c 213b 29c5 09be
000001f0: 54c6 053d 7d2f 113e d093 6abf 35e9 393f
00000200: f6b5 8d3d 6012 eb3e c685 b5be e6ea 463e
00000210: 66c7 0ebe 397a f13e d5d4 ff3e 0f50 153e
00000220: a10d 31be ba5a 09bf e171 323f 324f d0be
00000230: 769d c0bd c018 c4bc be09 e1bd 91c3 65be
00000240: d93e 01be 3b43 4fbf f6d1 40be 48d8 6cbd
00000250: 1f1e 0fbd c2f3 793f ada4 64be 9d26 26bf
00000260: 37d9 04bd 36d0 793e 460e 0b3f c5ed acbd
00000270: fa44 7dbf 1448 99be 6840 f9bd a064 09be
00000280: 686d a0bc 1e92 2dbe e61b c33d a830 643e
00000290: f4cc 53bf 316b 6abf fedb f33e fb6b 83be
000002a0: 6b3b cf3e bbc9 033f 1b70 873f 1693 b2be
000002b0: 77a2 8a3f 42e7 f93e f42f 503e 209c d33e
000002c0: 13bb 593e 402d 4cbd 7caf afbd 7dce 3ebe
000002d0: a058 583d 6e68 463f c10d 65bf ce6d cf3e
000002e0: f9eb 763f 20a7 a6be ebf3 5c3f d250 0a3f
000002f0: cebb 423f 8173 6cbf e148 e43e 99ac bfbd
00000300: 7726 8e3f 4787 94be fdbf 52be 36fc d43d
00000310: a70c 683e be88 b2bd 8e48 b73e 93bb 8cbf
00000320: 9a95 47bd 0648 78bf 38f0 d5bc d5da 253f
00000330: 654b 20be a4b1 903e 9739 83be f535 e83d
00000340: ea41 f73e 7097 2cbe 8290 3cbf 8f5e 1dbe
00000350: 0cdf 10bd 41e2 613e 8e82 8cbd cf0d 53be
00000360: d6dc 863d 2d8c 3f3f 8c86 5cbf 94e5 1ebf
00000370: ee31 4d3f 3ed0 b63e 4314 583f 6f8c 593f
00000380: 9543 393f 261e cc3d 743c 803f 87e3 0e3e
00000390: e4f6 923e 07be ce3e ce60 12be ea81 b4bd
000003a0: c822 d53c 5086 103c 6f86 01bf f782 49bc
000003b0: af78 95bf 52ee f6be c738 0640 e52b b8be
000003c0: 11d2 a93f 0fc8 9a3e 287e ae3f d1ea 28bc
000003d0: 366e c13f 716c ef3e 6a24 3e3d bb4c 433f
000003e0: 687e f13c e8f5 1bbe bc48 16bd 4851 6cbe
000003f0: 3c5f 1bbe b1cd 243e 763e 013d eb5d 1cbe
0.15636028 -0.4715373 0.06900623 -0.11004779 -0.019982757 0.7717051 0.077952884 -0.26989457
-0.10620329 0.35491174 0.6599462 -0.4977514 -0.7155038 -0.24338761 0.03424346 -0.016752332
0.00472185 -0.14575881 -0.8473255 -0.11243049 -0.12218182 -0.1143207 -0.038991716 0.35900655
-0.32851875 -0.60317874 0.6831622 0.63041806 0.10896298 -0.034129836 -0.2051363 -0.09282053
-0.15877701 -0.07758047 0.15607016 0.18823357 -1.6666846 -0.5981421 -0.8198538 -0.53685653
1.0093789 0.6030178 0.2554255 -0.4500587 0.18759015 -0.13368514 1.6999679 1.3804033
0.6368614 0.8259334 -0.01710534 0.057613507 0.03168948 0.04266174 0.25983033 -0.5045702
-0.06770386 -0.0667025 -0.048643213 0.23990817 -0.05184287 -0.17293933 -0.19454454 -0.5053019
0.3628898 -0.27289867 -0.40866622 -0.60136676 0.0276867 -0.20440775 0.15566291 0.19613267
-0.06474374 -0.41891825 -0.46208695 -0.62580466 0.13036367 0.71984303 -0.19939636 -0.12689021
0.33794224 0.16108544 0.6087458 -0.039831776 -0.7464863 -0.3606934 0.14968611 0.025985911
0.16593726 0.028755143 0.074067414 -0.50249594 0.17993096 -0.20087901 -0.07578552 0.10586428
-0.02214827 -0.07624596 -0.36913043 -0.36775059 0.18186064 -0.56969285 -0.25912398 -0.04433342
0.14274581 0.11591466 0.11730544 0.100401774 -1.0945033 0.4477103 0.35245007 1.0114621
-0.6671703 -0.95292723 0.25525564 -1.6783193 -0.12173254 -1.2490224 -0.7685699 0.06817101
0.51921356 -0.41240942 0.002464071 -0.13454117 0.032659844 0.14178272 -0.91631794 0.7262147
0.06919472 0.45912457 -0.35453624 0.19425544 -0.13943252 0.4716356 0.49967065 0.14581321
-0.17290355 -0.5365406 0.69705015 -0.4068542 -0.09405033 -0.023937583 -0.10988186 -0.22437884
-0.1262163 -0.8096196 -0.18830094 -0.05782345 -0.034940835 0.9763757 -0.22328444 -0.6490267
-0.032433715 0.24395832 0.54318655 -0.084437884 -0.98933375 -0.29937804 -0.12170488 -0.13417292
-0.019583419 -0.1695027 0.095268056 0.22284186 -0.8273461 -0.9156981 0.47628778 -0.2566832
0.4047502 0.5147969 1.0581087 -0.34877843 1.083083 0.48809248 0.20330793 0.4133005
0.2126277 -0.04984784 -0.08578393 -0.18633457 0.052818894 0.775031 -0.8947411 0.40513462
0.96453816 -0.3254938 0.8630969 0.5402957 0.7606782 -0.92363745 0.44586852 -0.09359092
1.1105489 -0.29009458 -0.2058105 0.10399668 0.22661076 -0.08717488 0.35797542 -1.0994743
-0.048726656 -0.969849 -0.026115522 0.64787036 -0.1565376 0.2826053 -0.25629875 0.113384165
0.48292476 -0.16854644 -0.73658 -0.15368102 -0.035368964 0.22058965 -0.06860839 -0.20610736
0.0658509 0.74823266 -0.861428 -0.6206906 0.8015431 0.3570575 0.84405917 0.8497991
0.72368747 0.09966688 1.0018449 0.13953982 0.28703988 0.40379354 -0.1429474 -0.08813842
0.026017562 0.008821085 -0.50595754 -0.012299291 -1.1677455 -0.482287 2.0972154 -0.3597099
1.3267232 0.30230758 1.363225 -0.010309891 1.5111759 0.46762422 0.046421446 0.76288956
0.02947922 -0.15230525 -0.03669046 -0.23077881 -0.15173048 0.1609409 0.031553708 -0.15270202

fc1.bias f4 [32]
00000000: 585f 9dbf 287a 5ebf b410 d0bd 937d cebf
00000010: cbd1 5dbf 4f61 8fbf bcc7 543f 270b 8bbf
00000020: 1864 97bf d0e9 64be 2f69 89bd 4584 afbf
00000030: 2bb5 82be f473 663f b31b 8abf 0ad3 80bf
00000040: fe01 b6bf 8d7e aebf f424 96bf f605 b0bf
00000050: a195 eb3f faec 7abf 6761 c6bf 15ff b9be
00000060: 289f 9c3d 5184 77bf 8cdb abbe 4698 b4bf
00000070: deb2 ca3e 35d7 a3bf 4928 a8bf b67c 70bf
-1.2294722 -0.86905146 -0.10159436 -1.6132072 -0.86648244 -1.1201571 0.8311727 -1.0862778
-1.1827421 -0.22354817 -0.06709515 -1.371224 -0.25528845 0.9002068 -1.0789703 -1.0064404
-1.4219358 -1.363237 -1.1730027 -1.3751819 1.8405038 -0.9801785 -1.5498475 -0.36327425
0.07647544 -0.96686274 -0.33565938 -1.410897 0.3958959 -1.2800051 -1.3137294 -0.93940294

fc2.weight f4 [32, 32]
00000000: baa0 75be 4458 95be 3e59 f5be f286 4e3d
00000010: 5f9e 03be 6080 e13e f9c0 60bf c875 19bf
00000020: f731 8abd 3468 90be 0af4 b7be 46f6 0e3d
00000030: d32a 08bf 950b 61bd 283f d3bd 4505 e7be
00000040: bf1f 89bd fac4 00bd 4e8c cc3d d2a5 c03d
00000050: dfa1 91bf a41c 54be 0f8c 4bbf 265e b9bb
00000060: 0976 b33e 9343 07be e12b adbe 782b a23e
00000070: 93c1 8bbe 28f3 a73e 69a9 acbe bf45 cbbe
00000080: e660 043c c5f2 a7be f8d8 5cbe f5b8 67be
00000090: 3767 17be 5279 fdbd 8737 c13d b4b6 5ebe
000000a0: 65e2 3dbe 39f5 e9bd 59d9 aabf 98f8 11be
000000b0: 82b9 b1be f691 fabe d00e 633d 5baf 8abe
000000c0: 02cb 453d 16ff 39be 61dd 373e c3a2 933d
000000d0: fb8b c6be 6f2b cc3c 5aaf ca3d 54af cdbd
000000e0: c5de fbbd 6411 99be 07a8 81be 192a a9bd
000000f0: 7667 7f3e a604 f1bd e220 b3be deaf bebe
00000100: 2fcb 9abe b4ea a6be 1ec2 3c3e 077f 0cbe
00000110: bb94 90be 869d 49bd 19ac 643e c6e9 f53d
00000120: 2def 3bbe 888f 1c3d 639f d2be 2dfb 39be
00000130: 3feb 17be 8dba 243e dc4f 1c3e b6fe 44bf
00000140: b4a8 18be 1bb5 48be a6c2 3b39 2f71 10be
00000150: a67d fa3e 5172 3abe 1661 f2be 6b65 883f
00000160: c45e 163f 5dd9 75be bcb5 97bd 0462 e33d
00000170: 911a 603e 9749 11be 97ee 82be 3163 bcbe
00000180: 7549 2bbe aa7f f4bd 4e3a f0be d448 5cbe
00000190: 4019 a13d 1afd bcbd a426 a33c f8bd 94be
000001a0: 3c51 95be 5c98 12bd 5a1b 79bf 5fb1 c4be
000001b0: b676 0a3c c4e0 91bd c1d0 2abe 6880 05bf
000001c0: 0add ffbe 02c8 39bd 8db5 e9bd db0d 8ebd
000001d0: 8e37 bebe af10 c5be 720b 3bbf 9a49 c33c
000001e0: 2032 54be a5f1 afbe b860 16bf f9cd 62be
000001f0: 82ee 7dbe a88f 293d 0b64 0fbe 2990 abbe
00000200: d33d 89be eed3 4b3d 3609 fdbd 6c68 94bd
00000210: b4a4 213c d2aa bbbd 7a6d 00be 840d 56be
00000220: 10ae d6be 31fa 27be 9538 a6bf de3b 80be
00000230: 8434 9cbe c53e ecbe 1ed3 ce3b 8b73 c2be
00000240: 0bf8 87be c5f7 e2bd ac13 1fbe 8c01 ae3c
00000250: 1bf2 c2be 4ff8 d33b a40f 52be 2b46 08be
00000260: eae4 39be 9531 a3be b84d 95be 8d92 f33b
00000270: 6b83 5c3e d69b 3cbe 03d2 08be dc72 92be
00000280: da84 b6be d7a3 83be c4d4 d33d 5df2 b53c
00000290: 9dcc 34be 8ff3 c0bd 5b3c c0bf 2fcb dabe
000002a0: 5fe1 953d ebba c03d d247 7f3e e4ca aa3d
000002b0: 7603 ff3c dc8b 6bbd d3ae 0bbd c8fe 17bf
000002c0: fd82 6dbd 7b46 c3bd 01bd 26be ad5a 68bd
000002d0: d185 e4bf fafe b7bd eff9 cdbd 5622 31be
000002e0: 7f84 8cba f670 b3be 46f6 8e3e 53e8 503c
000002f0: ebc1 5cbe 8506 6cbe 1d06 21bc 4671 c7be
00000300: 3094 1fbd 9970 303d 4e61 cf3c b2cc b9bd
00000310: bf8e 83bd 3426 1bbe 45b3 e3bd 71d4 a6bc
00000320: 97ba 933d 1e5a 30be c23f eabd b6c2 75be
00000330: 386b aabd 3160 803d c764 07be 1a4e b7bd
00000340: 8137 763d 4698 74be f588 afbd 8c2c 0ebe
00000350: 1007 29bd 2ebb 33be 669c c83d b3df 133d
00000360: a977 31be b0da 243d 9512 64be 8429 a23c
00000370: a42b 5ebe 2aa1 3dbe 2586 6abe ba35 72be
00000380: b4d5 9dbe e85d 91be 0a76 73be 37a6 193e
00000390: 7d83 afbe c634 b6bc 48bf 93bb 99ec 6cbe
000003a0: 87d5 88be bd49 69be e007 9abe 9396 8ebd
000003b0: 827e bfbe b761 813e 3086 59be 9ffb 81be
000003c0: d421 af3d 198d a5be 3e58 b1be d540 6ebe
000003d0: 5699 f2bd 6b5e 45bd c34d c4be 58a3 dabd
000003e0: a1f7 a3bd acee a03d 7e1b 38be 18ff ab3d
000003f0: de67 0a3e 95c2 28be a370 06be ad0a 2dbe
-0.23987094 -0.29168904 -0.4791965 0.050421663 -0.12853383 0.44043255 -0.8779445 -0.59945345
-0.06747811 -0.282045 -0.35928375 0.034902833 -0.53190345 -0.054942686 -0.103147805 -0.45121208
-0.06695508 -0.03143785 0.099876985 0.09406628 -1.1377524 -0.2071405 -0.7951059 -0.0056569753
0.3505099 -0.13209371 -0.3382254 0.3167379 -0.27296123 0.328027 -0.33723 -0.3970165
0.008079743 -0.32802406 -0.21567142 -0.2262915 -0.14785467 -0.12376656 0.09434419 -0.21749383
-0.18543394 -0.11423726 -1.3347579 -0.14254987 -0.34711844 -0.48939484 0.05543405 -0.2708691
0.048289306 -0.18163714 0.17955543 0.07208779 -0.38778672 0.024923055 0.09896727 -0.10043207
-0.12298349 -0.2989608 -0.25323507 -0.082599826 0.24941811 -0.11768465 -0.34986025 -0.3724355
-0.30233142 -0.3260094 0.18433425 -0.13720332 -0.28238472 -0.04922249 0.22331275 0.12007479
-0.18352957 0.03822282 -0.41137227 -0.18162222 -0.14835833 0.16086788 0.15264839 -0.7695116
-0.14908105 -0.19600336 0.00017906222 -0.14105676 0.48923987 -0.18207671 -0.47339696 1.065595
0.5873835 -0.24008699 -0.0740771 0.11102679 0.21885134 -0.14188229 -0.25572655 -0.36794427
-0.1672724 -0.119384125 -0.46919483 -0.21512157 0.07866144 -0.09227963 0.019915886 -0.29051185
-0.2916354 -0.035789832 -0.9730736 -0.38416573 0.008451154 -0.07122949 -0.16681196 -0.5214906
-0.49973327 -0.045356758 -0.11411581 -0.069362365 -0.3715176 -0.3848929 -0.7306434 0.023838807
-0.20722246 -0.34364048 -0.5874133 -0.22148885 -0.24798015 0.041396767 -0.14003007 -0.33508423
-0.2680498 0.04976266 -0.123552725 -0.072464794 0.009865928 -0.09163441 -0.12541762 -0.20903593
-0.41929674 -0.16404034 -1.2986017 -0.25045675 -0.30508816 -0.4614164 0.006311788 -0.37978777
-0.2655643 -0.110824145 -0.15534848 0.021240972 -0.38075337 0.0064688097 -0.20513779 -0.13308017
-0.1815373 -0.31873766 -0.29160857 0.0074332417 0.21534507 -0.18418822 -0.13361363 -0.28603256
-0.35648233 -0.25710937 0.10343316 0.022210294 -0.17656179 -0.09421455 -1.5018419 -0.42733142
0.07318377 0.09410652 0.24929741 0.083394796 0.03112958 -0.057506427 -0.034102272 -0.5937314
-0.05798625 -0.095349275 -0.16283037 -0.0567271 -1.7853338 -0.0898418 -0.10057437 -0.17298254
-0.0010720639 -0.3504712 0.27922267 0.012750703 -0.21558349 -0.23049362 -0.009828118 -0.38953608
-0.038959682 0.04307613 0.025314953 -0.09072246 -0.06423711 -0.15151292 -0.11118177 -0.020364972
0.072133236 -0.17221877 -0.11437942 -0.24000058 -0.083212316 0.06268347 -0.13222037 -0.089504436
0.060111526 -0.23886213 -0.08571044 -0.13884181 -0.0412665 -0.17551872 0.09795456 0.036102008
-0.17330803 0.04024762 -0.22272713 0.019795187 -0.21696335 -0.1851851 -0.22902735 -0.23653308
-0.30827105 -0.28391957 -0.23775497 0.15004812 -0.34280005 -0.022241961 -0.0045088865 -0.2313713
-0.26725408 -0.22782035 -0.30084133 -0.069623135 -0.37401205 0.25269863 -0.21242595 -0.25387284
0.08551374 -0.3233421 -0.34637636 -0.23266919 -0.11845653 -0.048185747 -0.38340577 -0.106756866
-0.08006216 0.07858023 -0.17979237 0.08398265 0.13516185 -0.16480477 -0.13128905 -0.16898604

fc2.bias f4 [32]
00000000: 1ded 20bf 3466 21be 4a44 343e f696 35bf
00000010: 7ac8 febd 6b50 98be 3ab5 7cbd 04b2 debe
00000020: 228e 3fbf c261 f0be c432 aebe 0df4 a9be
00000030: 68c5 1fbe 941a 2bbd 8438 d3bc 6a48 f8be
00000040: 0b1f 4ebe adf1 acbe f914 2cbe 9484 11bf
00000050: d161 2abe 4220 7dbe c2c5 30bf 6e21 3dbe
00000060: d649 b9be cc8c 5cbf 789d 68be 45f2 65be
00000070: 0ffc 49be 258b 65be 05cc 62bf 7c26 1940
-0.62861806 -0.15761644 0.17604175 -0.70933473 -0.124405816 -0.29748854 -0.06169627 -0.4349519
-0.7482625 -0.46949583 -0.34023106 -0.33194008 -0.15602648 -0.041773394 -0.025783785 -0.48492748
-0.2012903 -0.33778134 -0.16804875 -0.56842923 -0.16638876 -0.24719337 -0.69051754 -0.18469784
-0.36189145 -0.8615234 -0.2271632 -0.224557 -0.19725059 -0.2241636 -0.8859256 2.392974

pi.weight f4 [5, 32]
00000000: 9a0b c53e 9205 00bf 1fb9 4abf 3198 6f3e
00000010: 1267 ffbe 9fca 853c 46f0 8f3d ba0c 7d3e
00000020: e1eb bf3e aaa0 7b3e f8be 58be f21b 8b3e
00000030: 08fb 613d b6d7 fe3d 3828 ee3d 7ab7 053e
00000040: bee6 85be e0ec 6a3e f9dd 003f 72a3 83bd
00000050: 898b fe3e 707e 13bf 427c b63e 9648 8d3e
00000060: b293 cfbe 7e86 7b3e e6a0 f1bd 1219 b33e
00000070: 64cd 5bbc 48f1 2c3e 4899 913e 1bec 9c3b
00000080: 2be9 cabe 0d3e 3f3d 5230 c5bd 3efb b3bd
00000090: c8d9 59bc 832d 59bf 6f79 d83b 2b58 05bd
000000a0: 1e99 47bf f862 9f3e 7659 39bc 95b1 afbd
000000b0: 0458 ad3d 6864 2b3d 38fd 57bd f4a5 8dbf
000000c0: 2fc1 cbbc 384d 93be 860e 73bf 8874 14bf
000000d0: f815 57be 7e4e fcbd 00f7 edbe 23ee c8bd
000000e0: b8e3 15bd fa0a f6be a80c d1bd 236f 403e
000000f0: 949d aa3b ab6c 0cbe a080 09be 9333 52bf
00000100: 1f7f 83be 874c 0a3f 0f30 d23e 2d26 b73e
00000110: 5e10 0a3f c278 813e 0448 1fbe 70fd db3d
00000120: b0ed 58bf f6ca bdbe 3366 083f 357f fa3e
00000130: 7c09 62bd 46ce 44be a89b e73d 111e eebd
00000140: 06ea 0f3f 8040 283e d936 6abf d0ba 17be
00000150: 61a4 b43e a6c6 0b3f f7fa 0ebe 9b66 93bc
00000160: daf3 093f ede2 e3bd 1332 8c3e 1875 00be
00000170: 1b31 853e 4dee 2b3e 973e 173f 2f70 8cbf
00000180: 5d2d 283e afe7 0fbf 7f64 c93e 9dc8 24bf
00000190: 3d1e 2abf 6fd8 84bf bbf6 483d f79b 89bd
000001a0: bb68 cf3b 3667 3e3e 302c 28be 181c a3be
000001b0: a385 0f3d 7a50 39bd bc82 2cbd d3db 50bf
000001c0: c1e3 2bbf b9e7 253f 331a 5dbd c7e5 d7be
000001d0: 8480 60bf 5d6a 22bf 943e a5bc 82d9 0d3e
000001e0: 7523 e9be 22b2 79be e356 dcbd c885 273d
000001f0: ca03 853d 6729 07bd d517 e0be f41d 1340
00000200: 7d34 383e 01af 79bd 7a6d 493d 4835 d1bb
00000210: 7dcb 633e f5b0 e03e a59a 313c 8a55 c7be
00000220: 3efa 883e 633d 413e d7c7 563e e66e 31bf
00000230: daeb 02be 5817 a9be b42a 6d3d a337 433f
00000240: da2d 38bf 9999 e5be 1b6f 1c3f 986e 8f3e
00000250: 876f 403f 6000 153d d6e0 bd3e 18bc d939
00000260: e611 b4be 87e2 0a3f 5ec6 b4bd df1b 86bd
00000270: 7671 b53d f7d1 c0bd f629 433e b015 d9bf
0.38485414 -0.500085 -0.7918872 0.233979 -0.49883324 0.016331969 0.070282504 0.24711886
0.3748465 0.24573007 -0.21166599 0.27169758 0.055171043 0.12443487 0.11628765 0.13058272
-0.26152605 0.22941923 0.50338703 -0.06427659 0.49715832 -0.57614803 0.35641676 0.2759444
-0.4054237 0.24563023 -0.11798267 0.34980065 -0.013415668 0.16888916 0.28437257 0.004788888
-0.39631018 0.046690036 -0.09628357 -0.08788155 -0.013296552 -0.8483507 0.006606273 -0.032554787
-0.77968013 0.31130195 -0.011312833 -0.08578793 0.08464053 0.0418438 -0.052731723 -1.106627
-0.02487239 -0.2876985 -0.94944036 -0.5799031 -0.21004474 -0.12319659 -0.4647751 -0.09811046
-0.036594123 -0.4805525 -0.10207492 0.18792395 0.005206773 -0.13713329 -0.13427973 -0.82109946
-0.25682923 0.5402302 0.4105229 0.35771313 0.53931224 0.25287443 -0.15554816 0.10741699
-0.8473768 -0.3706891 0.53280944 0.48925176 -0.055184826 -0.19219312 0.11308986 -0.116268285
0.56216466 0.16430855 -0.9148994 -0.14817357 0.3528166 0.5459999 -0.13962923 -0.017993262
0.5388771 -0.11127267 0.27381954 -0.12544668 0.26014027 0.16790123 0.5907988 -1.0971736
0.16423555 -0.56212896 0.39334485 -0.6436861 -0.6645239 -1.037855 0.049063426 -0.06719201
0.0063296235 0.1859406 -0.16423106 -0.3185737 0.035039555 -0.045242764 -0.042116866 -0.81585425
-0.671444 0.64806706 -0.053980064 -0.42167494 -0.876961 -0.6344355 -0.020171441 0.13852504
-0.45534864 -0.24384359 -0.1075876 0.040899068 0.06494863 -0.03299847 -0.43768182 2.2987032
0.17988773 -0.060957912 0.04917667 -0.0063845254 0.22245593 0.43885008 0.010840093 -0.3893245
0.2675342 0.18871073 0.2097467 -0.6930984 -0.12785283 -0.33025622 0.057902053 0.7625677
-0.71944964 -0.44843748 0.61107033 0.28014064 0.7517018 0.03637731 0.370856 0.00041529606
-0.35169905 0.54251903 -0.08826898 -0.06548285 0.088595316 -0.094150476 0.19058976 -1.6959743

pi.bias f4 [5]
00000000: 5de9 2abe 8cc3 afbf 1494 1dbf 6976 283e
00000010: 4098 a93f
-0.16690584 -1.3731551 -0.61554074 0.1645142 1.3249588
