code/tmp/maddpg/predator_preyadversary_1+0/adversary_1_actorRegular.pt (torch, 9375 bytes, 6 tensors)

fc1.weight f4 [32, 16]
-1.5987713 -3.930422 -0.30121017 1.3840088 -0.599325 -0.4619074 -1.6072619 2.528461
-1.596781 0.31113145 -1.6218517 2.6965628 2.923785 5.508915 -0.5818634 1.5468097
-0.30226716 -3.902355 1.5892018 -2.4385998 -2.2103114 -0.9614305 -2.5859976 -1.0266769
0.8642276 2.0883465 -2.9422703 0.5007131 -8.297639 5.5247917 -7.803901 0.57841575
-3.5154657 -1.3117503 0.7523653 0.57659554 1.2964863 0.98040634 -0.508812 -0.9617854
-0.7907399 -0.90989685 -1.2011485 -0.12782326 15.013781 7.0197763 2.6171205 1.298434
-5.5977435 -0.55691445 -0.43913043 -0.25410858 -0.34998998 -1.4408965 -0.73452836 0.9230658
0.7214564 0.9031291 -1.3610265 0.8938688 19.929985 -3.2893686 8.983491 -1.8166087
2.464548 2.464215 0.7482018 -1.053699 1.2748148 -0.9470172 -0.51737726 0.3700054
1.6397092 0.43054143 -1.1117647 0.4190729 -12.751886 -13.152868 -8.2921915 -7.6628323
0.15894227 -1.9457846 0.2753612 -4.116874 -1.8411024 0.4613306 -0.83793646 -0.04639636
-3.0008209 0.030625688 5.3225946 -1.5749868 -5.7114167 6.4661736 -1.7305757 2.4610417
-1.3686205 2.035616 -1.6726388 -0.5530362 -0.013672454 1.0017 -0.44901404 -1.5219488
-0.26661405 -0.636402 0.23438956 1.7368954 13.042239 -7.5913463 6.8219233 -6.4891
-2.1468194 1.3304582 0.6832881 -1.4223486 -3.207084 -1.7882456 -0.031510875 1.3012645
-2.8770869 2.6979709 0.8169259 1.6353077 0.5990605 -6.6742806 -4.1532793 -8.190155
1.363887 0.90976965 1.1023933 1.3855741 -2.4974966 -2.0083382 -2.408557 -1.2817245
-1.2461537 -1.4385326 1.5797267 -0.100600556 -0.62696636 -5.643303 -2.0444362 -4.009225
3.3489602 1.0773792 -1.0126206 1.2147976 -0.5063427 0.28319386 -0.90418786 -0.08210681
-1.8706826 -2.6528263 2.4389436 -0.8654761 -2.5316472 -10.290062 -3.314789 -4.599353
3.1791615 0.7022373 1.1945438 0.20002638 0.2289663 -0.57742405 -5.1089234 -0.34344673
-1.5042397 -1.3631941 -0.52475476 -2.2140267 -2.668131 11.014015 -2.4688315 6.98132
-2.1881764 0.6881573 -1.0925578 -1.1018226 -0.4129468 2.2964652 1.952016 1.0684695
0.91934496 -3.6646154 -1.0823963 0.8987997 -1.9581801 -1.4940809 -1.7697806 -2.57423
-0.28425193 4.511069 1.8151312 0.028232245 -1.4235232 1.5023224 0.2749529 0.34618038
0.57404834 0.24600624 0.14110866 -1.4486318 -4.0082216 -15.721827 -1.5961124 -8.394939
1.2348202 -7.109612 0.27412277 -0.5530825 -0.4219041 1.5692453 -0.31727132 -1.5032672
0.7999745 1.1911664 -0.88415515 -2.4948504 -5.6280828 12.266395 -4.329801 6.189149
-1.753759 3.381859 0.19223231 -0.34767848 -0.5917841 -0.082718305 1.1385361 -0.31226093
-1.3613528 0.6473805 -1.6257062 0.22234637 5.0933433 -14.7759695 3.9518454 -8.120214
-1.2754596 -3.0516174 1.1080174 -2.1254754 -0.7555407 1.5106493 -2.7445152 2.721146
-1.7948971 1.526106 -1.6123735 1.361958 -4.2166615 10.237741 -1.9815543 4.010813
00000000: 8aa4 ccbf 098c 7bc0 3838 9abe 3327 b13f
00000010: 5d6d 19bf 207f ecbe c2ba cdbf 4ed2 2140
00000020: 5263 ccbf 9f4c 9f3e d698 cfbf 7c94 2c40
00000030: 4b1f 3b40 0849 b040 00f5 14bf dcfd c53f
00000040: c3c2 9abe 2fc0 79c0 f76a cb3f 0512 1cc0
00000050: be75 0dc0 4f20 76bf fc80 25c0 266a 83bf
00000060: 053e 5d3f 78a7 0540 284e 3cc0 bc2e 003f
00000070: 21c3 04c1 18cb b040 8fb9 f9c0 0e13 143f
00000080: 64fd 60c0 6fe7 a7bf 039b 403f c49b 133f
00000090: 43f3 a53f e9fb 7a3f 8141 02bf 9137 76bf
000000a0: ee6d 4abf 00ef 68bf 3cbf 99bf 1ae4 02be
000000b0: 7238 7041 02a2 e040 e77e 2740 1633 a63f
000000c0: b720 b3c0 f291 0ebf b4d5 e0be 851a 82be
000000d0: e331 b3be 4c6f b8bf 0d0a 3cbf 0a4e 6c3f
000000e0: 5eb1 383f 7833 673f 1e36 aebf 96d4 643f
000000f0: 9c70 9f41 0485 52c0 61bc 0f41 a286 e8bf
00000100: 28bb 1d40 b3b5 1d40 278a 3f3f 9cdf 86bf
00000110: 222d a33f b86f 72bf d672 04bf 5971 bd3e
00000120: fee1 d13f ed6f dc3e 4e4e 8ebf b990 d63e
00000130: ba07 4cc1 2672 52c1 d1ac 04c1 ec35 f5c0
00000140: c3c1 223e 780f f9bf 25fc 8c3e 6fbd 83c0
00000150: 3ea9 ebbf 8633 ec3e 0183 56bf 1c0a 3ebd
00000160: 730d 40c0 b9e2 fa3c b252 aa40 2b99 c9bf
00000170: edc3 b6c0 e5ea ce40 8183 ddbf b581 1d40
00000180: f52e afbf 8847 0240 0719 d6bf c893 0dbf
00000190: 6e02 60bc b537 803f 2be5 e5be 38cf c2bf
000001a0: a381 88be 3eeb 22bf d103 703e 9752 de3f
000001b0: 03ad 5041 4fec f2c0 324d da40 b5a6 cfc0
000001c0: 7d65 09c0 744c aa3f f8eb 2e3f 850f b6bf
000001d0: dd40 4dc0 3be5 e4bf 8c11 01bd d68f a63f
000001e0: 3122 38c0 8eab 2c40 0e22 513f c351 d13f
000001f0: 075c 193f b593 d5c0 aae7 84c0 e00a 03c1
00000200: d993 ae3f aae6 683f 391b 8d3f 7e5a b13f
00000210: fcd6 1fc0 9d88 00c0 cc25 1ac0 8c0f a4bf
00000220: f781 9fbf d621 b8bf 7c34 ca3f aa07 cebd
00000230: de80 20bf f095 b4c0 0bd8 02c0 924b 80c0
00000240: 5d55 5640 90e7 893f 8d9d 81bf 7d7e 9b3f
00000250: ad9f 01bf c9fe 903e db78 67bf 9d27 a8bd
00000260: 8772 efbf e8c7 29c0 a717 1c40 d78f 5dbf
00000270: 8206 22c0 18a4 24c1 8125 54c0 e62d 93c0
00000280: 6277 4b40 d3c5 333f d0e6 983f b7d3 4c3e
00000290: 2476 6a3e 10d2 13bf 4d7c a3c0 40d8 afbe
000002a0: ed8a c0bf 257d aebf 5456 06bf 9db2 0dc0
000002b0: a9c2 2ac0 6839 3041 5601 1ec0 f966 df40
000002c0: 150b 0cc0 142b 303f efd8 8bbf 8608 8dbf
000002d0: c36d d3be 49f9 1240 a9db f93f 9cc3 883f
000002e0: 315a 6b3f 0f89 6ac0 f68b 8abf bd17 663f
000002f0: a5a5 fabf 0b3e bfbf 2c88 e2bf 2fc0 24c0
00000300: 7889 91be ad5a 9040 3856 e83f 4f47 e73c
00000310: 0236 b6bf 1a4c c03f a0c6 8c3e 8e3e b13e
00000320: d5f4 123f 0fe9 7b3e ca7e 103e c46c b9bf
00000330: 5a43 80c0 9a8c 7bc1 694d ccbf ac51 06c1
00000340: 970e 9e3f f181 e3c0 d259 8c3e d196 0dbf
00000350: d003 d8be 08dd c83f 6371 a2be 0f6b c0bf
00000360: 21cb 4c3f 2478 983f fe57 62bf a1ab 1fc0
00000370: 4119 b4c0 2743 4441 bb8d 8ac0 820d c640
00000380: 2d7b e0bf 6170 5840 8cd8 443e ea02 b2be
00000390: 2a7f 17bf 3768 a9bd 8dbb 913f aae0 9fbe
000003a0: cf40 aebf baba 253f 2417 d0bf c4ae 633e
000003b0: abfc a240 5f6a 6cc1 09eb 7c40 66ec 01c1
000003c0: 4342 a3bf b34d 43c0 84d3 8d3f ca07 08c0
000003d0: 1e6b 41bf f55c c13f 23a6 2fc0 4227 2e40
000003e0: 30bf e5bf 7157 c33f 4162 cebf a454 ae3f
000003f0: e4ee 86c0 cacd 2341 92a3 fdbf 9558 8040

fc1.bias f4 [32]
-5.2399797 -1.3493172 1.5362744 1.8759754 3.7410014 -0.658059 2.734582 -2.8560858
-5.7704773 -2.7030854 -3.4980001 -6.85464 3.456051 2.4968438 2.7005346 -1.3069122
0.34303808 1.0310738 1.3964365 -5.672916 -1.4989169 -1.5187937 -5.4612694 -1.7924311
1.0189143 -0.5268207 5.675635 0.085812844 -2.9116042 -2.6634257 -3.0815005 1.8696216
00000000: eaad a7c0 6db6 acbf a4a4 c43f f61f f03f
00000010: 916c 6f40 8e76 28bf 6403 2f40 1cca 36c0
00000020: c0a7 b8c0 5aff 2cc0 3cdf 5fc0 3659 dbc0
00000030: f12f 5d40 4acc 1f40 8fd5 2c40 e648 a7bf
00000040: b0a2 af3e 3afa 833f 6ebe b23f 8788 b5c0
00000050: 82dc bfbf d567 c2bf b8c2 aec0 626e e5bf
00000060: c96b 823f b9dd 06bf cd9e b540 a5be af3d
00000070: b957 3ac0 9175 2ac0 4e37 45c0 c34f ef3f

fc2.weight f4 [32, 32]
0.7858883 1.6483957 3.6958773 0.17418762 -5.84038 3.7626753 -2.3366635 -3.967521
0.8189612 1.2175186 4.0140896 -1.5428104 -7.941738 3.4575555 -3.454395 2.2602725
4.3480434 -3.1728191 -2.79519 -0.3990522 -1.5399145 -1.1573734 -1.3853948 -0.61743724
1.4799674 3.7307804 5.0072837 0.65082234 1.4137964 -2.6900384 2.8936784 0.59917915
-0.17212668 -2.751485 -0.2128204 -1.8333712 1.8233882 -2.7915397 2.3137152 0.12799755
2.3371437 2.9088829 -1.037197 -0.97321737 0.54566586 -4.456436 1.9548011 -1.1760049
-2.8019094 0.40437844 3.3604481 -0.07386584 -1.1448803 -0.023056133 0.2999333 -1.4442718
-3.3343818 -2.5616035 -6.636308 -0.10741238 -1.5245794 -1.4528239 0.18604226 -7.9641776
1.0572108 3.9411945 0.035879795 -7.523836 1.0299798 2.7045214 -4.8562083 0.062075663
-2.6095977 -1.3598365 2.092043 1.227243 -1.3551617 4.9132676 -4.430186 1.7773402
0.67667544 -3.0155816 -1.9318112 -0.47890997 -2.5710094 -4.3784723 -2.3942723 -4.508581
3.0351572 2.67279 6.8380437 2.70143 1.9843116 -0.06511787 0.5878969 -4.2820253
2.1912184 -0.38834453 5.200064 9.661182 -6.3893285 -2.6653073 3.849116 -0.8318188
0.50274295 -0.681284 -1.1100081 -0.006438945 0.35185236 -1.5823096 3.447333 1.117984
3.2758286 6.0569167 2.8618433 1.5913165 2.0871627 3.2104998 2.8582232 2.6443608
-2.210897 -0.8579297 0.3605554 -2.8087068 -1.4710698 0.58294195 1.225533 7.7403774
0.88975614 -1.2726883 -5.375153 -4.1154795 2.4890075 -4.1983647 1.6088976 -2.345718
2.9872417 5.970803 -0.8974469 2.653418 1.4446622 -5.0584803 1.1173457 -4.3489904
-4.1695366 0.6724892 2.5344872 -1.2339613 0.22103857 -4.0543637 2.06682 -2.7958581
-2.563088 -2.8345256 -8.098451 -4.9725804 -1.1368923 3.449932 -3.9461772 -1.8156772
-1.0252911 -0.6469969 0.2423368 -3.3026223 9.205429 0.8296489 1.2308687 0.6593693
2.5246453 3.7570286 -2.8106823 2.0640423 4.105052 -3.9595342 5.0633807 -1.3004742
-2.9455872 0.62041056 1.9345293 -4.4175653 0.45431694 0.32544646 -2.5172758 -2.59345
3.2584953 0.17347208 -6.3524275 1.6559652 1.2397901 1.8382077 -0.46865392 -3.6849306
-0.14614238 -0.095085345 -0.06758828 -0.18940575 -0.09230334 0.05786893 -0.32976857 -0.17665404
-0.09855316 -0.08387373 -0.43670604 -0.5486629 -0.33437678 -0.29254848 -0.09138866 -0.12990543
-0.41715607 -0.46571434 -0.08342427 -0.18082443 -0.085176736 -0.29674664 -0.29528436 -0.18854636
-0.09365256 -0.067857824 0.091235176 -0.16225503 -0.26714474 -0.16342114 -0.22602019 -0.3627801
0.24580115 -0.24891245 -0.24272263 0.15285614 -1.0793107 -1.105421 -0.033735994 -0.0021191146
-0.1410476 -1.4159927 -1.2776579 0.03208803 -1.220879 -0.619947 -0.77842236 -0.54532737
-0.33740583 -0.20941967 -0.57378733 -0.21321681 -0.08327251 0.13797949 0.022177951 -0.9970041
-0.2904652 0.056814294 -0.5234425 -0.65736765 0.19831386 -0.9124659 0.22903666 -0.10829718
00000000: fa2f 493f a1fe d23f 4189 6c40 3d5e 323e
00000010: 65e4 bac0 accf 7040 e58b 15c0 ddeb 7dc0
00000020: 71a7 513f a6d7 9b3f 6c73 8040 d07a c5bf
00000030: b822 fec0 9748 5d40 cf14 5dc0 4ea8 1040
00000040: 2c23 8b40 780f 4bc0 65e4 32c0 9250 ccbe
00000050: eb1b c5bf d024 94bf 9e54 b1bf 5e10 1ebf
00000060: 926f bd3f 1bc5 6e40 ab3b a040 4b9c 263f
00000070: 48f7 b43f 9729 2cc0 0732 3940 ce63 193f
00000080: fa41 30be 5518 30c0 97ed 59be e8ab eabf
00000090: c964 e93f 96a8 32c0 e913 1440 ca11 033e
000000a0: c393 1540 232b 3a40 dfc2 84bf c624 79bf
000000b0: c2b0 0b3f 209b 8ec0 ec36 fa3f 5487 96bf
000000c0: 7c52 33c0 b10a cf3e 9511 5740 f946 97bd
000000d0: 708b 92bf 37e0 bcbc dc90 993e e6dd b8bf
000000e0: 8366 55c0 50f1 23c0 a35c d4c0 06fb dbbd
000000f0: 6b25 c3bf 22f6 b9bf dd81 3e3e 8bda fec0
00000100: af52 873f 883c 7c40 b1f6 123d 44c3 f0c0
00000110: 61d6 833f e116 2d40 0f66 9bc0 0d43 7e3d
00000120: a603 27c0 1f0f aebf 08e4 0540 4c16 9d3f
00000130: f075 adbf 7d39 9d40 15c4 8dc0 e27f e33f
00000140: 9a3a 2d3f 4aff 40c0 9745 f7bf b033 f5be
00000150: 6b8b 24c0 721c 8cc0 c23b 19c0 4c46 90c0
00000160: 0440 4240 fe0e 2b40 41d1 da40 3be4 2c40
00000170: ecfd fd3f 855c 85bd 6980 163f 5a06 89c0
00000180: ec3c 0c40 18d5 c6be ed66 a640 3494 1a41
00000190: 6175 ccc0 6594 2ac0 eb57 7640 14f2 54bf
000001a0: c3b3 003f a168 2ebf bf14 8ebf c9fd d2bb
000001b0: fe25 b43e 1f89 cabf 1ba1 5c40 1a1a 8f3f
000001c0: 2da7 5140 43d2 c140 7128 3740 42b0 cb3f
000001d0: 1394 0540 d478 4d40 21ed 3640 353d 2940
000001e0: 567f 0dc0 48a1 5bbf b89a b83e dac1 33c0
000001f0: 044c bcbf af3b 153f 44de 9c3f 2cb1 f740
00000200: 0fc7 633f 73e7 a2bf 4101 acc0 02b2 83c0
00000210: e64b 1f40 0159 86c0 5bf0 cd3f 3e20 16c0
00000220: f82e 3f40 d110 bf40 14bf 65bf 9ad1 2940
00000230: b1ea b83f 12df a1c0 2f05 8f3f ee2a 8bc0
00000240: d86c 85c0 4128 2c3f 0a35 2240 72f2 9dbf
00000250: ef57 623e 59bd 81c0 c746 0440 57ef 32c0
00000260: a209 24c0 de68 35c0 4193 01c1 611f 9fc0
00000270: b085 91bf b0cb 5c40 2b8e 7cc0 1c68 e8bf
00000280: bd3c 83bf 97a1 25bf 2327 783e 2a5e 53c0
00000290: 7049 1341 df63 543f 1b8d 9d3f 6dcc 283f
000002a0: ca93 2140 2873 7040 38e2 33c0 4519 0440
000002b0: 965c 8340 0269 7dc0 3707 a240 f075 a6bf
000002c0: 8084 3cc0 3ad3 1e3f a89e f73f b25c 8dc0
000002d0: 3b9c e83e eba0 a63e 0c1b 21c0 16fb 25c0
000002e0: 308b 5040 aaa2 313e 1647 cbc0 abf6 d33f
000002f0: 71b1 9e3f 644a eb3f 68f3 efbe e7d5 6bc0
00000300: 59a6 15be 1bbc c2bd b96b 8abd 95f3 41be
00000310: 8909 bdbd f907 6d3d 6dd7 a8be cce4 34be
00000320: 3dd6 c9bd fdc5 abbd ef97 dfbe 2c75 0cbf
00000330: 6f33 abbe eac8 95be fa29 bbbd ee05 05be
00000340: 7b95 d5be 1c72 eebe 58da aabd 0a2a 39be
00000350: 2471 aebd 2def 97be 832f 97be 4c12 41be
00000360: eacc bfbd 0bf9 8abd 82d9 ba3d 2f26 26be
00000370: 32c7 88be df57 27be d671 67be 50be b9be
00000380: 4cb3 7b3e e8e2 7ebe 488c 78be 5286 1c3e
00000390: da26 8abf 6f7e 8dbf c12e 0abd d8e0 0abb
000003a0: c86e 10be 403f b5bf 4b8a a3bf bd6e 033d
000003b0: c345 9cbf d9b4 1ebf b046 47bf 939a 0bbf
000003c0: 75c0 acbe 1c72 56be bae3 12bf 8255 5abe
000003d0: c78a aabd 7f4a 0d3e 89ae b53c a93b 7fbf
000003e0: dbb7 94be 1bb6 683d 5400 06bf 3f49 28bf
000003f0: ca12 4b3e 5d97 69bf 9688 6a3e e9ca ddbd

fc2.bias f4 [32]
1.8121196 -0.5714452 6.0157547 -2.8058267 -2.2080665 3.1622531 -0.57988834 -1.1401335
-0.93251526 0.22738892 -1.694656 -0.41727918 -0.89774257 -0.84361213 -2.7601812 -0.74039733
2.3176 -1.5641675 -0.81467056 -1.0426068 -2.5778167 -0.3678077 -0.5115632 -0.4636355
-0.646949 -0.5581469 -0.72884333 -0.46432534 -0.55628544 -0.71026856 -0.5855103 -0.68426704
00000000: 89f3 e73f 3c4a 12bf 1081 c040 aa92 33c0
00000010: f650 0dc0 5b62 4a40 9073 14bf e5ef 91bf
00000020: 52b9 6ebf a4d8 683e 7dea d8bf 9ea5 d5be
00000030: 75d2 65bf f7f6 57bf cfa6 30c0 ae8a 3dbf
00000040: 8f53 1440 a436 c8bf 408e 50bf 2474 85bf
00000050: f3fa 24c0 4a51 bcbe cef5 02bf a261 edbe
00000060: 739e 25bf b7e2 0ebf 7a95 3abf 0dbc edbe
00000070: b968 0ebf 29d4 35bf 01e4 15bf 202c 2fbf

pi.weight f4 [5, 32]
-2.345056 0.29339072 2.5995867 -3.3191078 3.0836256 -1.1220257 -0.43601555 0.14654873
-0.225955 1.0168585 1.0458742 -0.38478118 -0.12841481 -0.3888764 -0.25804704 0.023228992
-3.6724002 -1.3286502 0.37522867 -0.30228686 1.581446 0.34696376 -0.33988753 0.099461906
-0.011577846 0.7814542 -0.32741052 -0.25668517 -0.41472045 -0.22084586 -0.30309746 -0.26261365
2.6355789 0.15682806 -2.4592464 5.086442 -1.8574193 -2.1117632 -0.5679603 1.2465786
-0.015564575 -1.6546168 0.4814153 -1.079231 0.026173463 -0.17097214 4.6886306 0.2837728
-0.8997255 0.03532868 -0.17809163 0.414201 0.14733426 -0.22808303 -0.52606934 -0.11273382
-0.095588386 0.531807 -0.19751622 -0.0035664558 -0.55333567 -0.080467574 -0.40868932 -0.24695757
-3.7122386 2.9660847 5.224673 -5.572998 -0.50243086 1.9954088 -0.35370684 -1.0649393
0.0054930463 3.494368 -0.42033696 -0.4697265 0.052779406 -0.37587103 -2.13537 -0.07111448
4.7583585 5.9108477 -0.12522535 -0.16416642 0.85223824 0.08777841 -0.09606564 0.10159393
0.015033632 -1.0656993 -0.020444585 0.028351324 -0.25668597 -0.450614 -0.030581651 -0.25602376
5.8502445 -5.185862 6.54504 0.20297329 0.6849689 -8.026595 0.02319764 0.44695053
-0.11520243 0.996531 0.59449756 0.54472536 -0.03669778 -0.11686485 -2.8629382 -0.17223532
-0.37524894 3.4755924 -0.022913627 -0.066818 0.38639456 0.12451615 0.25076446 -0.264619
-0.2115972 -0.36737943 0.12052343 0.44010097 0.25161517 0.01324016 -0.14097124 0.30758095
-2.3726728 2.3806865 -4.964943 -2.4838233 4.232244 5.001638 0.44381943 0.99436074
-0.0624307 -0.76734054 0.628415 0.5233384 0.023723515 0.47313896 2.800441 -0.58224833
3.426965 -0.9118125 -0.33861595 0.25703886 0.8760708 -0.04367759 0.51439434 0.31101602
0.15606079 0.2922517 0.36191797 0.46006158 0.4380675 0.6412066 0.34227794 0.60324067
00000000: 6615 16c0 4f37 963e a15f 2640 436c 54c0
00000010: 1f5a 4540 8a9e 8fbf 6e3d dfbe df10 163e
00000020: bf60 67be 6b28 823f 35df 853f 0a02 c5be
00000030: 2c7f 03be cf1a c7be be1e 84be ba4a be3c
00000040: 9b08 6bc0 3611 aabf f91d c03e 58c5 9abe
00000050: d36c ca3f 3ca5 b13e bd05 aebe afb2 cb3d
00000060: 01b1 3dbc 620d 483f 5aa2 a7be 3d6c 83be
00000070: 3d56 d4be 6b25 62be 972f 9bbe 4c75 86be
00000080: 53ad 2840 8997 203e 4b64 1dc0 22c4 a240
00000090: eabf edbf 2127 07c0 d965 11bf e38f 9f3f
000000a0: 8f02 7fbc 7cca d3bf 117c f63e 3e24 8abf
000000b0: bb69 d63c 5213 2fbe 4309 9640 ab4a 913e
000000c0: 6954 66bf ceb4 103d a75d 36be 2712 d43e
000000d0: cbde 163e 998e 69be 7bac 06bf fde0 e6bd
000000e0: d8c3 c3bd 8124 083f b141 4abe 33bb 69bb
000000f0: 68a7 0dbf 2fcc a4bd ba3f d1be 72e2 7cbe
00000100: 5195 6dc0 55d4 3d40 8530 a740 0056 b2c0
00000110: 4f9f 00bf 8e69 ff3f 1019 b5be ee4f 88bf
00000120: 03ff b33b baa3 5f40 6836 d7be fe7f f0be
00000130: 382f 583d 2b72 c0be e7a9 08c0 78a4 91bd
00000140: 7944 9840 aa25 bd40 133b 00be 3e1b 28be
00000150: 492c 5a3f 2bc5 b33d 10be c4bd 7a10 d03d
00000160: 9f4f 763c d668 88bf 677b a7bc 0941 e83c
00000170: 586c 83be e1b6 e6be 5f86 fabc 8c15 83be
00000180: 3435 bb40 95f2 a5c0 f870 d140 3bd8 4f3e
00000190: 1f5a 2f3f ef6c 00c1 fa08 be3c b3d6 e43e
000001a0: 40ef ebbd a81c 7f3f fe30 183f 1f73 0b3f
000001b0: 6950 16bd d756 efbd 613a 37c0 755e 30be
000001c0: a120 c0be 1b70 5e40 5cb5 bbbc e0d7 88bd
000001d0: 82d5 c53e 5302 ff3d 3364 803e 247c 87be
000001e0: f0ac 58be 2819 bcbe fdd4 f63d ea54 e13e
000001f0: b4d3 803e 42ed 583c c45a 10be 407b 9d3e
00000200: dfd9 17c0 2b5d 1840 d0e0 9ec0 f6f6 1ec0
00000210: 8b6e 8740 6b0d a040 4d3c e33e 6d8e 7e3f
00000220: 55b7 7fbd 6e70 44bf cedf 203f 81f9 053f
00000230: d157 c23c 453f f23e 6d3a 3340 3a0e 15bf
00000240: 6553 5b40 8b6c 69bf 125f adbe 999a 833e
00000250: 2d46 603f 46e7 32bd 59af 033f 7e3d 9f3e
00000260: 66ce 1f3e 04a2 953e 504d b93e 318d eb3e
00000270: 624a e03e 1e26 243f 0e3f af3e fb6d 1a3f

pi.bias f4 [5]
-0.16750364 -1.8087714 6.3776145 1.8509343 1.1951431
00000000: 1386 2bbe d285 e7bf 6b15 cc40 6aeb ec3f
00000010: 73fa 983f
