code/tmp/maddpg/predator_preyadversary_1+0/adversary_1_actor.pt (torch, 9255 bytes, 6 tensors)

fc1.weight f4 [32, 16]
-3.2603197 -1.764741 -2.9196708 -0.53443235 -0.68346745 -0.6600272 -0.80976593 1.307209
-0.3294748 0.041348364 -0.7303014 0.32006428 12.708328 9.448294 3.1670723 1.8785071
-1.7056795 3.1765432 -2.6102064 1.2970505 0.07812824 1.2765125 -1.047125 -3.079553
3.1935816 -1.4211981 -1.905075 -0.607426 2.8618073 3.121935 1.7047994 -2.2491164
-1.23198 0.99990386 1.4931928 0.8090446 0.259008 -0.73905843 -0.21504828 -0.11631207
-0.69022256 0.39661884 -0.67584187 0.9613604 1.7401309 -0.06459131 0.42587188 0.52087843
0.645077 -2.7492123 -0.44192162 -1.2952741 0.45136884 -0.70270103 -0.08793468 1.2475733
-2.22093 0.47462878 -1.0926048 0.08042059 -3.0618663 6.4805503 2.315911 3.5533726
4.0789833 2.225877 2.5622952 2.0967538 0.77135646 -0.11741254 0.19887038 -1.4950354
-0.013008589 0.6787478 0.16583379 -0.5582453 -12.734104 -7.5456686 -4.4348907 -1.6870412
-0.7728314 3.0037072 0.49170187 1.6476196 -2.9163225 0.9879603 -0.53289783 -1.871902
1.176667 -0.43814382 0.39938003 -1.2752761 0.016424501 -8.626758 -2.5474195 -0.31302896
-3.985425 -0.77054536 0.91976756 0.5980918 1.8150051 -1.1285315 0.07122731 -2.0146806
-1.234524 -2.1165078 -0.93252784 3.5698152 -0.0738649 -5.16979 1.2069594 -2.1009378
-0.6456324 3.08286 -3.1887667 0.8352637 2.6160948 1.1632674 0.7342289 -0.6371741
2.636946 -0.32666358 -1.9259614 1.6360095 7.045507 6.2791452 5.8658724 0.35655758
0.5913337 4.2049365 -0.21418686 1.7536288 -0.8552281 0.17903526 -0.4808374 0.110469125
0.881311 -0.51916 0.41314742 0.510871 2.4216037 -17.152157 1.2519192 -6.546428
1.1978935 -0.57380205 -2.7458787 0.45203418 1.7816955 -0.40057963 0.93345624 -1.6817737
1.0371759 1.219783 -0.5508467 0.61440873 8.372129 4.564946 0.40178272 3.1143634
-1.3367761 -3.4124596 -0.048610486 -0.66450614 -1.2906598 0.82311076 -0.70635796 -1.6694658
1.4261988 0.81347364 -0.48287097 -0.32046926 7.4161158 5.3674474 0.24333514 4.196108
-1.0498482 0.3072587 2.82108 0.8955352 0.5222866 0.12591702 0.39512786 -1.218025
-0.30557382 0.041250173 -1.9804474 -0.08823273 -5.6052465 9.147078 0.6718066 3.9973884
0.32797924 -0.2812276 0.045339126 0.07736579 0.0913323 -0.4094561 0.015236278 0.11138749
-0.21421064 -0.084761925 -0.15163472 -0.25461966 0.4609471 0.08225527 0.13347776 -0.000799729
-1.1836138 -4.5711102 -0.80233437 -1.1919264 -0.61438626 -0.9816656 0.7423184 0.9111096
-0.7534132 0.26478258 0.33939818 -0.068224125 4.369738 13.424842 2.039668 3.4920702
0.4095885 -0.4773933 -0.59567845 -0.7846486 0.79421896 0.3011497 -0.94099325 -0.491227
0.6629249 0.0733103 -0.5284254 0.8311155 4.0324717 2.2619722 -0.12609704 3.5769773
2.590659 -2.1967976 0.5237028 -2.2320602 -2.1868482 2.8136168 -2.522407 0.5692363
-0.43684012 0.74931854 -0.5937035 0.29961064 5.159832 2.4055672 -1.9170755 5.1460214
00000000: 14a9 50c0 08e3 e1bf e3db 3ac0 8fd0 08bf
00000010: b9f7 2ebf 8bf7 28bf d24c 4fbf a052 a73f
00000020: ecb0 a8be e75c 293d 08f5 3abf 77df a33e
00000030: 5055 4b41 362c 1741 50b1 4a40 ec72 f03f
00000040: b553 dabf 7c4c 4b40 9f0d 27c0 c005 a63f
00000050: b301 a03d c364 a33f 3108 86bf 6517 45c0
00000060: a463 4c40 d2e9 b5bf 7fd9 f3bf 4580 1bbf
00000070: da27 3740 c8cd 4740 de36 da3f 86f1 0fc0
00000080: 85b1 9dbf b3f9 7f3f f120 bf3f 8c1d 4f3f
00000090: b29c 843e ef32 3dbf 9e35 5cbe 0635 eebd
000000a0: 6db2 30bf a011 cb3e f903 2dbf b71b 763f
000000b0: 9cbc de3f 7348 84bd e10b da3e 4a58 053f
000000c0: c423 253f 18f3 2fc0 8d43 e2be 8bcb a5bf
000000d0: d119 e73e 37e4 33bf 1917 b4bd 7bb0 9f3f
000000e0: b823 0ec0 8b02 f33e 79da 8bbf 8db3 a43d
000000f0: 9ef5 43c0 ab60 cf40 e337 1440 756a 6340
00000100: 0887 8240 c574 0e40 a5fc 2340 3731 0640
00000110: 9e77 453f fc75 f0bd ada4 4b3e 525d bfbf
00000120: fa21 55bc 6ac2 2d3f 55d0 293e 2ae9 0ebf
00000130: e4be 4bc1 1e76 f1c0 a0ea 8dc0 f7f0 d7bf
00000140: 47d8 45bf bd3c 4040 59c0 fb3e 33e5 d23f
00000150: 07a5 3ac0 f7ea 7c3f fe6b 08bf 7c9a efbf
00000160: 069d 963f 6354 e0be 8a7b cc3e 3f3c a3bf
00000170: ad8c 863c 3307 0ac1 ec08 23c0 5545 a0be
00000180: 3411 7fc0 7642 45bf e375 6b3f 8b1c 193f
00000190: 1652 e83f b873 90bf a0df 913d 87f0 00c0
000001a0: e204 9ebf dd74 07c0 25ba 6ebf da77 6440
000001b0: 7b46 97bd eb6e a5c0 a57d 9a3f c475 06c0
000001c0: 2a48 25bf 944d 4540 c114 4cc0 d8d3 553f
000001d0: 196e 2740 f2e5 943f 6df6 3b3f d81d 23bf
000001e0: b9c3 2840 7340 a7be e785 f6bf c268 d13f
000001f0: cb74 e140 c2ee c840 3ab5 bb40 b78e b63e
00000200: a561 173f d78e 8640 cd53 5bbe e976 e03f
00000210: 3bf0 5abf 0555 373e 5230 f6be a33d e23d
00000220: 999d 613f abe7 04bf 0f88 d33e 71c8 023f
00000230: 8efb 1a40 9e37 89c1 e33e a03f 577c d1c0
00000240: 9354 993f b1e4 12bf 7abc 2fc0 0671 e73e
00000250: 990e e43f c618 cdbe fdf6 6e3f 5c44 d7bf
00000260: 2ec2 843f d921 9c3f 4a04 0dbf e449 1d3f
00000270: 3ef4 0541 0a14 9240 77b6 cd3e bb51 4740
00000280: 7b1b abbf bd65 5ac0 ca1b 47bd 131d 2abf
00000290: 5734 a5bf 63b7 523f e0d3 34bf 0eb1 d5bf
000002a0: af8d b63f cf3f 503f dd3a f7be 8c14 a4be
000002b0: d250 ed40 21c2 ab40 d92c 793e 8446 8640
000002c0: 6d61 86bf 0351 9d3e 938c 3440 cb41 653f
000002d0: 93b4 053f 64f0 003e 334e ca3e 3ee8 9bbf
000002e0: 2c74 9cbe f1f5 283d 4d7f fdbf 5db3 b4bd
000002f0: 2e5e b3c0 6e5a 1241 84fb 2b3f 36d5 7f40
00000300: e5ec a73e 10fd 8fbe 85b5 393d f571 9e3d
00000310: 6e0c bb3d 3ba4 d1be 95a1 793c 201f e43d
00000320: 095a 5bbe a997 adbd 2246 1bbe 825d 82be
00000330: 4201 ec3e 7375 a83d 65ae 083e e8a4 51ba
00000340: a880 97bf 8946 92c0 c965 4dbf 0b91 98bf
00000350: 6b48 1dbf 704e 7bbf 9408 3e3f 7b3e 693f
00000360: b0df 40bf 9591 873e 99c5 ad3e 17b9 8bbd
00000370: e5d4 8b40 27cc 5641 ec89 0240 147e 5f40
00000380: 95b5 d13e e56c f4be 627e 18bf bbde 48bf
00000390: ef51 4b3f 4b30 9a3e efe4 70bf 1b82 fbbe
000003a0: 72b5 293f b623 963d e346 07bf fcc3 543f
000003b0: 020a 8140 27c4 1040 951f 01be 32ed 6440
000003c0: 5bcd 2540 5598 0cc0 6311 063f 13da 0ec0
000003d0: 52f5 0bc0 4c12 3440 1e6f 21c0 78b9 113f
000003e0: 82a9 dfbe 57d3 3f3f f4fc 17bf 9166 993e
000003f0: 581d a540 d0f4 1940 bb62 f5bf 35ac a440

fc1.bias f4 [32]
2.5886204 -3.228504 -6.2171283 -2.2132528 5.0566306 0.26722363 -5.277145 -3.0452268
1.8002354 -1.748188 -0.2864636 -1.1878921 -2.938062 5.160056 -4.8285108 -2.745796
-4.1600065 -2.7068458 -6.267331 -4.61292 -3.5287807 -4.526996 -5.5695868 0.13702005
-2.7735517 0.23920032 -4.053565 -2.67945 -5.3708835 -5.898005 -5.65871 1.5146364
00000000: f5ab 2540 cf9f 4ec0 b7f2 c6c0 efa5 0dc0
00000010: ebcf a140 89d1 883e 5fde a8c0 ffe4 42c0
00000020: 1d6e e63f a0c4 dfbf 5bab 92be d90c 98bf
00000030: 3509 3cc0 2e1f a540 2983 9ac0 1fbb 2fc0
00000040: c61e 85c0 f63c 2dc0 fa8d c8c0 0a9d 93c0
00000050: 8bd7 61c0 27dd 90c0 0e3a b2c0 fc4e 0c3e
00000060: df81 31c0 eef0 743e ceb6 81c0 1c7c 2bc0
00000070: 47de abc0 75bc bcc0 2714 b5c0 9bdf c13f

fc2.weight f4 [32, 32]
-0.11020643 -0.015698839 -0.11806055 -0.3626292 -0.18677431 0.015484759 -0.12931623 0.01830679
0.018921135 -0.05275887 -0.07868349 -0.040905286 -0.16915712 -0.067477845 0.0061216755 0.028752794
-0.022595337 0.005926272 0.008346752 -0.029712195 -0.10039363 -0.15325615 -0.18420447 -0.15270072
-0.13805649 -0.11303289 -0.090112686 -0.112840384 0.0710307 0.022470383 -0.18729381 -0.0035751592
4.978179 -1.2797974 0.29471746 -0.24075319 -1.617227 0.1399342 -0.89314693 -1.5077395
-2.1631765 -0.93735904 1.9601582 -1.7419127 -0.34054822 7.262304 0.34758028 2.6311078
0.0923263 -0.0841565 -0.35771266 0.20592491 0.48429057 1.3613725 0.85593253 1.7397078
1.6862004 1.7949077 -4.5969343 -0.0032178562 -1.0168133 -0.39622512 -0.59416115 -1.0542936
-0.22052231 -0.35194296 -0.24329707 -0.2966039 -0.19804066 0.0077126455 -0.30340803 -0.41011754
-0.21505798 -0.14204705 -0.38686287 -0.14790064 0.013156546 -0.4046815 -0.3059669 -0.40035892
-0.33858067 -0.22683801 -0.22969796 -0.06270168 -0.29062942 -0.04050069 -0.31650916 -0.14474118
-0.060175695 -0.30982128 -0.22574572 -0.15317777 -0.0030684045 -0.11571511 -0.18813686 -0.07311166
1.9441601 -2.0956614 2.6678898 0.82354975 -5.0796013 -1.3192716 -1.046387 -0.7866047
-0.42485642 -1.2427659 -1.181435 -2.9067965 0.23299181 0.21700512 -2.6124525 -0.46881777
-1.8526591 -0.19085279 -3.4193497 -0.43881533 -1.2433534 -1.1327604 -2.9955156 0.884145
-0.8628236 -0.7660163 -2.0763881 -0.05382711 -1.0470196 0.04732468 -2.6592963 1.2803044
2.797075 1.4851812 1.1451333 0.7571164 -7.1408186 -2.3573756 2.9638317 4.2729883
-0.87799436 0.7883282 -1.8919312 2.1046376 0.39416948 1.1720653 2.0986688 -0.97599167
-0.6442236 0.16623041 0.90520185 0.74894774 -0.85198087 -1.614409 2.3872364 1.8605583
-0.84999704 -1.9041351 3.7994056 0.04324274 -0.9111852 -1.9532403 0.49501812 0.12774986
-0.30279285 -0.12325241 -0.08151026 -0.14816654 0.036906168 -0.039041664 -0.17593184 -0.44141996
-0.32980955 -0.18071696 -0.21744941 -0.2509639 -0.20750241 -0.36151004 -0.22933629 -0.1699595
-0.30382243 0.07080162 -0.038064953 -0.36820865 -0.12608323 -0.2540278 -0.17161699 -0.15663762
-0.1936645 -0.4722564 0.054767814 -0.045338087 -0.10323897 -0.17035125 -0.043546326 -0.34210402
-7.797927 1.1483316 0.15138191 1.0058218 4.842668 1.2692535 -2.1425426 -0.66317093
2.1686509 -0.11152352 0.729298 0.31891602 0.4467291 -4.622025 1.3219354 -0.010420034
2.902965 -0.39843997 1.4950882 1.0733397 2.748263 1.884712 0.64440477 -0.49566054
-1.0225297 3.2964077 0.98529196 0.36724988 2.0039618 2.0357182 0.4278982 0.6313115
-0.16258948 -0.11816634 0.009346978 -0.11665722 -0.3442995 -0.45938355 -0.54826343 -0.7650401
-0.2352322 -0.11790306 -0.542884 -0.25564826 -0.42698553 -0.11796139 -0.14367086 -0.21844494
0.086382814 -0.45047823 -0.3873555 -0.45030016 -0.26157627 -0.32814136 -0.19600543 -0.260339
-0.5036805 -0.61838895 -0.34916127 -0.5833965 -0.15935592 -0.06795988 -0.5327168 -0.38920027
00000000: e9b3 e1bd da9a 80bc bbc9 f1bd 89aa b9be
00000010: c441 3fbe c9b3 7d3c 796b 04be 1ff8 953c
00000020: 7f00 9b3c af19 58bd cf24 a1bd 4d8c 27bd
00000030: 8637 2dbe d331 8abd 5698 c83b fb8a eb3c
00000040: db19 b9bc 2c31 c23b d1c0 083c fd66 f3bc
00000050: 2d9b cdbd 2eef 1cbe 19a0 3cbe 945d 1cbe
00000060: ae5e 0dbe ca7d e7bd 008d b8bd dc18 e7bd
00000070: 8b78 913d cf13 b83c f3c9 3fbe 384d 6abb
00000080: 3e4d 9f40 67d0 a3bf 35e5 963e 0188 76be
00000090: 4b01 cfbf e94a 0f3e 47a5 64bf 9cfd c0bf
000000a0: 7c71 0ac0 c3f6 6fbf 77e6 fa3f fff6 debf
000000b0: 565c aebe cb64 e840 0bf6 b13e 1264 2840
000000c0: 9215 bd3d 3e5a acbd 1d26 b7be fbdd 523e
000000d0: eff4 f73e 7441 ae3f 651e 5b3f bfae de3f
000000e0: 6ad5 d73f 89bf e53f 161a 93c0 abe2 52bb
000000f0: f026 82bf 05de cabe f21a 18bf 18f3 86bf
00000100: 9ad0 61be de31 b4be de22 79be 77dc 97be
00000110: 2ccb 4abe 5cba fc3b 4c58 9bbe edfa d1be
00000120: 2938 5cbe c874 11be e412 c6be 4473 17be
00000130: 8e8e 573c 6a32 cfbe b2a7 9cbe d8fb ccbe
00000140: 725a adbe 3948 68be f135 6bbe bd69 80bd
00000150: 61cd 94be 0de4 25bd 7d0d a2be 0837 14be
00000160: ca7a 76bd e5a0 9ebe e329 67be a2da 1cbe
00000170: 4917 49bb 0bfc ecbd f3a6 40be 91bb 95bd
00000180: 3dda f83f 511f 06c0 b5be 2a40 28d4 523f
00000190: 188c a2c0 e4dd a8bf 02f0 85bf ed5e 49bf
000001a0: c886 d9be f412 9fbf 4339 97bf f408 3ac0
000001b0: 6895 6e3e 9736 5e3e 6c32 27c0 e208 f0be
000001c0: ef23 edbf ea6e 43be a0d6 5ac0 67ac e0be
000001d0: 3426 9fbf 4bfe 90bf 87b6 3fc0 5457 623f
000001e0: 02e2 5cbf a519 44bf 8be3 04c0 d179 5cbd
000001f0: bd04 86bf 86d7 413d e931 2ac0 04e1 a33f
00000200: 4703 3340 6b1a be3f ba93 923f 61d2 413f
00000210: 9681 e4c0 3edf 16c0 6baf 3d40 52bc 8840
00000220: 3dc4 60bf e0cf 493f cd2a f2bf 62b2 0640
00000230: 95d0 c93e 3c06 963f 9750 0640 97da 79bf
00000240: d6eb 24bf 4e38 2a3e 4fbb 673f 0abb 3f3f
00000250: 6b1b 5abf f4a4 cebf 7bc8 1840 c626 ee3f
00000260: 6899 59bf b3ba f3bf 7629 7340 4d1f 313d
00000270: 6f43 69bf c703 fabf 0473 fd3e dcd0 023e
00000280: aa07 9bbe c26b fcbd daee a6bd f8b8 17be
00000290: ec2a 173d 27ea 1fbd 7a27 34be cc01 e2be
000002a0: ccdc a8be de0d 39be 0fab 5ebe 577e 80be
000002b0: 837b 54be d817 b9be 22d7 6abe dd09 2ebe
000002c0: 9d8e 9bbe 7100 913d ffe9 1bbd d885 bcbe
000002d0: f61b 01be ef0f 82be 5dbc 2fbe 9d65 20be
000002e0: fd4f 46be 97cb f1be 3754 603d 6eb4 39bd
000002f0: f46e d3bd 8f70 2ebe a25d 32bd 4228 afbe
00000300: 9e88 f9c0 88fc 923f dc03 1b3e c5be 803f
00000310: 23f7 9a40 e676 a23f 6b1f 09c0 92c5 29bf
00000320: 2dcb 0a40 7166 e4bd 46b3 3a3f f648 a33e
00000330: adb9 e43e a1e7 93c0 2e35 a93f cab8 2abc
00000340: 2eca 3940 5300 ccbe 0d5f bf3f 3263 893f
00000350: 8ae3 2f40 3e3e f13f b6f7 243f 38c7 fdbe
00000360: 41e2 82bf 58f8 5240 183c 7c3f 2d08 bc3e
00000370: e940 0040 3549 0240 7915 db3e a19d 213f
00000380: db7d 26be 3201 f2bd 1124 193c fbe9 eebd
00000390: 0648 b0be 5234 ebbe fe5a 0cbf abd9 43bf
000003a0: b6e0 70be 2977 f1bd 72fa 0abf 54e4 82be
000003b0: d99d dabe be95 f1bd 741e 13be 08b0 5fbe
000003c0: 79e9 b03d 15a5 e6be 7653 c6be be8d e6be
000003d0: 53ed 85be 2502 a8be a6b5 48be 274b 85be
000003e0: 35f1 00bf bd4e 1ebf 44c5 b2be 7959 15bf
000003f0: 332e 23be 8d2e 8bbd 2160 08bf 4245 c7be

fc2.bias f4 [32]
-0.35779312 0.34638846 -0.054323185 -2.0958202 -2.836394 -0.25595006 2.3818867 -0.25475803
-0.3071065 -1.0105023 1.116339 -0.1982077 -0.08014451 -5.0054784 -0.3535721 -0.16915736
-0.7833023 -0.39690712 -0.2885666 -0.08482638 -0.31177142 -0.35027635 -0.4353594 -0.5526322
-0.43734622 -0.35336873 -0.043562863 -0.24367568 -0.3101696 -2.6405268 -0.30604362 -0.19080706
00000000: a930 b7be d459 b13e fd81 5ebd eb21 06c0
00000010: 7b87 35c0 e30b 83be d570 1840 a56f 82be
00000020: 103d 9dbe 2458 81bf 32e4 8e3f f6f6 4abe
00000030: ce22 a4bd e12c a0c0 6707 b5be 9637 2dbe
00000040: 8086 48bf 6937 cbbe 00bf 93be 74b9 adbd
00000050: 81a0 9fbe 6c57 b3be 6de7 debe 4e79 0dbf
00000060: d8eb dfbe bfec b4be f96e 32bd 1e86 79be
00000070: 8dce 9ebe 64fe 28c0 c0b1 9cbe ed62 43be

pi.weight f4 [5, 32]
-0.04828211 -0.10686549 -0.29118773 0.065436706 0.28435418 -0.16214801 -0.10558008 -0.29263628
-0.21633914 -0.07449991 -0.5748959 -0.39798433 -0.14574209 -0.5077143 -0.13214648 -0.36652103
-0.028700434 -0.33864608 0.0397683 -0.26945686 0.04271856 -0.8451363 -0.095777676 -0.07363436
0.10050771 -0.31633762 -0.323122 -0.4116694 -0.15126534 -0.53131795 -0.33765155 -0.05585148
-0.020521136 3.1439197 0.024538565 1.2304399 2.5385628 -0.25920045 -5.9710493 -0.27102265
-0.19133067 5.384022 0.505943 -0.05776116 -0.11054735 2.7678614 0.25792578 -0.07656596
-0.114494726 0.006032143 0.21450223 -0.036721032 0.18555866 1.0345402 -0.26492238 0.17207253
-0.06131481 -0.00568089 -0.16493009 -0.1984338 -0.19504537 4.4966254 -0.305938 -0.18526453
-0.027991695 2.0377772 -0.2536524 -0.25657627 -1.0200107 -0.12554274 3.0166075 -0.07630687
-0.28171664 -2.077434 -4.63664 -0.26683086 -0.1628405 -1.1268468 -0.20514789 -0.3327986
-0.42541695 -0.26878747 0.3409739 -0.24052705 -0.014317391 3.0821612 -0.26736632 -0.30823305
-0.033174686 -0.31579098 -0.28544652 -0.045554038 -0.13786383 -1.9922585 -0.11767493 -0.28995937
0.060474936 -0.04170663 0.19397067 -0.19504008 -1.0383998 0.33684114 -1.0618217 0.2616956
0.225662 0.26565546 -1.7899681 0.2611349 0.17268163 0.5098124 0.0021946905 0.21288344
0.068403035 0.18452546 -0.25725734 0.37318212 0.03948731 -0.64968044 0.3819934 -0.014490645
0.41234347 0.34266767 0.1584374 0.36849353 0.2734587 -0.50414133 0.27467775 0.29939055
0.09618029 -4.779239 -0.12915231 -0.7041235 0.23514023 -0.1185315 2.5843265 -0.2972366
-0.24729502 -1.1991186 3.277252 -0.10818144 -0.13273986 1.4273119 -0.042610794 -0.13864774
0.26732856 -0.22242719 0.1983252 -0.10062918 0.15509717 -6.7910695 -0.25766015 0.056432847
-0.24437824 -0.3104672 -0.25294247 -0.10835869 -0.11680078 0.029092733 -0.13305646 -0.26007894
00000000: 76c3 45bd 4bdc dabd 8f16 95be ae03 863d
00000010: df96 913e 210a 26be 5e3a d8bd 6cd4 95be
00000020: 0288 5dbe 6993 98bd 612c 13bf 9ac4 cbbe
00000030: 6a3d 15be 90f9 01bf 6851 07be a5a8 bbbe
00000040: 2c1d ebbc 0563 adbe 16e4 223d 40f6 89be
00000050: a8f9 2e3d da5a 58bf 1627 c4bd 9dcd 96bd
00000060: fcd6 cd3d 01f7 a1be 3f70 a5be 55c6 d2be
00000070: 4de5 1abe 7404 08bf aae0 acbe 86c4 64bd
00000080: f11b a8bc fb35 4940 1a05 c93c 0e7f 9d3f
00000090: d077 2240 ecb5 84be d612 bfc0 7bc3 8abe
000000a0: 30ec 43be e949 ac40 7b85 013f f796 6cbd
000000b0: a666 e2bd a424 3140 d90e 843e 9dce 9cbd
000000c0: 367c eabd 48a9 c53b 79a6 5b3e cb68 16bd
000000d0: 1703 3e3e d06b 843f e8a3 87be c833 303e
000000e0: 3d25 7bbd c226 babb 6fe3 28be 3b32 4bbe
000000f0: f9b9 47be 5be4 8f40 e8a3 9cbe fcb5 3dbe
00000100: d74e e5bc f16a 0240 bade 81be f75d 83be
00000110: b68f 82bf 478e 00be 1910 4140 c746 9cbd
00000120: 2a3d 90be aef4 04c0 5b5f 94c0 0e9e 88be
00000130: a9bf 26be 843c 90bf 4a12 52be 9464 aabe
00000140: 40d0 d9be 839e 89be 2294 ae3e b94c 76be
00000150: 7e93 6abc 2142 4540 3de4 88be b9d0 9dbe
00000160: 2ee2 07bd 5baf a1be 0c26 92be df96 3abd
00000170: 2d2c 0dbe 5402 ffbf 8eff f0bd 8e75 94be
00000180: 91b4 773d 92d4 2abd 3fa0 463e 96b8 47be
00000190: 49ea 84bf 7176 ac3e c6e9 87bf f7fc 853e
000001a0: f013 673e fe03 883e ad1d e5bf 79b3 853e
000001b0: 74d3 303e 1183 023f ccd4 0f3b 1efe 593e
000001c0: e416 8c3d 3ef4 3c3e 3cb7 83be ba11 bf3e
000001d0: 72bd 213d 7551 26bf a494 c33e 2c6a 6dbc
000001e0: af1e d33e 2372 af3e 6a3d 223e 2fab bc3e
000001f0: c702 8c3e 680f 01bf 90a2 8c3e b849 993e
00000200: 2cfa c43d 87ef 98c0 8140 04be 7041 34bf
00000210: 9ac8 703e a5c0 f2bd 9b65 2540 652f 98be
00000220: e83a 7dbe b87c 99bf 7fbe 5140 3b8e ddbd
00000230: f5ec 07be 28b2 b63f a888 2ebd acf9 0dbe
00000240: 4adf 883e f4c3 63be c315 4b3e ac16 cebd
00000250: cbd1 1e3e 7150 d9c0 08ec 83be 2126 673d
00000260: 4a3e 7abe 8ff5 9ebe ad81 81be 29eb ddbd
00000270: 3f35 efbd e253 ee3c f43f 08be 1129 85be

pi.bias f4 [5]
-0.20871074 -1.9382696 2.2602592 -0.807841 3.4324808
00000000: 45b8 55be 3819 f8bf 16a8 1040 abce 4ebf
00000010: c4ad 5b40
