code/MADDPG/plots/tmp/maddpg/k_3/Keep_Awayagent_1+0/agent_1_actorRegular.pt (torch, 8511 bytes, 6 tensors)

fc1.weight f4 [32, 10]
-0.097534604 1.5594112 -1.1594024 -1.9656762 -1.1290259 -1.931233 0.2723861 -2.3117495
-0.024769107 -1.1635073 0.2055987 -5.4396706 1.8820083 -1.4405658 1.5085895 0.26598746
0.5994743 0.22788644 -1.0644648 0.6726409 1.6704206 -2.4384167 2.0160275 -0.3405335
0.9264042 0.87475014 1.2935168 0.32273832 0.18341719 -0.0012749647 -1.4175398 -1.6611711
-1.0756434 -0.6199327 -0.18476275 0.42787862 0.33263737 1.3199731 -2.6962001 0.1323142
-0.35487828 -4.050646 -0.58663833 -0.5435098 0.4681042 -0.007103113 0.9494718 0.45721605
-1.4771062 -0.59873664 -0.46714318 3.581019 -1.4645977 1.0781164 -2.7979436 1.912492
-0.3111778 0.8581528 2.162055 1.1796496 0.97479314 -5.241689 1.4408193 -1.3708459
1.25354 0.75710887 0.67530566 0.14017174 -0.84567237 0.3258393 -0.39223367 -3.0670397
0.34599853 0.15379223 -0.60888684 -0.60658395 0.5345758 0.17103238 -1.0952665 -0.5848999
1.651378 1.858959 1.1233811 -1.0466418 -0.29433244 -1.3774997 0.5513494 -0.37790564
0.36518124 -0.6946541 0.9208564 -1.1503385 0.8950648 -1.2832047 -1.567804 -1.8565474
-1.1283556 -1.3571167 0.14408904 0.43385297 -0.9333261 0.5548177 -0.9983304 0.4856197
-0.6369282 0.9022163 0.13064411 1.2874954 -0.9087409 -0.3471231 -0.055788916 -4.048658
-0.80941314 -0.40977144 0.29433066 -0.097124346 0.8872326 0.110773444 -1.568989 -0.57221764
2.0478866 -4.158435 0.5775333 -1.3799003 1.8723919 0.22996236 0.36344507 -0.5272911
-0.7303451 0.46039674 -0.44722608 -0.7212821 0.67038393 -1.0578085 -1.9594474 -2.6797373
-0.74235773 -1.581591 0.49703735 -1.5334666 1.0128119 0.2108742 1.743914 0.24000439
-1.6870468 -1.2956835 -1.7190503 -1.0691978 0.9553034 -1.207716 1.4072095 -0.54348195
0.003542114 -1.0665967 -0.77014726 -3.0470486 -1.2040739 -1.8692144 0.11190639 -0.9772897
-1.0992994 -4.166462 0.024926674 0.03415247 -0.1315525 0.5501869 0.6575353 0.5275152
0.14243357 -0.12220658 1.8004535 -2.053003 1.9953046 -1.0235953 1.0649389 -0.024597634
0.9428921 -0.2465509 -0.4014305 -0.5888784 0.8463166 -0.034436665 -0.065047465 -1.2898362
-1.0654712 -3.5690787 -0.73253083 -2.9068012 -0.55659163 -0.7876151 -0.1998843 -3.7962239
0.08474104 -1.797493 0.86795604 0.24103795 0.02853074 -0.065334395 0.15011023 -0.4607697
0.6428982 0.7677225 -0.36960787 0.16705598 -0.48903787 0.03811006 0.04133109 -1.0106905
0.10319602 0.27211532 -1.144427 -3.6971471 0.35763484 -2.1306765 -0.04100268 0.011754178
-0.6005265 0.42035598 -1.285329 0.23745339 1.372117 -3.5609295 0.8675071 -1.0673529
1.9254231 0.2951095 0.45214048 0.349244 -0.043694098 0.11617997 -0.9448921 4.481444
-1.1912661 2.353761 -1.0811322 -1.3981371 -1.0690025 0.032593172 0.36269557 0.0007789905
1.0477192 -2.1765275 2.1640823 -0.3100083 -0.6112834 0.9209517 1.6562887 0.47584924
0.24660581 -0.18432857 0.13620648 0.77330333 -0.24360536 -0.91624844 -0.82717425 0.1327451
00000000: 39c0 c7bd c99a c73f 4c67 94bf 479b fbbf
00000010: ec83 90bf a532 f7bf 3176 8b3e b4f3 13c0
00000020: 95e8 cabc cfed 94bf 7788 523e c811 aec0
00000030: a6e5 f03f 7664 b8bf 7619 c13f 822f 883e
00000040: 2677 193f 105b 693e 6240 88bf 3232 2c3f
00000050: 58d0 d53f 050f 1cc0 9806 0140 685a aebe
00000060: d328 6d3f a0ef 5f3f f591 a53f f53d a53e
00000070: b7d1 3b3e b71c a7ba f271 b5bf 41a1 d4bf
00000080: afae 89bf e9b3 1ebf 7232 3dbe e812 db3e
00000090: 724f aa3e e1f4 a83f 8b8e 2cc0 607d 073e
000000a0: 9bb2 b5be e49e 81c0 ee2d 16bf 7523 0bbf
000000b0: 5bab ef3e 3bc1 e8bb 9510 733f 3918 ea3e
000000c0: d111 bdbf ce46 19bf 642d efbe 6a2f 6540
000000d0: f077 bbbf b8ff 893f 8211 33c0 8acc f43f
000000e0: b252 9fbe e7af 5b3f 1c5f 0a40 c2fe 963f
000000f0: 0b8c 793f ebbb a7c0 c46c b83f e177 afbf
00000100: 0074 a03f e3d1 413f d5e0 2c3f 2e89 0f3e
00000110: fc7d 58bf 69d4 a63e dad2 c8be 614a 44c0
00000120: b826 b13e b67b 1d3e 02e0 1bbf 1649 1bbf
00000130: f6d9 083f 1d23 2f3e b131 8cbf 00bc 15bf
00000140: 5b60 d33f 5ef2 ed3f f4ca 8f3f 5cf8 85bf
00000150: beb2 96be e951 b0bf 3c25 0d3f d97c c1be
00000160: 09f9 ba3e dad4 31bf 3fbd 6b3f 4b3e 93bf
00000170: f722 653f 0d40 a4bf cdad c8bf 58a3 edbf
00000180: f56d 90bf 00b6 adbf 148c 133e fa21 de3e
00000190: 76ee 6ebf 8808 0e3f 9592 7fbf 25a3 f83e
000001a0: ba0d 23bf a6f7 663f 92c7 053e a6cc a43f
000001b0: 3ea3 68bf 1eba b1be eb82 64bd 9b8e 81c0
000001c0: b335 4fbf 90cd d1be 82b2 963e 21e9 c6bd
000001d0: ad21 633f 30dd e23d a2d4 c8bf db7c 12bf
000001e0: 9310 0340 e611 85c0 39d9 133f 93a0 b0bf
000001f0: 8aaa ef3f 417b 6b3e 7915 ba3e 8dfc 06bf
00000200: e5f7 3abf 1fb9 eb3e d1fa e4be f2a5 38bf
00000210: 489e 2b3f 4566 87bf 2ccf fabf d180 2bc0
00000220: 280b 3ebf 9371 cabf ae7b fe3e a248 c4bf
00000230: d2a3 813f 68ef 573e 9338 df3f b6c3 753e
00000240: 26f1 d7bf f5d8 a5bf d709 dcbf 79db 88bf
00000250: c38e 743f 7096 9abf 711f b43f a221 0bbf
00000260: d022 683b 3e86 88bf 5f28 45bf d802 43c0
00000270: 181f 9abf 6b42 efbf 2d2f e53d a82f 7abf
00000280: d8b5 8cbf a853 85c0 0633 cc3c 76e3 0b3d
00000290: b3b5 06be 0cd9 0c3f 3c54 283f 3c0b 073f
000002a0: 1bda 113e 7247 fabd 4375 e63f 6764 03c0
000002b0: 2466 ff3f 2c05 83bf eb4f 883f fa80 c9bc
000002c0: 6061 713f d777 7cbe 4c88 cdbe bcc0 16bf
000002d0: 34a8 583f 760d 0dbd 9b37 85bd 5a19 a5bf
000002e0: 5c61 88bf c96b 64c0 2487 3bbf 0809 3ac0
000002f0: ca7c 0ebf 25a1 49bf 78ae 4cbe 55f5 72c0
00000300: b68c ad3d 4014 e6bf 5e32 5e3f a7d2 763e
00000310: 4cb9 e93c 0ace 85bd 7fb6 193e 02ea ebbe
00000320: fa94 243f 7689 443f 3e3d bdbe b910 2b3e
00000330: 2c63 fabe 4b19 1c3d ca4a 293d 4e5e 81bf
00000340: 6f58 d33d b352 8b3e 957c 92bf 0f9e 6cc0
00000350: ea1b b73e 015d 08c0 6df2 27bd 9994 403c
00000360: 1bbc 19bf e638 d73e a985 a4bf fb26 733e
00000370: 88a1 af3f 45e6 63c0 f214 5e3f 059f 88bf
00000380: 4474 f63f 9818 973e f57e e73e 1cd0 b23e
00000390: 95f8 32bd c4ef ed3d 73e4 71bf fd67 8f40
000003a0: 687b 98bf 05a4 1640 8a62 8abf 28f6 b2bf
000003b0: 13d5 88bf 6b80 053d 3cb3 b93e 2b35 4c3a
000003c0: aa1b 863f 3a4c 0bc0 5380 0a40 68b9 9ebe
000003d0: 127d 1cbf 7ec3 6b3f 4501 d43f 83a2 f33e
000003e0: 3c86 7c3e a1c0 3cbe b679 0b3e 35f7 453f
000003f0: af73 79be 428f 6abf b1c1 53bf 55ee 073e

fc1.bias f4 [32]
-0.8550246 0.53138 -1.5245035 -1.1877563 -1.047386 0.55381143 0.30446956 -1.9695314
-1.5682191 -0.2391774 -2.53226 -1.2203989 -0.6940693 0.34485993 0.010835889 1.0156273
-1.8336579 -2.2764213 0.58335096 -1.5411397 -1.8526073 -1.3039702 -1.1838712 3.212875
-0.26844728 -2.1594906 0.29067767 1.1930959 -2.0632432 -2.6157908 -1.5968306 -2.4970965
00000000: e4e2 5abf 8508 083f ee22 c3bf 6608 98bf
00000010: bf10 86bf 96c6 0d3f 6fe3 9b3e 9b19 fcbf
00000020: 67bb c8bf ecea 74be 8c10 22c0 0836 9cbf
00000030: 87ae 31bf 7b91 b03e 0389 313c 1300 823f
00000040: 4db5 eabf e3b0 11c0 7d56 153f 1144 c5bf
00000050: 3c22 edbf 7fe8 a6bf 1789 97bf be9f 4d40
00000060: ec71 89be 1835 0ac0 b4d3 943e 5eb7 983f
00000070: 2d0c 04c0 1e69 27c0 f264 ccbf 6ed0 1fc0

fc2.weight f4 [32, 32]
-0.16497256 -0.25215414 -0.23346917 -0.3133647 -0.03471908 -0.19912836 0.065246716 -0.23719536
-0.029215518 -0.17093547 -0.034172524 0.008318289 -0.0266953 -0.051406357 -0.4472813 -0.011719298
-0.17699026 -0.1694929 -0.2385191 -0.05087137 -0.13223474 -0.4638062 0.032546103 -0.28642946
0.09504247 -0.24846026 -0.26458424 -0.29227898 -0.21518542 -0.18627216 -0.053442426 -0.123054914
-1.033613 0.91050005 0.2855336 -0.23570798 1.2587874 -2.3768132 1.2214311 0.6176915
-0.1763338 0.1960534 0.3379441 0.97544795 1.3156406 -0.91974986 -0.37329715 -0.68172026
0.6584467 1.1355565 -1.8508624 1.7480975 0.6875489 1.3011278 0.8389362 -2.563004
-0.7220604 0.11893569 0.9172669 -0.835765 1.892012 0.42821646 0.4947846 1.1844385
-0.053854484 -0.081196435 -0.051700614 -0.20723715 -0.30412975 -0.23707964 -0.21922386 -0.11387596
-0.19971919 -0.09594406 -0.16471499 -0.059103865 0.09216164 0.050215274 -0.19666104 0.050939593
-0.13090886 0.009011022 -0.44897515 -0.24525923 -0.095541105 0.07733918 -0.2761392 -0.027355174
0.01069297 -0.16293722 0.08768088 -0.19222334 0.081127495 0.06482945 -0.06857623 0.12513535
-0.49126807 -0.083623715 0.019340089 -0.3967544 -0.33292174 -0.011209137 -0.101081446 -0.043361086
-0.24894492 0.076155104 -0.03804989 -0.004296845 -0.15902849 -0.27190512 -0.058526527 -0.065442175
0.029657103 -0.2091445 -0.2886836 -0.09235272 -0.08471748 -0.100601844 -0.17646763 -0.14881714
-0.07054642 -0.046857744 0.040125467 0.009938589 0.05458338 -0.113033965 -0.16354904 0.018246189
1.8464663 0.1647536 -0.87986207 1.5802157 1.1536369 -0.7128695 -0.12637389 -0.09962808
-0.35721993 0.05703117 -0.94827956 0.2261612 -1.0002412 0.3561959 -0.41814741 0.39566523
-0.0516311 -0.64272547 1.449368 0.13540716 0.4734974 1.3051904 -0.5337589 -0.74812347
-0.21628037 0.15055661 -0.5944407 0.0887112 -0.553916 -1.037612 -0.13842867 0.5582881
-0.24767512 -0.05970406 -0.06839794 -0.42589155 -0.32294896 -0.04138498 0.06417058 -0.107275344
-0.2191796 0.005083414 -0.06905877 -0.2107685 0.1040619 -0.14511389 -0.006351998 -0.07140305
-0.19435976 -0.18244177 0.007566107 -0.1882094 -0.020191569 -0.25256935 -0.24868931 -0.18131322
-0.0068451217 0.05814849 -0.14733972 0.010496637 0.003548561 -0.05833682 -0.18650438 -0.08138114
-0.13965128 -0.2574595 -0.17530178 -0.34745082 -0.35635388 -0.17317982 -0.111483335 -0.09504397
-0.062834404 0.076083295 0.1130041 -0.07576937 -0.14579973 -0.08834203 -0.048590366 -0.07387842
-0.17527571 -0.10235854 -0.2844924 -0.21589373 0.04962575 0.05103186 -0.14103135 -0.009909219
-0.2192993 0.05048753 0.00073671475 -0.11879117 0.08838648 -0.036686596 0.07396915 -0.22802189
-0.33041713 0.09987594 -0.115292214 -0.33650026 -0.17135397 -0.43448257 -0.20722656 -0.24955343
-0.16358781 -0.16300629 -0.3597361 -0.40039173 -0.2431112 -0.11263715 -0.04025552 -0.39209542
-0.1467516 -0.22658423 -0.06458528 -0.10522948 -0.36019593 0.11534241 -0.21655683 -0.30221152
-0.044526696 0.0318419 -0.1492579 -0.05596688 -0.19242398 -0.06803276 -0.0949249 -0.0037202572
00000000: 91ee 28be 591a 81be 8b12 6fbe 5771 a0be
00000010: 9835 0ebd 4ee8 4bbe 12a0 853d 57e3 72be
00000020: 6255 efbc b509 2fbe 7df8 0bbd 6f49 083c
00000030: 1ab0 dabc 798f 52bd 0e02 e5be 4c02 40bc
00000040: ef3c 35be 8c8f 2dbe 5a3e 74be 7f5e 50bd
00000050: 8b68 07be 0278 edbe 104f 053d e2a6 92be
00000060: a0a5 c23d 5e6c 7ebe 9677 87be 97a5 95be
00000070: 9159 5cbe 21be 3ebe 72e6 5abd 3704 fcbd
00000080: 6e4d 84bf 8816 693f 7631 923e 6f5d 71be
00000090: f21f a13f b51d 18c0 db57 9c3f 0821 1e3f
000000a0: d990 34be 39c2 483e 0207 ad3e f5b6 793f
000000b0: e966 a83f ba74 6bbf ce20 bfbe 3885 2ebf
000000c0: f78f 283f ea59 913f 0fe9 ecbf a9c1 df3f
000000d0: 3403 303f 5b8b a63f 86c4 563f 4208 24c0
000000e0: f3d8 38bf 8e94 f33d 01d2 6a3f b2f4 55bf
000000f0: 732d f23f 303f db3e 6854 fd3e ae9b 973f
00000100: 8596 5cbd 514a a6bd 06c4 53bd fa35 54be
00000110: e5b6 9bbe 01c5 72be 387c 60be cd37 e9bd
00000120: 3083 4cbe 527e c4bd 0cab 28be e516 72bd
00000130: 3ebf bc3d 88ae 4d3d 8361 49be 09a6 503d
00000140: f90c 06be f7a2 133c 12e0 e5be 3c25 7bbe
00000150: 0eab c3bd 0164 9e3d 1e62 8dbe f517 e0bc
00000160: 9131 2f3c 04d9 26be 0992 b33d 32d6 44be
00000170: 2c26 a63d 4dc5 843d b271 8cbd 7b23 003e
00000180: 7d87 fbbe e942 abbd 1b6f 9e3c 6523 cbbe
00000190: b874 aabe 87a6 37bc ca03 cfbd 659b 31bd
000001a0: 6beb 7ebe 35f7 9b3d 34da 1bbd 8ccc 8cbb
000001b0: 5dd8 22be 2637 8bbe 83b9 6fbd 8c06 86bd
000001c0: 74f3 f23c fa29 56be 56ce 93be 6c23 bdbd
000001d0: 5c80 adbd 5708 cebd eeb3 34be 8563 18be
000001e0: a47a 90bd e8ed 3fbd 9a5a 243d 77d5 223c
000001f0: d392 5f3d 5a7e e7bd 6679 27be 0879 953c
00000200: 0259 ec3f 2bb5 283e a43e 61bf 8244 ca3f
00000210: 60aa 933f 9e7e 36bf 2868 01be cf09 ccbd
00000220: 88e5 b6be 8499 693d 73c2 72bf cd96 673e
00000230: e707 80bf 4f5f b63e 6b17 d6be a294 ca3e
00000240: 227b 53bd a889 24bf e484 b93f 2da8 0a3e
00000250: 406e f23e 7b10 a73f 6ca4 08bf 0585 3fbf
00000260: 9a78 5dbe 832b 1a3e 442d 18bf 38ae b53d
00000270: 70cd 0dbf 78d0 84bf 3fc0 0dbe f8eb 0e3f
00000280: 8c9e 7dbe 3f8c 74bd 3814 8cbd 750e dabe
00000290: 9159 a5be 4c83 29bd dd6b 833d 2db3 dbbd
000002a0: 9e70 60be c492 a63b af6e 8dbd b3d3 57be
000002b0: 681e d53d bc98 14be 6c24 d0bb c33b 92bd
000002c0: 3f06 47be 04d2 3abe 1bed f73b f7b9 40be
000002d0: ca68 a5bc c550 81be 69a8 7ebe 2caa 39be
000002e0: 0b4d e0bb 1c2d 6e3d 39e0 16be 16fa 2b3c
000002f0: f98e 683b 97f2 6ebd 01fb 3ebe 28ab a6bd
00000300: bf00 0fbe bbd1 83be 4f82 33be 13e5 b1be
00000310: 0474 b6be 0d56 31be 6051 e4bd 6aa6 c2bd
00000320: 53af 80bd 8fd1 9b3d b26e e73d f92c 9bbd
00000330: 864c 15be abec b4bd b106 47bd 924d 97bd
00000340: 7a7b 33be 5ba1 d1bd fda8 91be 3f13 5dbe
00000350: 5f44 4b3d c906 513d 866a 10be 475a 22bc
00000360: ff8f 60be 03cc 4e3d 1720 413a c948 f3bd
00000370: f903 b53d af44 16bd 237d 973d 927e 69be
00000380: 6f2c a9be c28b cc3d 531e ecbd c349 acbe
00000390: 6a77 2fbe 8074 debe 3333 54be ef8a 7fbe
000003a0: 9083 27be 1feb 26be 552f b8be 2500 cdbe
000003b0: 24f2 78be 4eae e6bd f9e2 24bd bbc0 c8be
000003c0: 0d46 16be b205 68be 4a45 84bd 8e82 d7bd
000003d0: 9a6b b8be a438 ec3d 13c1 5dbe 78bb 9abe
000003e0: a061 36bd a76c 023d 10d7 18be 873d 65bd
000003f0: cb0a 45be c254 8bbd fc67 c2bd 8fcf 73bb

fc2.bias f4 [32]
-0.39783555 -2.096317 -0.5458694 -0.2381212 0.8142081 -0.20919062 -0.33692905 -0.2602192
-0.34645563 2.324629 -0.4416946 -0.06376368 -0.75218797 -0.123838395 1.3337427 -0.05620128
-0.1493015 -0.5158811 -0.54673725 2.982667 -0.44855675 -0.36434546 -1.0030708 -0.36911792
-0.5491978 -0.48963165 -0.43976498 -0.7500979 1.0656517 2.9520435 -0.37245822 -0.20254807
00000000: 1ab1 cbbe 0f2a 06c0 19be 0bbf 0bd6 73be
00000010: f16f 503f 1136 56be f781 acbe 733b 85be
00000020: a262 b1be b9c6 1440 cb25 e2be 8896 82bd
00000030: 648f 40bf fc9e fdbd 15b8 aa3f 5033 66bd
00000040: 7ee2 18be c910 04bf f9f6 0bbf 04e4 3e40
00000050: 3ba9 e5be 7d8b babe a064 80bf 06fd bcbe
00000060: 3a98 0cbf 00b1 fabe e028 e1be 6a06 40bf
00000070: 4667 883f 48ee 3c40 d8b2 bebe c368 4fbe

pi.weight f4 [5, 32]
-0.0073294262 -0.7594583 -0.19068776 0.1842646 0.8671837 -0.19162348 0.03855688 0.22718646
0.08579408 0.18742837 -0.2156198 0.19839878 -0.060079575 0.27390698 -0.21362665 0.028605897
-0.63824075 -0.08511239 -0.8686229 -0.34110406 0.2951008 0.29594457 0.70698464 0.29977366
-0.06977786 0.030272597 -0.56045544 0.38455284 -0.7155887 -1.1191754 0.16567907 0.13639845
-0.21657036 1.266759 -0.02652723 -0.102742806 -1.074915 -0.07154383 -0.060180712 0.013631234
0.16144764 -1.053623 0.17739938 0.104868956 0.11646737 -0.1779184 -0.32848355 -0.3616046
0.7748428 0.03084897 0.045815732 -1.7340451 0.005260307 -1.3973224 -1.8224486 -0.049427938
0.025215067 -0.36689726 0.51260054 -0.25321507 1.0062307 0.7219847 0.07802657 -0.10158079
0.2764939 -0.062570624 0.1295497 -0.08990307 -1.2419552 0.046039186 0.062237557 -0.09444234
-0.012385875 -0.40484533 0.21560672 -0.008099832 -0.110057905 -0.097788036 0.073717676 0.74705386
0.11019114 0.000504123 -0.28662965 -0.5451873 -0.06743508 -0.12691297 -0.34648964 -0.2314867
-0.109759636 0.038486 -0.55504864 0.03543954 -1.1535007 -1.3880177 -0.13396604 -0.09067571
-0.4896185 -0.25433522 0.35843268 -0.21674223 0.9293558 -0.04077152 0.03963144 -0.22928119
0.13296197 1.6777637 -0.30962923 -0.27479947 -0.25372037 -0.24909492 2.4690921 0.011785147
0.6203971 0.29455304 0.5923468 1.9134383 0.047289196 -0.081141256 -0.30305615 0.029814806
0.035603587 0.39825708 1.0323557 -0.071551114 1.283224 2.0805736 -0.021441098 -0.301942
-0.22898668 2.0110693 -0.4144359 -0.3168502 0.9880779 -0.05558789 -0.377538 -0.25754973
-0.07265324 -0.8618856 0.5301964 -0.020801602 0.008022925 -0.10802321 -1.408794 0.65524685
-0.5096805 -0.27932793 -0.22951005 -0.56698567 -0.34072506 -2.0411372 -1.9350482 0.12422433
-0.015885524 -0.33889878 0.92224383 -0.071379796 1.2830698 0.5727873 -0.60804385 -0.059772193
00000000: af2b f0bb dc6b 42bf a743 43be dcaf 3c3e
00000010: c0ff 5d3f f238 44be d2ed 1d3d 91a3 683e
00000020: ceb4 af3d 39ed 3f3e 70cb 5cbe 0d29 4b3e
00000030: 0016 76bd 893d 8c3e f2c0 5abe ea56 ea3c
00000040: bf63 23bf 684f aebd 125e 5ebf 31a5 aebe
00000050: 7417 973e 0c86 973e f2fc 343f ef7b 993e
00000060: b2e7 8ebd 3dfe f73c 027a 0fbf 1ce4 c43e
00000070: d230 37bf 2441 8fbf c6a7 293e 09ac 0b3e
00000080: 9fc4 5dbe 2925 a23f a24f d9bc d26a d2bd
00000090: d196 89bf 9285 92bd 0d80 76bd 8a55 5f3c
000000a0: 8852 253e 1edd 86bf 2fa8 353e 89c5 d63d
000000b0: 7286 ee3d 3e30 36be ff2e a8be 3d24 b9be
000000c0: 195c 463f fbb6 fc3c 47a9 3b3d 31f5 ddbf
000000d0: a75e ac3b 76db b2bf ff45 e9bf f374 4abd
000000e0: d48f ce3c f5d9 bbbe ca39 033f 68a5 81be
000000f0: 2bcc 803f fdd3 383f 65cc 9f3d 9709 d0bd
00000100: 9c90 8d3e 0725 80bd ada8 043e 1a1f b8bd
00000110: 63f8 9ebf 9693 3c3d cfec 7e3d fc6a c1bd
00000120: 20ee 4abc e347 cfbe 02c8 5c3e 28b5 04bc
00000130: 0a66 e1bd 1845 c8bd 4bf9 963d ec3e 3f3f
00000140: e4ab e13d 1f27 043a 1fc1 92be 6591 0bbf
00000150: 671b 8abd 79f5 01be 1767 b1be d90a 6dbe
00000160: a9c9 e0bd 7fa3 1d3d ab17 0ebf 0d29 113d
00000170: e9a5 93bf 90aa b1bf 652e 09be 30b4 b9bd
00000180: 47af fabe 3a38 82be 7d84 b73e adf1 5dbe
00000190: 43ea 6d3f 0a00 27bd 9454 223d b0c8 6abe
000001a0: 2f27 083e f6c0 d63f b987 9ebe 84b2 8cbe
000001b0: a3e7 81be bd12 7fbe 9b05 1e40 7d16 413c
000001c0: 58d2 1e3f a8cf 963e 0aa4 173f 8ceb f43f
000001d0: 51b2 413d 632d a6bd 2d2a 9bbe 2e3e f43c
000001e0: 11d5 113d 5ae8 cb3e 3b24 843f 6489 92bd
000001f0: af40 a43f 1e28 0540 3ea5 afbc 2498 9abe
00000200: 7c7b 6abe 5cb5 0040 f130 d4be 303a a2be
00000210: acf2 7c3f 21b0 63bd a94c c1be 8fdd 83be
00000220: 39cb 94bd 89a4 5cbf f4ba 073f 1f68 aabc
00000230: 9672 033c 463b ddbd 5d53 b4bf 42be 273f
00000240: 6c7a 02bf 1204 8fbe af04 6bbe f925 11bf
00000250: 8473 aebe fea1 02c0 a9af f7bf 5369 fe3d
00000260: 5c22 82bc 2484 adbe 2c18 6c3f 922f 92bd
00000270: a23b a43f 30a2 123f c3a8 1bbf b0d3 74bd

pi.bias f4 [5]
-1.2356608 -1.8667009 -1.1138009 3.1073022 -0.25567055
00000000: 222a 9ebf 0ef0 eebf 0791 8ebf 0ade 4640
00000010: 40e7 82be
