code/tmp/maddpg/k_1/predator_preyadversary_0+0/adversary_0_target_actorRegular.pt (torch, 9495 bytes, 6 tensors)

fc1.weight f4 [32, 16]
0.7268585 0.13630179 -0.4550089 -0.6083584 0.22197759 0.23513982 0.6713248 0.6751037
-0.08178398 -0.48564568 -0.8452573 -0.54393166 0.16710104 0.17903838 -0.18248053 -0.05991707
-0.16296297 -0.20677094 0.15213875 -0.7709004 -0.23295082 0.8314171 -0.11885811 0.625012
-0.59793943 0.09342255 -0.5566692 -0.4306246 -0.08586019 0.9285906 0.29114065 -0.41973782
-0.19369963 0.37236995 0.04367367 0.049823012 0.46696857 -0.054310128 -0.3791828 -0.17461273
0.40806422 0.35594288 0.4040707 1.4266088 -0.108594924 -0.06179387 0.47522977 0.0640881
0.38374552 0.21034722 -0.49337047 -0.73625815 -0.14397739 -0.14257966 0.296669 0.38443097
0.45967892 0.64951545 -0.48350886 -0.19758736 0.04120641 -0.18354 0.45170382 -0.31714022
0.5028626 0.63884616 0.08112386 -0.34082118 -0.10526451 -0.2158085 -0.024234992 1.0438751
-0.949184 0.16043277 -1.3361527 0.49291748 -0.2930927 -0.13756244 0.38402566 -0.18821006
0.84386253 -1.2483668 -0.46950775 0.4202623 0.4452188 0.65933233 0.8986035 0.3422517
-0.33746243 -0.26081973 0.0540244 -1.6546683 0.8534708 -0.022234136 0.05980494 -0.45066372
-0.72803265 0.18249694 -0.41257033 0.16682984 0.62322974 0.11823374 -0.16483904 -0.071131885
0.47330454 0.21400397 0.44372573 1.1979771 0.17242374 -0.055533145 0.5260323 0.43209684
0.2437065 0.27494603 -0.19510482 -0.74583066 0.17723384 -0.78900236 0.25128227 0.578109
-0.119575605 0.6405986 -0.11312264 0.07304444 -0.26733154 -0.66221124 0.17963144 -0.0641015
0.087537326 0.22075272 0.046191223 -0.39921293 0.2489964 0.2860504 0.29390633 0.48996407
-0.7225193 0.21835363 -0.120634325 -0.5147373 0.031436544 0.13332155 -0.5339181 -0.57377577
0.68269134 -1.4655664 -0.50695294 -0.22052623 -0.7342912 0.03154421 0.91041714 0.16907544
0.3457535 0.59010744 -0.040818974 -1.5686349 0.06523698 0.2984035 -0.42746556 0.25881702
0.14791876 -0.3712017 -0.001556422 -0.6997622 -0.5884683 0.78483003 -0.0030703289 0.0806962
-0.030321563 0.2228523 -0.93813336 -0.21899141 0.17064156 0.7165469 -0.037759766 0.11978421
0.7489897 -0.9943346 -0.35350505 0.77837485 -0.23157246 0.5062317 0.6129539 -0.6199992
-0.26641065 -1.0362934 0.53558695 -1.7066197 0.113276124 -1.2458158 0.21178222 0.2417291
1.247723 -0.40265808 -0.06604835 0.3524113 -0.007770288 0.77596086 0.5355453 0.63754684
-0.308426 -0.5475377 -0.47075945 -0.6043112 0.6246066 -0.02863121 0.1546794 0.32347324
0.033955492 -0.28773126 0.585655 -0.21610205 -0.18711926 0.0054195807 -0.34687704 -0.21707213
-0.09850832 -0.0419876 -0.26930445 -0.17126888 -0.5590653 0.033487596 -0.16480923 0.4441519
0.10101693 0.369497 -0.39199778 -0.8473494 -0.66928035 -0.08478135 0.21480417 0.7454134
0.57546854 -0.57957524 -0.46551123 -0.27847168 -0.14925836 0.31658593 0.48680204 -0.2043808
1.2103987 -0.106473744 -0.08650841 0.5591725 0.30251026 -0.38268158 -0.28902766 0.1942033
-0.37619656 -0.5422567 -0.22007622 -0.42276868 0.18792841 -0.70600283 0.19141082 -0.44254556
00000000: 6613 3a3f b292 0b3e edf6 e8be 60bd 1bbf
00000010: 184e 633e 7ec8 703e f1db 2b3f 99d3 2c3f
00000020: 5c7e a7bd 8da6 f8be c862 58bf 1b3f 0bbf
00000030: 891c 2b3e d655 373e 2ddc 3abe 9a6b 75bd
00000040: c4df 26be c3bb 53be 43ca 1b3e bb59 45bf
00000050: a98a 6ebe c0d7 543f e16b f3bd c900 203f
00000060: 8f12 19bf 5254 bf3d df81 0ebf d47a dcbe
00000070: 78d7 afbd 1db8 6d3f 6310 953e e0e7 d6be
00000080: 3259 46be 46a7 be3e 2ae3 323d 3713 4c3d
00000090: 8116 ef3e 4c74 5ebd 3f24 c2be aecd 32be
000000a0: cbed d03e 253e b63e 5be2 ce3e 1e9b b63f
000000b0: 0467 debd 921b 7dbd 5151 f33e 9f40 833d
000000c0: 4b7a c43e 4365 573e 0e9b fcbe 6a7b 3cbf
000000d0: cf6e 13be 6700 12be 00e5 973e 23d4 c43e
000000e0: 095b eb3e a546 263f 798e f7be 5754 4abe
000000f0: 0dc8 283d e9f1 3bbe b945 e73e 3460 a2be
00000100: 9abb 003f 6c8b 233f 4424 a63d 1d80 aebe
00000110: eb94 d7bd e7fc 5cbe 7688 c6bc b39d 853f
00000120: b9fd 72bf 7d48 243e 0d07 abbf ae5f fc3e
00000130: 3f10 96be 2bdd 0cbe 039f c43e 23ba 40be
00000140: 6007 583f 7cca 9fbf 5263 f0be 9f2c d73e
00000150: b8f3 e33e 01ca 283f e10a 663f 9d3b af3e
00000160: e0c7 acbe 2a8a 85be b048 5d3d 2ccc d3bf
00000170: 107d 5a3f 5d24 b6bc 06f6 743d 65bd e6be
00000180: 5960 3abf 7ae0 3a3e 6b3c d3be 71d5 2a3e
00000190: fc8b 1f3f 8824 f23d 91cb 28be 98ad 91bd
000001a0: f954 f23e db23 5b3e 0530 e33e 5057 993f
000001b0: d98f 303e b976 63bd 0eaa 063f cc3b dd3e
000001c0: 328e 793e bac5 8c3e 8fc9 47be c2ee 3ebf
000001d0: ca7c 353e 0ffc 49bf 12a8 803e f4fe 133f
000001e0: 0ee4 f4bd 45fe 233f d8ac e7bd 5398 953d
000001f0: aedf 88be ad86 29bf 4ef1 373e a647 83bd
00000200: c546 b33d 000d 623e 0233 3d3d a365 ccbe
00000210: eaf8 7e3e 3375 923e e47a 963e 92dc fa3e
00000220: 06f7 38bf 1898 5f3e 210f f7bd d3c5 03bf
00000230: 9bc3 003d 7285 083e dbae 08bf f8e2 12bf
00000240: dcc4 2e3f ae97 bbbf abc7 01bf a1d1 61be
00000250: 82fa 3bbf 8034 013d 1911 693f 1d22 2d3e
00000260: 9a06 b13e 4811 173f cc31 27bd 07c9 c8bf
00000270: f79a 853d 58c8 983e c4dc dabe aa83 843e
00000280: 0478 173e 260e bebe db00 ccba 9e23 33bf
00000290: dca5 16bf 9fea 483f 9237 49bb 0d44 a53d
000002a0: ed64 f8bc 6533 643e 8229 70bf 493f 60be
000002b0: a9bc 2e3e 9e6f 373f fca9 1abd 6d51 f53d
000002c0: cabd 3f3f b68c 7ebf 9dfe b4be 9343 473f
000002d0: 5521 6dbe 6798 013f 8cea 1c3f 44b8 1ebf
000002e0: fa66 88be 43a5 84bf 3a1c 093f 8472 dabf
000002f0: 50fd e73d e476 9fbf 70dd 583e d587 773e
00000300: 63b5 9f3f 3329 cebe 5b44 87bd 416f b43e
00000310: e69d febb 5fa5 463f 7f19 093f 4536 233f
00000320: 03ea 9dbe 6e2b 0cbf 6207 f1be 24b4 1abf
00000330: 38e6 1f3f 008c eabc 4764 1e3e 499e a53e
00000340: ea14 0b3d 8351 93be 7ced 153f db49 5dbe
00000350: 319c 3fbe bd96 b13b de99 b1be 2848 5ebe
00000360: bbbe c9bd 31fb 2bbd 46e2 89be 1c61 2fbe
00000370: e71e 0fbf 4a2a 093d c0c3 28be e167 e33e
00000380: f7e1 ce3d b62e bd3e efb3 c8be e4eb 58bf
00000390: f555 2bbf d8a1 adbd a0f5 5b3e 6ad3 3e3f
000003a0: e851 133f 0b5f 14bf 7d57 eebe d793 8ebe
000003b0: 2fd7 18be 8d17 a23e 1e3e f93e 3349 51be
000003c0: 58ee 9a3f e80e dabd 522b b1bd ee25 0f3f
000003d0: a0e2 9a3e d7ee c3be 6ffb 93be 3bdd 463e
000003e0: d69c c0be 56d1 0abf a95b 61be 2375 d8be
000003f0: 4e70 403e 9abc 34bf 3301 443e 5595 e2be

fc1.bias f4 [32]
0.86679244 0.5263483 -0.11680696 0.4336704 0.3477741 1.0773968 -0.2992499 0.41816127
-0.13594118 0.42594564 0.5783832 0.46593738 1.1497927 -0.37563333 0.43518436 0.6672717
0.66323644 0.6743706 0.6865359 -0.77855366 -0.5870974 0.15281528 0.49050647 1.4243438
-0.5799508 0.34587866 0.96052086 -0.18396023 0.64259535 0.6036854 0.026929868 0.33312917
00000000: 1ce6 5d3f c3be 063f 7d38 efbd 0c0a de3e
00000010: 720f b23e 23e8 893f 4837 99be 3c19 d63e
00000020: 2a34 0bbe 8c15 da3e ec10 143f 588f ee3e
00000030: 682c 933f 0353 c0be 7cd0 de3e 51d2 2a3f
00000040: ddc9 293f 8da3 2c3f d1c0 2f3f 4b4f 47bf
00000050: 044c 16bf 9c7b 1c3e aa23 fb3e e650 b63f
00000060: a877 14bf 0217 b13e b2e4 753f 1260 3cbe
00000070: 2181 243f 208b 1a3f 079c dc3c e88f aa3e

fc2.weight f4 [32, 32]
-0.13956366 -0.15452147 -0.08622752 0.09825127 0.1541418 -0.19501989 -0.16274692 -0.035202727
-0.09277807 0.004518991 -0.25530037 -0.07029145 -0.19756053 -0.03128977 0.08524701 -0.11098284
-0.18064323 0.020441338 -0.058828913 -0.03298394 0.05351552 -0.18626693 0.011861661 -0.09368406
-0.045712523 -0.19234662 0.094802395 -0.31876448 0.1320326 0.16928582 -0.18696281 -0.24408796
-0.06860613 -0.0020737199 0.16866118 -0.07616624 -0.64248806 -0.48914748 0.35023573 -0.23846129
-0.17907414 -0.759051 -0.14880389 -0.7341958 -0.35327858 0.35155597 -0.16388239 0.064506814
0.009879433 0.19122604 -0.17206314 0.2723413 0.17127484 -0.033254024 -0.122652695 -0.45139983
0.19166711 0.17209293 -0.34604257 0.23873545 -0.07179052 -0.37656614 0.35897377 -0.31974795
-0.16014667 -0.25232238 -0.11149023 -0.007292938 -0.04683793 0.068117365 -0.10920885 0.28638422
0.07629812 -0.028813193 -0.036433935 0.043972436 0.14304309 -0.29466927 -0.37575552 0.05462491
-0.24127612 -0.13015954 -0.1715848 -0.1855323 -0.07965834 -0.3322113 -0.16375871 0.052377444
-0.14996916 -0.40602875 -0.1767883 -0.16609968 0.0017833621 0.009839013 -0.12896745 0.04611336
-0.062342606 0.04428238 -0.014526551 0.17198966 -0.12741776 -0.15948953 0.011252359 -0.045059107
0.107600264 -0.07461155 0.045680854 0.006431231 0.076921724 -0.073556304 0.12899624 -0.06905838
-0.11078093 0.065237716 0.040274426 0.11572926 -0.1996318 0.066245034 -0.043615326 -0.04087374
-0.16676897 0.018790916 -0.13624816 -0.02584041 -0.23314007 -0.150145 -0.17305109 -0.080849685
0.011172109 -0.111964084 0.51064837 -0.2308736 -0.82692885 -0.123050556 0.16815603 -0.13511418
0.09204567 -0.6950594 0.078383535 -0.6714917 -0.078619726 0.18769595 -0.03255516 0.33500373
0.1907343 0.32736838 0.1593554 0.28407153 0.45798612 -0.085037656 -0.1268798 -0.042780343
0.4205037 0.3819067 0.14278679 0.47262502 -0.1429373 -0.20353293 0.39151794 -0.050701063
-0.49589175 -0.45723215 0.46445024 -0.72247756 -0.7447697 -0.94014204 0.45268428 -0.5935049
-0.32451037 -0.48880178 -0.0580574 -0.91019064 -1.0372471 0.047284223 -0.523529 -0.31910422
-0.34913903 -0.29573023 -0.5926585 0.3564823 0.0481999 -0.29966116 -0.6625748 -0.8998433
0.4633565 -0.24890849 -0.93673855 0.59106106 -0.6487525 -0.7257379 0.3163445 -0.6642735
-0.078271784 0.062779956 -0.19453709 0.018566398 0.16637087 0.14136223 -0.13137697 0.16228795
-0.12074939 -0.22726156 -0.23965338 -0.10642606 0.10717931 -0.06863742 -0.13070194 -0.010522232
-0.07352576 -0.23406692 -0.06906211 -0.008133295 0.0105961785 0.076286934 -0.18247458 -0.2176786
0.078268796 0.116550654 0.057443842 -0.238731 0.006578333 0.081398785 -0.0999284 -0.055508185
0.1383209 0.15380321 -0.114299096 0.052396443 0.123720355 0.14115064 0.07459491 -0.17026009
0.008615347 -0.13763843 -0.1802409 -0.07162213 -0.011050666 -0.036797523 0.026471285 0.09855078
-0.06321489 -0.15212238 -0.053273752 -0.015302716 0.12013588 0.07210567 -0.07820547 -0.03553316
0.010731872 -0.029631454 -0.120608255 0.03474339 -0.17179938 -0.04025385 -0.18286946 0.12463678
00000000: c7e9 0ebe e03a 1ebe 0e98 b0bd f637 c93d
00000010: 59d7 1d3e 4bb3 47be 21a7 26be bc30 10bd
00000020: 6e02 bebd 0b14 943b bbb6 82be f7f4 8fbd
00000030: 4f4d 4abe b429 00bd fc95 ae3d f94a e3bd
00000040: 8afa 38be 9874 a73c 96f6 70bd 2b1a 07bd
00000050: 1733 5b3d c2bc 3ebe 6a57 423c 6edd bfbd
00000060: 0e3d 3bbd 83f6 44be c227 c23d 1935 a3be
00000070: 8e33 073e 4359 2d3e 2e73 3fbe 32f2 79be
00000080: 5f81 8cbd 3fe7 07bb 84b5 2c3e 0cfd 9bbd
00000090: 197a 24bf 8a71 fabe 1952 b33e 322f 74be
000000a0: 365f 37be 2b51 42bf 0c60 18be 42f4 3bbf
000000b0: eee0 b4be 25ff b33e c9d0 27be 261c 843d
000000c0: 58dd 213c c2d0 433e 5231 30be 5270 8b3e
000000d0: ac62 2f3e 5f35 08bd 5631 fbbd e11d e7be
000000e0: 6244 443e 2139 303e 7e2c b1be 1177 743e
000000f0: e806 93bd 47cd c0be 69cb b73e 01b6 a3be
00000100: 7dfd 23be 6630 81be fd54 e4bd 99f9 eebb
00000110: 21d9 3fbd 1e81 8b3d e4a8 dfbd f4a0 923e
00000120: 3042 9c3d a509 ecbc c03b 15bd 711c 343d
00000130: e379 123e e4de 96be 0763 c0be 5fbe 5f3d
00000140: 1611 77be 8b48 05be edb3 2fbe 2efc 3dbe
00000150: e923 a3bd 9917 aabe 5db0 27be bb89 563d
00000160: 8491 19be 00e3 cfbe fe07 35be 0916 2abe
00000170: b4bf e93a d033 213c 0b10 04be 5de1 3c3d
00000180: f65a 7fbd 7161 353d c500 6ebc 0f1e 303e
00000190: cd79 02be 3951 23be d05b 383c e68f 38bd
000001a0: 875d dc3d f1cd 98bd d91b 3b3d 13bd d23b
000001b0: 2389 9d3d b0a4 96bd 9717 043e 7b6e 8dbd
000001c0: 1de1 e2bd 5a9b 853d ccf6 243d 7603 ed3d
000001d0: 476c 4cbe 7aab 873d fca5 32bd 396b 27bd
000001e0: 7cc5 2abe 68ef 993c a384 0bbe 44af d3bc
000001f0: 45bc 6ebe 9cbf 19be 4e34 31be 8594 a5bd
00000200: 390b 373c 6d4d e5bd dab9 023f 216a 6cbe
00000210: 9cb1 53bf ee01 fcbd 1831 2c3e 5f5b 0abe
00000220: 7182 bc3d 6aef 31bf 8c87 a03d e1e6 2bbf
00000230: 6103 a1bd 5e33 403e 8f58 05bd 9c85 ab3e
00000240: da4f 433e d49c a73e 102e 233e d371 913e
00000250: 287d ea3e 3928 aebd c7ec 01be 713a 2fbd
00000260: 434c d73e 4689 c33e b336 123e e8fb f13e
00000270: 285e 12be f06a 50be 0a75 c83e ebab 4fbd
00000280: 86e5 fdbe 551a eabe 6ccc ed3e 4af4 38bf
00000290: 3aa9 3ebf 26ad 70bf 3cc6 e73e f0ef 17bf
000002a0: 3926 a6be 3a44 fabe 99cd 6dbd 4102 69bf
000002b0: 83c4 84bf 1aad 413d ff05 06bf a161 a3be
000002c0: 5ac2 b2be f469 97be 78b8 17bf d984 b63e
000002d0: 426d 453d 306d 99be 819e 29bf 215c 66bf
000002e0: 103d ed3e dee1 7ebe 19ce 6fbf c74f 173f
000002f0: a514 26bf f6c9 39bf e8f7 a13e d40d 2abf
00000300: f54c a0bd c792 803d bb34 47be 8f18 983c
00000310: 205d 2a3e 43c1 103e af87 06be d02e 263e
00000320: 754b f7bd 41b7 68be b267 75be e8f5 d9bd
00000330: d380 db3d c791 8cbd bbd6 05be 7165 2cbc
00000340: ac94 96bd 3daf 6fbe 6f70 8dbd 8341 05bc
00000350: 989b 2d3c 533c 9c3d 9eda 3abe 24e7 5ebe
00000360: 644b a03d 1cb2 ee3d 3c4a 6b3d e675 74be
00000370: 0f8f d73b 68b4 a63d 43a7 ccbd 8d5c 63bd
00000380: fea3 0d3e 977e 1d3e a515 eabd a79d 563d
00000390: 1961 fd3d cb89 103e 37c5 983d a958 2ebe
000003a0: 6227 0d3c 17f1 0cbe 1291 38be a0ae 92bd
000003b0: da0d 35bc 00b9 16bd 4fda d83c fed4 c93d
000003c0: cf76 81bd f8c5 1bbe 9435 5abd 3eb8 7abc
000003d0: cd09 f63d 23ac 933d 312a a0bd 388b 11bd
000003e0: bcd4 2f3c aabd f2bc 7601 f7bd 164f 0e3d
000003f0: 2dec 2fbe 39e1 24bd 2242 3bbe 9141 ff3d

fc2.bias f4 [32]
0.001487795 -0.013762121 -0.20119046 -0.09411546 0.1550862 -0.13603209 -0.1932094 -0.22643752
0.65396196 -0.0075945007 0.27938065 -0.19993429 -0.18491837 0.96877015 0.3618378 -0.0019144343
0.4463692 -0.057530645 -0.041089434 -0.17323437 -0.30442655 0.41915965 -0.18252525 -0.15948077
0.19796138 0.41520488 -0.10466176 -0.12192924 0.03530554 0.05570674 0.02586332 -0.10997478
00000000: 1e02 c33a 857a 61bc df04 4ebe 9bbf c0bd
00000010: ebce 1e3e ff4b 0bbe afd8 45be 3ddf 67be
00000020: 0d6a 273f 4adb f8bb fb0a 8f3e 93bb 4cbe
00000030: 3e5b 3dbe 5201 783f ce42 b93e c1ed faba
00000040: 818a e43e 41a5 6bbd 654d 28bd 5a64 31be
00000050: ccdd 9bbe 189c d63e e6e7 3abe ed4e 23be
00000060: 63b6 4a3e bc95 d43e e858 d6bd 0ab6 f9bd
00000070: 8b9c 103d c02c 643d 50df d33c 753a e1bd

pi.weight f4 [5, 32]
0.09907978 0.3886152 0.06631656 0.069828026 0.47548905 0.54709065 0.0440231 0.08145914
-0.65319306 -0.09298147 -0.50544494 -0.09236232 -0.03492109 -1.1439037 -0.68496233 -0.5286252
-0.67511564 -0.06057682 -0.07609472 -0.099015705 0.0058337864 -0.6799436 -0.09263353 -0.09119706
-0.7114805 -0.9520987 -0.18110815 0.57542676 0.1896182 -0.070181176 -0.46343103 -0.06313964
0.10242808 0.2556282 0.03672935 0.0635144 0.39465317 -0.5866086 -0.049190458 0.04056789
0.40500948 -0.021952692 0.46133295 -0.013634808 -0.15799941 1.0074179 0.5365884 0.2730417
0.70364845 0.07875309 -0.0052166916 -0.05485775 -0.054782867 0.54911727 0.091764785 0.009216294
0.60703516 0.823287 0.10816278 -0.46439362 0.2177844 0.06137738 0.29806972 0.19053464
-0.092065044 -0.15343517 0.2239997 0.006371906 -0.29942572 -0.30016184 -0.072890215 -0.104368955
0.0024772855 0.014137258 -0.52567476 -0.06096946 -0.11625263 0.07915467 0.05199858 -0.07875756
-0.24301657 0.098726615 -0.14301777 0.1160537 -0.04895651 -0.25538084 0.079118915 0.14445722
-0.30394077 -0.14941037 -0.073802166 -0.31463388 -0.26430365 -0.08350433 -0.16897412 -0.017594472
0.19434337 -0.3113824 -0.018220507 0.17117502 -0.14224887 -0.22643305 -0.1815224 0.0018842361
-0.027260862 0.010519345 -0.3281105 -0.057528038 0.07938638 0.04550763 -0.08979188 -0.19110088
-0.17363223 0.13530044 0.034751214 -0.08348942 -0.07069006 -0.055264924 -0.03577381 0.09213422
-0.3300387 -0.15004665 -0.0977111 -0.30704916 -0.42793047 0.09300233 -0.18296036 0.06365298
0.075854056 -0.42911065 -0.05292283 0.07858023 -0.43277335 -0.35611874 0.19490813 0.119689584
0.1510927 0.15500426 -0.050823256 -0.15253216 -0.0969504 -0.050278243 0.13674733 0.13286707
0.19057932 0.08784951 0.079080164 -0.05333559 0.09586858 -0.05025552 0.10205257 0.13797595
0.20967816 0.038741004 0.028169088 -0.255053 -0.5613422 0.13347206 0.19317064 0.19833091
00000000: 57ea ca3d 92f8 c63e fad0 873d ff01 8f3d
00000010: 4d73 f33e 220e 0c3f 9151 343d 0dd4 a63d
00000020: a937 27bf 126d bebd d764 01bf 7528 bdbd
00000030: 6b09 0fbd 706b 92bf b159 2fbf fb53 07bf
00000040: 61d4 2cbf 661f 78bd 8cd7 9bbd bfc8 cabd
00000050: 5929 bf3b c910 2ebf a6b6 bdbd 86c5 babd
00000060: 9623 36bf bebc 73bf 6a74 39be 2b4f 133f
00000070: 462b 423e 26bb 8fbd d546 edbe 5b4f 81bd
00000080: d0c5 d13d b3e1 823e 8471 163d d613 823d
00000090: fb0f ca3e fb2b 16bf ef7b 49bd 842a 263d
000000a0: 675d cf3e 22d6 b3bc d533 ec3e 8864 5fbc
000000b0: 99ca 21be 12f3 803f db5d 093f 1fcc 8b3e
000000c0: 4e22 343f 4d49 a13d c8f0 aabb 85b2 60bd
000000d0: 0064 60bd f392 0c3f 2def bb3d f0ff 163c
000000e0: a866 1b3f f0c2 523f 7384 dd3d 00c5 edbe
000000f0: e002 5f3e d966 7b3d 989c 983e 831b 433e
00000100: 998c bcbd 1c1e 1dbe 2d60 653e 6ccb d03b
00000110: 544e 99be d0ae 99be 7747 95bd 64bf d5bd
00000120: f459 223b f59f 673c 9f92 06bf 1dbb 79bd
00000130: dc15 eebd d81b a23d 77fc 543d a54b a1bd
00000140: 56d9 78be 2e31 ca3d 4073 12be 90ad ed3d
00000150: 9f86 48bd 47c1 82be 1909 a23d 98ec 133e
00000160: 209e 9bbe 08ff 18be 9725 97bd b117 a1be
00000170: cf52 87be 5104 abbd 8d07 2dbe 4822 90bc
00000180: f301 473e 846d 9fbe 2c43 95bc 8148 2f3e
00000190: b0a9 11be 11de 67be 02e1 39be 79f8 f63a
000001a0: 2c52 dfbc 5559 2c3c 19fe a7be 85a2 6bbd
000001b0: 5495 a23d 3566 3a3d cee4 b7bd f3af 43be
000001c0: a6cc 31be 338c 0a3e 4a57 0e3d 80fc aabd
000001d0: f3c5 90bd 795d 62bd 8f87 12bd deb0 bc3d
000001e0: d5fa a8be d4a5 19be c21c c8bd 8c35 9dbe
000001f0: b419 dbbe 0178 be3d f659 3bbe 7e5c 823d
00000200: 5f59 9b3d 64b4 dbbe 9cc5 58bd acee a03d
00000210: 7894 ddbe 3255 b6be ff95 473e d01f f53d
00000220: 0bb8 1a3e 70b9 1e3e 0c2c 50bd 6431 1cbe
00000230: ee8d c6bd 8ff0 4dbd 7e07 0c3e 4e0e 083e
00000240: 3a27 433e 72ea b33d c8f4 a13d 6b76 5abd
00000250: bf56 c43d bbd8 4dbd f000 d13d 9149 0d3e
00000260: dfb5 563e e3ae 1e3d dcc2 e63c 4f96 82be
00000270: 1fb4 0fbf e6ac 083e 86ce 453e 4217 4b3e

pi.bias f4 [5]
-0.029250355 0.1503849 0.028079681 -0.3003496 -0.26503977
00000000: 719e efbc 80fe 193e 5c07 e63c 6cc7 99be
00000010: 4bb3 87be
