code/MADDPG/plots/tmp/maddpg/k_1/predator_preyadversary_2+0/adversary_2_actorRegular.pt (torch, 9375 bytes, 6 tensors)

fc1.weight f4 [32, 16]
0.0034607225 0.97824836 -0.36845407 0.25736034 0.07769969 1.0460687 -0.3645254 0.57391757
0.072164685 -0.91014147 -0.07422743 0.08515592 0.20465858 -0.34703267 0.056168854 -0.41330487
-1.1246477 -0.058441013 -1.2325947 0.21023946 1.4662846 2.4105618 0.8336164 0.11199392
1.8936151 -0.6677477 0.385609 0.11977915 0.136808 0.27738386 -0.017445488 0.4721268
-1.3295213 1.5246385 0.5324452 0.49929547 -0.44449088 0.89121675 -1.4366918 0.1509148
-2.8753936 -0.9927654 -0.14243175 0.73346317 0.03436621 -0.88713056 0.618405 0.8438801
0.63200706 -0.48947373 -0.13141249 0.029121216 -0.18291439 1.1124357 1.231153 1.7784944
2.2448685 -0.6397984 -0.9264055 0.6212558 -0.10538423 0.90653014 -0.73528016 -0.76424664
-0.70715034 -0.09160208 -0.28080088 -0.11057162 -0.66603434 0.12719645 0.26350033 0.38626984
-0.86832565 -1.9431471 -0.011194583 1.0381308 0.6399836 -0.5618003 0.13732074 -1.4673107
0.18226768 -0.67735165 -0.5148557 -1.0376859 -0.2467203 0.69695044 0.9891223 0.89821696
0.85796803 2.0919008 0.18265325 -0.5351061 -0.8648716 2.5880585 -0.5677234 0.69330806
-0.014871558 0.05989369 0.78371376 -0.44825596 -0.47760263 1.5646996 -0.039597705 1.8842558
1.6766112 0.4705217 -1.7222233 0.36613527 -1.0632312 1.316002 0.16479208 -0.3145742
-1.0185775 1.4386338 0.36632696 0.17613752 -0.94522506 0.5788186 -0.5045956 0.10694473
-0.12766694 -0.3966975 -1.7467698 -0.7327204 -0.37525854 -0.6857845 -0.12498828 -1.0116099
-0.27563903 0.8585247 -1.095668 0.06710556 1.1029844 1.0026464 0.62884915 0.056512933
0.18409972 -0.0920377 0.76756996 -1.0101227 0.26331326 0.48991606 0.604374 -0.013177657
0.20981997 0.2238541 -0.7592805 1.043135 0.504856 0.29093155 -0.5786395 0.84947747
0.5398513 -0.46550083 0.07255591 -1.7573353 -0.009417023 -1.0661051 0.5427689 0.3261463
-0.47584715 1.067782 0.16622502 0.06363249 0.32358062 0.51376957 -0.18520491 0.17922555
0.18524311 -0.0035653096 -0.0072181174 -0.5147425 0.19756316 0.35593778 0.13393992 -0.341989
-0.76333153 -0.29466513 -0.033840336 0.14547837 -0.8771661 -0.09477917 -0.33813184 0.14500777
-1.7980886 -2.2831652 -0.119528964 2.1594296 0.82832605 -0.9949937 0.49270713 -1.0275799
-0.29498678 1.2186244 0.1756147 -0.18943799 -0.26351503 0.29775444 -1.1129607 1.4841473
-0.87052065 -0.1585561 0.069582224 0.61735344 0.0106234355 -0.5618631 0.25847423 0.2770378
-0.554135 0.294945 0.78816164 0.76733816 0.70717204 -1.6735048 -0.12061602 -0.26952863
0.618052 0.6274884 -1.1061436 -1.4234246 0.5120717 1.4567795 0.33602104 -0.0039914553
-1.0008678 1.8821543 -0.35050973 0.92942256 2.1795352 -2.304978 -0.08611417 -0.8457697
0.38581392 0.09319536 -0.7403628 -1.3886024 -0.62806565 -1.0038688 0.39679694 0.25496164
0.496013 1.5140917 0.034204654 0.44906393 0.06882839 -0.08793638 -0.5452234 -0.5042082
-1.2138805 -1.431452 -0.63388485 0.27477807 0.67309296 -0.56242925 0.24192993 -0.93042237
00000000: 4acd 623b 7c6e 7a3f 03a6 bcbe bcc4 833e
00000010: 0421 9f3d 94e5 853f 13a3 babe 43ec 123f
00000020: 14cb 933d 08ff 68bf 8d04 98bd 3a66 ae3d
00000030: 0592 513e 44ae b1be 5011 663d b29c d3be
00000040: 75f4 8fbf d85f 6fbd aac5 9dbf 0349 573e
00000050: 37af bb3f a546 1a40 e267 553f 115d e53d
00000060: fb61 f23f 83f1 2abf 8b6e c53e c54e f53d
00000070: 6517 0c3e 4205 8e3e d7e9 8ebc 9bba f13e
00000080: c12d aabf 5b27 c33f 544e 083f a8a3 ff3e
00000090: 4f94 e3be c826 643f 84e5 b7bf 6989 1a3e
000000a0: 7306 38c0 e025 7ebf a1d9 11be 3ec4 3b3f
000000b0: 95c3 0c3d fd1a 63bf ca4f 1e3f 8708 583f
000000c0: 37cb 213f 4d9c fabe ff90 06be 9e8f ee3c
000000d0: e94d 3bbe 4b64 8e3f 6c96 9d3f b4a5 e33f
000000e0: edab 0f40 d4c9 23bf e928 6dbf 9f0a 1f3f
000000f0: b0d3 d7bd 5c12 683f 523b 3cbf aba5 43bf
00000100: ce07 35bf df99 bbbd 22c5 8fbe 6073 e2bd
00000110: 3a81 2abf c93f 023e 84e9 863e 29c5 c53e
00000120: 974a 5ebf 0bb9 f8bf 7c69 37bc 78e1 843f
00000130: f7d5 233f 25d2 0fbf cf9d 0c3e d6d0 bbbf
00000140: 61a4 3a3e eb66 2dbf 95cd 03bf e4d2 84bf
00000150: 3fa4 7cbe 586b 323f 1e37 7d3f 8cf1 653f
00000160: cba3 5b3f b4e1 0540 7409 3b3e b7fc 08bf
00000170: 3a68 5dbf c0a2 2540 5256 11bf a37c 313f
00000180: d6a7 73bc 1653 753d 77a1 483f ce81 e5be
00000190: 5588 f4be 1448 c83f 3431 22bd 4b2f f13f
000001a0: 329b d63f 38e8 f03e d071 dcbf 1576 bb3e
000001b0: f617 88bf c172 a83f 41bf 283e df0f a1be
000001c0: bf60 82bf 2725 b83f 358f bb3e 655d 343e
000001d0: 45fa 71bf 752d 143f 2d2d 01bf d705 db3d
000001e0: 1fbb 02be ef1b cbbe 2796 dfbf 9093 3bbf
000001f0: e321 c0be 938f 2fbf dbf9 ffbd 6f7c 81bf
00000200: 8f20 8dbe 46c8 5b3f d93e 8cbf a46e 893d
00000210: 982e 8d3f b856 803f 42fc 203f 1b7a 673d
00000220: a384 3c3e 437e bcbd 777f 443f b34b 81bf
00000230: ffd0 863e 47d6 fa3e 41b8 1a3f 19e7 57bc
00000240: 0cdb 563e 023a 653e 3560 42bf 7385 853f
00000250: 3e3e 013f fbf4 943e b821 14bf 5b77 593f
00000260: b233 0a3f 2056 eebe 3198 943d 5df0 e0bf
00000270: db49 1abc 2276 88bf e7f2 0a3f a6fc a63e
00000280: 3da2 f3be 15ad 883f e436 2a3e c051 823d
00000290: 5cac a53e 6786 033f 5ba6 3dbe e786 373e
000002a0: 5fb0 3d3e f8a7 69bb f585 ecbb 2ac6 03bf
000002b0: ff4d 4a3e 7a3d b63e 8c27 093e 2f19 afbe
000002c0: b269 43bf 59de 96be 2a9c 0abd 48f8 143e
000002d0: f58d 60bf 951b c2bd 9e1f adbe eb7c 143e
000002e0: c427 e6bf 611f 12c0 9acb f4bd 1834 0a40
000002f0: 2d0d 543f e8b7 7ebf 1c44 fc3e bd87 83bf
00000300: 8208 97be e2fb 9b3f 57d4 333e 08fc 41be
00000310: 71eb 86be 4573 983e 7f75 8ebf 8af8 bd3f
00000320: 71da 5ebf 885c 22be 2081 8e3d e00a 1e3f
00000330: eb0d 2e3c 43d6 0fbf bc56 843e e6d7 8d3e
00000340: cbdb 0dbf 0803 973e f6c4 493f 4670 443f
00000350: 3a09 353f 6835 d6bf 8805 f7bd a8ff 89be
00000360: a838 1e3f 14a3 203f 1d96 8dbf c732 b6bf
00000370: 2217 033f c077 ba3f f30a ac3e c1ca 82bb
00000380: 701c 80bf 6fea f03f 0376 b3be a3ee 6d3f
00000390: 817d 0b40 c284 13c0 a05c b0bd 5d84 58bf
000003a0: 6789 c53e 35dd be3d 6b88 3dbf b9bd b1bf
000003b0: e9c8 20bf c67e 80bf f828 cb3e 558a 823e
000003c0: 6af5 fd3e c2cd c13f 2e1a 0c3d b5eb e53e
000003d0: e6f5 8c3d fd17 b4bd c393 0bbf ca13 01bf
000003e0: 7060 9bbf d239 b7bf 4746 22bf b6af 8c3e
000003f0: d24f 2c3f 5dfb 0fbf 7bbc 773e 2930 6ebf

fc1.bias f4 [32]
-1.3734719 0.15205888 0.27784428 -0.13925146 -1.2852366 1.208358 0.058237765 -1.8168778
-0.66553396 -0.95025337 -1.7965605 0.076107316 -0.48212475 1.0000397 -0.20690303 -1.0957325
-0.45397642 -1.0444363 -0.5037567 -1.2522073 -0.55296737 0.08124844 -1.2782911 -0.59351885
-0.2679503 -0.63078487 -1.7800322 0.2853788 -0.44530866 -0.2748248 -2.0412936 1.1989084
00000000: edcd afbf 53b5 1b3e 9b41 8e3e ef97 0ebe
00000010: a282 a4bf 7aab 9a3f b98a 6e3d 748f e8bf
00000020: 6f60 2abf ce43 73bf b2f5 e5bf 27de 9b3d
00000030: 0ed9 f6be 4d01 803f 63de 53be f640 8cbf
00000040: 996f e8be 17b0 85bf 33f6 00bf 5448 a0bf
00000050: 458f 0dbf 9565 a63d 0b9f a3bf daf0 17bf
00000060: c830 89be 1e7b 21bf 18d8 e3bf 2c1d 923e
00000070: 7fff e3be d6b5 8cbe 8ea4 02c0 d575 993f

fc2.weight f4 [32, 32]
-0.17858014 -0.12514752 -0.032578424 0.059168402 -0.080774225 -0.09059628 -0.09190265 -0.14696941
-0.22895055 -0.2176916 0.006804633 -0.013528222 -0.20515832 -0.18424776 -0.21528555 -0.17076643
0.06401779 -0.010185465 -0.055910587 -0.019134775 0.121161565 0.09643881 -0.020370334 -0.034072652
0.017148538 -0.15553986 0.08092711 -0.33673304 -0.06843978 -0.16335794 0.048760705 -0.026056156
-0.13309528 -0.0837004 -0.080707744 -0.08812697 -0.02671322 -0.024969889 -0.15859349 -0.014340995
-0.16185597 0.04031277 -0.0296712 0.0069198986 -0.004891306 -0.20982039 -0.2115532 -0.104654
-0.087189324 -0.08023403 -0.20658875 -0.18315615 -0.008371887 -0.045203734 -0.16443309 -0.076831155
-0.18475671 -0.2302542 -0.0855601 0.033484887 -0.08050239 -0.18026718 -0.09166353 -0.44105873
0.063966945 -0.07178808 -0.020643577 -0.34573677 -0.104459666 -0.3207792 -0.22483616 -0.19760992
0.03647188 -0.16651605 -0.19254658 -0.14363119 -0.11777216 -0.13356885 -0.087490655 0.003981212
-0.13892528 -0.33571157 -0.079166576 -0.23806918 -0.08994887 -0.14262179 0.029174104 -0.08483989
-0.19107269 -0.14444798 -0.19468659 -0.20563388 -0.14158759 -0.08649299 0.027258864 -0.09757839
0.0078068897 -0.47719607 -0.15547848 -0.3729484 -0.7105144 -0.32144505 0.08677039 -0.27506146
0.12269371 -0.09362768 -0.12449286 -0.42522976 -0.09320139 -0.19556889 -0.5518807 -0.22638087
-0.09423467 -0.59467244 -0.1364907 -0.49391165 -0.37270185 -0.2695418 -0.080086894 -0.14273721
0.17517067 -0.16591933 -0.26372546 -0.27437678 -0.18666863 -0.20288274 -0.08476955 -0.50441074
0.29656646 -0.59824884 -0.20785347 -0.6312455 -0.22989947 -0.55405384 0.036285914 -0.4380788
0.01450584 -0.3151814 -0.023557844 -0.042316165 0.21917814 -0.9309673 -1.2320064 -1.1511382
-0.5269771 -0.12838122 -0.40168378 -0.18433766 0.34617618 -0.57646054 -0.17641068 -0.12916274
1.1416122 0.08914817 -0.95504755 -0.061124302 -0.20857929 0.30157667 -0.6690698 -1.196855
0.0082028825 -0.2760038 0.008225787 -0.10564522 -0.16706313 -0.12336134 -0.019745992 -0.23455895
0.060584016 -0.052448303 -0.13216884 -0.19566654 0.13380362 -0.07395665 -0.058168843 -0.1127407
-0.22173879 -0.012343007 -0.24066697 0.0625281 -0.04761222 -0.11705292 -0.00019799745 0.047582485
-0.15584095 -0.09501979 -0.36652556 0.024196763 -0.13493837 0.07018524 -0.29323956 -0.056176372
0.32422507 -1.3693205 0.33804435 -0.644239 0.36049685 -1.4405353 -0.74484456 -0.74067163
-0.055475585 -0.5338957 -0.08566592 0.8298666 0.128044 -1.0591575 -1.4708291 -0.4615289
-0.64608353 -0.29650187 0.5897079 0.38356096 1.2613853 -0.68382484 -0.14242966 0.6413431
1.6235054 0.16729169 -0.49942815 -0.5086309 -0.112470396 1.3342057 -0.6437289 -1.3220044
-0.22641796 -0.10118391 0.046036348 -0.07678555 -0.30878705 -0.37006786 -0.21442091 -0.19047193
-0.20914204 -0.4352583 -0.16782433 -0.3322779 0.11527423 0.049126633 -0.11286058 -0.10108814
-0.20709147 -0.16098332 -0.2266426 -0.18982697 -0.10988389 0.0032236576 -0.13658889 0.076041974
-0.43438482 0.05824712 0.071461715 -0.018284502 0.070791274 0.21421137 0.044215523 -0.4170509
00000000: b6dd 36be ac26 00be f470 05bd 915a 723d
00000010: f56c a5bd 8b8a b9bd 7537 bcbd 267f 16be
00000020: 0372 6abe 8cea 5ebe 66f9 de3b 7aa5 5dbc
00000030: 0615 52be 72ab 3cbe d173 5cbe 65dd 2ebe
00000040: c21b 833d f0e0 26bc 8002 65bd 88c0 9cbc
00000050: 8e23 f83d b681 c53d b0df a6bc c48f 0bbd
00000060: 177b 8c3c d745 1fbe 1dbd a53d 4668 acbe
00000070: 282a 8cbd 4e47 27be 4eb9 473d b873 d5bc
00000080: 214a 08be 1e6b abbd 1a4a a5bd ea7b b4bd
00000090: afd5 dabc a78d ccbc 5566 22be 7ef6 6abc
000000a0: 92bd 25be 011f 253d 0411 f3bc 51c0 e23b
000000b0: 4047 a0bb 28db 56be 67a1 58be d654 d6bd
000000c0: 5190 b2bd bd51 a4bd 008c 53be 498d 3bbe
000000d0: 3d2a 09bc 8d27 39bd 2661 28be a759 9dbd
000000e0: dd30 3dbe c2c7 6bbe 223a afbd 7327 093d
000000f0: 70de a4bd f697 38be 17ba bbbd 73d2 e1be
00000100: 1a01 833d a105 93bd b81c a9bc 6904 b1be
00000110: f3ee d5bd 2c3d a4be 733b 66be 415a 4abe
00000120: 8a63 153d 2f83 2abe ee2a 45be 0e14 13be
00000130: 8832 f1bd 46c6 08be 4d2e b3bd d474 823b
00000140: 6e42 0ebe 63e2 abbe 1622 a2bd 68c8 73be
00000150: 1d37 b8bd 720b 12be 88fe ee3c 89c0 adbd
00000160: 8fa8 43be 2cea 13be ec5b 47be b091 52be
00000170: 56fc 10be 3d23 b1bd fb4d df3c 2ed7 c7bd
00000180: f0d0 ff3b 0b53 f4be c035 1fbe 18f3 bebe
00000190: 46e4 35bf 7294 a4be adb4 b13d dbd4 8cbe
000001a0: d746 fb3d debf bfbd 1df6 febd b7b7 d9be
000001b0: 5fe0 bebd 3643 48be 0e48 0dbf 63d0 67be
000001c0: 1bfe c0bd 743c 18bf 38c4 0bbe fde1 fcbe
000001d0: c7d2 bebe 6201 8abe 9904 a4bd b429 12be
000001e0: f15f 333e c2e6 29be 0607 87be 1d7b 8cbe
000001f0: 1026 3fbe 7ec0 4fbe a89b adbd 1021 01bf
00000200: 8fd7 973e d626 19bf 8ad7 54be 4e99 21bf
00000210: c46a 6bbe 79d6 0dbf 8aa0 143d dd4b e0be
00000220: e7a9 6d3c 755f a1be 61fc c0bc b753 2dbd
00000230: 3c70 603e df53 6ebf 63b2 9dbf 7f58 93bf
00000240: f9e7 06bf 5e76 03be 7fa9 cdbe 03c3 3cbe
00000250: 013e b13e eb92 13bf 00a5 34be 3d43 04be
00000260: 5920 923f 5193 b63d ff7d 74bf 7a5d 7abd
00000270: cf95 55be 4268 9a3e 2948 2bbf 8b32 99bf
00000280: 6265 063c 5f50 8dbe 74c5 063c 855c d8bd
00000290: 9912 2bbe dfa4 fcbd 59c2 a1bc 3930 70be
000002a0: f226 783d 08d4 56bd 4557 07be cf5c 48be
000002b0: d103 093e 9676 97bd 7442 6ebd 99e4 e6bd
000002c0: 7e0f 63be 533a 4abc 6771 76be bc0e 803d
000002d0: 0805 43bd 71b9 efbd 899d 4fb9 dae5 423d
000002e0: c594 1fbe bc99 c2bd 3da9 bbbe 4a38 c63c
000002f0: 492d 0abe 47bd 8f3d 7f23 96be 3219 66bd
00000300: d400 a63e e545 afbf 2614 ad3e d9ec 24bf
00000310: 0b93 b83e 7663 b8bf 22ae 3ebf a89c 3dbf
00000320: 5e3a 63bd 63ad 08bf 9d71 afbd 2372 543f
00000330: f71d 033e 7992 87bf 2144 bcbf 844d ecbe
00000340: bb65 25bf 18cf 97be 19f7 163f 1a62 c43e
00000350: 1375 a13f 250f 2fbf 15d9 11be 102f 243f
00000360: 06cf cf3f 834e 2b3e 0cb5 ffbe a235 02bf
00000370: e156 e6bd 41c7 aa3f 6bcb 24bf 7137 a9bf
00000380: 1cda 67be 8339 cfbd 9c90 3c3d be41 9dbd
00000390: 5619 9ebe 8979 bdbe 2891 5bbe 130b 43be
000003a0: 5529 56be 2dda debe 24da 2bbe 5420 aabe
000003b0: e514 ec3d 0239 493d 7323 e7bd 4c07 cfbd
000003c0: c90f 54be d0d8 24be ff14 68be 0062 42be
000003d0: ce0a e1bd 0044 533b f5dd 0bbe e5bb 9b3d
000003e0: b067 debe 8894 6e3d 855a 923d 61c9 95bc
000003f0: 04fb 903d 3a5a 5b3e 561b 353d b287 d5be

fc2.bias f4 [32]
-0.22299999 -0.08555745 -0.022013744 -0.6514444 -2.0138955 -0.17439763 -2.0672646 -0.5197722
-1.1207191 -0.46558926 -0.42964193 2.2407603 -2.314804 -0.23007 -0.034699064 1.2810286
-2.2607212 0.35050473 -0.25564548 0.076701894 -0.35990337 2.2076194 -0.36983252 -0.30549598
0.776328 -2.3286903 -1.914704 0.94631577 1.0878409 -0.2729158 1.2362622 -0.33726162
00000000: 1c5a 64be bf38 afbd 2b56 b4bc 0fc5 26bf
00000010: aae3 00c0 4b95 32be 104e 04c0 ca0f 05bf
00000020: b973 8fbf b761 eebe 07fa dbbe 9e68 0f40
00000030: c025 14c0 7897 6bbe 9b20 0ebd bff8 a33f
00000040: a8af 10c0 5b75 b33e f7e3 82be e215 9d3d
00000050: 4145 b8be a349 0d40 b05a bdbe f869 9cbe
00000060: 6fbd 463f 4309 15c0 0515 f5bf c041 723f
00000070: 5f3e 8b3f 9fbb 8bbe d73d 9e3f 8ead acbe

pi.weight f4 [5, 32]
-0.050914466 -0.10838842 0.21049476 -0.0034633372 0.75876445 -0.05850565 1.2360835 -0.11197514
0.5211085 0.32197627 -0.023001503 4.447258 1.2362304 -0.064672835 -0.024747817 1.5177763
1.2010099 1.2205443 0.15419775 0.85423607 1.5051519 2.0525885 -0.10946864 0.091801174
1.9852262 1.2280928 0.29207045 1.8000796 1.3912446 0.049334157 2.893972 1.380655
0.029247629 -0.19866739 0.19767933 0.112272814 -0.08584781 -0.023058092 0.27743506 -0.14822432
0.9480234 0.35111427 -0.17973408 1.6880112 -0.13288015 -0.124157235 0.038522318 -0.37671307
0.14347023 -0.16895244 0.23125029 0.15211444 0.7572946 -0.85095304 0.1786406 0.19118316
1.0788587 0.062199447 0.29839745 -0.17703907 -0.9070766 -0.27468243 0.9617507 0.53842646
-0.16265973 -0.15951173 -0.14671652 0.20814644 -0.19802041 0.00073860097 -0.74613655 -0.008070662
-1.022131 -0.053411745 0.07190753 -0.06455581 -0.4024126 0.05863099 -0.13260362 -1.2225057
-0.594058 -0.7323531 -0.13041034 -1.0145866 0.059820455 -0.11353408 0.16244066 -0.02338062
-0.13032195 -0.59828204 -0.4017835 -0.5466943 -0.5546089 0.14056626 -0.25189152 -0.020597648
0.13223922 0.36636496 0.10506489 -0.41496184 0.3920064 -0.101581655 -0.0059139966 0.23766376
0.35580423 -0.06140675 -0.18086028 0.407196 0.11755672 -0.30924425 0.0033540966 1.080171
0.12788698 0.8713338 0.18102324 0.8297535 -0.79438823 2.2659194 0.2964489 0.15784514
0.6610801 0.15369199 -0.18678793 0.8984168 1.0365356 0.09176848 0.7528916 -0.8968009
0.07563187 -0.35585093 -0.2554159 0.05799919 0.29189885 -0.33111623 0.79194576 -0.25892448
1.056544 -0.56524837 -0.1342785 -0.8774417 0.9285996 -0.01650321 0.12783861 0.22461146
0.858464 0.40371427 -0.42425433 0.503249 0.37505025 -1.0817086 0.042063568 -0.26675293
-0.7793708 0.8801666 0.22216356 -0.9277464 -1.0401425 0.44813496 -0.5703733 0.36856773
00000000: b08b 50bd bffa ddbd f08b 573e 28f9 62bb
00000010: 633e 423f 9fa3 6fbd fc37 9e3f 3953 e5bd
00000020: 5e67 053f 13da a43e a66d bcbc f04f 8e40
00000030: cc3c 9e3f 3173 84bd efbb cabc 7e46 c23f
00000040: b1ba 993f cc3a 9c3f 04e6 1d3e 37af 5a3f
00000050: d1a8 c03f 9c5d 0340 1831 e0bd 4102 bc3d
00000060: e41b fe3f 2532 9d3f 428a 953e 0269 e63f
00000070: 4e14 b23f 9d12 4a3d d636 3940 4eb9 b03f
00000080: b998 ef3c 776f 4bbe 736c 4a3e 4aef e53d
00000090: fad0 afbd 53e4 bcbc f80b 8e3e 1ec8 17be
000000a0: a9b1 723f 40c5 b33e 360c 38be c010 d83f
000000b0: bc11 08be 2646 febd 94c9 1d3d 89e0 c0be
000000c0: dce9 123e de01 2dbe e0cc 6c3e e3c3 1b3e
000000d0: 0fde 413f 0fd8 59bf 90ed 363e 85c5 433e
000000e0: 0b18 8a3f d9c4 7e3d 8dc7 983e bb49 35be
000000f0: 2c36 68bf 2da3 8cbe 4b35 763f 51d6 093f
00000100: 4690 26be 0b57 23be db3c 16be 5724 553e
00000110: ddc5 4abe ac9e 413a ce02 3fbf cf3a 04bc
00000120: 30d5 82bf 46c6 5abd 4144 933d d635 84bd
00000130: 0609 cebe 0d27 703d 3ec9 07be 117b 9cbf
00000140: 2f14 18bf 7e7b 3bbf 4a8a 05be f9dd 81bf
00000150: 4b06 753d 8e84 e8bd d856 263e b788 bfbc
00000160: 1e73 05be 0329 19bf 91b6 cdbe 28f4 0bbf
00000170: d9fa 0dbf 9af0 0f3e edf7 80be 66bc a8bc
00000180: b869 073e 3094 bb3e 432c d73d e175 d4be
00000190: 10b5 c83e 0b0a d0bd 33ca c1bb 215e 733e
000001a0: f92b b63e a585 7bbd 7033 39be fe7b d03e
000001b0: 94c1 f03d 4355 9ebe 67d0 5b3b 0b43 8a3f
000001c0: cef4 023e bb0f 5f3f 285e 393e ba6a 543f
000001d0: 075d 4bbf d304 1140 26c8 973e 28a2 213e
000001e0: 8c3c 293f 6f61 1d3e 5645 3fbe a5fe 653f
000001f0: 33ad 843f 1df1 bb3d 81bd 403f be94 65bf
00000200: e2e4 9a3d 1832 b6be dfc5 82be 8f90 6d3d
00000210: c473 953e 1188 a9be f5bc 4a3f c091 84be
00000220: d53c 873f 1eb4 10bf 4e80 09be 05a0 60bf
00000230: b4b8 6d3f bd31 87bc 20e8 023e 8c00 663e
00000240: 4cc4 5b3f a3b3 ce3e dd37 d9be edd4 003f
00000250: 9606 c03e 6d75 8abf d94a 2c3d d793 88be
00000260: d884 47bf 9952 613f d87e 633e ca80 6dbf
00000270: 6423 85bf f271 e53e fc03 12bf e9b4 bc3e

pi.bias f4 [5]
2.4430032 1.0604936 -0.5338548 1.0897353 -2.2945454
00000000: 2a5a 1c40 41be 873f b5aa 08bf 727c 8b3f
00000010: d5d9 12c0
