code/tmp/maddpg/k_3/Keep_Awayagent_0+1/agent_0_target_actorBest.pt (torch, 8607 bytes, 6 tensors)

fc1.weight f4 [32, 10]
0	0xbfb5c3e2	-1.4200404
1	0x3efad012	0.4898687
2	0xbf3508c6	-0.7071651
3	0x3f49a4f3	0.7876732
4	0xbfa1b9cd	-1.2634827
5	0x3e1ddb90	0.15415788
6	0xbe938dab	-0.28819022
7	0x3f50f59b	0.81624764
8	0x3f9044a7	1.1270951
9	0xbe9ce063	-0.30639943
10	0x3f8b8d9e	1.0902593
11	0xbf08ae77	-0.5339121
12	0x3f099dea	0.5375658
13	0x3c871516	0.016489547
14	0x3ef010e5	0.4688789
15	0x3f501c6b	0.8129336
16	0xc0027ceb	-2.0388744
17	0xbf9f4930	-1.244421
18	0xbf0cb0a3	-0.54957026
19	0x3ecb83da	0.39749032
20	0xbf39b736	-0.7254518
21	0x3ea3a1b1	0.31959298
22	0xbe53eaa3	-0.20694976
23	0x3e519ec0	0.20470715
24	0xbd16be78	-0.03680274
25	0x3f30e43a	0.69098246
26	0x3f51599b	0.8177735
27	0x3f1972a8	0.59940577
28	0x3e82fe36	0.25584573
29	0x3fe8f819	1.8200713
30	0x3f0ea2af	0.55716985
31	0x3eecfd00	0.46286774
32	0x3ecdeb7a	0.40218717
33	0x3e424572	0.18971804
34	0x3f5e870c	0.86924815
35	0x3f2717a1	0.6527043
36	0x3f4078e6	0.75184476
37	0x3f2e92dd	0.68192846
38	0xbdbf0376	-0.09326832
39	0x400b924e	2.1808047
40	0x3f72c70a	0.9483496
41	0x3ed09713	0.4074026
42	0x3ed8a9df	0.423171
43	0xbe96ffb4	-0.2949196
44	0x3ea636a1	0.32463554
45	0x3eacf210	0.3377843
46	0xc0012ea4	-2.0184717
47	0xbfc3936f	-1.5279368
48	0xbe928d07	-0.2862322
49	0x3e25a8d4	0.16177684
50	0xbf755e52	-0.95847046
51	0x3fe6269d	1.7980534
52	0xbe3f3c19	-0.18675269
53	0x3fcec893	1.615496
54	0x3e1bbc33	0.15208511
55	0x3fac0491	1.3438894
56	0x3e9d183f	0.3068256
57	0xbdaf6e65	-0.08565978
58	0x3f023c12	0.5087291
59	0x3fe285b5	1.7697054
60	0x3f700aa6	0.9376625
61	0xbe8febfa	-0.28109723
62	0x3fb93139	1.4468147
63	0xbb00b077	-0.0019636431
64	0x3f5e46fc	0.86827064
65	0x3e06f82f	0.13180612
66	0xbf13b714	-0.5770123
67	0xbf3ca14d	-0.73683625
68	0x3ea3e2ed	0.32009068
69	0xbd7866e1	-0.060644988
70	0x3ee0b220	0.438859
71	0x3eaaa94d	0.3333229
72	0x3ecb81e7	0.39747545
73	0x3dc42523	0.09577396
74	0x3f3bc81e	0.7335223
75	0x3be69d5d	0.007037802
76	0xbed662ab	-0.41872153
77	0xbe697e14	-0.22802001
78	0xbef674d5	-0.4813601
79	0xbe3f557d	-0.18684955
80	0xbeb5becd	-0.35497132
81	0x3e74b5f6	0.23897538
82	0x3bb70ad6	0.0055860085
83	0xbdb7938d	-0.0896369
84	0x3e04d86f	0.12973188
85	0xbd0a75ef	-0.033803876
86	0xbedc4b8f	-0.43026397
87	0xbebb5f6e	-0.36596245
88	0x3ed58c9c	0.4170884
89	0x3f0f31a7	0.5593514
90	0x3f17679c	0.5914247
91	0x3e6ba1bc	0.23010916
92	0x3e119178	0.14215648
93	0xbef8eed2	-0.48619705
94	0xbda2d690	-0.07951081
95	0x3e6965dc	0.22792763
96	0xbf966180	-1.1748505
97	0xbf3c4ee2	-0.73557866
98	0xbe59b31b	-0.2125973
99	0x3e9d44c7	0.30716535
100	0xbf1d4338	-0.6143069
101	0x3f7822ea	0.96928275
102	0xbeb3333d	-0.3500003
103	0x3f8932e3	1.0718654
104	0xbe331335	-0.17487796
105	0x3f3652da	0.7122017
106	0x3c537127	0.012905396
107	0x3dfb44dd	0.12268994
108	0x3e92d037	0.2867448
109	0x402cd3fd	2.7004387
110	0x3f4f0712	0.80870163
111	0xbf3e8f71	-0.74437624
112	0x3fb1d21e	1.3892248
113	0xbe2118dc	-0.1573214
114	0x3f9bdd68	1.2176943
115	0xbd55c0f2	-0.05218596
116	0xbf9768c8	-1.1828852
117	0xbf8ca292	-1.0987113
118	0xbf441f46	-0.7661022
119	0xbee00064	-0.43750298
120	0xbd972ca0	-0.073815584
121	0x3cdd21a0	0.026993573
122	0xbef048c2	-0.4693051
123	0xbf080f7a	-0.53148615
124	0x3e6ebc44	0.23314005
125	0x3df9c096	0.12194936
126	0x3ee79ff4	0.45239222
127	0xbc8ad98a	-0.016949434
128	0x3cdd1713	0.026988542
129	0x3fb1f289	1.3902141
130	0x3f79238e	0.9731988
131	0xbe277c04	-0.16355902
132	0x4001c2fb	2.0275257
133	0x3e476a3f	0.19474123
134	0x3f84d03b	1.0376047
135	0x3ecdc3a3	0.4018832
136	0x3e2346ad	0.1594493
137	0xbf1b3123	-0.6062185
138	0x3f62e3d9	0.8862892
139	0xbeeff654	-0.4686762
140	0xbfd13f70	-1.6347485
141	0x3f566e64	0.8376219
142	0xbf8eaff7	-1.114745
143	0x3f119b3c	0.56877494
144	0xbf9b1c70	-1.2118053
145	0xbe45fd02	-0.19334796
146	0x3ec05df2	0.37571675
147	0x3e5c5bf7	0.21519457
148	0x3f47a792	0.77990067
149	0xbec0e83a	-0.37677175
150	0xbf3044da	-0.6885506
151	0x3f7455de	0.9544352
152	0xbf224479	-0.6338573
153	0x3f89da13	1.0769676
154	0xbfacca9d	-1.3499333
155	0x3ea2cd31	0.31797174
156	0x3f2774fc	0.6541288
157	0x40025a27	2.0367525
158	0x3f07125a	0.5276238
159	0xbe779b5e	-0.24180362
160	0x3ee2eae1	0.44319823
161	0x3e54b627	0.2077261
162	0x3f396aa6	0.7242836
163	0x3df6ab21	0.12044359
164	0x3e711702	0.23543933
165	0x3e5be46f	0.21473859
166	0xbfed8b94	-1.8558221
167	0xbfb06095	-1.3779474
168	0xbd8cd87a	-0.06877227
169	0xbd528f5f	-0.05140626
170	0xbc351802	-0.011053087
171	0x3f58e66c	0.84726596
172	0x3d87ed7e	0.06637095
173	0x3e6d4801	0.23171999
174	0x3f20ef11	0.62864786
175	0x3eacabc1	0.33724788
176	0x3e8d09b2	0.2754646
177	0x3ebdd6ad	0.37077847
178	0xbdadcc09	-0.08486182
179	0x4019dbbb	2.4040363
180	0x3f8c4537	1.0958623
181	0x3e0156c6	0.12630758
182	0x3f3a449e	0.7276095
183	0x3e830f66	0.25597686
184	0x3f52cbec	0.8234241
185	0x3e6f53d4	0.23371822
186	0xc002f347	-2.0460985
187	0xbf8dd91e	-1.1081884
188	0xbf55bc44	-0.83490396
189	0x3dc24e0b	0.09487542
190	0x3f5ef728	0.8709588
191	0xbeb19bd1	-0.3468919
192	0x3f8ac667	1.0841798
193	0xbec0830f	-0.3759999
194	0x3f8aa2db	1.083095
195	0xbece9052	-0.40344483
196	0x3f9cb314	1.224215
197	0xbef07995	-0.4696776
198	0x3f0a5907	0.54042095
199	0xbf186390	-0.5952692
200	0x3f2e4715	0.6807721
201	0xbce32fa1	-0.027732672
202	0x3f4063cf	0.75152296
203	0x3ea150b8	0.31506896
204	0x3ebd1296	0.36928242
205	0x3ec7bb7e	0.39010233
206	0xbff67792	-1.925524
207	0xbfdf9174	-1.7466264
208	0xbefb58c9	-0.49091175
209	0x3f3bebaa	0.7340647
210	0x3f95338c	1.1656356
211	0x3e0a22ba	0.1348981
212	0x3f499b92	0.78753006
213	0x3eaf8cdc	0.34287155
214	0x3f15e610	0.5855417
215	0x3ea66bc0	0.32504082
216	0xc00896a3	-2.1341941
217	0xbfaba928	-1.3410997
218	0xbf222858	-0.6334281
219	0x3e2f15b9	0.1709813
220	0xbf123f4c	-0.57127833
221	0x3fc128af	1.5090541
222	0xbe5d63a4	-0.21620041
223	0x3fd7cc64	1.685925
224	0xbf8338cf	-1.0251712
225	0x3f1cdda8	0.6127572
226	0xbe4b72ab	-0.19867961
227	0x3fa57990	1.2927723
228	0x3d87fa62	0.066395536
229	0x3fb3ca06	1.4046028
230	0xbf495d77	-0.7865824
231	0x3ddcb24c	0.10776195
232	0xbf6a661d	-0.9156206
233	0x3e8ae2eb	0.2712625
234	0xbf711a22	-0.941805
235	0xbc3341b1	-0.010940955
236	0x3ca6cc3c	0.020361058
237	0x3e8ecffe	0.2789306
238	0xbe6612b1	-0.22468068
239	0x3f94528c	1.1587691
240	0xbf2a6811	-0.6656504
241	0x3e9b33e0	0.30313015
242	0xbfaf8701	-1.3713075
243	0xbf380bde	-0.7189311
244	0xbf0d3b4f	-0.5516862
245	0xbf263831	-0.6492949
246	0x3f3ee3d2	0.74566376
247	0x3f772add	0.9654978
248	0x3ef8db49	0.486048
249	0xbfe8c231	-1.8184263
250	0x3f7835aa	0.96956885
251	0x3e8190fb	0.25305924
252	0x3fff8eea	1.9965489
253	0xbdea3994	-0.114367634
254	0x3fa43365	1.2828184
255	0xbe22c628	-0.15895903

fc1.bias f4 [32]
0	0x3fcba82f	1.59107
1	0xbe778006	-0.24169931
2	0xbe100947	-0.14066039
3	0xbefe54da	-0.49674112
4	0xbdd4a818	-0.10383624
5	0x3e937d44	0.28806508
6	0x3d815aae	0.06316124
7	0xbfab1969	-1.336713
8	0xbece529b	-0.40297398
9	0xbef296fe	-0.47380823
10	0x39c62797	0.00037795
11	0x3f5f5eab	0.87253827
12	0xbfa50529	-1.28922
13	0xbe399472	-0.18123034
14	0x3f36df7a	0.7143475
15	0x3fc6816f	1.550825
16	0xbe7a4e62	-0.24443963
17	0xbe7ca8ba	-0.24673739
18	0xbec4791f	-0.38373658
19	0xbf5b3da3	-0.85640925
20	0x3e9019af	0.28144595
21	0xbe4fa033	-0.20275955
22	0x3f92dd1c	1.1473727
23	0xbe6e3a30	-0.23264384
24	0x3f1255f4	0.57162404
25	0x3f0038f0	0.5008688
26	0x3e65b299	0.22431411
27	0x3f0dee9a	0.554422
28	0xbea1fbd0	-0.3163743
29	0xbe1f7d88	-0.1557523
30	0x3f8799e6	1.0593841
31	0xbd57265f	-0.052526828

fc2.weight f4 [32, 32]
0	0x3f1a7ea0	0.60349464
1	0xbff4700a	-1.9096692
2	0x3ecd9cf6	0.40158814
3	0xbf36465a	-0.712011
4	0xbf3441f2	-0.70413125
5	0x3ebe2aa9	0.37141922
6	0xbf13042b	-0.57428235
7	0xbd1b945b	-0.03798328
8	0xba2388b1	-0.0006238325
9	0xbe788171	-0.24268128
10	0xbe980184	-0.29688656
11	0xbfb3c875	-1.404555
12	0xbd3f877e	-0.046760075
13	0xbde0c15c	-0.109743804
14	0x3d9cba1b	0.07652684
15	0x3f2fd7dc	0.6868875
16	0xbf2ac0bc	-0.6670034
17	0xbef62846	-0.480776
18	0xbfa1ab58	-1.2630415
19	0xbee77df8	-0.45213294
20	0xbfc1514f	-1.5102938
21	0xbfb555ba	-1.4166787
22	0xbe332d62	-0.17497781
23	0xbe84b6d7	-0.25920746
24	0x3efbe75e	0.49199957
25	0xbe434e4a	-0.19072834
26	0xbeab2ee4	-0.33434212
27	0xbf31745d	-0.6931818
28	0x3dc2dc3a	0.09514661
29	0xbecb6757	-0.3972728
30	0xbfc8e58b	-1.5695051
31	0xbe74e026	-0.23913631
32	0xbf712576	-0.94197786
33	0x3ef1c665	0.47221676
34	0xbebd229a	-0.3694046
35	0xbea18a89	-0.31551006
36	0x3ef78068	0.48340154
37	0xbf6ce39d	-0.9253481
38	0xbe652531	-0.22377469
39	0x3f3c1a26	0.734774
40	0x3e6ed47c	0.23323244
41	0x3e896992	0.26838356
42	0xbf1fb7bc	-0.6238973
43	0x3f12c5ab	0.5733287
44	0x3da44689	0.08021266
45	0xbdb8748e	-0.09006606
46	0xbf870a27	-1.0549973
47	0xbfb319da	-1.3992264
48	0x3ea662c4	0.32497227
49	0xbf0b9baf	-0.5453443
50	0x3f8da07a	1.1064599
51	0x3dd2e5b3	0.10297718
52	0x3f0cf2a6	0.5505775
53	0x3f16888f	0.5880212
54	0xbf7fdca6	-0.9994606
55	0xbeb5e89a	-0.35529023
56	0xbf382dda	-0.71944964
57	0x3cb1ac9d	0.021688754
58	0xbd90b7e4	-0.07066324
59	0xbe718e26	-0.23589382
60	0xbf93e270	-1.1553478
61	0xbd143158	-0.03617987
62	0x3d72410d	0.05914407
63	0xbf7773ea	-0.96661246
64	0xbf917df0	-1.1366558
65	0x3f9a9867	1.207776
66	0xbe137d44	-0.14403254
67	0x3d493152	0.0491193
68	0x3f135c0f	0.57562345
69	0xbf0221e7	-0.5083298
70	0xbeef7c75	-0.4677464
71	0x3e9774e4	0.29581368
72	0xbeab4bcd	-0.3345627
73	0xbeef2301	-0.46706393
74	0xbe72edb6	-0.23723492
75	0x3e8882b6	0.26662225
76	0x3d2b584c	0.041832253
77	0xbee16ecd	-0.44029847
78	0xbf551af0	-0.8324423
79	0xbf4f9093	-0.8107998
80	0x3e38f511	0.18062235
81	0xbdeef039	-0.116669126
82	0x3f98470b	1.189668
83	0x3dc32866	0.0952919
84	0x3f383fd1	0.71972376
85	0x3f7e9614	0.9944775
86	0xbf3f877e	-0.7481612
87	0xbe91ef38	-0.28502822
88	0xbf982c7c	-1.1888576
89	0xbefada9e	-0.48994917
90	0xbed846a8	-0.42241406
91	0xbf0ede0f	-0.55807585
92	0xbeeaaa7a	-0.45833188
93	0xbe51661c	-0.20449108
94	0x3eb4d6c5	0.35320106
95	0xbf0c45ff	-0.54794306
96	0x3d02e4d2	0.0319565
97	0x3d03273a	0.03201983
98	0xbd7c96c2	-0.06166721
99	0xbe1cca84	-0.15311629
100	0xbdc1ca67	-0.09462433
101	0xbe3bd7be	-0.18344018
102	0xbe95270c	-0.29131353
103	0xbd541b14	-0.051783636
104	0xbcd25144	-0.025673516
105	0x3ce889f0	0.028386086
106	0x3dd4dff3	0.103942774
107	0xbe47be3b	-0.19506161
108	0xbe222e99	-0.15838088
109	0x3c6ccdbc	0.014453348
110	0xbe81d683	-0.25358972
111	0xbe0c4ca3	-0.1370111
112	0xbe8cb0a3	-0.27478513
113	0x3d983c7f	0.07433414
114	0xbde5e179	-0.11224646
115	0x3ded8299	0.11597175
116	0x3d55b1b7	0.052171435
117	0xbe485567	-0.19563828
118	0xbcec2c05	-0.028829584
119	0xbde53c3d	-0.1119313
120	0xbe340a7a	-0.17582121
121	0xbe18a0e4	-0.14905125
122	0xbd9ce3e8	-0.07660657
123	0xbebf1122	-0.3731776
124	0xbd938000	-0.072021484
125	0xbd10de2c	-0.03536813
126	0xbe6bbe41	-0.23021795
127	0xbe4b429f	-0.19849633
128	0x3fde5c14	1.737185
129	0xbf5f87b0	-0.8731642
130	0x3fc5ea43	1.5462116
131	0x3ecc702f	0.3992934
132	0xbf6fe588	-0.9370961
133	0x3fc177fb	1.511474
134	0x3edec398	0.435086
135	0xbf342ffa	-0.70385706
136	0x3e97d4fc	0.29654682
137	0xbedb29b7	-0.42805263
138	0x3f07d3b7	0.53057426
139	0x3f45d463	0.772772
140	0x3f416bdf	0.75555223
141	0x3f6c3565	0.92268974
142	0x3f981f98	1.1884642
143	0x3fb55eb6	1.4169528
144	0xbd7fa464	-0.062412634
145	0x3e15bbe0	0.1462245
146	0xbfc047af	-1.5021876
147	0x3f85b0d7	1.0444592
148	0xbf48d32e	-0.78447235
149	0xbfa5d110	-1.2954426
150	0x3f703ca6	0.9384254
151	0x3f0cfb3f	0.5507087
152	0x3fe85981	1.8152314
153	0x3f7a18de	0.97694194
154	0x3f5bfd0c	0.85932994
155	0x3f3e197a	0.74257624
156	0x3fb1056e	1.3829782
157	0x3f66d1b5	0.9016374
158	0x3d8ae287	0.06781488
159	0x3fc12b6b	1.5091375
160	0x3f33bfde	0.7021464
161	0xbe02706a	-0.12738195
162	0x3f57a298	0.84232473
163	0x3f9e8af4	1.2386155
164	0x3e874a37	0.2642381
165	0x3f8183b3	1.0118316
166	0x3f6d0981	0.92592627
167	0xbe3fc2de	-0.1872668
168	0x3f7b942a	0.98272955
169	0x3f085ba7	0.5326485
170	0x3f6daad5	0.92838794
171	0x3f36b806	0.7137455
172	0x3ee21535	0.44156805
173	0x3f941344	1.1568379
174	0x3fa4da31	1.2879087
175	0x3f84df77	1.0380696
176	0x3f04778f	0.5174493
177	0x3f9b69c8	1.2141657
178	0xbea9f344	-0.3319341
179	0x3f705416	0.93878305
180	0x3e76dbf6	0.24107346
181	0x3e66aef1	0.22527672
182	0x3f21aedd	0.63157445
183	0x3f28271d	0.6568468
184	0x3f3ee6f2	0.74571145
185	0x3f53dc30	0.82757854
186	0x3f84484b	1.0334562
187	0x3f6715ad	0.9026745
188	0x3f1af560	0.6053066
189	0x3f8d31ef	1.1030864
190	0x3f681719	0.90660244
191	0x3ee9d469	0.4566987
192	0xbe9a2e28	-0.3011334
193	0xbe58afbc	-0.21160787
194	0xbf2ba6d1	-0.67051417
195	0xbe4c152b	-0.1992995
196	0xbd07545f	-0.033039447
197	0xbec5a457	-0.38601944
198	0xbec8f71f	-0.39251038
199	0x3c5efd03	0.013610127
200	0x3db331ae	0.0874971
201	0xbdc69ad3	-0.09697499
202	0xbf35e3ea	-0.71050894
203	0xbf36c54e	-0.71394813
204	0xbd013192	-0.031541415
205	0x3eb0b879	0.3451574
206	0x3bd20af3	0.0064099967
207	0xbe9c115c	-0.30481994
208	0xbdfef2aa	-0.12448628
209	0xbdffc27a	-0.12488265
210	0x3beea0ec	0.007282367
211	0x3e9ee593	0.31034526
212	0xbeb33dca	-0.3500808
213	0xbe40d4b3	-0.18831138
214	0xbec80297	-0.39064476
215	0xbcffd08a	-0.031227369
216	0xbf07e2f3	-0.5308067
217	0x3e77d8b1	0.24203755
218	0xbdbecfe6	-0.09316997
219	0xbc64e9d1	-0.013971762
220	0x3e23325d	0.15937181
221	0xbebd33ca	-0.36953574
222	0x3d170b08	0.036875755
223	0xbeb915e2	-0.36149508
224	0xbddef4d0	-0.10886538
225	0x3c735151	0.01485093
226	0xbc048de0	-0.008090466
227	0x3cdc84fb	0.026918879
228	0x3df1fd15	0.1181585
229	0xbe614d99	-0.22002257
230	0xbe0511db	-0.12995093
231	0x3d220d4c	0.039563462
232	0xbe1387d0	-0.14407277
233	0xbcd446d4	-0.02591268
234	0xbe29937c	-0.16560167
235	0x3d1c9117	0.038224306
236	0x3d3dbb8c	0.046321437
237	0xbe8568f7	-0.26056644
238	0xbde6dbdd	-0.11272404
239	0xbe1f21dd	-0.15540262
240	0xbcbf8972	-0.023380969
241	0xbe16c580	-0.14723778
242	0xbe48cb5f	-0.1960883
243	0xbe125018	-0.14288366
244	0xbe570464	-0.20997769
245	0xbc03d18b	-0.008045564
246	0xbda58401	-0.08081818
247	0xbe8a8b6b	-0.27059492
248	0xbb46bfef	-0.0030326804
249	0xbd201771	-0.039084855
250	0x3c475972	0.0121673215
251	0xbd869ebb	-0.06573244
252	0x3b927fbf	0.004470795
253	0xbe946358	-0.28982043
254	0xbe63e545	-0.22255428
255	0xbd3480d6	-0.04406818

fc2.bias f4 [32]
0	0x3e037b38	0.12839973
1	0xbf54fa84	-0.83194757
2	0xbf666711	-0.90001017
3	0xbc79de46	-0.015250748
4	0x3fbc5f4a	1.471658
5	0x3f842cf3	1.0326217
6	0xbd1ba398	-0.037997812
7	0xbd7f9b6a	-0.062404074
8	0xbed66504	-0.41873944
9	0xbe9dd5b4	-0.30827105
10	0xbf098c57	-0.53729767
11	0xbf15a600	-0.5845642
12	0x3f8922df	1.0713767
13	0x3ccc702e	0.024955835
14	0x3e621981	0.22080041
15	0x3ea456f0	0.32097578
16	0xbe244b9d	-0.16044469
17	0xbe8a4fa7	-0.27013895
18	0xbe86bba3	-0.2631503
19	0x3ecb956f	0.39762446
20	0x3f667e81	0.9003678
21	0xbe288c49	-0.16459765
22	0x3ed59bd7	0.4172046
23	0xbf039757	-0.514028
24	0xbe55225c	-0.20813888
25	0xbde8a9f9	-0.11360545
26	0xbc075b67	-0.008261538
27	0xbd6d4801	-0.057929996
28	0xbe940e94	-0.28917372
29	0xbec858eb	-0.3913034
30	0xbdce655b	-0.10077926
31	0x3e97d68b	0.2965587

pi.weight f4 [5, 32]
0	0x3f5cb4a4	0.86213136
1	0xbeb8a115	-0.36060396
2	0x3ef1efce	0.4725327
3	0x3dbfa915	0.09358422
4	0x4007ee47	2.1239183
5	0x3f9a6d70	1.2064648
6	0x3ec457eb	0.38348326
7	0xbe25c171	-0.16187073
8	0xbdf3a67a	-0.11896987
9	0xbda64961	-0.08119465
10	0xbe69996c	-0.22812432
11	0x3e3240aa	0.1740748
12	0x40098b2b	2.1491191
13	0xbdab9c44	-0.08379415
14	0x3f8ac603	1.0841678
15	0x3f926210	1.1436176
16	0xbeb42cda	-0.3519047
17	0x3ef44c1a	0.4771431
18	0xbddbdca0	-0.1073544
19	0x3f857d47	1.0428857
20	0x3f9c5a04	1.221497
21	0xbba9d081	-0.0051823263
22	0x3f688929	0.9083429
23	0xbdf578e1	-0.119859464
24	0x3e97e050	0.29663324
25	0x3d525aa3	0.05135597
26	0x3c82bc97	0.015959067
27	0x3d63fde0	0.055662036
28	0xbd0e6b9b	-0.03477059
29	0x3ef6c1ca	0.48194724
30	0x3f6e4a35	0.9308198
31	0x3f58de38	0.8471408
32	0xbea57289	-0.32313946
33	0x3ee797c0	0.45232964
34	0x3f0ff492	0.5623256
35	0xbd51e6a0	-0.05124533
36	0xbf833997	-1.025195
37	0xbf8573e7	-1.0425996
38	0x3d292824	0.041298047
39	0xbd47a72e	-0.04874342
40	0xbb7abcee	-0.0038259584
41	0x3d8ef6ab	0.06980642
42	0x3dba4a15	0.09096161
43	0x3e7fd0ed	0.24982043
44	0xbf6cea41	-0.92544943
45	0xbcd348eb	-0.025791606
46	0xbd53ff58	-0.051757187
47	0x3ee3b218	0.44471812
48	0x3d705415	0.058673937
49	0x3f260b44	0.6486094
50	0x3d203585	0.03911354
51	0x3e15513b	0.14581768
52	0xbf7182d2	-0.9434024
53	0xbdb8b691	-0.09019197
54	0x3e317845	0.17331035
55	0x3f084d96	0.53243387
56	0x3eab4f51	0.3345895
57	0x3c511860	0.012762159
58	0x3ce88e3d	0.028388137
59	0x3db3f882	0.087876335
60	0xbe4b06db	-0.19826834
61	0x3f40028a	0.75003874
62	0x3eb9319d	0.36170664
63	0x3df73505	0.120706595
64	0x3da01b59	0.07817716
65	0xbdd46bef	-0.10372149
66	0xbdb022dd	-0.086004
67	0xbdbc2322	-0.091863886
68	0xbed298bf	-0.4113216
69	0x3e15f1c8	0.14643013
70	0xbf1b70cf	-0.6071901
71	0xbc380c41	-0.01123339
72	0xbd12aa53	-0.035806965
73	0xbe7259aa	-0.23667017
74	0xbe3b3f65	-0.18285902
75	0xbed51707	-0.4161913
76	0xbe934f8f	-0.28771636
77	0x3d24da30	0.040247142
78	0xbf0f064a	-0.5586897
79	0xbd8f915a	-0.070101455
80	0xbef6b162	-0.48182207
81	0xbf044fb6	-0.5168413
82	0xbda806b1	-0.08204401
83	0xbe128efb	-0.14312355
84	0x3f01bc57	0.5067801
85	0xbe511f68	-0.20422137
86	0xbe7cef6d	-0.24700709
87	0xbe4971c6	-0.19672307
88	0xbe595623	-0.21224265
89	0xba089706	-0.00052104925
90	0x3d021823	0.0317613
91	0x3dfa77c9	0.122298785
92	0x3e080873	0.13284473
93	0xbd93d3fb	-0.072181664
94	0xbed592db	-0.41713604
95	0xbeb5f6a9	-0.3553975
96	0x3efd342d	0.4945387
97	0xbd0b61de	-0.03402888
98	0xbe83cda3	-0.25742826
99	0x3d406f87	0.04698136
100	0xbef29d3e	-0.4738559
101	0xbd42c20f	-0.04754835
102	0xbd9ec7e3	-0.07752969
103	0x3d738cb2	0.05946035
104	0xbc20c031	-0.009811447
105	0xbea01839	-0.3126848
106	0x3b49cd93	0.0030792698
107	0x3e08b3ef	0.13349889
108	0x3e8286ae	0.25493377
109	0xbdc8129b	-0.09769174
110	0x3e8b4e56	0.27208203
111	0xbfc16dd3	-1.5111641
112	0xbb4b749e	-0.003104485
113	0xbf6d5035	-0.9270051
114	0x3da2ecd5	0.079553284
115	0xbef62fb2	-0.48083264
116	0x3ee6ebe0	0.45101833
117	0x3d6379d8	0.05553612
118	0xbf3286fa	-0.6973721
119	0x3e06b436	0.13154683
120	0x3e33c681	0.17556192
121	0xbb17634f	-0.0023099964
122	0xbd9914e8	-0.07474691
123	0xbdfe1b0a	-0.12407501
124	0xbd79df0d	-0.061003733
125	0xbf089c7f	-0.53363794
126	0xbf84a34f	-1.0362338
127	0xbf81e817	-1.0148953
128	0xbf3876e6	-0.72056425
129	0xbe7a57c2	-0.2444754
130	0xbe80ab96	-0.2513091
131	0xbe0d93fb	-0.13825981
132	0x3d5eb203	0.054368984
133	0xbe33dad1	-0.1756394
134	0xbe9ea00c	-0.3098148
135	0x3d04e0a2	0.03244079
136	0x3dbb81cd	0.09155617
137	0xbdc34ac7	-0.09535747
138	0xbed40534	-0.4141022
139	0x3d2e0b50	0.042491257
140	0xbe8c9eab	-0.27464804
141	0x3d72d51a	0.05928526
142	0xbf70f826	-0.94128644
143	0xbdb4576e	-0.088057384
144	0xbcd1f12c	-0.025627695
145	0xbfa51c99	-1.2899352
146	0xbe30e1e2	-0.17273667
147	0xbe319c36	-0.17344746
148	0xbfa4d969	-1.2878848
149	0x3cd0f91f	0.025509415
150	0xbeb40246	-0.35157984
151	0xbe763c96	-0.24046549
152	0xbecb2107	-0.39673635
153	0xbe3856de	-0.18001887
154	0x3c9293ab	0.01789268
155	0x3d62547c	0.05525635
156	0xbe0a4af7	-0.1350516
157	0xbee207ed	-0.44146672
158	0xbc9682b4	-0.018372871
159	0xbee6a465	-0.45047298

pi.bias f4 [5]
0	0x3f9244c4	1.1427236
1	0xbe7f7c2a	-0.24949709
2	0xbe14bf87	-0.14526187
3	0xbe894413	-0.2680975
4	0xbe1bcb70	-0.15214324
