code/tmp/maddpg/k_4/Cooperative_Communicationspeaker_0+3/speaker_0_target_actorRegular.pt (torch, 7559 bytes, 6 tensors)

fc1.weight f4 [32, 3]
0	0xbee8a74a	-0.4544013
1	0x3ef31912	0.47480065
2	0xbeb9a7fa	-0.36260968
3	0x3f317206	0.6931461
4	0x3f759502	0.9593049
5	0xbab2d4b5	-0.0013643714
6	0xbd8e9708	-0.06962401
7	0xbecc2d76	-0.39878434
8	0x3ef39454	0.47574103
9	0xbe9d124f	-0.3067803
10	0xbef11a86	-0.47090548
11	0xbf0eeaba	-0.55826914
12	0x3f2934a5	0.66095954
13	0x3f29c721	0.6631947
14	0x3e4969f6	0.19669327
15	0xbf032ff2	-0.51245034
16	0x3eaa28ec	0.33234346
17	0xbcbda2e0	-0.023148954
18	0xbe8626f1	-0.26201585
19	0xbeff8e8b	-0.4991344
20	0x3e8a2808	0.26983666
21	0x3f60bab9	0.87784916
22	0x3f4a7a3b	0.7909276
23	0xbe8ee643	-0.2791005
24	0xbd76d35d	-0.060260165
25	0x3eaae575	0.33378187
26	0xbd6298d9	-0.055321548
27	0xbeda16e8	-0.425956
28	0xbe8bbc1b	-0.2729195
29	0xbe757f2c	-0.23974293
30	0xbe99919f	-0.29993913
31	0xbe0ac2aa	-0.13550821
32	0xbe90bbb7	-0.28268215
33	0x3f3efd36	0.7460512
34	0x3eb435d6	0.35197324
35	0x3aa39850	0.0012481306
36	0xbe5ca584	-0.21547514
37	0xbd5dfe90	-0.054197848
38	0x3e735346	0.23762235
39	0x3e371882	0.17880443
40	0x3f6928ed	0.9107807
41	0x3f05fc9f	0.52338594
42	0x3f39d4e6	0.7259048
43	0x3f2d2925	0.67640907
44	0xbea498f5	-0.32147947
45	0x3f6000c9	0.875012
46	0x3f6a3ea9	0.9150186
47	0x3f538f3c	0.82640433
48	0x3e3d6822	0.18496755
49	0x3e88336b	0.2660173
50	0x3f22d17d	0.63600904
51	0x3f82469f	1.0177802
52	0x3f13957c	0.5764997
53	0xbe7b0ef6	-0.24517426
54	0xbf008bf2	-0.5021354
55	0xbf22bd2d	-0.6356991
56	0xbf7cb026	-0.9870628
57	0xbf071250	-0.5276232
58	0xbe2d4d4a	-0.16924015
59	0xbe3c6dec	-0.18401307
60	0xbe8d4c95	-0.2759749
61	0xbbbf4880	-0.0058375
62	0xbe0c9d0c	-0.13731784
63	0xbf1b73f0	-0.6072378
64	0x3dc2017a	0.09472938
65	0xbedf3f6c	-0.43603075
66	0x3daebd00	0.08532143
67	0x3e5268b4	0.20547754
68	0xbf0293dc	-0.51006866
69	0x3ee6e4d9	0.45096472
70	0x3f01c2fb	0.5068814
71	0x3dea0028	0.11425811
72	0xbf6126ed	-0.8795002
73	0xbf29e855	-0.66370136
74	0xbed6b3ec	-0.41934144
75	0x3e4bf888	0.19919026
76	0x3e9c796e	0.30561393
77	0x3ea0a71a	0.31377488
78	0xbebb4a40	-0.36580086
79	0x3e9b0f12	0.30284935
80	0x3e31c4d6	0.17360243
81	0x3d9d78a8	0.07689029
82	0x3e2b25c4	0.16713625
83	0xbe8d2e9d	-0.27574626
84	0x3eba6a82	0.36409384
85	0x3eb0c9aa	0.34528857
86	0xbc53fa42	-0.012938084
87	0xbe5da322	-0.21644261
88	0xbd83cab0	-0.06435144
89	0xbee392ca	-0.4444793
90	0xbe2aa654	-0.16665012
91	0xbe8447f5	-0.2583615
92	0xbe21dea2	-0.15807584
93	0x3f82dc3b	1.0223459
94	0x3e9fb438	0.31192183
95	0x3eb76e72	0.3582645

fc1.bias f4 [32]
0	0xbebeffbb	-0.37304482
1	0x3e5b5190	0.21417832
2	0xbed2d1eb	-0.4117578
3	0x3e9b0fce	0.30285496
4	0x3f07d0fb	0.53053254
5	0xbf121e85	-0.5707782
6	0xbec4feee	-0.38475746
7	0x3f13e6bc	0.5777395
8	0x3f17502c	0.5910671
9	0xbe7d5c40	-0.24742222
10	0xbefcb666	-0.4935791
11	0x3f1273a4	0.57207704
12	0xbefd1e38	-0.49437118
13	0x3e32293a	0.17398539
14	0x3f1f6b2c	0.62272906
15	0x3f6e47dd	0.93078405
16	0x3f74ab6a	0.9557406
17	0x3e284211	0.16431452
18	0x3c8f947a	0.017526854
19	0xbddc3624	-0.10752514
20	0xbe1ce7fe	-0.15322873
21	0xbf18c470	-0.5967474
22	0xbe53d68c	-0.20687312
23	0x3f1bab68	0.6080842
24	0xbeabc481	-0.33548358
25	0xbe9c72c0	-0.30556297
26	0xbee56a63	-0.4480773
27	0xbdc8309c	-0.097748965
28	0x3f6cf081	0.9255448
29	0x3c78d24e	0.015186859
30	0x3de20490	0.110360265
31	0x3eff01e6	0.49806136

fc2.weight f4 [32, 32]
0	0x3d520ddc	0.05128275
1	0x3f26e6cd	0.65195924
2	0xbe27cb14	-0.16386062
3	0xbe070e44	-0.13189036
4	0x3f2b219d	0.66848165
5	0xbaff2900	-0.0019467175
6	0xbccd3767	-0.025050832
7	0x3f2c0045	0.6718791
8	0x3f2e7f55	0.68163043
9	0x3db3f76e	0.08787428
10	0xbd654456	-0.055973373
11	0x3f22ca75	0.63590175
12	0x3e15cb8b	0.14628427
13	0x3f5b5384	0.8567431
14	0x3f402423	0.7505514
15	0x3f3534ea	0.70783865
16	0x3f52d614	0.8235791
17	0x3f1a32d8	0.6023383
18	0x3e23dea0	0.16002893
19	0xbdeaef1f	-0.1147139
20	0x3cfa6fd0	0.030570894
21	0x3e36f621	0.17867328
22	0x3dbd7ea2	0.09252669
23	0x3f1f185c	0.62146544
24	0x3f0866fb	0.53282136
25	0x3dbaa3fa	0.09113307
26	0x3df5870a	0.11988647
27	0xbe114323	-0.14185767
28	0x3f31758a	0.69319975
29	0xbc3b09d0	-0.011415914
30	0xbe3347b1	-0.17507817
31	0x3f02437f	0.5088424
32	0xbd8351ab	-0.06412061
33	0xbd0913a3	-0.033465993
34	0x3e2a219d	0.16614385
35	0xbd343388	-0.043994457
36	0x3d7e5c45	0.062099714
37	0xbdad7865	-0.08470229
38	0xbde2ccae	-0.11074196
39	0xbe190fd4	-0.14947444
40	0x3cad7ac8	0.02117671
41	0xbd8dd715	-0.06925789
42	0xbda35ea3	-0.07977035
43	0x3d027902	0.031853683
44	0x3db8e7de	0.090286
45	0xbe6becbd	-0.23039527
46	0xbdab4c95	-0.08364216
47	0xbdde48f0	-0.108537555
48	0xbdca8913	-0.09889426
49	0xbe1ebc2c	-0.1550147
50	0xbe218129	-0.15771927
51	0x3cd83640	0.026393056
52	0xbd138b08	-0.036021262
53	0x3d872c86	0.06600289
54	0x3e0abb37	0.1354798
55	0x3dc48e9a	0.095975116
56	0x3dcc2b86	0.09969239
57	0xbe026c54	-0.12736636
58	0x3d59e3d4	0.05319579
59	0x3c9bb210	0.019005805
60	0x3d2c3b40	0.042048693
61	0xbdfb45ec	-0.12269196
62	0x3cbee3f8	0.023302063
63	0xbe10004c	-0.14062613
64	0x3a80e500	0.0009833872
65	0x3d2a4f10	0.041579306
66	0xbdd0654b	-0.1017557
67	0xbdf7a1c8	-0.12091404
68	0x3eab1c25	0.3341991
69	0xbe14cc70	-0.14531112
70	0xbd8d459b	-0.06898042
71	0x3ebfb78a	0.37444717
72	0xbdf1137e	-0.11771296
73	0x3dfd70aa	0.123750046
74	0x3dcbf26e	0.09958349
75	0x3ec9065b	0.3926266
76	0xbdb10e2c	-0.08645281
77	0x3c80249f	0.015642462
78	0x3eac268d	0.33623162
79	0x3ee39d65	0.4445602
80	0x3eaaf44d	0.33389512
81	0x3ec5217b	0.38502106
82	0x3e10fefb	0.14159767
83	0x3e3365d5	0.17519315
84	0xbd0025a4	-0.031285897
85	0x3d2f436c	0.042788908
86	0xbbbf9aa2	-0.005847291
87	0x3ec34cbb	0.38144478
88	0xbd042dbb	-0.032270174
89	0x3da51da2	0.08062293
90	0xbe0ab47d	-0.13545413
91	0xbd5c31b6	-0.053758346
92	0x3eeb2fad	0.4593481
93	0xbe24f1cb	-0.16107862
94	0x3df5426a	0.11975558
95	0x3f567058	0.8376517
96	0xbdb41595	-0.08793179
97	0xbe315f46	-0.173215
98	0xbdee573d	-0.11637733
99	0x3dfdd7f6	0.12394707
100	0x3da9724e	0.08273755
101	0x3de7ab7a	0.113120034
102	0xbda415c1	-0.08011962
103	0xbe19a84d	-0.15005608
104	0xbddc7a5b	-0.10765525
105	0x3e210665	0.15725096
106	0x3d0e4964	0.03473796
107	0x3d064a50	0.032785714
108	0xbd7f2286	-0.062288783
109	0xbe1098d4	-0.141208
110	0xbd93f9ee	-0.07225405
111	0xbe30b8ab	-0.17257945
112	0xbd77c9dc	-0.060495242
113	0xb9c29c00	-0.00037118793
114	0x3d2c28b4	0.042031005
115	0x3e138907	0.1440774
116	0x3d3eda58	0.046594948
117	0xbe20fe77	-0.1572207
118	0x3e024edd	0.12725396
119	0xbe2c137a	-0.16804305
120	0xbdbf3832	-0.0933689
121	0xbd8c81ac	-0.068606704
122	0x3e2c90cf	0.16852115
123	0x3ad5e400	0.001631856
124	0xbc659e50	-0.014014795
125	0x3c6cd080	0.014454007
126	0xbe16026d	-0.14649363
127	0x3e00865f	0.12551259
128	0xbdc42697	-0.09577673
129	0x3e81d363	0.25356588
130	0x3d54e6c4	0.051977888
131	0xbdddb1d3	-0.10824933
132	0x3ed3fef4	0.4140545
133	0xbd9450ea	-0.07241996
134	0xbded71fb	-0.11594006
135	0x3f1eb90c	0.6200111
136	0x3e7ff6d2	0.24996498
137	0x3db56a6e	0.088581905
138	0xbdb5f744	-0.08885053
139	0x3f11b2ac	0.56913257
140	0x3dee9a26	0.11650495
141	0x3eceec1f	0.4041452
142	0x3f048fc7	0.51781887
143	0x3f0e3d83	0.5556261
144	0x3f1d8e38	0.61545134
145	0x3f010b7c	0.5040815
146	0x3bf6f42d	0.0075364322
147	0x3e321315	0.17390092
148	0xbd9884e1	-0.0744722
149	0xbe9a5f60	-0.3015089
150	0xbd9eddf7	-0.0775718
151	0x3ef5141a	0.478669
152	0x3d8bd4b6	0.06827681
153	0xbd5ebe54	-0.05438073
154	0xbdb9e843	-0.090775035
155	0xbe0e6abc	-0.13907903
156	0x3f264321	0.6494618
157	0x3e10fbab	0.14158504
158	0x3d9c5072	0.07632531
159	0x3f0743f7	0.5283808
160	0x3c5778f0	0.013151392
161	0x3c949d8c	0.01814153
162	0x3decf14e	0.11569463
163	0xbdf9bedf	-0.12194609
164	0x3c40c6f0	0.01176618
165	0xbd9c9cfd	-0.07647131
166	0xbe151453	-0.14558534
167	0x3e1bda4b	0.15219991
168	0x3e15d7f3	0.1463316
169	0x3c824d28	0.015905932
170	0xbd7d435a	-0.06183181
171	0x3dcf8f72	0.10134782
172	0x3e2cc129	0.1687056
173	0xbe123a08	-0.1427995
174	0xbde14fb4	-0.1100153
175	0xbdb6c2f6	-0.089239046
176	0xbdb5264b	-0.088451944
177	0xbe0dfcdd	-0.13865991
178	0x3db2fba6	0.087394044
179	0x3d8731ee	0.0660132
180	0x3d89df64	0.067320615
181	0xbde11d06	-0.10991864
182	0xbd625022	-0.0552522
183	0xbe00d51a	-0.12581292
184	0x3d253890	0.040337145
185	0x3c257bd0	0.01010032
186	0x3cb95a08	0.022625938
187	0x3de6de36	0.11272852
188	0xbd94c7be	-0.0726466
189	0xbd96c6c5	-0.07362131
190	0xbe3283f5	-0.1743315
191	0xbd861be1	-0.06548286
192	0x3e15dc53	0.14634828
193	0xbd857805	-0.065170325
194	0xbe004d01	-0.12529375
195	0x3e34d325	0.1765867
196	0xbccd738f	-0.025079517
197	0x3da855c2	0.08219482
198	0xbd7231e8	-0.059129626
199	0xbe12d5c2	-0.14339355
200	0xbdcce08d	-0.10003767
201	0xbe2787f0	-0.1636045
202	0x3dc8f8ee	0.098131046
203	0xbd33f7e0	-0.043937564
204	0xbdaa9462	-0.08329083
205	0x3b728b00	0.003700912
206	0x3bd21020	0.0064106137
207	0xbccb20f0	-0.02479598
208	0x3decf756	0.11570613
209	0xbda11045	-0.07864431
210	0x3c4f0a00	0.0126366615
211	0x3c739d20	0.0148690045
212	0x3dc21ede	0.09478544
213	0xbd7aff96	-0.061278902
214	0xbdd047c8	-0.10169941
215	0x3d339c9c	0.043850526
216	0xbe1efbf7	-0.15525804
217	0xbc4a9e10	-0.012366787
218	0xbd8f624a	-0.07001169
219	0xbced89b8	-0.028996333
220	0x3c20cb70	0.009814128
221	0xbc890b60	-0.016729057
222	0x3d9e10ea	0.0771807
223	0xbde417c3	-0.11137345
224	0x3d6ac984	0.057321087
225	0x3f48e7e3	0.7847883
226	0x3e2af839	0.16696252
227	0x3dbf38ee	0.0933703
228	0x3f1d67f0	0.6148672
229	0x3e151a31	0.14560772
230	0x3d81264a	0.06306131
231	0x3f28a355	0.65874225
232	0x3f1c39fc	0.6102598
233	0xbc0529d0	-0.008127645
234	0xbe24ba29	-0.1608664
235	0x3f2ba9f1	0.67056185
236	0x3e19a017	0.15002476
237	0x3f2368a9	0.63831574
238	0x3f0e5237	0.555942
239	0x3f42017b	0.7578351
240	0x3f4adfcb	0.7924773
241	0x3f33b426	0.7019676
242	0x3e3eb429	0.18623413
243	0x3e1736e7	0.14767037
244	0xbe209cdf	-0.15684842
245	0xbe26cb75	-0.1628855
246	0x3ce60170	0.028076857
247	0x3f437623	0.7635214
248	0x3eac1305	0.3360826
249	0xbce1b3f1	-0.027551623
250	0x3d7b754e	0.061391167
251	0xbdc45b72	-0.09587754
252	0x3f2c60c1	0.67335135
253	0xbe1a0fda	-0.1504511
254	0xbdc7f9e1	-0.097644575
255	0x3f3458fe	0.7044829

fc2.bias f4 [32]
0	0x3f25954d	0.6468094
1	0xbdec4c71	-0.115380175
2	0x3ee7510d	0.45179024
3	0x3de5a9ba	0.112140134
4	0x3f2a56e1	0.66538817
5	0x3d781208	0.06056407
6	0xbd521b5c	-0.051295623
7	0x3f4b79b3	0.79482573
8	0xbeac3e61	-0.3364134
9	0x3de86b32	0.11348571
10	0xbe2a31b3	-0.16620521
11	0x3ecf659a	0.40507203
12	0x3cbe0d88	0.023199812
13	0x3c9a57f3	0.018840766
14	0x3c543830	0.012952849
15	0x3e57cebc	0.21074957
16	0xbdb222fa	-0.086980775
17	0xbce67779	-0.02813314
18	0xbdf8ec35	-0.12154428
19	0x3ddf1d0b	0.108942114
20	0xbec4b9f7	-0.3842313
21	0x3f00d468	0.50324106
22	0xbe3168a6	-0.17325076
23	0xbc636b01	-0.013880492
24	0xbc531048	-0.0128823
25	0xbe02cbec	-0.12773103
26	0x3ece4acb	0.40291438
27	0xbd9445e1	-0.07239891
28	0xbcecbd55	-0.028898874
29	0xbdd312b9	-0.103063054
30	0x3d62a4f5	0.055333097
31	0x3dbec0fa	0.09314151

pi.weight f4 [3, 32]
0	0xbf0782db	-0.52934045
1	0x3d010b18	0.03150472
2	0xbeba411a	-0.36377794
3	0x3e31fabe	0.17380807
4	0xbf094e9f	-0.5363559
5	0xbe25ee23	-0.16204123
6	0x3e270631	0.16310956
7	0xbf087b4b	-0.5331313
8	0xbeac1305	-0.3360826
9	0xbe2279ee	-0.15866825
10	0xbd92271b	-0.07136365
11	0xbee5ca6d	-0.44881
12	0x3b04bbc0	0.002025351
13	0x3e11503c	0.14190763
14	0xbdbe440e	-0.09290324
15	0xbed946e8	-0.4243691
16	0x3d4fdcbf	0.05074763
17	0x3d0f66d0	0.03501016
18	0xbcde5560	-0.02714032
19	0xbef51b86	-0.4787256
20	0xbe962ad0	-0.29329538
21	0xbf246f29	-0.64232117
22	0x3e0a45e3	0.13503222
23	0xbe14614e	-0.14490244
24	0x3e2121d9	0.15735568
25	0x3da2e8fa	0.07954593
26	0xbed814a8	-0.4220326
27	0x3dfffdfe	0.12499617
28	0xbc586c27	-0.013209379
29	0xbd6ff01c	-0.058578596
30	0xbdb50c71	-0.08840264
31	0xbe2a50a1	-0.1663232
32	0xbf7b2152	-0.9809772
33	0x3dec4694	0.11536899
34	0xbf7e7866	-0.99402463
35	0x3d18efcc	0.037338063
36	0xbf672421	-0.90289503
37	0x3dcd3f9b	0.100218974
38	0x3d5657c4	0.052329794
39	0xbf77f72a	-0.9686152
40	0xbf5ecc30	-0.87030315
41	0xbdd6281f	-0.10456871
42	0xbc65c7e0	-0.014024705
43	0xbf56a3e8	-0.8384385
44	0xbd999219	-0.07498569
45	0xbc0511db	-0.008121933
46	0x3de435c6	0.11143069
47	0xbf4da26f	-0.8032598
48	0x3d65152c	0.055928394
49	0xbdc11fe4	-0.09429911
50	0x3df03686	0.117291495
51	0xbf57a428	-0.8423486
52	0xbf0b1b8f	-0.54338926
53	0xbf4e9d9b	-0.80709237
54	0x3dcf1e82	0.10113241
55	0xbdae6ff5	-0.08517448
56	0xbc5d29d4	-0.013498742
57	0xbe27634b	-0.16346471
58	0xbf40f9d0	-0.75381184
59	0xbcb12f40	-0.021628976
60	0xbda8d109	-0.08242995
61	0xbc2bc8f0	-0.010484919
62	0x3deaa4e6	0.11457233
63	0x3a5f4100	0.00085164607
64	0x3f5391f8	0.82644606
65	0x3dc1dd27	0.094660096
66	0x3f493e37	0.7861056
67	0xbe1b8095	-0.15185769
68	0x3f3952d2	0.72392
69	0xbcaddc30	-0.021223158
70	0x3db2c2f2	0.08728589
71	0x3f48ec2f	0.7848539
72	0x3f1bfb18	0.60930014
73	0x3d8461ee	0.06463991
74	0x3b86bb60	0.0041116923
75	0x3f2e74c9	0.6814695
76	0x3e24eddd	0.16106363
77	0x3d99b6a0	0.07505536
78	0x3d200b7c	0.039073452
79	0x3f475207	0.7785954
80	0x3d664899	0.05622158
81	0x3e0b4bc3	0.1360312
82	0x3e0f92cb	0.14020841
83	0x3f09dd33	0.5385315
84	0x3da4216d	0.08014188
85	0x3f3d3f82	0.7392503
86	0x3e242e51	0.16033293
87	0xbdb36898	-0.08760184
88	0x3c59280b	0.013254176
89	0x3e0c44c7	0.13698111
90	0x3f405fe7	0.75146335
91	0xbd1d64bc	-0.038426146
92	0xbe1b0c07	-0.15141307
93	0xbe1de6f1	-0.15420128
94	0xbe26d7be	-0.16293237
95	0x3dda082e	0.106460914

pi.bias f4 [3]
0	0xbe9c41cc	-0.3051895
1	0xbf2f71e9	-0.6853319
2	0x3f077f57	0.5292868
