simple_tag_maddpg/MADDPG/model/simple_tag/agent_2/1_critic_params.pkl (torch, 52175 bytes, 7 tensors)

fc1.weight f4 [64, 63]
0	0xbd6c92d9	-0.057757232
1	0x3df1cb37	0.11806338
2	0x3d793013	0.060836863
3	0xbe087367	-0.13325273
4	0xbe3a9967	-0.18222581
5	0xbddb93a5	-0.1072152
6	0xba887222	-0.0010409991
7	0x3d319fea	0.043365397
8	0x3fdb8a99	1.7151672
9	0xc04fa54d	-3.2444642
10	0xbda5dc4f	-0.08098661
11	0x3f85d3ab	1.0455221
12	0xbfcbdae5	-1.5926176
13	0x4129ca10	10.611832
14	0xbe492190	-0.1964171
15	0x3f30aa77	0.6901011
16	0x3ecfa3d6	0.40554684
17	0xbea66d8a	-0.32505447
18	0xbd190506	-0.037358306
19	0xbec39780	-0.38201523
20	0x3ea004c3	0.31253633
21	0x3e8321bf	0.25611684
22	0x3e933907	0.28754446
23	0x3e6a2ba0	0.22868204
24	0xbfe07323	-1.7535137
25	0x4050850b	3.2581203
26	0xbff2699e	-1.8938482
27	0x4090a1e9	4.5197644
28	0xc094d7ee	-4.6513586
29	0x419ada0f	19.356474
30	0x3c82905d	0.015937978
31	0x3f0d3e2a	0.5517298
32	0x3ea84f53	0.3287302
33	0xbe67fdd7	-0.22655426
34	0xbe1531bf	-0.14569758
35	0x3ea5434b	0.32277903
36	0xbd63e8e8	-0.05564204
37	0xbeb69dff	-0.35667416
38	0xbe091871	-0.1338823
39	0xbe4f91a1	-0.20270397
40	0x3e5d3b15	0.2160457
41	0xbf8728b9	-1.0559303
42	0x3fe17dce	1.7616518
43	0xc08fba4f	-4.4914927
44	0xc06a1afd	-3.6578972
45	0x414ac7db	12.673793
46	0xbdb408cb	-0.087907396
47	0x3f126ab2	0.57194054
48	0x3d417b16	0.047236525
49	0x3d636b9e	0.055522554
50	0xbafb9103	-0.0019192997
51	0x3e77094a	0.24124637
52	0xbdb4bd2c	-0.08825144
53	0x3d8bc21b	0.06824132
54	0x3de7ccbf	0.11318349
55	0xbe24883f	-0.16067599
56	0xbe167c22	-0.1469579
57	0x3e1695ca	0.14705577
58	0x3c85943d	0.016306037
59	0x3d74010e	0.05957132
60	0xbe6e6574	-0.23280889
61	0x3dbc8d4b	0.09206637
62	0x3d3fb403	0.046802532
63	0x3f16499b	0.58706063
64	0xbdf1a25c	-0.11798546
65	0x3e2554b2	0.1614559
66	0x3df5e0c2	0.1200576
67	0xbea4beaa	-0.32176715
68	0x3e58f5eb	0.2118756
69	0xbde3ee67	-0.11129456
70	0xbdedd31a	-0.1161253
71	0xc008fe39	-2.1405165
72	0x3f41591a	0.75526583
73	0xc0278161	-2.6172717
74	0x3ee28582	0.44242483
75	0xc224dab1	-41.213566
76	0x4204e8d7	33.227383
77	0x3dc38790	0.09547341
78	0x3d83eeb7	0.064420156
79	0x3e15cdb9	0.14629258
80	0x3e52d3a1	0.20588543
81	0x3bcf87dd	0.006333335
82	0xbd7fd4b1	-0.062458698
83	0xbd054bdd	-0.032543052
84	0xbe17ae8f	-0.14812683
85	0xbed029e6	-0.40656966
86	0x3d871726	0.06596212
87	0x400c72ff	2.1945188
88	0xbf4aeab8	-0.792644
89	0x3d8f62d4	0.07001272
90	0x3edc5286	0.4303171
91	0xc09cdc04	-4.9018574
92	0x3f6067ee	0.87658584
93	0xbdd5dfea	-0.10443099
94	0xbd9cf997	-0.07664793
95	0x3e22b18b	0.1588804
96	0x3d917133	0.07101669
97	0xbd888f14	-0.06667915
98	0xbe5b1b84	-0.21397215
99	0x3e857bfe	0.2607116
100	0xbd6284fd	-0.05530261
101	0x3ecdb2a7	0.40175363
102	0xbd942ec4	-0.07235482
103	0x4021b40b	2.526614
104	0xbed0ede8	-0.40806508
105	0xbe30e6b6	-0.17275509
106	0xbef4c4dc	-0.47806442
107	0xc0ca5e74	-6.32403
108	0x3fa0518c	1.2524886
109	0xbd5bbbbe	-0.05364584
110	0xbd2bb447	-0.041919973
111	0xbe0bb898	-0.13644636
112	0x3c3190cf	0.010837748
113	0xbd80085a	-0.06251593
114	0x3decaa22	0.11555888
115	0xbb3efa43	-0.0029140867
116	0xbccaad55	-0.024740854
117	0xbda8064a	-0.082043245
118	0x3c5866b7	0.013208083
119	0x3c9c5d80	0.019087553
120	0xbd45e350	-0.048312485
121	0x3cc22578	0.023699507
122	0x3d8997aa	0.06718381
123	0xbc61c22c	-0.013779204
124	0x3d95e407	0.073188834
125	0x3c21715b	0.009853686
126	0x3fac55c8	1.3463678
127	0x3fe4e5e9	1.7882663
128	0xbc79449b	-0.015214111
129	0xbf1b9634	-0.60776067
130	0xbf872d0d	-1.0560623
131	0x3f2539f3	0.6454155
132	0x3e602d58	0.21892297
133	0x3c1f8fd9	0.009738886
134	0xc08a5101	-4.322388
135	0xbf06f2c2	-0.5271417
136	0xbf94be79	-1.1620628
137	0xbf8db6b8	-1.1071386
138	0xc0339ea9	-2.8065588
139	0xc048d1e7	-3.1378114
140	0xbfae7d51	-1.3631994
141	0x3f202403	0.6255495
142	0xbec56db2	-0.38560253
143	0xbdb0cae6	-0.0863245
144	0xbf30b8db	-0.6903207
145	0xbd848862	-0.064713255
146	0xbece3f80	-0.40282822
147	0x3e85d9d9	0.26142767
148	0x3e990a16	0.29890507
149	0xbf4914bc	-0.78547263
150	0x408cd1b9	4.400601
151	0x3f319430	0.6936674
152	0x402b4cb7	2.6765573
153	0xbb8b4745	-0.0042504393
154	0x3fe316ea	1.7741368
155	0xc0830025	-4.0937676
156	0xbfade0b3	-1.3584198
157	0x3f0fdf5f	0.5620021
158	0x3f4e8e14	0.80685544
159	0xbe82b9bd	-0.25532332
160	0xbe34898e	-0.17630598
161	0xbf3cf61c	-0.73813033
162	0xbe0a9c09	-0.13536085
163	0x3e47dce5	0.19517858
164	0xbdf4101a	-0.11917134
165	0x3d190cc7	0.0373657
166	0x3f8f2d6e	1.1185739
167	0x3f8cb8e4	1.0993924
168	0xc02c40e9	-2.6914618
169	0xbda422bf	-0.0801444
170	0x3e8804ec	0.26566255
171	0xc0b43a71	-5.632134
172	0xbfbb2a89	-1.4622356
173	0x3f22d797	0.63610214
174	0xbcd5847f	-0.026064156
175	0x3ec03c2a	0.37545902
176	0xbee12fb2	-0.439817
177	0x3f35f7d3	0.71081275
178	0xbe070258	-0.13184488
179	0xbe68239b	-0.22669832
180	0x3ec8e31e	0.39235777
181	0x3ee3acf2	0.44467884
182	0xbe3963d2	-0.18104485
183	0xbdc199b1	-0.094531424
184	0xbe07c936	-0.1326035
185	0x3f5570ea	0.8337542
186	0xbea05997	-0.31318352
187	0xbdc0054c	-0.0937601
188	0xbe594453	-0.2121747
189	0xbea4f7a5	-0.32220188
190	0x3e94e4f4	0.29080927
191	0xbede8fd7	-0.43469116
192	0xbe9a2f88	-0.30114388
193	0x3f0c3af4	0.54777455
194	0x3f10c213	0.56546134
195	0x3ec5b5b0	0.3861518
196	0x3f0f89b6	0.56069505
197	0x405dcdc3	3.4656837
198	0x4032bec7	2.7928941
199	0xbe70d451	-0.23518492
200	0x3f88b73f	1.0680922
201	0xc0ff3756	-7.975505
202	0xc1086cbe	-8.526548
203	0xbfd4d373	-1.6627029
204	0xbf8c6716	-1.0968959
205	0x4080696c	4.012869
206	0x3f996708	1.1984568
207	0x3f4add01	0.79243475
208	0x3f4d20b4	0.80128026
209	0xbeaf2c00	-0.34213257
210	0xbf290029	-0.6601587
211	0xbf191c74	-0.5980904
212	0xbf45e599	-0.77303463
213	0xc05c31c7	-3.4405382
214	0xc02ad731	-2.6693842
215	0xc033eced	-2.8113358
216	0xbf6782cc	-0.90433955
217	0xc123407b	-10.203242
218	0xc0d8817a	-6.7658052
219	0xbfdd962d	-1.7311455
220	0xbfa0fdc8	-1.2577448
221	0xbf16c9f9	-0.58901936
222	0x3e841c72	0.25802952
223	0xbe79ed77	-0.24406992
224	0xbe64df14	-0.22350723
225	0x3e7c2c80	0.2462635
226	0xbcaa25c0	-0.020769954
227	0x3e21419b	0.15747683
228	0x3e23d32f	0.15998529
229	0x3e0f3ca3	0.13987975
230	0xbf62a94a	-0.88539565
231	0x4032dc49	2.7946951
232	0x3f804f01	1.002411
233	0xc0a1f3b5	-5.0609994
234	0xc0abf0d7	-5.3731494
235	0xbff2553b	-1.893226
236	0xbf9fe190	-1.2490711
237	0xbe723d9d	-0.23656316
238	0x3c74e4c2	0.014947118
239	0xbea35d77	-0.31907246
240	0x3e77b8e8	0.2419163
241	0xbeb33f6a	-0.3500932
242	0x3be3f540	0.0069567263
243	0x3fac867d	1.3478543
244	0xbfbe20e7	-1.4853791
245	0x3ee5a973	0.44855842
246	0xbe9ea7af	-0.30987307
247	0x3def8095	0.11694447
248	0xbe0be611	-0.13661982
249	0x3ec22857	0.37921402
250	0xbb442164	-0.002992713
251	0x3dcdd0f6	0.10049622
252	0xbfaa2a39	-1.3294135
253	0xbf280a09	-0.6564031
254	0x3e17ba56	0.14817175
255	0x3fdbefd2	1.7182562

fc1.bias f4 [64]
0	0x3f92264c	1.1417937
1	0x3f4e116a	0.8049532
2	0xc095fbf8	-4.687008
3	0xbecce3b0	-0.40017462
4	0xc0d91b9d	-6.784621
5	0xbeb8998c	-0.36054647
6	0xc14565b3	-12.337329
7	0x3e382d17	0.1798595
8	0x41243c97	10.264792
9	0xbe5cb0ce	-0.2155182
10	0x3fcb8b71	1.5901929
11	0x406592e7	3.5870912
12	0xbd919397	-0.07108229
13	0xc0deab03	-6.9583755
14	0x3eb531d2	0.35389572
15	0xbfb51a39	-1.4148628
16	0xbe683e20	-0.22679949
17	0x3ecfb026	0.40564078
18	0xbeec6731	-0.4617248
19	0xbef47846	-0.4774801
20	0xbe0e0790	-0.13870072
21	0x3fb58aef	1.4183024
22	0xc1807ba4	-16.060371
23	0xbfc71843	-1.5554279
24	0xc0343655	-2.8158162
25	0xc15dbd97	-13.858787
26	0xc149d571	-12.61461
27	0xbf1da3ee	-0.6157826
28	0xbef0edaa	-0.47056323
29	0xc0db9ffb	-6.863279
30	0xbf030e09	-0.5119329
31	0x418e04e6	17.752392
32	0xbfc41747	-1.5319604
33	0xc17f9d94	-15.975971
34	0x3f5498be	0.83045566
35	0xbe8d2d83	-0.27573785
36	0x40449c35	3.0720341
37	0xc0aa55ed	-5.322989
38	0xc1616087	-14.086066
39	0xbf801aa3	-1.0008129
40	0xbffd3fac	-1.9785056
41	0x3ef1b6b4	0.47209704
42	0xc101f5e4	-8.122532
43	0xc1499e8b	-12.601207
44	0xbe37e8dd	-0.17959924
45	0xc1581904	-13.506107
46	0xc0cb80e3	-6.3594832
47	0xbf0720d4	-0.52784467
48	0xbebd6834	-0.36993563
49	0xbf8fe232	-1.1240904
50	0xbf545f55	-0.82957965
51	0xbf858808	-1.0432138
52	0xc0d3ad75	-6.614924
53	0x3f16e2a1	0.5893956
54	0xbf209ca0	-0.6273899
55	0xc086d49f	-4.2134547
56	0xc105bfd9	-8.359338
57	0x418c9c97	17.57646
58	0x3f7fd2e4	0.9993117
59	0xbf326933	-0.6969177
60	0xc050acc2	-3.2605443
61	0x411ccf15	9.800557
62	0xc0a7761a	-5.2331667
63	0x40958ab9	4.673184

fc2.weight f4 [64, 64]
0	0xbe4381ed	-0.19092532
1	0x3f9f007d	1.2422024
2	0xbe3fbf0f	-0.18725227
3	0xbdc8e42c	-0.09809145
4	0x3f74575e	0.9544581
5	0xbf02c0b3	-0.51075286
6	0xbf1cbbf3	-0.6122429
7	0x3e8a9043	0.27063188
8	0xbf9f6a3b	-1.2454294
9	0xbf8dbda3	-1.1073498
10	0xbf526cad	-0.82197076
11	0x3dc4b20e	0.09604274
12	0x3f177956	0.5916952
13	0x3f1f1510	0.62141514
14	0x3fbea2aa	1.4893391
15	0xbf8c4ea8	-1.0961504
16	0xbef14586	-0.47123355
17	0x3f27c70a	0.65538085
18	0x400e7275	2.225736
19	0xbf874117	-1.0566739
20	0x3f700cc2	0.93769467
21	0x400c3e7c	2.1913137
22	0x40c0e765	6.0282464
23	0x3f6a9ba9	0.9164377
24	0xbe8205e6	-0.25395125
25	0xc0280da1	-2.6258318
26	0x40478329	3.1173804
27	0x3d849290	0.06473267
28	0x3f751b7a	0.9574505
29	0x3eca14ea	0.3946908
30	0x3d8f8f2e	0.07009731
31	0xbfa19fc0	-1.2626877
32	0xbfb8ed4d	-1.4447418
33	0xbfce1534	-1.6100221
34	0x3c9de326	0.019273352
35	0x3f8809a4	1.0627942
36	0x3f004b0a	0.501145
37	0x3f1ad2dd	0.60478
38	0x3f16ed5f	0.5895595
39	0x3f3196d9	0.693708
40	0xbf2dcdea	-0.67892325
41	0xbe3140d8	-0.17309892
42	0xbf3e2985	-0.74282104
43	0x40cc2337	6.3792987
44	0x4004b117	2.0733087
45	0xbf28dac8	-0.65958834
46	0x3e4343e2	0.19068864
47	0xc00807e0	-2.1254807
48	0x3de3f64b	0.11130961
49	0xbf89fa87	-1.077958
50	0xbfd18011	-1.6367208
51	0x3e0dbddb	0.13841955
52	0xbeee932c	-0.46596658
53	0xbfd5773a	-1.667701
54	0xbe64a861	-0.22329856
55	0x3f5d4b6d	0.86443216
56	0x3f6b0141	0.9179879
57	0xbe081f19	-0.13293113
58	0x3fa17f4a	1.261697
59	0x3ea057e2	0.3131705
60	0x3f0e9ad1	0.5570498
61	0x3f44076a	0.7657381
62	0xbd7cbb19	-0.061701868
63	0x3f2a2259	0.6645866
64	0xbfac923f	-1.3482131
65	0x3f9f902e	1.2465875
66	0xbdb34a4d	-0.08754406
67	0x3f7eca3e	0.9952735
68	0x3eedd13d	0.464487
69	0xbeb02ae8	-0.34407735
70	0xbf985bfd	-1.1903073
71	0x3e1815c5	0.14852054
72	0xbe34ccd3	-0.17656259
73	0x40875515	4.229136
74	0x4030bd24	2.7615442
75	0x3f20ffd8	0.62890387
76	0xbed5ef2c	-0.41784036
77	0x3df027ca	0.11726339
78	0x3f7eb1b3	0.994899
79	0x3fcb2f20	1.5873756
80	0xbeb6295a	-0.35578424
81	0xbe60aadd	-0.21940179
82	0xbf424f07	-0.75901836
83	0x3f7b1842	0.9808389
84	0xbf877315	-1.0581995
85	0x3f35c9e0	0.7101116
86	0x3fe41d4a	1.7821438
87	0x3eb7e2d9	0.3591526
88	0x3c47646e	0.01216994
89	0xbe806598	-0.2507751
90	0x3e4b12ee	0.1983144
91	0xbefbf530	-0.492105
92	0xbf8424f5	-1.0323778
93	0x3ed93981	0.42426684
94	0xbf09519f	-0.5364017
95	0xbf61bed2	-0.88181794
96	0x3d3ab938	0.045586795
97	0xbfe021dd	-1.7510334
98	0x40460002	3.0937505
99	0x3e9c394c	0.30512464
100	0xbf182f2b	-0.5944697
101	0x3eb0dec9	0.34544972
102	0x3f9f1808	1.2429209
103	0xbf643a1c	-0.8915117
104	0x3d60107c	0.05470322
105	0x3f60351d	0.87581044
106	0x3fc94f35	1.5727297
107	0xbfc4479d	-1.5334355
108	0x3fa6e7c9	1.3039485
109	0xbf1dcc2f	-0.61639684
110	0xbf526eaf	-0.8220014
111	0x3f74a9be	0.95571506
112	0x3d3e4e8d	0.04646163
113	0xbd5a0284	-0.053225055
114	0xc0066680	-2.100006
115	0x3eafc176	0.34327286
116	0x3e2d910d	0.16949864
117	0xbf6d7040	-0.92749405
118	0x3f3d9f62	0.74071324
119	0x3f04de99	0.5190216
120	0x3d3b43e8	0.045719057
121	0xbebc224c	-0.36744916
122	0xbe5d6c39	-0.21623315
123	0x3f4e0552	0.8047687
124	0xbd99a42f	-0.07502019
125	0x3eeab192	0.458386
126	0x3e42b888	0.19015706
127	0xbebddbf8	-0.37081885
128	0xbfd92cf0	-1.6966839
129	0x3f49e898	0.78870535
130	0x3f41f59d	0.757654
131	0xbe0a6aeb	-0.13517348
132	0x3cfec391	0.031099113
133	0x3f27033c	0.6523931
134	0xbee58be5	-0.44833294
135	0xbd4d992a	-0.050194897
136	0xbf1858eb	-0.5951068
137	0xbf4f5126	-0.809832
138	0xbd582e9a	-0.052778818
139	0xbdba9d4c	-0.09112033
140	0xbecb7144	-0.39734852
141	0x3dc93e74	0.09826365
142	0xbfc132cc	-1.5093627
143	0xbf2ac520	-0.6670704
144	0xbf47388f	-0.77820677
145	0xbecb34bf	-0.3968868
146	0x401ebb4f	2.4801824
147	0xbf9b5d30	-1.2137814
148	0x3fa79652	1.3092749
149	0xc0397130	-2.8975334
150	0xbf2dd7ca	-0.6790739
151	0x3fd2d439	1.6471015
152	0xbe50c268	-0.2038666
153	0xc037c601	-2.8714602
154	0x3f657350	0.8962908
155	0x3eff142e	0.49820083
156	0x3ffb893f	1.9651259
157	0x3fdc0e94	1.7191949
158	0x3f554f30	0.83323956
159	0x3fa41bc8	1.2820978
160	0xbdb527a8	-0.088454545
161	0x4012ea63	2.2955558
162	0xc0064f15	-2.0985768
163	0x3efc33d5	0.49258295
164	0xbfbcaa86	-1.473954
165	0xbf6dbecb	-0.9286925
166	0x3e95a9ba	0.29231054
167	0x3f8f7fce	1.1210878
168	0xbf32e18d	-0.69875413
169	0x3f149d37	0.5805239
170	0x3fe42b65	1.7825743
171	0x3fe29433	1.7701477
172	0x3ea79df3	0.32737693
173	0xbcf0087f	-0.029300926
174	0x3f496700	0.7867279
175	0xc01f129e	-2.4855113
176	0xbf25cb24	-0.64763093
177	0xbc1caff4	-0.009563435
178	0x3fc010f6	1.5005176
179	0x3ddfd68b	0.10929593
180	0xbf3f6471	-0.74762636
181	0x3c291aed	0.010321361
182	0x3f211cf1	0.62934786
183	0x3e829449	0.25503758
184	0x3f0e1552	0.5550128
185	0x3ec6c362	0.3882094
186	0xbef1fa81	-0.47261432
187	0xbe04e3a8	-0.12977469
188	0xbf0f223c	-0.5591161
189	0x3ecb197b	0.39667878
190	0xbf1b6d8b	-0.60714024
191	0x3eac44c5	0.33646217
192	0x3fff99be	1.9968793
193	0xbe7bab03	-0.24576955
194	0x3e8c8295	0.27443376
195	0x3f81c846	1.0139244
196	0x3f5c648e	0.86090934
197	0x3f46d722	0.77672017
198	0xbfbfa74e	-1.4972932
199	0xbead1f72	-0.33813053
200	0x3ef4d0cd	0.47815552
201	0xbe838a8a	-0.25691634
202	0x3ed67f51	0.4189401
203	0xbee82054	-0.45337164
204	0x3e951c2f	0.29123065
205	0xbd2b0440	-0.0417521
206	0x3e057770	0.13033843
207	0xbf4b8480	-0.79499054
208	0x3f6a7df8	0.91598463
209	0x3f92eb37	1.1478032
210	0xbe666b76	-0.2250193
211	0xbf9bbbd6	-1.2166698
212	0x3d8b3acf	0.06798326
213	0xbf8394e2	-1.027981
214	0x3f230db5	0.6369279
215	0xbfad2877	-1.3527974
216	0xbe184cd4	-0.14873058
217	0x3fbf969d	1.4967839
218	0xbf2e9389	-0.6819387
219	0x3f97f17a	1.1870568
220	0x3e41f3ab	0.18940608
221	0xbf5bc479	-0.8584667
222	0x3f82adc0	1.0209274
223	0xbe0938ea	-0.13400617
224	0x3d3f974c	0.046775147
225	0xbf39bb6e	-0.7255162
226	0x3e4fd0b2	0.20294455
227	0x3e31d422	0.17366078
228	0xbfe015e9	-1.7506686
229	0x3fc8a8e6	1.5676544
230	0x3f0ad735	0.5423463
231	0x3ebfda42	0.37471205
232	0xbede491c	-0.43415153
233	0xbfb05c14	-1.37781
234	0xbe4a6879	-0.19766416
235	0xc09af0ab	-4.8418784
236	0xbf64500d	-0.8918465
237	0x3e24b1cc	0.16083449
238	0xbfd7dd6b	-1.6864446
239	0xbfb87e68	-1.4413576
240	0x3e05aedc	0.13054985
241	0xbef000f3	-0.46875724
242	0xbfaf6f43	-1.3705829
243	0x3ec4fef8	0.38475776
244	0xbf910a7a	-1.1331322
245	0xbf3db4bd	-0.7410391
246	0x3f1872ee	0.5955037
247	0x3e4feae4	0.20304447
248	0x3f839cbd	1.0282208
249	0xbdd061ca	-0.10174902
250	0x3f486295	0.78275424
251	0x3fed15c1	1.8522264
252	0x3f8756a1	1.0573312
253	0xbe5969f8	-0.2123183
254	0x3e0b3239	0.13593377
255	0x3cbab5dc	0.022791795

fc2.bias f4 [64]
0	0xc092e4a1	-4.590409
1	0xc10d4df3	-8.831531
2	0x411db7fb	9.857417
3	0x40775f7f	3.8652036
4	0xc09af01a	-4.8418093
5	0x4018cdcb	2.3875606
6	0xc02b0b8b	-2.6725795
7	0x3e4ea0c6	0.20178518
8	0x3fb2608e	1.3935716
9	0xc00e15d9	-2.2200835
10	0xc075e784	-3.8422556
11	0x3f56868f	0.8379907
12	0x40ebb102	7.3653574
13	0x41570c13	13.440448
14	0xc09f287a	-4.973691
15	0x412ffcbd	10.999204
16	0xc062c16a	-3.543055
17	0x3f466784	0.775017
18	0xbf439a0e	-0.76406944
19	0x41714ad2	15.080767
20	0x418ca1bc	17.578972
21	0xc033deb4	-2.8104677
22	0xc043dd70	-3.0603905
23	0x413c384d	11.763745
24	0x410b0f8a	8.691294
25	0xc0d1a5ce	-6.55149
26	0x41648f7b	14.285029
27	0xbeb07bfe	-0.344696
28	0xc02778a0	-2.6167374
29	0x41529519	13.161401
30	0xbf0d0f83	-0.55101794
31	0xc0a8de8c	-5.2771664
32	0xc031e5b0	-2.779644
33	0x3f726eb0	0.94700146
34	0x3ffa497c	1.9553676
35	0x40b1e6b5	5.5594125
36	0xc08b2898	-4.3487053
37	0xc034c484	-2.8244944
38	0x40f45ac9	7.636082
39	0xc0365c6f	-2.8493917
40	0xc0a47211	-5.138924
41	0xbf84bae6	-1.0369537
42	0x405c47f1	3.441891
43	0x40c3abe7	6.114734
44	0xc00fa4cc	-2.2444334
45	0xc135ce09	-11.362802
46	0x3f8a09e3	1.0784267
47	0xbfb6bfb3	-1.4277252
48	0xc070fbc1	-3.7653658
49	0x3fcee74c	1.6164336
50	0xbf8b7a68	-1.089673
51	0xc082f96c	-4.092947
52	0x40b598a8	5.674885
53	0xc0dd1471	-6.9087453
54	0xc030a4fa	-2.7600694
55	0xc0c69996	-6.2062483
56	0xc092474c	-4.571203
57	0xbf311683	-0.69174975
58	0xbfac41d1	-1.3457586
59	0xbeee8ff2	-0.46594197
60	0x407f857e	3.9925227
61	0x3f74786d	0.95496255
62	0x4092c920	4.5870514
63	0xc00ea6d1	-2.2289317

fc3.weight f4 [64, 64]
0	0xc0528f18	-3.2899837
1	0x3f66d4fe	0.9016875
2	0xbf9af94d	-1.210733
3	0xc02a9f60	-2.6659775
4	0x3d0996ec	0.033591196
5	0x3fee6d7d	1.8627163
6	0x3f8eeffe	1.116699
7	0xbdb57f7a	-0.08862205
8	0xc0354b0f	-2.8327062
9	0xc042af6a	-3.0419564
10	0xc05cca87	-3.4498613
11	0xc092106b	-4.564504
12	0x3f59cfb2	0.8508254
13	0xc0e8b8d2	-7.272561
14	0xbe262074	-0.16223317
15	0xbd03bcf0	-0.032162607
16	0x3ffad95f	1.9597586
17	0x3d312b9c	0.04325448
18	0xc0a232b1	-5.068688
19	0x3fe94173	1.8223099
20	0xbef232bf	-0.4730434
21	0xc00963a8	-2.1467075
22	0xc0c3e75f	-6.1219935
23	0xc001c32a	-2.0275369
24	0x3ff7beef	1.9355143
25	0xbffe8ac0	-1.9886093
26	0xc03266dd	-2.7875283
27	0xc08483ed	-4.141104
28	0x3f28054f	0.656331
29	0xbfd39c80	-1.6532135
30	0x3fa5ff5b	1.2968553
31	0x3f394653	0.7237293
32	0x3f350c6f	0.707221
33	0xc0780bfd	-3.8757317
34	0xbe702241	-0.23450567
35	0xc095e58e	-4.684272
36	0xbffa91e4	-1.9575772
37	0xbd705d9f	-0.058683034
38	0xbee271de	-0.442275
39	0xc0106c8f	-2.256626
40	0xbe39e147	-0.18152343
41	0xbe8b7b6f	-0.2724261
42	0x3fec353c	1.8453746
43	0xbef0bb18	-0.4701774
44	0x401dce56	2.4657187
45	0xc0149846	-2.321794
46	0xbfbe965f	-1.488964
47	0xc0978c78	-4.735897
48	0x3d9e46ed	0.07728372
49	0xbfb796c8	-1.434289
50	0xbf5cb3f4	-0.86212087
51	0xbf7feb78	-0.9996867
52	0x3ef65794	0.48113692
53	0xbf55cd70	-0.835166
54	0xbf36de69	-0.7143312
55	0x3d10f188	0.035386592
56	0x3ef915b3	0.48649368
57	0xbea6ddcd	-0.32591096
58	0xbe5a0043	-0.21289162
59	0xbff7ea62	-1.9368403
60	0x3d4562b1	0.048189823
61	0xbc6815ae	-0.014165325
62	0x3f783046	0.9694866
63	0x3f4ebae3	0.80753917
64	0xc046f0f6	-3.108457
65	0x3cea3d21	0.028593602
66	0xbf06101c	-0.5236833
67	0x3de5aa98	0.11214179
68	0xbfa172e6	-1.2613189
69	0x401bf581	2.4368594
70	0x4098cbd5	4.774882
71	0xbdb51794	-0.08842388
72	0x3e0b6ed0	0.1361649
73	0x3db45e1b	0.08807012
74	0xbf10ac16	-0.5651258
75	0x3f91161e	1.1334875
76	0xc02ddbe1	-2.7165453
77	0xbfdd79dc	-1.7302814
78	0xbfe8777b	-1.8161463
79	0xbec3bf06	-0.38231677
80	0xc043e1f6	-3.0606666
81	0x3eb1c892	0.34723336
82	0xc0523544	-3.284501
83	0xc014bf8d	-2.3241913
84	0xbf2e17d5	-0.68005115
85	0x3fbc1dd0	1.4696598
86	0xc087021d	-4.219008
87	0x3f2a34c1	0.66486746
88	0xc008230a	-2.1271386
89	0xbda99657	-0.08280628
90	0x40240f3e	2.5634303
91	0x3f8ebebb	1.1151956
92	0x3f411a3f	0.75430673
93	0xbfb36e3b	-1.4018015
94	0x3f6ab366	0.9167999
95	0x3f096365	0.5366729
96	0xc00b5475	-2.1770298
97	0x4006e2fa	2.1076035
98	0x3edd8014	0.43261778
99	0x3f783cc6	0.9696773
100	0x3f3ecb60	0.74529076
101	0x3f2b5303	0.6692354
102	0x3e503616	0.20333132
103	0xbf9ded0d	-1.2337967
104	0xbfad6ab8	-1.3548193
105	0xbd679b81	-0.056544784
106	0x3e84bc68	0.25924993
107	0xbd9fe940	-0.07808161
108	0x4028c18b	2.636813
109	0x3e0ae811	0.13565089
110	0x40220623	2.5316246
111	0xbfb03f28	-1.3769274
112	0xbba04fb3	-0.0048923134
113	0xbfffb63e	-1.9977491
114	0xbf111c14	-0.5668347
115	0xbe02f522	-0.12788823
116	0x3fa36ece	1.276819
117	0xbffcad12	-1.9740317
118	0x3f25c2e9	0.64750534
119	0x401f31a4	2.4874048
120	0x3fde703e	1.7378004
121	0x3f741e49	0.9535871
122	0x3ecc781b	0.39935383
123	0x3f33ee72	0.70285714
124	0xbf5aef22	-0.8552114
125	0xbeac6fb5	-0.33678976
126	0xbf97a6dd	-1.1847798
127	0xbdee630d	-0.11639986
128	0xc002ff0c	-2.0468168
129	0xbe6ca1f1	-0.2310865
130	0xbfa0c2ef	-1.2559489
131	0xbf748593	-0.9551632
132	0x3f0f8a1a	0.560701
133	0xc041029c	-3.0157843
134	0x403a5950	2.9117012
135	0xbc76874b	-0.015046905
136	0xc03e0e53	-2.9696243
137	0xbea5afa3	-0.32360563
138	0xbf955159	-1.166545
139	0xbf94393c	-1.1579967
140	0xc0419719	-3.0248473
141	0xbf88b237	-1.0679387
142	0x3e7cacb2	0.24675253
143	0xc0496028	-3.146494
144	0x3f0b8af5	0.54508907
145	0xbff090dc	-1.8794208
146	0xc0a4ce63	-5.1501937
147	0xbf8f276d	-1.1183907
148	0x3f35d05f	0.71021074
149	0xbfae2da0	-1.3607674
150	0x3faa1c69	1.328992
151	0x3ea6a2bf	0.3254604
152	0xbfcab59f	-1.5836676
153	0xbf042354	-0.51616406
154	0xc03a3b3d	-2.9098656
155	0x3f6b023b	0.9180028
156	0x3e596068	0.21228182
157	0xc039d87d	-2.9038384
158	0xc082c3f0	-4.086418
159	0xbf6263f1	-0.8843375
160	0xbf1c1a93	-0.6097805
161	0x3fdf9c33	1.7469543
162	0xbfd66834	-1.675055
163	0xbf094739	-0.536243
164	0xbdc17196	-0.09445493
165	0x3e8500e7	0.2597725
166	0xc076ea71	-3.8580592
167	0xbfe7c12d	-1.8105828
168	0x3fcc40e6	1.5957305
169	0xbeabf005	-0.33581558
170	0xbefbecb4	-0.49204028
171	0x3f27708f	0.65406126
172	0xbffb7451	-1.9644872
173	0x3f87df41	1.0615007
174	0x4046e492	3.1077008
175	0xbfb01cba	-1.3758767
176	0xbf924f08	-1.1430368
177	0xc0417779	-3.022917
178	0x3fdcd3b6	1.7252109
179	0xc07ea84e	-3.9790225
180	0xc08dc2fb	-4.4300513
181	0x3f2da3c9	0.6782804
182	0xbe9de4c2	-0.3083859
183	0xbfaa61ae	-1.331106
184	0x3dafdd32	0.085871115
185	0xbfb3077b	-1.3986658
186	0xbfdf05fd	-1.7423702
187	0x3e4886e5	0.19582708
188	0x3f4b1d0b	0.7934119
189	0xbf84c30e	-1.0372026
190	0xbe8c3c4c	-0.27389753
191	0x3f426992	0.7594234
192	0xbf9a9c14	-1.2078881
193	0xbf84e83a	-1.038337
194	0xc001bf8a	-2.0273156
195	0xbf054ab6	-0.52067125
196	0xbcb4d92f	-0.022076217
197	0xbf1ea47f	-0.6196975
198	0x3e3d7abf	0.18503855
199	0x3caf4af8	0.021398053
200	0x3ea91be4	0.3302909
201	0x3e1012bf	0.14069651
202	0xbeba7024	-0.36413682
203	0xbe0346a2	-0.12819913
204	0xbe841393	-0.25796184
205	0xbf3ec572	-0.7452003
206	0xbf077b0d	-0.52922136
207	0xbfe0fd71	-1.7577344
208	0x3d9e423d	0.07727478
209	0xc0100862	-2.2505116
210	0x3e57c0a4	0.2106958
211	0x3f88c73d	1.0685803
212	0xbfb1b7e7	-1.3884248
213	0x3f7a5fc1	0.9780236
214	0xbf7984bf	-0.9746818
215	0xbf17f5f9	-0.593597
216	0xbde5e535	-0.112253584
217	0xbf6215f3	-0.8831474
218	0xbf7f2624	-0.9966757
219	0xbf3524f8	-0.70759535
220	0xbf8a16c8	-1.0788202
221	0x3ec28e7e	0.37999338
222	0xbf1839a6	-0.59462965
223	0x3f44e83b	0.76916856
224	0xbf85835e	-1.0430715
225	0x3f9b13f0	1.211546
226	0x3f49aef0	0.7878256
227	0x3e816af0	0.252769
228	0xbecc7c1f	-0.39938447
229	0x3fbdec28	1.4837694
230	0xbfb666a4	-1.4250073
231	0xbf3b146a	-0.73078024
232	0xbed540c2	-0.4165097
233	0xbf83358d	-1.0250717
234	0xbf9e3018	-1.2358427
235	0xbfadf7bc	-1.3591228
236	0xbe40d1fb	-0.18830101
237	0xbeb3a07b	-0.35083374
238	0x3f5e988d	0.86951524
239	0xbfc24506	-1.5177314
240	0xc01a1b8b	-2.407931
241	0xbd39b4d6	-0.045338474
242	0xbf4fe97f	-0.8121566
243	0xbdf384c6	-0.11890559
244	0xbef951c4	-0.48695195
245	0xbeca65ae	-0.395307
246	0x3eff6bec	0.49887025
247	0x3e3f1503	0.18660359
248	0xbe9de6f1	-0.30840257
249	0x3f4791dc	0.7795694
250	0x3f66b24b	0.90115803
251	0x3ec739fc	0.38911426
252	0xbfa25539	-1.2682258
253	0xbf10e803	-0.5660402
254	0xbe733319	-0.23749961
255	0x3cd13942	0.025539998

fc3.bias f4 [64]
0	0x402df7ef	2.7182577
1	0x3fbbfafd	1.468597
2	0x3f9b5be8	1.2137423
3	0xc0a0db22	-5.0267496
4	0x4173be0d	15.233899
5	0x403d865a	2.9613252
6	0xc080e647	-4.02811
7	0x41902b4e	18.021145
8	0xc0b3ea1a	-5.622327
9	0x40287cbb	2.632613
10	0x40718ad4	3.7740984
11	0x3fd8152b	1.688146
12	0xbf445c12	-0.7670299
13	0xbfba3d51	-1.4549962
14	0x418d0c4f	17.63101
15	0xc119b4ad	-9.60661
16	0x3fc7890a	1.5588696
17	0x41357619	11.341332
18	0x4158afaa	13.542887
19	0xbff2a49b	-1.8956484
20	0xbf1ea505	-0.6197055
21	0x4055e15a	3.3418794
22	0xbfc973ca	-1.5738461
23	0xc08cbdaa	-4.3981524
24	0xbf906a66	-1.128247
25	0xbf79486d	-0.9737614
26	0x3ef5344f	0.4789147
27	0x4121d728	10.115028
28	0xc00933d2	-2.1437879
29	0x414666b7	12.400077
30	0xbf4a3cb2	-0.78998864
31	0xc02d51a5	-2.7081082
32	0x3f1e8ac6	0.619305
33	0x402e4b21	2.7233355
34	0x409f4d95	4.9782205
35	0x41869a64	16.825386
36	0x3e56e4fa	0.20985785
37	0xbf10d0c8	-0.56568575
38	0xc069e6db	-3.6547153
39	0xc007d198	-2.1221676
40	0x403d0119	2.953192
41	0xbeb39470	-0.35074186
42	0xc0830681	-4.094544
43	0xbfed8fd7	-1.8559521
44	0x3f5a4be1	0.8527203
45	0x40939a60	4.6125946
46	0xc0997e3a	-4.7966585
47	0xc021403f	-2.5195463
48	0xc0314ce1	-2.7703173
49	0x400e74ec	2.2258863
50	0xbff1f749	-1.890359
51	0xc01d81d7	-2.4610498
52	0xbe3fcb2b	-0.18729846
53	0x3efc092f	0.49225757
54	0xc106cf57	-8.42562
55	0xbce5635a	-0.028001476
56	0x3d329454	0.043598488
57	0xc08b51db	-4.353742
58	0x3fc3e0e8	1.5303011
59	0xbf146729	-0.5796991
60	0xbfa0781a	-1.2536652
61	0xbcda20a3	-0.02662689
62	0xc0477374	-3.1164217
63	0xbe502d2b	-0.2032973

q_out.weight f4 [1, 64]
0	0xbe7a28fb	-0.24429695
1	0xbd9b81bf	-0.075931065
2	0x3ea78c3e	0.32724184
3	0xbd22e833	-0.039772224
4	0x3e07e655	0.13271458
5	0x3e4ed11b	0.20196955
6	0xbc9d6b48	-0.019216195
7	0x3e118dad	0.14214201
8	0xbd8301f1	-0.06396855
9	0xbe815740	-0.2526188
10	0x3f25979a	0.6468445
11	0xbd38ce17	-0.045118418
12	0xbf9babfb	-1.2161859
13	0x3c9d9fc4	0.019241221
14	0x3ed0b914	0.40766203
15	0xbf128019	-0.5722671
16	0xbe9ad549	-0.3024085
17	0x3d51ad2b	0.051190536
18	0x3efb80f8	0.49121833
19	0x3f34403c	0.70410514
20	0x3c471534	0.012151051
21	0x3daccd96	0.0843765
22	0xbeeadb85	-0.45870605
23	0xbdfee461	-0.124459036
24	0xbfc7a394	-1.5596795
25	0xbe222995	-0.15836175
26	0xbdab4f0c	-0.08364686
27	0x3d80f8be	0.06297444
28	0x3e95cc2d	0.29257336
29	0x3de31fd9	0.11090059
30	0x3e76cb05	0.24100883
31	0xbeeb5ccd	-0.4596924
32	0x3fcba2ef	1.5909098
33	0xbd7195ca	-0.05898074
34	0x3d9028a1	0.07038999
35	0x3f19660d	0.5992134
36	0xbd711c10	-0.058864653
37	0xbf63d4c8	-0.88996553
38	0xbde45de7	-0.11150723
39	0xbcd81b9a	-0.026380349
40	0xbe2a3bb9	-0.16624345
41	0xbcee2a75	-0.02907298
42	0x3cb7e3b9	0.022447454
43	0x3cc45508	0.023966327
44	0x3c6f132f	0.014591976
45	0x3e312fc8	0.17303383
46	0xbdf6956a	-0.12040217
47	0xbe60b8e6	-0.21945533
48	0xbe71dea3	-0.23620085
49	0xbddc5c1f	-0.10759758
50	0x3bce0dbf	0.0062882598
51	0xbe073dd5	-0.13207181
52	0x3cbefd58	0.023314163
53	0xbb42328f	-0.0029632186
54	0x3e7eb7b5	0.24874766
55	0x3d35c2a0	0.044375062
56	0x3d995ee2	0.074888006
57	0x3e22d607	0.15901957
58	0xbc90e3e9	-0.017686801
59	0xbce20254	-0.027589
60	0x3f3fb970	0.7489233
61	0xbe2a6371	-0.16639496
62	0xbc2ff1e2	-0.010738822
63	0x3d0b3492	0.03398568
