code/tmp/maddpg/k_3/Keep_Awayagent_1+2/agent_1_actorBest.pt (torch, 8487 bytes, 6 tensors)

fc1.weight f4 [32, 10]
000000 c1 ce 95 be 50 c5 bf 3e 03 95 0d bf b4 71 23 3e
       -0.29259303 0.37455225 -0.553055 0.15961343
000010 b6 ab f9 be d0 43 e7 3e da 1e 2d be 5d 7b 26 bf
       -0.48763818 0.45168924 -0.169063 -0.6503199
000020 d6 cd 50 bf 67 07 eb 3e a1 28 63 3c e3 e6 07 3f
       -0.8156408 0.45904085 0.013864667 0.5308668
000030 84 56 52 3d 59 03 1b 3f 46 57 40 bf f8 23 a7 3e
       0.05135204 0.60551983 -0.7513317 0.3264463
000040 c5 1f aa bd ab b8 0d 3e 21 99 4c bf d7 8d 8c 3e
       -0.08306841 0.13839976 -0.79921156 0.27451965
000050 82 94 13 bf 6c 60 56 3c dd d2 01 bf bc ae fa be
       -0.5764848 0.013084512 -0.50712377 -0.48961437
000060 fe 95 27 bf ca 7b ee 3d dc 29 07 bf 53 54 6f be
       -0.65463245 0.11644705 -0.5279825 -0.23372011
000070 28 8b 51 bf da f7 1a 3d 6b 68 c4 be 07 9c c4 3d
       -0.8185296 0.037834026 -0.38360915 0.09600072
000080 7a 31 8c 3d b0 00 5b bd fd 5f c8 be e0 c7 4e bf
       0.068453744 -0.053467453 -0.39135733 -0.80773735
000090 7a ce f6 3b 2f 51 ed be 8e 39 37 3b 90 68 36 bb
       0.007531938 -0.46351 0.002795789 -0.002783332
0000a0 72 4b 0e bf f8 ed e5 bc 30 91 1a be d1 d9 1e be
       -0.5558387 -0.028067574 -0.15094447 -0.15512778
0000b0 c0 f5 72 bf ed e2 93 3c c4 30 82 3e fe 7f 4c be
       -0.94906235 0.018052543 0.2542783 -0.199707
0000c0 f7 64 33 bf 88 4e a4 be df 44 13 3d 88 b4 81 3e
       -0.70075935 -0.32091165 0.035954352 0.25333047
0000d0 15 23 ab 3e c1 ec 00 3f 6d ad 2e bf 87 b5 b2 3d
       0.33425203 0.5036126 -0.68233377 0.0872603
0000e0 8c 0c 9d 3e f1 02 e0 bc b6 1d 7f be d3 43 70 bb
       0.30673635 -0.027345153 -0.24913678 -0.003666152
0000f0 a2 d2 f9 be 84 89 ab be 8c 03 76 3e 6e c5 85 be
       -0.48793513 -0.33503354 0.2402479 -0.2612719
000100 22 4b 63 bf 24 30 23 bf af f3 88 be a9 f3 d5 bd
       -0.8878652 -0.6374533 -0.26748416 -0.10446865
000110 15 b2 26 3d 8a 53 fd bd 81 a6 76 3f 9a e9 46 3e
       0.040697176 -0.123694494 0.96347815 0.1942505
000120 60 53 c2 3e c3 7e 32 3f 33 27 2d 3f 1d 94 99 be
       0.37954235 0.69724673 0.6763794 -0.29995814
000130 9c b8 dd 3e b8 ab 20 3f b2 ba 41 3f 84 bb ea 3e
       0.43304908 0.6276202 0.756755 0.45846188
000140 01 e9 49 3e cd 8f 4f bf 29 09 23 3d f2 0d 51 bf
       0.1971779 -0.810788 0.039803658 -0.81661904
000150 f4 7c ab 3e 5f a5 c0 3e 39 3e 98 3c f5 33 ee be
       0.3349377 0.37626168 0.018584358 -0.46524015
000160 6e 48 47 bf ec b3 a5 be 50 53 a0 3f 74 10 25 be
       -0.77844894 -0.32363832 1.2525425 -0.16119558
000170 59 58 ba 3e 54 25 04 bf fa 3f 2c 3f 81 46 27 be
       0.3639553 -0.5161946 0.6728512 -0.16335489
000180 67 de 20 3f d4 30 97 3e 23 f5 2f 3f d5 7b 38 be
       0.6283936 0.2952944 0.68733424 -0.18015988
000190 18 fa 5c bf d8 f1 77 be 7e cc a0 bd a3 d0 9a be
       -0.8631911 -0.2421335 -0.07851504 -0.30237302
0001a0 57 51 f6 be d3 3c a2 3d 1f 8c 07 bf 45 71 f4 be
       -0.48108932 0.079217575 -0.5294818 -0.47742668
0001b0 14 a6 4c bf 5a 7b 20 be 64 6b be be 01 fa d8 bd
       -0.79940915 -0.15672055 -0.37191308 -0.105945595
0001c0 32 9f bb be bf a6 3f 3d 3f 99 02 bf 82 b4 8d 3e
       -0.36644894 0.04678988 -0.51015085 0.2767678
0001d0 36 56 81 be a0 61 21 bf 53 bb 49 bf d8 de cf 3e
       -0.25261086 -0.6303959 -0.7880146 0.40599704
0001e0 09 6b f0 3e ec 0c 18 3f 13 d3 f6 3e bf aa 0a 3f
       0.4695666 0.5939472 0.48207912 0.5416679
0001f0 06 3c c2 be f2 51 ea bd 2f 6a fc 3d 8b fd 63 3c
       -0.3793642 -0.11441411 0.123249404 0.01391543
000200 3b 6a 02 bf 6b f5 03 bf 01 c4 de bd 69 a1 1e 3f
       -0.50943345 -0.51546353 -0.108772285 0.6196504
000210 28 43 a5 3e c2 e1 07 3f 5f 99 af be 4c c2 f6 3e
       0.322778 0.53078854 -0.342967 0.48195112
000220 d6 67 8d bd db 72 22 bd d6 06 0f bf ca 00 06 3e
       -0.06904571 -0.039660316 -0.55869806 0.13086239
000230 9f 5b 24 bf 02 b2 ee be 3d 38 53 bf 96 fd 76 be
       -0.642023 -0.46620184 -0.8250769 -0.24120173
000240 fe 63 d2 be 51 21 83 be 2f 18 5c bf 25 9d c7 be
       -0.41091913 -0.25611356 -0.859744 -0.3898708
000250 7d f9 7b be 39 b4 63 3e 4c 96 0d bf 62 0e 2f be
       -0.24606891 0.22236718 -0.5530746 -0.1709533
000260 95 e5 9d 3e 11 42 e0 3e 09 81 9c bf c7 26 8b be
       0.3083922 0.43800405 -1.2226878 -0.27178022
000270 26 8b 96 3e 2f 5a b4 be d8 e0 d5 be 62 80 94 be
       0.29403037 -0.35225055 -0.41773105 -0.29004198
000280 2b 42 0d bf 8a 75 45 3e a6 47 cc be 82 a3 8c 3e
       -0.5517909 0.19283119 -0.39898413 0.27468497
000290 96 92 66 bf 67 fa b8 be 76 ab 04 bf 42 09 79 3d
       -0.9006742 -0.36128542 -0.5182413 0.060799845
0002a0 ea a2 ee 3e 37 bd 8b 3c dc 2e eb be 87 27 39 3e
       0.4660867 0.017057998 -0.45934188 0.18081485
0002b0 db f4 fc 3d ea 4b 99 bd e5 87 e6 be 9a a2 6d 3d
       0.1235139 -0.074851826 -0.45025554 0.058016397
0002c0 54 69 13 bf 55 48 f6 be 62 e6 ce be 5b ad cb 3e
       -0.5758259 -0.4810206 -0.40410143 0.39780697
0002d0 32 5a 2f bf 0d 34 79 3e 3c 03 86 bc 31 ca 04 3e
       -0.68497 0.24336262 -0.016358964 0.12967755
0002e0 53 8b ea be e4 d4 85 3e f5 7c 9f be 68 8d 50 be
       -0.4580942 0.26138985 -0.31150022 -0.20366442
0002f0 e1 44 c8 be c4 d4 8d 3e 2a 06 9b be 40 24 b7 be
       -0.3911505 0.2770139 -0.3027814 -0.35769844
000300 9b 81 f6 bc 52 60 23 bd 79 7a 62 bf d2 69 82 bf
       -0.030091098 -0.03988678 -0.8846813 -1.0188544
000310 30 ae a2 be 74 68 0b bf 47 e0 86 3e ce 52 79 be
       -0.3177352 -0.5445626 0.26342985 -0.24347994
000320 2e 7a 40 bf 63 0b 20 3e 45 6b c3 be b5 d0 98 3e
       -0.7518643 0.15629344 -0.38167778 0.2984673
000330 d2 a1 43 bf b4 32 30 be 3c bf d6 be 91 41 a1 be
       -0.76418793 -0.17206842 -0.41942775 -0.31495336
000340 37 fa 06 3e 70 10 31 be da 88 b4 be 99 e3 fd 3e
       0.13181387 -0.17291427 -0.3526066 0.49587706
000350 d6 c8 50 3e 48 e3 2a 3f e9 15 d8 be 6a 44 ae 3e
       0.20389113 0.66753054 -0.42204216 0.3403657
000360 b1 43 e1 bd 30 0e d7 3d d1 76 a4 be d2 b4 ac 3d
       -0.10999239 0.10500753 -0.321219 0.08432926
000370 88 47 02 bf 30 ec 1e bd f5 78 01 bf 1f 18 af 3b
       -0.508904 -0.038799465 -0.5057519 0.0053434516
000380 e2 3f 24 bf 6a c3 8f 3e 9c 0c 41 bf 4c e8 59 be
       -0.6415998 0.28078777 -0.75409865 -0.2128002
000390 87 f9 eb bd d9 49 2c 3e 38 6d ea be 5f 6a e1 bd
       -0.11522203 0.16825046 -0.45786452 -0.11006617
0003a0 39 0b 25 bf be 09 9d be 98 b5 5c bf e5 c1 8c 3d
       -0.6447025 -0.30671495 -0.8621459 0.0687292
0003b0 35 13 42 bf c4 6d 0a bd 8a 2c c0 be 0d db 4e 3e
       -0.7581056 -0.033796087 -0.3753398 0.20200749
0003c0 18 21 47 bf e5 04 ba bd 65 8e 31 bf bf 73 84 bd
       -0.7778487 -0.09082965 -0.693579 -0.06467389
0003d0 0a 05 f4 be b4 ec 89 3e 00 27 58 bf bb e1 eb bd
       -0.47660094 0.26938403 -0.8443451 -0.11517664
0003e0 ce 1c 10 3e 4d 96 7a 3e 28 eb c0 be 09 d5 9c 3e
       0.14073488 0.24471398 -0.3767941 0.30631283
0003f0 cb bf 96 be 05 c5 13 3e ce 0f 58 bf a9 12 27 be
       -0.294432 0.14430626 -0.84399116 -0.16315712

fc1.bias f4 [32]
000000 be 60 42 3e bd ee b6 be 20 37 10 3f 91 df 63 be
       0.18982217 -0.35729018 0.56334114 -0.22253253
000010 8b 37 0e 3c dc 57 75 bd 48 f6 b9 be 30 6b 32 3f
       0.008680235 -0.059898242 -0.3632071 0.69694805
000020 08 88 3b 3f 02 19 ad 3f 1c 21 ff bd f5 7c 02 3e
       0.7325444 1.3523257 -0.12457487 0.1274298
000030 45 cc f3 be 2d 70 1d bf 83 d0 80 3d e9 87 9a 3c
       -0.47616783 -0.6149929 0.062897705 0.018863635
000040 0a cb 5c 3e ea e1 b4 bd 8a d5 31 3d 70 5e 62 be
       0.21561828 -0.08832152 0.043416537 -0.22106338
000050 27 43 0c 3e 35 ad 04 bf 17 9e 9a bd 13 73 80 3d
       0.13697492 -0.5182679 -0.075496845 0.06271949
000060 ee 25 40 be ca 10 b5 bd ac 58 7d 3e 9a 39 20 be
       -0.18764469 -0.08841093 0.24740857 -0.15646973
000070 6a fc 8e be 8e d3 98 be d4 81 96 bd c0 86 ec be
       -0.27926952 -0.29848903 -0.073489815 -0.46196556

fc2.weight f4 [32, 32]
000000 30 4e 69 3e af b7 da bb 62 fa b8 3e 07 c6 c6 3e
       0.22783732 -0.006674729 0.36128527 0.38822958
000010 0a d4 c9 3e 94 83 79 3e 59 01 e1 3d 3d 05 7a 3e
       0.39419585 0.243666 0.10986585 0.24416061
000020 17 4c ce 3d 9d 92 b7 3e c9 cb 98 3e 8f 04 f0 3e
       0.10073107 0.35854045 0.29842976 0.46878478
000030 52 12 23 3e 40 c0 da 3e 07 18 06 3f e6 ff 22 be
       0.15924957 0.427248 0.5238041 -0.1591793
000040 92 ad e2 3e cb 68 82 3e 52 e9 3e 3e 2d 2d 74 3e
       0.4427305 0.25470576 0.18643692 0.23845358
000050 fa 81 d3 3e 40 06 b6 3e b9 58 54 3e 6a 96 eb 3e
       0.41310102 0.35551643 0.2073697 0.46013194
000060 59 cc c8 3e f5 cc b7 3e 5d 10 3b 3e 51 9b c0 3e
       0.39218405 0.35898557 0.18267961 0.37618497
000070 a1 4e db 3e 69 8b fe 3e dd 4c 8c be 06 f6 a7 3e
       0.42833427 0.49715737 -0.27402392 0.32804888
000080 2a 4a 12 be 3d 54 7b be a8 ca 82 be b2 68 30 be
       -0.14286104 -0.24543853 -0.2554524 -0.17227438
000090 ab 73 58 be cb 99 36 ba 89 30 d1 bd 83 71 b0 be
       -0.21137874 -0.0006965666 -0.102143355 -0.34461603
0000a0 1d 58 06 bf 28 f1 c0 be 38 58 9d be 5e ad 5c be
       -0.524782 -0.37683988 -0.30731368 -0.2155051
0000b0 da 7c 5c 3e 46 c7 fc be df f9 b0 be 1b c3 8f 3e
       0.21532002 -0.49370784 -0.34565637 0.2807854
0000c0 f5 a2 9c be e0 33 e0 be e9 7e be be af ca 60 be
       -0.30593076 -0.43789577 -0.372062 -0.21952318
0000d0 c0 19 9b bd 57 00 28 bc 6b d7 87 be ad 3a 07 bf
       -0.07573271 -0.010253987 -0.26531538 -0.5282391
0000e0 94 14 65 be 35 7b 14 be 9c c1 5c be 60 c2 cf be
       -0.22371131 -0.14500125 -0.21558231 -0.40577984
0000f0 ed 15 c3 bd 93 7e 8a be 9f 90 11 be 81 c9 27 be
       -0.095256664 -0.27049693 -0.14215325 -0.16385461
000100 62 88 0f bd 7e a4 82 bd 00 7d 5b be e2 d3 b6 3d
       -0.035042174 -0.06379031 -0.21434402 0.08927132
000110 cd 64 21 be 7b ab a2 bd 99 4e e0 3b 33 69 8a 3d
       -0.15761109 -0.079428636 0.006845307 0.067583464
000120 b0 81 89 bd 47 8a 2c be 57 17 80 be 6d ea 79 bb
       -0.06714189 -0.16849624 -0.25017807 -0.0038134113
000130 d1 1e ee bc 37 ef 1c bd 8a f2 81 be 2d a6 af bc
       -0.029067429 -0.03831407 -0.25380355 -0.021441543
000140 34 df 53 be 1c 29 7d 3d 7f 7f b9 3b 18 bd bc bb
       -0.20690614 0.061806783 0.0056609507 -0.0057598464
000150 ec 9b 00 be aa b4 cf bb 73 5f 97 3d 1c 7b 12 be
       -0.1255948 -0.0063386755 0.07391252 -0.14304775
000160 70 74 44 be f1 82 30 be 74 7c 7e bd b7 b7 9e bd
       -0.19185042 -0.1723745 -0.062130406 -0.077498846
000170 da 32 07 3c 0e 97 95 3d a8 ff 27 bc 48 91 16 be
       0.00825187 0.07304202 -0.010253824 -0.14703858
000180 23 c2 2f 3f 22 16 e9 3e ef a2 3d 3f f6 c9 08 3f
       0.68655604 0.45524698 0.7407674 0.5343317
000190 0e 24 b0 3e 29 9c 81 3e a4 8f f7 3e 93 32 aa 3f
       0.34402508 0.25314453 0.48351777 1.3296684
0001a0 ed 74 4e 3f d4 df 05 40 db 96 1e 3f f3 8d 02 3f
       0.80647165 2.0917864 0.6194894 0.5099785
0001b0 1f fb 94 3d 01 ce cb 3e 29 a0 3c 3f d4 54 ef 3e
       0.0727446 0.39805606 0.73681885 0.46744406
0001c0 27 0f 3d 3f 49 8c dd 3e 37 10 fd 3e 07 de e9 3e
       0.73851246 0.43271092 0.49426433 0.45677206
0001d0 a0 4c 12 3f 60 b7 d7 3e 71 1c 48 3f 3a da 40 3f
       0.5714817 0.42132092 0.781684 0.7533299
0001e0 2b 44 54 3f dc 45 08 3f 4e e1 14 3f 94 40 e4 3e
       0.82916516 0.53231597 0.5815629 0.4458052
0001f0 0a 8a b5 3e a2 8b 6b 3f 85 ca e0 3e db 27 36 3f
       0.35456878 0.9200994 0.4390451 0.71154565
000200 40 21 b4 3d 30 4b ef bd 89 8d b4 bd ce c7 05 bd
       0.087954044 -0.11684263 -0.08816058 -0.03266125
000210 76 10 8a bd 11 67 bc 3d b0 50 1d be e3 52 7c be
       -0.06741421 0.09199346 -0.15362811 -0.24640994
000220 2f af 2c 3e d5 ce d0 be 6f f3 17 3e 24 11 cb 3c
       0.16863702 -0.407828 0.14838956 0.024788447
000230 a3 ea 24 3e 06 c5 00 3e d0 c3 d2 be da f0 e1 be
       0.16105132 0.12575158 -0.41165018 -0.44129068
000240 b8 ea db be ef 18 94 3d 75 8f e1 3d d6 43 57 be
       -0.42952514 0.07231318 0.110136904 -0.21021971
000250 f6 a0 ca be ee b1 8c 3d 71 53 42 be d2 e9 8a be
       -0.39575928 0.06869875 -0.18977143 -0.27131516
000260 b3 95 83 be 11 b3 c2 3b 28 9f 13 bd dd 26 6e bd
       -0.2570015 0.0059417565 -0.036040455 -0.05814253
000270 3c 91 96 be 07 e8 39 be 43 50 fa 3b 88 ba 7d be
       -0.2940768 -0.18154918 0.0076389625 -0.24778187
000280 91 a7 2f bc b1 3f 48 3e f3 cb 44 be 96 5f ae 3e
       -0.010721103 0.19555546 -0.19218425 0.340573
000290 3a 28 b1 be e2 0d 9f be b5 56 04 3e 24 18 4b 3e
       -0.34601003 -0.3106528 0.12923701 0.19833428
0002a0 a2 e5 00 3f 7b 1a 19 3f 26 85 e5 be de c3 a3 3e
       0.5035039 0.5980603 -0.44828147 0.31985372
0002b0 20 71 2c 3e b0 64 94 3c e9 66 ef 3e 52 20 93 bd
       0.16840029 0.018114418 0.46758202 -0.07183899
0002c0 9e 2e c2 3e 72 fe 87 be 53 89 db be ad 0c fb 3e
       0.3792619 -0.26561314 -0.42878208 0.49033108
0002d0 ef 07 0b 3e 2c d0 e5 be 6c c4 a0 3e cd 76 01 3e
       0.13577245 -0.44885385 0.31399858 0.12642975
0002e0 34 f3 fd 3e 62 28 98 3e e3 59 fe be a8 76 12 3d
       0.49599612 0.2971831 -0.49677953 0.03575769
0002f0 0d ba c8 3e d0 2f d5 3e 37 10 b4 be 79 9e 27 3f
       0.39204445 0.4163804 -0.3516862 0.65476185
000300 e5 d1 21 be 20 3a 4b be 66 0b e2 be af 77 ba be
       -0.15802725 -0.19846392 -0.4414932 -0.36419436
000310 74 09 41 be 4c 14 f2 3d 7a e7 e3 bc a8 70 b5 be
       -0.18851262 0.118202776 -0.027820338 -0.35437512
000320 24 6a 81 be cf fc 52 be 7f 20 fd be 23 8c 85 be
       -0.2527629 -0.20604251 -0.49438855 -0.26083478
000330 0f a4 a3 3e 20 1e 27 bd 5b 2d b2 be 41 56 af 3e
       0.31961104 -0.040800214 -0.34800228 0.34245494
000340 33 ba 64 be f1 62 b6 be e8 54 a1 be d5 78 fc bd
       -0.22336654 -0.3562236 -0.3151009 -0.123277344
000350 b1 8c 87 be 0d b0 d0 bc c7 ca 84 be b9 84 65 be
       -0.26474527 -0.025474573 -0.25935957 -0.22413911
000360 ef 9e 53 be 51 cb 95 be fc 57 81 be ce 8e ee be
       -0.20666097 -0.2925668 -0.2526244 -0.46593326
000370 a9 fe b8 be 5f 9f 94 be 8d db 84 be 42 2b 88 bd
       -0.3613179 -0.2902784 -0.25948754 -0.06648876
000380 aa 0b a2 bd 29 0e ff 3d 31 f7 01 be e2 09 ca 3d
       -0.07912381 0.12453873 -0.12691952 0.09865166
000390 76 f2 4d be af 10 f8 bd 71 dc ad 3d b9 1e 26 be
       -0.20112023 -0.12112557 0.084893115 -0.16222657
0003a0 4f 67 f2 bd f5 af 19 3d 57 66 0b be b0 db 03 be
       -0.11836111 0.03752132 -0.13613258 -0.12876773
0003b0 cd 57 42 be ae 67 7b bb 90 ce e3 3c 9c 16 88 3d
       -0.18978806 -0.0038361358 0.027808458 0.066449374
0003c0 17 2b c4 3b 68 c9 cd bd c6 a6 ab bd 90 bf 26 be
       0.005986582 -0.10048181 -0.08381419 -0.16284013
0003d0 c3 9c e7 3d 3a a5 ae 3d 4d 7d 0e 3e e3 c0 0c 3b
       0.11309197 0.08527608 0.13914986 0.0021477274
0003e0 77 36 bc bd 1f 26 49 bd f0 1d 17 be 7e 12 c1 3d
       -0.09190076 -0.04910862 -0.14757514 0.09427355
0003f0 a0 91 11 bd 88 68 00 be 6e 45 07 be fa 3d e2 bd
       -0.03553927 -0.12539876 -0.13210079 -0.11046977

fc2.bias f4 [32]
000000 7c 5a 32 3e 65 b4 85 be 1a c1 55 bd a2 3f 4e 3f
       0.1741733 -0.26114193 -0.05218611 0.80565846
000010 02 d4 09 3e 37 ff d8 3e 79 f1 4a be fd e1 73 be
       0.13459781 0.42382213 -0.19818677 -0.23816676
000020 2f 56 42 be c1 fa 76 bd 49 f9 cc be 45 a4 8d bd
       -0.18978189 -0.06029773 -0.4003394 -0.069160976
000030 f6 a3 50 be 6c c0 25 3c 27 45 59 be 53 e2 30 3c
       -0.20375046 0.010116678 -0.21217786 0.010796147
000040 ff eb 28 3d 23 23 77 be 65 88 61 be ae 74 69 be
       0.04124069 -0.24134497 -0.22024687 -0.22798416
000050 85 5d 52 3e f5 bf 45 3f 7f b5 22 3f e3 97 0b 3f
       0.20543487 0.7724603 0.6355819 0.54528636
000060 e0 7f 00 bd 38 52 2a be 67 32 5e be 6f 50 9d 3d
       -0.03137195 -0.16632926 -0.21698914 0.07681357
000070 c3 41 8e 3e fe 3d 43 be fc 06 b8 be cd b6 31 3f
       0.27784547 -0.19066617 -0.3594283 0.69419557

pi.weight f4 [5, 32]
000000 2d e9 f1 be 18 1f 65 be 24 94 3f bc d4 89 64 bf
       -0.47248212 -0.22375143 -0.011693034 -0.8927281
000010 0e d0 ab be 7b 91 09 bf 9a df 75 be f8 69 b6 3c
       -0.3355717 -0.5373761 -0.24011078 0.022267327
000020 40 6c 92 be 32 dd be be 21 d9 fa 3c b4 47 9c bd
       -0.28598213 -0.37278134 0.030621113 -0.07630864
000030 32 3a bb bc 8f 45 64 3c ee 9b e5 bb b4 cf dc bd
       -0.022854898 0.0139326 -0.0070071137 -0.10781804
000040 22 c1 fe be 99 3a ce be 81 87 7e be 92 d8 97 bd
       -0.49756724 -0.4027908 -0.24856378 -0.074143544
000050 b1 cd e3 be 83 a5 46 bf ed ac f1 be 66 b6 22 bf
       -0.44492868 -0.775963 -0.47202244 -0.6355957
000060 e4 4b 0e be 41 01 af 3d 22 8a a7 3d 75 28 35 be
       -0.13896137 0.08545161 0.081806436 -0.17691214
000070 56 2e f8 be a4 bd ad 3d 25 c2 4c be 91 bd 73 bf
       -0.48472852 0.08483437 -0.19995935 -0.9521113
000080 b9 85 33 3e e0 80 ab be fc ab be b9 93 38 21 be
       0.1753148 -0.3349676 -0.00036367762 -0.15744238
000090 9b 29 42 3e 74 20 28 3d 55 45 b7 3d c0 dd 87 3d
       0.18961184 0.041046575 0.08948771 0.06634092
0000a0 34 15 50 3d 13 10 b8 be c3 ff be be 7e f9 ae bd
       0.05080147 -0.35949764 -0.37304506 -0.085436806
0000b0 c1 97 df 3d cc 54 ca 3d be df ef bd 17 15 e1 3d
       0.10917617 0.09879455 -0.11712597 0.10990351
0000c0 77 59 80 3e 69 89 e4 be c5 4c a4 3d bb 33 31 3d
       0.25068256 -0.44636086 0.08022455 0.043262225
0000d0 af 09 56 3d 03 a7 84 bd a4 78 31 be 32 b1 77 3e
       0.05225533 -0.064771675 -0.17331177 0.24188688
0000e0 4f 5b b0 bd e1 c2 ae 3d b6 6a 06 3e cb ef 71 bc
       -0.08611166 0.08533264 0.13126644 -0.014766644
0000f0 38 96 a5 3e 40 55 2e 3e ec b0 42 be e2 17 95 be
       0.3234117 0.17024708 -0.19012803 -0.29119784
000100 47 86 e0 ba 84 d6 c6 bd 98 6c 82 3d e5 0e f8 be
       -0.0017129862 -0.09708884 0.06368369 -0.48448864
000110 06 71 36 be 4f 08 fe bb 9c 74 47 be 13 fb 07 3e
       -0.17816553 -0.0077524553 -0.19478077 0.13279371
000120 92 95 cb be ec 95 93 bd bb 84 cd bf f1 e6 92 3d
       -0.3976255 -0.0720633 -1.6056131 0.07172955
000130 83 5f 47 3d 91 ae eb 3c 96 b4 1b be 1d 58 bb 3b
       0.04867507 0.028769763 -0.15205607 0.005717291
000140 0b 5d bd be ac ab ba be ef c8 6b be ba 8f 04 3e
       -0.3698505 -0.364591 -0.23025869 0.12945452
000150 0e c3 c6 be d3 c7 a4 be 2a 08 cd be 8c cb 92 be
       -0.3882069 -0.32183704 -0.4004529 -0.2867092
000160 0a 74 01 be a4 df 2f bc 0d aa fa 3d 48 7c 8a be
       -0.12641922 -0.010734472 0.12239466 -0.27047944
000170 ef 4e a4 be 64 be fa bd 78 d9 ca bd 4d 08 2b bf
       -0.32091472 -0.122433454 -0.0990476 -0.6680954
000180 cd 8b f6 3e f6 c8 09 3f d3 9f 1b 3e e7 1e a2 3f
       0.48153535 0.5382227 0.15197687 1.2665681
000190 73 af 8a 3e 3f f6 28 3f 61 4f fd 3e 6c fb f3 bd
       0.27086982 0.6600074 0.49474624 -0.11913189
0001a0 79 38 2a 3f 9d 76 1a 3f 0c ad 22 3e bb fb 11 3d
       0.6649242 0.6033724 0.15886325 0.03564046
0001b0 18 21 a6 bc be 06 e1 3d ab a1 3f 3e 58 b0 a1 3c
       -0.020279452 0.10987614 0.18714015 0.019737408
0001c0 16 b4 90 3e 11 2b 21 3f bf b6 3d 3f d5 04 b2 3d
       0.28262395 0.6295634 0.74106973 0.08692328
0001d0 1c 58 4f 3e 4d 6f 5d 3f 61 85 38 3f 45 36 d3 3e
       0.20248455 0.86497957 0.7207852 0.41252342
0001e0 17 23 ba 3c b7 46 2f be 26 85 2b bd da 88 53 3e
       0.02272181 -0.1711682 -0.041875027 0.20657673
0001f0 d8 5d 59 3e fd 3d 98 3d 85 1c d9 3e 71 3e 70 3f
       0.21227205 0.07433698 0.4240457 0.9384528
000200 66 11 b5 bd 0f 11 10 be 58 8c 74 3d a0 f1 62 be
       -0.08841209 -0.14069007 0.059704155 -0.22162485
000210 c1 25 88 be a8 30 44 be 4f a4 da be 43 f6 96 3c
       -0.26591304 -0.19159186 -0.42703483 0.018427974
000220 80 2d 96 be e9 85 d0 be de 4d b0 bf 74 08 2c be
       -0.2933159 -0.40727165 -1.3773763 -0.168001
000230 a5 2a c3 bd 57 40 c4 3d e9 21 2f bc 57 a8 57 3d
       -0.09529618 0.09582584 -0.010689237 0.052650776
000240 ef f2 aa be dd b0 e3 bd d8 9c 21 be a0 6d c8 bd
       -0.3338847 -0.11117718 -0.15782487 -0.09786534
000250 b7 c8 f6 bd f3 74 29 bf 49 3c 5b be c3 6c 81 be
       -0.12050002 -0.66194075 -0.21409716 -0.2527829
000260 99 ce c2 bd e7 b1 5d bd 0a 00 97 bd a8 5f 90 bd
       -0.095120616 -0.05412474 -0.07373054 -0.07049495
000270 83 eb 8c be b0 55 a0 3c d0 f4 b6 be 74 17 8c be
       -0.2752343 0.019572109 -0.35733652 -0.27361643

pi.bias f4 [5]
000000 70 47 e4 be 62 cf b2 bd 30 3f 28 be f6 17 2c 3f
       -0.44585752 -0.087309614 -0.16430354 0.6722406
000010 c4 0f 93 bd
       -0.071807414
