code/tmp/maddpg/k_3/Cooperative_Navigationagent_0+2/agent_0_actorBest.pt (torch, 9511 bytes, 6 tensors)

fc1.weight f4 [32, 18]
0	0x3e201d22	0.15636113
1	0xbef16dab	-0.47153983
2	0x3d8d5330	0.069006324
3	0xbde16081	-0.11004735
4	0xbca3b30a	-0.019982833
5	0x3f458e80	0.7717056
6	0x3d9fa5b3	0.077952765
7	0xbe8a2fca	-0.26989585
8	0xbdd98114	-0.10620323
9	0x3eb5b71d	0.35491267
10	0x3f28f22e	0.65994537
11	0xbefed954	-0.49775183
12	0xbf372b4f	-0.7155046
13	0xbe793a8f	-0.24338745
14	0x3d0c42dc	0.03424345
15	0xbc893c30	-0.016752332
16	0x3b9ab9c0	0.00472185
17	0xbe1541cc	-0.14575881
18	0xbf58e9fd	-0.8473204
19	0xbde641fc	-0.11243054
20	0xbdfa3a73	-0.122181796
21	0xbdea20f7	-0.11432069
22	0xbd1fb56d	-0.03899138
23	0x3eb7cf7d	0.35900488
24	0xbea8338c	-0.32851827
25	0xbf1a69e9	-0.60317856
26	0x3f2ee3a2	0.6831609
27	0x3f2162ee	0.6304158
28	0x3ddf2814	0.10896316
29	0xbd0bcb64	-0.034129515
30	0xbe520f90	-0.20513749
31	0xbdbe1846	-0.092819735
32	0xbe229671	-0.15877701
33	0xbd9ee282	-0.07758047
34	0x3e1fd0db	0.15607016
35	0x3e40c04d	0.18823357
36	0xbfd55621	-1.666691
37	0xbf191f9b	-0.5981385
38	0xbf51e231	-0.81985766
39	0xbf096f43	-0.53685397
40	0x3f813393	1.0093864
41	0x3f1a5fb3	0.60302275
42	0x3e82c6ff	0.25542447
43	0xbee66dd3	-0.45005664
44	0x3e401733	0.1875885
45	0xbe08e474	-0.13368398
46	0x3fd998a1	1.6999704
47	0x3fb0b10f	1.3804034
48	0x3f230973	0.63686293
49	0x3f537039	0.82593113
50	0xbc8c2078	-0.017105326
51	0x3d6bfc24	0.057613507
52	0x3d01ccd4	0.03168948
53	0x3d2ebe14	0.04266174
54	0x3e8508a3	0.25983152
55	0xbf012b51	-0.5045672
56	0xbd8aa845	-0.06770376
57	0xbd889afd	-0.06670187
58	0xbd473e14	-0.048643187
59	0x3e75aa33	0.23990707
60	0xbd545948	-0.051842958
61	0xbe311707	-0.1729394
62	0xbe4736f3	-0.19454555
63	0xbf015bd1	-0.50530726
64	0x3eb9cca4	0.3628894
65	0xbe8bb9ba	-0.27290136
66	0xbed13c7b	-0.40866455
67	0xbf19f33f	-0.6013679
68	0x3ce2cf38	0.0276867
69	0xbe515044	-0.20440775
70	0x3e1f6619	0.15566291
71	0x3e48d701	0.19613267
72	0xbd849850	-0.06474364
73	0xbed67c82	-0.41891867
74	0xbeec96f0	-0.46208906
75	0xbf2034a0	-0.625803
76	0x3e057dcd	0.1303627
77	0x3f3847ef	0.7198476
78	0xbe4c2ea4	-0.19939667
79	0xbe01ef48	-0.12688935
80	0x3ead06a4	0.3379413
81	0x3e24f3e4	0.16108662
82	0x3f1bd6fe	0.6087493
83	0xbd2326a6	-0.03983178
84	0xbf3f19ea	-0.74648917
85	0xbeb8acd0	-0.36069345
86	0x3e194751	0.14968611
87	0x3cd4e068	0.025985911
88	0x3e29eb6b	0.16593711
89	0x3ceb8fe8	0.028755143
90	0x3d97b0fe	0.074068055
91	0xbf00a345	-0.5024913
92	0x3e384027	0.17993222
93	0xbe4db2ea	-0.20087782
94	0xbd9b3584	-0.07578567
95	0x3dd8cf0a	0.105863646
96	0xbcb5709d	-0.022148425
97	0xbd9c2711	-0.07624639
98	0xbebcfea3	-0.36913022
99	0xbebc49ee	-0.36775154
100	0x3e3a398b	0.18186013
101	0xbf11d790	-0.5696955
102	0xbe84abc6	-0.25912303
103	0xbd359732	-0.044333644
104	0x3e122bf5	0.14274581
105	0x3ded64aa	0.11591466
106	0x3df03dd6	0.11730544
107	0x3dcd9f72	0.100401774
108	0xbf8c18c8	-1.0945063
109	0x3ee53a87	0.44771215
110	0x3eb4749f	0.35245225
111	0x3f817791	1.0114614
112	0xbf2acba1	-0.66716963
113	0xbf73f30f	-0.95292753
114	0x3e82b0af	0.25525424
115	0xbfd6d2f9	-1.6783134
116	0xbdf94ebc	-0.121732205
117	0xbf9fdf8e	-1.2490098
118	0xbf44c114	-0.76857114
119	0x3d8b9d10	0.06817067
120	0x3f04eafc	0.5192106
121	0xbed32749	-0.4124091
122	0x3b217c40	0.002464071
123	0xbe09c529	-0.13454117
124	0x3d05c654	0.032659844
125	0x3e112f7d	0.14178272
126	0xbf6a93ab	-0.91631573
127	0x3f39e8f4	0.72621083
128	0x3d8db5bf	0.06919431
129	0x3eeb1231	0.45912316
130	0xbeb585bd	-0.35453597
131	0x3e46ea9d	0.19425435
132	0xbe0ec729	-0.13943161
133	0x3ef17a1a	0.4716347
134	0x3effd4b9	0.49966982
135	0x3e154fe1	0.14581253
136	0xbe310d40	-0.1729021
137	0xbf095a90	-0.5365381
138	0x3f3271c7	0.6970486
139	0xbed04ec3	-0.4068509
140	0xbdc09d76	-0.09405033
141	0xbcc418c0	-0.023937583
142	0xbde109be	-0.10988186
143	0xbe65c391	-0.22437884
144	0xbe013eb0	-0.1262157
145	0xbf4f435c	-0.8096216
146	0xbe40d1d5	-0.18830045
147	0xbd6cd816	-0.057823263
148	0xbd0f1e24	-0.034940854
149	0x3f79f3ed	0.97637826
150	0xbe64a4d9	-0.2232851
151	0xbf2626e9	-0.6490312
152	0xbd04d95b	-0.03243385
153	0x3e79d02e	0.2439582
154	0x3f0b0e3c	0.54318595
155	0xbdacee1b	-0.084438525
156	0xbf7d4539	-0.9893375
157	0xbe994858	-0.29938006
158	0xbdf94067	-0.12170487
159	0xbe0964a0	-0.13417292
160	0xbca06d68	-0.019583419
161	0xbe2d921e	-0.1695027
162	0x3dc31bca	0.09526785
163	0x3e64309a	0.22284165
164	0xbf53cd4b	-0.8273513
165	0xbf6a6b2d	-0.9156979
166	0x3ef3dbf1	0.4762874
167	0xbe836c0d	-0.25668374
168	0x3ecf3b6b	0.4047502
169	0x3f03c9cb	0.51479787
170	0x3f877039	1.0581123
171	0xbeb29324	-0.34877884
172	0x3f8aa27d	1.0830837
173	0x3ef9e73f	0.4880924
174	0x3e503017	0.20330845
175	0x3ed39c4b	0.4133018
176	0x3e59bb13	0.2126277
177	0xbd4c2d40	-0.04984784
178	0xbdafaf7c	-0.08578393
179	0xbe3ece7d	-0.18633457
180	0x3d585899	0.05281887
181	0x3f466812	0.7750255
182	0xbf650dee	-0.8947438
183	0x3ecf6d99	0.40513304
184	0x3f76ebba	0.9645344
185	0xbea6a6d9	-0.3254917
186	0x3f5cf396	0.8630918
187	0x3f0a508e	0.54029167
188	0x3f42bb98	0.76067495
189	0xbf6c7394	-0.9236386
190	0x3ee448f6	0.44586915
191	0xbdbfac3b	-0.09359022
192	0x3f8e26cf	1.1105593
193	0xbe948732	-0.29009396
194	0xbe52bffd	-0.2058105
195	0x3dd4fc36	0.10399668
196	0x3e680ca7	0.22661076
197	0xbdb288be	-0.08717488
198	0x3eb748dc	0.35797775
199	0xbf8cbba4	-1.0994763
200	0xbd479549	-0.048726354
201	0xbf78481b	-0.96985024
202	0xbcd5f058	-0.026115581
203	0x3f25db27	0.64787525
204	0xbe204b5b	-0.15653746
205	0x3e90b1ec	0.28260744
206	0xbe8339de	-0.25630087
207	0x3de83616	0.11338441
208	0x3ef7421e	0.4829263
209	0xbe2c9750	-0.16854596
210	0xbf3c90b0	-0.73658276
211	0xbe1d5e45	-0.15367992
212	0xbd10df0c	-0.035368964
213	0x3e61e241	0.22058965
214	0xbd8c828e	-0.06860839
215	0xbe530dcf	-0.20610736
216	0x3d86dccb	0.06585082
217	0x3f3f8c09	0.7482305
218	0xbf5c868d	-0.8614281
219	0xbf1ee5c7	-0.6206936
220	0x3f4d319a	0.8015381
221	0x3eb6d059	0.35705832
222	0x3f5813e3	0.84405345
223	0x3f598bfd	0.8497923
224	0x3f39437c	0.723686
225	0x3dcc1d8d	0.09966574
226	0x3f803c7d	1.001846
227	0x3e0ee3f2	0.13954142
228	0x3e92f727	0.28704187
229	0x3ecebe1e	0.40379423
230	0xbe1260ce	-0.1429474
231	0xbdb481ea	-0.08813842
232	0x3cd522c8	0.026017562
233	0x3c108650	0.008821085
234	0xbf01868c	-0.5059593
235	0xbc498415	-0.012299557
236	0xbf957851	-1.1677343
237	0xbef6ee43	-0.48228654
238	0x400638dd	2.0972207
239	0xbeb82bba	-0.3597086
240	0x3fa9d235	1.3267275
241	0x3e9ac7c8	0.30230546
242	0x3fae7e17	1.363223
243	0xbc28ec23	-0.010310206
244	0x3fc16df1	1.5111676
245	0x3eef6c87	0.46762487
246	0x3d3e2504	0.04642202
247	0x3f434cb1	0.76288897
248	0x3cf17e68	0.02947922
249	0xbe1bf5e8	-0.15230525
250	0xbd1648bc	-0.03669046
251	0xbe6c5148	-0.23077881
252	0xbe1b5f7b	-0.15173142
253	0x3e24cdd5	0.16094144
254	0x3d013e8c	0.03155379
255	0xbe1c5da6	-0.15270099

fc1.bias f4 [32]
0	0xbf9d5f7a	-1.2294762
1	0xbf5e7a4d	-0.86905366
2	0xbdd010d7	-0.10159462
3	0xbfce7d98	-1.6132078
4	0xbf5dd1b4	-0.86648107
5	0xbf8f614a	-1.1201565
6	0x3f54c802	0.8311769
7	0xbf8b0b81	-1.0862886
8	0xbf976454	-1.1827493
9	0xbe64e9bc	-0.22354788
10	0xbd896939	-0.06709523
11	0xbfaf8444	-1.3712239
12	0xbe82b559	-0.25528982
13	0x3f6673dc	0.9002054
14	0xbf8a1bea	-1.0789769
15	0xbf80d341	-1.006447
16	0xbfb601fa	-1.4219353
17	0xbfae7e84	-1.363236
18	0xbf962507	-1.173005
19	0xbfb005f8	-1.3751822
20	0x3feb95a2	1.8405039
21	0xbf7aed37	-0.9801821
22	0xbfc661ac	-1.5498557
23	0xbeb9fe51	-0.3632684
24	0x3d9ca0e2	0.076478735
25	0xbf77842b	-0.9668605
26	0xbeabdb59	-0.33565786
27	0xbfb49886	-1.4109046
28	0x3ecab2d3	0.39589557
29	0xbfa3d756	-1.280009
30	0xbfa82855	-1.3137308
31	0xbf707d06	-0.9394077

fc2.weight f4 [32, 32]
0	0xbe75a0ec	-0.23987168
1	0xbe955872	-0.2916904
2	0xbef5596d	-0.4791979
3	0x3d4e8690	0.050421298
4	0xbe039e7f	-0.1285343
5	0x3ee18012	0.44043022
6	0xbf60c0f5	-0.8779443
7	0xbf1975f7	-0.59945625
8	0xbd8a3202	-0.067478195
9	0xbe90683b	-0.28204522
10	0xbeb7f45a	-0.35928613
11	0x3d0ef5fc	0.034902558
12	0xbf082b1c	-0.5319078
13	0xbd610b8b	-0.05494265
14	0xbdd33f23	-0.10314777
15	0xbee70547	-0.45121214
16	0xbd891fd1	-0.066955216
17	0xbd00c524	-0.031438008
18	0x3dcc8c0d	0.0998765
19	0x3dc0a563	0.09406545
20	0xbf91a19c	-1.1377444
21	0xbe541cd4	-0.20714122
22	0xbf4b8c52	-0.79510987
23	0xbbb95e41	-0.005656988
24	0x3eb375d3	0.3505083
25	0xbe0743bb	-0.13209431
26	0xbead2c0e	-0.33822674
27	0x3ea22b47	0.31673643
28	0xbe8bc192	-0.2729612
29	0x3ea7f319	0.32802656
30	0xbeaca9ac	-0.337232
31	0xbecb45d1	-0.39701703
32	0x3c046099	0.008079671
33	0xbea7f2f0	-0.32802534
34	0xbe5cd905	-0.21567161
35	0xbe67b8fd	-0.22629161
36	0xbe1766cc	-0.14785308
37	0xbdfd794b	-0.123766504
38	0x3dc137aa	0.09434445
39	0xbe5eb6d4	-0.21749431
40	0xbe3de249	-0.18543352
41	0xbde9f571	-0.11423767
42	0xbfaad990	-1.3347645
43	0xbe11f8cf	-0.14255069
44	0xbeb1b9ce	-0.3471207
45	0xbefa9247	-0.48939726
46	0x3d630ead	0.055433918
47	0xbe8aafa9	-0.27087143
48	0x3d45caba	0.04828904
49	0xbe39ff16	-0.18163714
50	0x3e37dd2f	0.17955469
51	0x3d93a29e	0.07208751
52	0xbec68c51	-0.38778928
53	0x3ccc2b7e	0.024923082
54	0x3dcaaf1c	0.09896681
55	0xbdcdafaa	-0.10043271
56	0xbdfbde8b	-0.12298306
57	0xbe99118f	-0.2989621
58	0xbe81a81c	-0.2532357
59	0xbda92a2a	-0.08259995
60	0x3e7f6769	0.24941792
61	0xbdf104a0	-0.1176846
62	0xbeb320d9	-0.34985998
63	0xbebeb030	-0.37243795
64	0xbe9acaf2	-0.3023296
65	0xbea6ea72	-0.32600743
66	0x3e3cc26d	0.18433543
67	0xbe0c7f15	-0.13720353
68	0xbe909461	-0.28238204
69	0xbd499d27	-0.049222138
70	0x3e64ac3d	0.22331329
71	0x3df5e9fa	0.12007518
72	0xbe3bef1f	-0.18352936
73	0x3d1c8fc0	0.03822303
74	0xbed29ef7	-0.41136906
75	0xbe39fb18	-0.18162191
76	0xbe17ead6	-0.14835677
77	0x3e24bc9c	0.16087574
78	0x3e1c4ff2	0.15264872
79	0xbf44fe92	-0.76950943
80	0xbe18a8e9	-0.14908184
81	0xbe48b560	-0.19600439
82	0x393bc2e1	0.00017906308
83	0xbe1070c3	-0.14105515
84	0x3efa7e5c	0.4892453
85	0xbe3a71ee	-0.18207523
86	0xbef26159	-0.47339895
87	0x3f8865a8	1.0656023
88	0x3f165ee4	0.5873854
89	0xbe75d940	-0.24008656
90	0xbd97b5b5	-0.07407705
91	0x3de361e7	0.11102658
92	0x3e601aaf	0.21885179
93	0xbe114987	-0.14188205
94	0xbe82ee8f	-0.2557263
95	0xbebc62fd	-0.36794272
96	0xbe2b496e	-0.1672723
97	0xbdf47fb2	-0.119384184
98	0xbef03a40	-0.4691944
99	0xbe5c4909	-0.21512236
100	0x3da118f3	0.07866087
101	0xbdbcfd33	-0.092279814
102	0x3ca3265b	0.01991575
103	0xbe94be1b	-0.2905129
104	0xbe95516c	-0.29163682
105	0xbd129853	-0.0357898
106	0xbf791b6f	-0.97307485
107	0xbec4b19d	-0.38416758
108	0x3c0a764d	0.008451057
109	0xbd91e0e9	-0.07122976
110	0xbe2ad0ed	-0.16681261
111	0xbf0580c2	-0.52149594
112	0xbeffdd18	-0.4997337
113	0xbd39c828	-0.0453569
114	0xbde9b58c	-0.114115804
115	0xbd8e0e0c	-0.06936273
116	0xbebe37c2	-0.37151915
117	0xbec510ea	-0.38489467
118	0xbf3b0bc2	-0.73064816
119	0x3cc34985	0.023838768
120	0xbe54324b	-0.2072231
121	0xbeaff1dc	-0.34364212
122	0xbf1660c2	-0.5874139
123	0xbe62cdf9	-0.22148885
124	0xbe7deecf	-0.2479813
125	0x3d298f78	0.041396588
126	0xbe0f6462	-0.14003137
127	0xbeab9069	-0.33508614
128	0xbe893dd6	-0.2680499
129	0x3d4bd3d3	0.04976256
130	0xbdfd0967	-0.12355309
131	0xbd946879	-0.07246489
132	0x3c21a448	0.009865828
133	0xbdbbab22	-0.091635
134	0xbe006da3	-0.12541823
135	0xbe560dd2	-0.2090371
136	0xbed6ae17	-0.41929695
137	0xbe27fa2d	-0.16404028
138	0xbfa638d8	-1.2986097
139	0xbe803bfe	-0.2504577
140	0xbe9c34ac	-0.30508935
141	0xbeec3eda	-0.46141702
142	0x3bced2ba	0.0063117417
143	0xbec273ca	-0.37978965
144	0xbe87f865	-0.26556697
145	0xbde2f7fe	-0.11082457
146	0xbe1f13ff	-0.15534972
147	0x3cae0174	0.021240927
148	0xbec2f252	-0.380755
149	0x3bd3f7e1	0.0064687585
150	0xbe520fe0	-0.20513868
151	0xbe08463c	-0.13308042
152	0xbe39e512	-0.1815379
153	0xbea331d2	-0.31873947
154	0xbe954e0a	-0.29161102
155	0x3bf3925e	0.00743322
156	0x3e5c833c	0.21534437
157	0xbe3c9bf8	-0.18418872
158	0xbe08d20c	-0.13361377
159	0xbe9272f9	-0.28603342
160	0xbeb68504	-0.35648358
161	0xbe83a3fc	-0.25711048
162	0x3dd3d502	0.103433624
163	0x3cb5f21f	0.022210179
164	0xbe34cc39	-0.1765603
165	0xbdc0f388	-0.0942145
166	0xbfc03ca1	-1.5018502
167	0xbedacaf6	-0.42732972
168	0x3d95e122	0.07318331
169	0x3dc0bafa	0.09410663
170	0x3e7f47e4	0.24929768
171	0x3daacab3	0.08339443
172	0x3cff0373	0.031129574
173	0xbd6b8b92	-0.05750615
174	0xbd0baf1c	-0.034102544
175	0xbf17fed6	-0.59373224
176	0xbd6d8326	-0.0579864
177	0xbdc34690	-0.09534943
178	0xbe26bd1f	-0.16283081
179	0xbd685ad4	-0.056727245
180	0xbfe485e7	-1.7853364
181	0xbdb7ff39	-0.08984227
182	0xbdcdf9e8	-0.100574315
183	0xbe31226b	-0.17298286
184	0xba8c84ce	-0.0010720731
185	0xbeb37126	-0.35047263
186	0x3e8ef638	0.27922225
187	0x3c50e819	0.012750649
188	0xbe5cc180	-0.2155819
189	0xbe6c06b4	-0.23049432
190	0xbc210665	-0.009828185
191	0xbec7712b	-0.38953528
192	0xbd1f9484	-0.038959995
193	0x3d307064	0.043075934
194	0x3ccf610b	0.025314828
195	0xbdb9ccc3	-0.09072258
196	0xbd838ee0	-0.064237356
197	0xbe1b264a	-0.15151325
198	0xbde3b345	-0.11118177
199	0xbca6d48e	-0.020365026
200	0x3d93ba48	0.07213265
201	0xbe305a1e	-0.17221877
202	0xbdea3fc2	-0.11437942
203	0xbe75c2bb	-0.24000065
204	0xbdaa6b3a	-0.08321233
205	0x3d806001	0.06268311
206	0xbe0764fa	-0.13222113
207	0xbdb74e1a	-0.089504436
208	0x3d76374e	0.060111336
209	0xbe74987d	-0.23886295
210	0xbdaf890e	-0.08571063
211	0xbe0e2c8c	-0.13884181
212	0xbd290727	-0.041266587
213	0xbe33bb3a	-0.1755189
214	0x3dc89c66	0.09795456
215	0x3d13df77	0.036101785
216	0xbe3177a9	-0.17330803
217	0x3d24dab0	0.04024762
218	0xbe64128a	-0.22272697
219	0x3ca22927	0.019795014
220	0xbe5e2be9	-0.21696438
221	0xbe3da14b	-0.1851856
222	0xbe6a862a	-0.22902742
223	0xbe723604	-0.23653418
224	0xbe9dd5e5	-0.3082725
225	0xbe915e03	-0.28392038
226	0xbe7375fd	-0.23775478
227	0x3e19a5e9	0.15004696
228	0xbeaf83c1	-0.34280208
229	0xbcb634de	-0.022242006
230	0xbb93bf5c	-0.004508896
231	0xbe6ceca5	-0.23137148
232	0xbe88d58a	-0.26725417
233	0xbe6949cf	-0.22782062
234	0xbe9a07db	-0.30084118
235	0xbd8e9690	-0.06962311
236	0xbebf7eda	-0.37401468
237	0x3e8161b0	0.25269842
238	0xbe598673	-0.21242695
239	0xbe81fbcc	-0.25387418
240	0x3daf218d	0.08551321
241	0xbea58d20	-0.32334232
242	0xbeb1588c	-0.34637868
243	0xbe6e40ec	-0.23266953
244	0xbdf29987	-0.11845689
245	0xbd455e72	-0.048185773
246	0xbec44ddb	-0.3834065
247	0xbddaa380	-0.106757164
248	0xbda3f7e1	-0.080062635
249	0x3da0ee3e	0.07857941
250	0xbe381bba	-0.17979327
251	0x3dabfeb2	0.08398189
252	0x3e0a67bb	0.13516133
253	0xbe28c2c4	-0.16480547
254	0xbe0670e3	-0.13129
255	0xbe2d0aca	-0.16898647

fc2.bias f4 [32]
0	0xbf20ed2d	-0.628619
1	0xbe216611	-0.15761591
2	0x3e3445bb	0.17604725
3	0xbf359710	-0.7093363
4	0xbdfec89c	-0.12440607
5	0xbe985027	-0.2974865
6	0xbd7cb578	-0.0616965
7	0xbedeb217	-0.43495247
8	0xbf3f8e64	-0.74826646
9	0xbef061f1	-0.46949723
10	0xbeae32b3	-0.34023055
11	0xbea9f464	-0.33194268
12	0xbe1fc59c	-0.15602726
13	0xbd2b1a26	-0.041772984
14	0xbcd338b1	-0.025783869
15	0xbef8487a	-0.48492795
16	0xbe4e1f4c	-0.20129126
17	0xbeacf1b0	-0.33778143
18	0xbe2c15e2	-0.16805223
19	0xbf1184b1	-0.56843096
20	0xbe2a6224	-0.16639
21	0xbe7d2090	-0.24719453
22	0xbf30c616	-0.69052255
23	0xbe3d2178	-0.18469799
24	0xbeb949df	-0.36189172
25	0xbf5c8d1f	-0.86152834
26	0xbe689d46	-0.22716245
27	0xbe65f279	-0.22455777
28	0xbe49fc3b	-0.19725125
29	0xbe658b6c	-0.22416466
30	0xbf62cc10	-0.88592625
31	0x40192679	2.3929732

pi.weight f4 [5, 32]
0	0x3ec50b74	0.384853
1	0xbf0005c8	-0.5000882
2	0xbf4aba04	-0.7919009
3	0x3e6f985b	0.23397963
4	0xbeff6709	-0.49883297
5	0x3c85caa6	0.016331982
6	0x3d8fefee	0.07028185
7	0x3e7d0cc7	0.24711905
8	0x3ebfebc0	0.3748455
9	0x3e7ba0db	0.2457308
10	0xbe58bf1c	-0.21166652
11	0x3e8b1ba8	0.27169538
12	0x3d61fad6	0.055170856
13	0x3dfed7b4	0.12443486
14	0x3dee27fb	0.116287194
15	0x3e05b73e	0.13058183
16	0xbe85e66e	-0.26152366
17	0x3e6aecaf	0.2294185
18	0x3f00dd9e	0.5033816
19	0xbd83a31b	-0.06427594
20	0x3efe8b52	0.49715668
21	0xbf137e9a	-0.57615054
22	0x3eb67c6e	0.35641807
23	0x3e8d4887	0.27594396
24	0xbecf9397	-0.4054229
25	0x3e7b8692	0.24563053
26	0xbdf1a11e	-0.11798309
27	0x3eb3195e	0.3498029
28	0xbc5bcda7	-0.013415731
29	0x3e2cf0fc	0.16888803
30	0x3e919982	0.2843743
31	0x3b9b28af	0.0047350745
32	0xbecae963	-0.39631185
33	0x3d3f3da9	0.046689663
34	0xbdc53036	-0.09628336
35	0xbdb3fb49	-0.08788163
36	0xbc59d9ce	-0.013296558
37	0xbf592d43	-0.8483469
38	0x3bd87958	0.006606262
39	0xbd055850	-0.032554924
40	0xbf4798b7	-0.779674
41	0x3e9f6303	0.31130227
42	0xbc3959b8	-0.0113128945
43	0xbdafb1a3	-0.085788034
44	0x3dad57ee	0.08464037
45	0x3d2b643a	0.04184363
46	0xbd57fd35	-0.05273171
47	0xbf8da64e	-1.1066377
48	0xbccbc134	-0.0248724
49	0xbe934d37	-0.28769848
50	0xbf730e93	-0.94944113
51	0xbf147484	-0.5799029
52	0xbe571623	-0.21004538
53	0xbdfc4e75	-0.12319652
54	0xbeedf6bc	-0.46477306
55	0xbdc8ee25	-0.098110475
56	0xbd15e40b	-0.03659443
57	0xbef60b4d	-0.48055497
58	0xbdd10cb4	-0.10207501
59	0x3e406f1e	0.18792388
60	0x3baa9d87	0.005206767
61	0xbe0c6cd3	-0.13713388
62	0xbe0980fa	-0.13428107
63	0xbf52337b	-0.821098
64	0xbe837f49	-0.25683048
65	0x3f0a4ccb	0.54023427
66	0x3ed22fa1	0.41051963
67	0x3eb7261d	0.35771266
68	0x3f0a104a	0.53931105
69	0x3e817864	0.25287163
70	0xbe1f4843	-0.1555491
71	0x3ddbfd72	0.107417
72	0xbf58edca	-0.8473784
73	0xbebdcb1e	-0.3706903
74	0x3f08662b	0.53280896
75	0x3efa7eed	0.48924962
76	0xbd620957	-0.05518469
77	0xbe44ce35	-0.19219287
78	0x3de79b3e	0.11308907
79	0xbdee1e36	-0.11626856
80	0x3f0fe9a4	0.5621588
81	0x3e284059	0.16430797
82	0xbf6a36f0	-0.9149008
83	0xbe17baee	-0.14817402
84	0x3eb4a418	0.35281444
85	0x3f0bc671	0.5459967
86	0xbe0efb1b	-0.13962977
87	0xbc93666b	-0.017993173
88	0x3f09f37e	0.53887165
89	0xbde3e32f	-0.11127316
90	0x3e8c322f	0.27382037
91	0xbe007543	-0.12544732
92	0x3e85315b	0.26014218
93	0x3e2bee87	0.1679021
94	0x3f173e57	0.590795
95	0xbf8c704a	-1.0971768
96	0x3e282d9c	0.16423649
97	0xbf0fe7ec	-0.5621326
98	0x3ec964c7	0.393347
99	0xbf24c8b6	-0.6436876
100	0xbf2a1e76	-0.6645273
101	0xbf84d8bc	-1.0378642
102	0x3d48f6e2	0.04906357
103	0xbd899c21	-0.06719232
104	0x3bcf68b7	0.0063296217
105	0x3e3e6788	0.18594182
106	0xbe282bf5	-0.16423018
107	0xbea31bdc	-0.31857193
108	0x3d0f85b8	0.035039634
109	0xbd3950b2	-0.045242973
110	0xbd2c8293	-0.042116713
111	0xbf50db70	-0.81584835
112	0xbf2be3cc	-0.67144465
113	0x3f25e7d2	0.64806855
114	0xbd5d19e8	-0.053979784
115	0xbed7e595	-0.42167345
116	0xbf608057	-0.8769583
117	0xbf226a5d	-0.6344355
118	0xbca53e6b	-0.020171365
119	0x3e0dd967	0.13852464
120	0xbee923bf	-0.45535085
121	0xbe79b251	-0.24384429
122	0xbddc5699	-0.10758705
123	0x3d27856c	0.040898725
124	0x3d850394	0.06494823
125	0xbd0729a9	-0.032998715
126	0xbee017e2	-0.4376822
127	0x40131e2a	2.298716
128	0x3e38343a	0.17988673
129	0xbd79aec7	-0.060957696
130	0x3d496d61	0.049176577
131	0xbbd13592	-0.00638456
132	0x3e63cba2	0.22245649
133	0x3ee0b13f	0.43885228
134	0x3c319a78	0.010840051
135	0xbec75550	-0.38932276
136	0x3e88f9fd	0.26753226
137	0x3e413d82	0.1887112
138	0x3e56c7c4	0.20974642
139	0xbf316f33	-0.693103
140	0xbe02eba9	-0.1278521
141	0xbea9173a	-0.33025533
142	0x3d6d2a6c	0.057901785
143	0x3f4337bc	0.7625692
144	0xbf382e09	-0.71945244
145	0xbee599a0	-0.4484377
146	0x3f1c6f03	0.6110689
147	0x3e8f6ef2	0.28014332
148	0x3f406fcb	0.7517058
149	0x3d15008b	0.03637747
150	0x3ebde12a	0.3708585
151	0x39d9bc6c	0.0004152985
152	0xbeb41218	-0.35170054
153	0x3f0ae296	0.5425199
154	0xbdb4c66b	-0.08826908
155	0xbd861bde	-0.06548284
156	0x3db57196	0.088595554
157	0xbdc0d21b	-0.094150744
158	0x3e4329db	0.19058935
159	0xbfd915ff	-1.6959838

pi.bias f4 [5]
0	0xbe2aeb42	-0.16691306
1	0xbfafc35c	-1.3731494
2	0xbf1d945b	-0.615545
3	0x3e28765f	0.16451405
4	0x3fa997e7	1.3249482
